Pytorch_DRL/HNRN/models/backup/3.19_good/best_ca_critic.model (torch_old, 224933 bytes, 9 tensors)

sensor_model.0.weight f4 [128, 360]
-0.096890375 0.08349629 0.009017211 -0.04186138 0.121097 0.0110551575 0.00959558 -0.038176935
-0.06268955 0.09166906 0.09572281 0.109067045 -0.028348958 -0.020308873 0.11961791 0.03872721
0.06856969 -0.10784195 -0.07290272 0.090495355 -0.044119727 -0.03587392 0.0006219973 0.102030374
-0.055511724 -0.013484545 0.021847727 0.030703573 0.035994794 -0.00014319835 0.0070090177 -0.07540593
-0.026877154 0.10939208 0.040216222 0.005587759 0.11813463 0.050644796 -0.030354116 0.019387605
-0.044346523 0.056498934 0.07053401 0.006926832 -0.005432799 -0.07152881 0.09732272 0.09243632
0.065264784 -0.011389841 -0.049042672 -0.05524745 0.068181604 0.024961704 0.027622456 -0.03981376
-0.04125963 0.09091384 -0.03224583 0.08966951 0.07702762 -0.068302 -0.07485601 -0.018693281
-0.0760415 0.13661347 -0.03920923 0.034933086 0.009100301 -0.018520197 -0.06613596 0.0032449267
-0.019587591 0.0140541885 0.015355427 -0.01506169 -0.091772996 0.13167037 0.025310157 -0.0019679535
0.035638876 -0.006981949 -0.008333458 -0.109888434 0.071379595 -0.03461971 -0.06014403 0.025847517
0.007412429 0.060813084 0.087583624 -0.003789567 -0.0097484505 -0.030404048 0.040650755 -0.026643418
-0.07282438 0.014123135 -0.024217986 -0.008517227 0.032715388 -0.097785726 0.054597534 0.024117285
0.07505423 -0.094199665 0.035973422 0.03771477 -0.07671324 0.06170681 0.016745288 0.1268211
0.11218113 -0.030662492 -0.034740876 0.10366777 -0.007215971 -0.008501208 0.12883523 -0.048617918
0.04041573 0.009473588 0.1260686 0.08067868 -0.054782055 -0.011279294 0.1007225 0.05826151
-0.023577401 -0.059485205 0.098493844 -0.03460197 -0.037977718 -0.03166979 -0.0111174155 0.11580205
0.034424856 0.14800234 -0.09542365 0.10451022 -0.013906936 -0.047448378 0.059954308 0.0024862636
-0.043431055 0.12917882 0.021773228 -0.03639893 -0.038244937 -0.0311594 -0.005665819 -0.025288226
0.0024940588 0.10740013 -0.017180474 -0.0891663 0.018295439 0.0030292103 -0.050029136 0.06708084
-0.08865771 0.07087865 0.13145295 -0.06330711 0.016874196 -0.0765698 -0.036370233 0.08192328
0.09357484 -0.018471641 -0.066964746 0.12251087 0.0862868 -0.051810127 0.017204573 0.07816859
0.061068203 -0.052415308 -0.035941087 0.10001056 0.103807025 -0.037965797 0.04532084 -0.03149639
-0.058332644 0.015543614 0.08732498 0.04997932 0.010722113 0.036039185 -0.04125156 0.109394744
0.004488725 0.09816969 0.08280952 -0.08054546 0.09891484 0.11782017 0.13012728 0.06424266
-0.031864207 -0.07618706 -0.085624866 0.0061873123 0.010779811 0.063028835 -0.12489078 0.028587203
-0.079060376 0.114682905 -0.056940414 -0.008220214 -0.05352209 0.035812642 0.096728764 -0.0017375841
0.020819057 0.057131562 -0.0075779255 -0.035820622 0.056559365 0.115262285 0.04770599 0.007456501
-0.036523096 -0.07287994 -0.096243806 0.011046926 0.08008979 0.04625614 0.048814125 -0.004445319
-0.11799431 -0.010276872 0.017600441 0.13541596 -0.058649737 0.12032516 -0.08955337 -0.018938845
0.050937276 0.041474313 0.08934705 -0.010365667 -0.1096078 0.08900816 -0.039573934 0.05393423
-0.053938933 0.009263199 0.09295377 -0.0044446206 0.1121149 -0.037189554 -0.0071417005 -0.051482957
00000000: 766e c6bd 1a00 ab3d edbc 133c d776 2bbd
00000010: b401 f83d b120 353c c836 1d3c 6b5f 1cbd
00000020: 6163 80bd fdbc bb3d 520a c43d 8b5e df3d
00000030: 133c e8bc cb5e a6bc 3cfa f43d 6ca0 1e3d
00000040: 446e 8c3d 3edc dcbd 054e 95bd a155 b93d
00000050: e3b6 34bd 88f0 12bd 880d 233a 4df5 d03d
00000060: 4360 63bd 48ee 5cbc 01fa b23c 0f86 fb3c
00000070: 476f 133d 8427 16b9 e7ab e53b 6d6e 9abd
00000080: 7a2d dcbc f408 e03d c4b9 243d 8519 b73b
00000090: 92f0 f13d eb70 4f3d 32a9 f8bc c1d2 9e3c
000000a0: b3a4 35bd 6d6b 673d 2374 903d 7afa e23b
000000b0: 9f05 b2bb b27d 92bd 2251 c73d 414f bd3d
000000c0: 8ba9 853d 759c 3abc f8e0 48bd 264b 62bd
000000d0: cca2 8b3d 7d7c cc3c 7d48 e23c c113 23bd
000000e0: dcff 28bd 0931 ba3d 3414 04bd a6a4 b73d
000000f0: a8c0 9d3d ebe1 8bbd 1c4e 99bd a722 99bc
00000100: a5bb 9bbd 67e4 0b3e dc99 20bd ff15 0f3d
00000110: 6e19 153c abb7 97bc 4a72 87bd d6a8 543b
00000120: 2876 a0bc 8a43 663c 5495 7b3c 4ec5 76bc
00000130: 7bf3 bbbd 99d4 063e 3f57 cf3c c8f8 00bb
00000140: 12fa 113d d5c8 e4bb 0e89 08bc 300d e1bd
00000150: 772f 923d 66cd 0dbd 9659 76bd 2cbe d33c
00000160: f6e3 f23b 2417 793d 0b5f b33d 625a 78bb
00000170: f7b7 1fbc e911 f9bc 6881 263d 4c43 dabc
00000180: f324 95bd b964 673c cc64 c6bc d78b 0bbc
00000190: 9200 063d e243 c8bd aaa1 5f3d 9d91 c53c
000001a0: 08b6 993d c1eb c0bd de58 133d cd7a 1a3d
000001b0: d51b 9dbd 48c0 7c3d 6a2d 893c 64dd 013e
000001c0: 38bf e53d e82f fbbc 734c 0ebd c54f d43d
000001d0: f473 ecbb a748 0bbc 62ed 033e 9523 47bd
000001e0: f78a 253d 1c37 1b3c 2118 013e dd3a a53d
000001f0: 2663 60bd cacc 38bc 9947 ce3d 9fa3 6e3d
00000200: 6525 c1bc c2a6 73bd 24b7 c93d ccba 0dbd
00000210: 868e 1bbd 2fb8 01bd d225 36bc a029 ed3d
00000220: 1401 0d3d ed8d 173e 7a6d c3bd 7409 d63d
00000230: ebd9 63bc 3b59 42bd a692 753d 95f0 223b
00000240: c3e4 31bd 7447 043e c55d b23c 0b17 15bd
00000250: b9a6 1cbd ff41 ffbc 56a8 b9bb 4129 cfbc
00000260: 5d73 233b 99f4 db3d 11be 8cbc d29c b6bd
00000270: 51e0 953c b785 463b 5aeb 4cbd ae61 893d
00000280: 2c92 b5bd d328 913d 9a9b 063e 28a7 81bd
00000290: c13b 8a3c a1d0 9cbd f4f8 14bd 65c7 a73d
000002a0: 2aa4 bf3d d751 97bc d024 89bd fbe6 fa3d
000002b0: 22b7 b03d db36 54bd 9bf0 8c3c db16 a03d
000002c0: a722 7a3d 6fb1 56bd f636 13bd 56d2 cc3d
000002d0: c798 d43d 0682 1bbd 58a2 393d 5c02 01bd
000002e0: 36ee 6ebd a4aa 7e3c 70d7 b23d 1eb7 4c3d
000002f0: cdab 2f3c d39d 133d 65f7 28bd 5a0a e03d
00000300: 2816 933b 310d c93d 0a98 a93d 05f5 a4bd
00000310: dd93 ca3d b44b f13d 1640 053e a891 833d
00000320: 0b84 02bd f607 9cbd 175c afbd f0be ca3b
00000330: ce9d 303c 4315 813d bdc6 ffbd b62f ea3c
00000340: 68ea a1bd dfde ea3d 5a3a 69bd 14ae 06bc
00000350: fb39 5bbd 47b0 123d bb19 c63d a6bf e3ba
00000360: ba8c aa3c c902 6a3d 3f50 f8bb a5b8 12bd
00000370: cbaa 673d a20e ec3d 5b67 433d aa55 f43b
00000380: 3e99 15bd 1442 95bd 791b c5bd 2afe 343c
00000390: 1e06 a43d 1477 3d3d 52f1 473d 0aaa 91bb
000003a0: 00a7 f1bd 5360 28bc cd2e 903c 7baa 0a3e
000003b0: b53a 70bd 0a6d f63d c267 b7bd a325 9bbc
000003c0: 9ba3 503d f8e0 293d 96fb b63d c2d4 29bc
000003d0: 0e7a e0bd e949 b63d 4718 22bd 24ea 5c3d
000003e0: 12ef 5cbd acc4 173c 8c5e be3d 2ea4 91bb
000003f0: 7f9c e53d 1354 18bd ed04 eabb cbdf 52bd

sensor_model.0.bias f4 [128]
0.06289116 -0.015720127 -0.048631415 -0.017136142 -0.08522052 -0.095431164 -0.059455182 0.07189975
0.14429593 -0.013644979 -0.009570469 -0.0028175598 -0.0557789 -0.09078234 -0.04818792 0.05703269
-0.043018796 -0.02108677 -0.00613248 -0.04892699 -0.03450057 -0.011254557 -0.04170165 -0.039945763
-0.033067796 -0.012063295 -0.077519 -0.0015280468 -0.005829596 -0.0044264905 -0.011726321 -0.04438542
-0.05828473 0.04250456 0.023916366 -0.005478002 -0.058743622 -0.078796506 -0.030838564 -0.027299885
-0.022398796 0.034750003 0.018699815 -0.008798859 0.032214087 -0.021375302 -0.04793927 0.06675429
0.07178952 -0.023280973 -0.057560556 -0.01675864 -0.04725605 0.10963297 -0.017328817 -0.030553997
0.052458093 0.017882992 0.009591733 -0.061166078 0.0261874 -0.059753276 -0.009860331 -0.072619386
-0.044963308 -0.035404112 0.014636932 0.011925165 -0.072885334 -0.0048087165 -0.034179185 -0.011103445
0.024495076 -0.0064594513 -0.03784064 0.07695291 0.08824182 -0.09786992 0.04512858 -0.06658912
-0.0061703892 -0.0072907647 -0.037664693 -0.040142335 -0.039585304 -0.037858833 -0.023141613 -0.013569188
-0.07718584 -0.070973195 -0.02655428 0.035247345 0.092910476 -0.08384438 -0.013514606 -0.019488145
-0.026538096 -0.028447231 0.007920251 -0.013924198 -0.0051074782 -0.069583744 -0.07751345 0.1252572
-0.004144523 -0.017471489 -0.087933026 0.056522608 0.066361144 -0.08061274 -0.021321835 -0.082342476
-0.05611057 -0.017143825 0.057239998 -0.0136290435 -0.06667423 -0.06121707 0.014146527 -0.0385786
-0.0047739074 -0.08419551 -0.06936353 -0.06826639 0.008918499 -0.06313176 -0.0021959837 -0.003650155
00000000: 15cd 803d 7fc7 80bc bc31 47bd 1861 8cbc
00000010: 1988 aebd 6a71 c3bd 4787 73bd 2d40 933d
00000020: 50c2 133e 318f 5fbc 75cd 1cbc cfa6 38bb
00000030: 6a78 64bd 17ec b9bd b260 45bd 1c9b 693d
00000040: 7a34 30bd 29be acbc f9f2 c8bb ab67 48bd
00000050: 7850 0dbd 0965 38bc 59cf 2abd 2b9e 23bd
00000060: 1972 07bd 20a5 45bc 48c2 9ebd be48 c8ba
00000070: 3206 bfbb 180c 91bb c11f 40bc 7ccd 35bd
00000080: f8bb 6ebd 4319 2e3d 41ec c33c d080 b3bb
00000090: 279d 70bd 1060 a1bd 28a1 fcbc 02a4 dfbc
000000a0: ae7d b7bc 0556 0e3d 5b30 993c 1729 10bc
000000b0: ebf2 033d 421b afbc f85b 44bd 79b6 883d
000000c0: 6206 933d bdb7 bebc 9ec4 6bbd 6a49 89bc
000000d0: 8f8f 41bd 4087 e03d 2af5 8dbc 604c fabc
000000e0: 4cde 563d 5a7f 923c a526 1d3c 4889 7abd
000000f0: f586 d63c dabf 74bd 3a8d 21bc 79b9 94bd
00000100: 722b 38bd e703 11bd becf 6f3c c461 433c
00000110: e844 95bd 7092 9dbb 79ff 0bbd 39eb 35bc
00000120: e6a9 c83c cea9 d3bb c9fe 1abd 7d99 9d3d
00000130: 21b8 b43d 0670 c8bd bfd8 383d e05f 88bd
00000140: fa30 cabb 5ee7 eebb 4b46 1abd 4a6c 24bd
00000150: 3324 22bd dd11 1bbd 7b93 bdbc 4d51 5ebc
00000160: 9c13 9ebd 655a 91bd 5d88 d9bc 855f 103d
00000170: d947 be3d 9ab6 abbd 5e6c 5dbc 9aa5 9fbc
00000180: 6c66 d9bc 2b0a e9bc f1c3 013c 5222 64bc
00000190: a25c a7bb ec81 8ebd 5fbf 9ebd 6c43 003e
000001a0: c7ce 87bb 5e20 8fbc 3b16 b4bd 4084 673d
000001b0: 5ae8 873d 4b18 a5bd 21ab aebc 2ca3 a8bd
000001c0: 32d4 65bd 3571 8cbc 7d74 6a3d 5a4c 5fbc
000001d0: 808c 88bd c0be 7abd d6c6 673c 9804 1ebd
000001e0: 706e 9cbb b26e acbd 770e 8ebd 40cf 8bbd
000001f0: e51e 123c 394b 81bd 7eea 0fbb 7037 6fbb

sensor_model.2.weight f4 [64, 128]
-0.14567539 -0.17811848 -0.09882011 -0.02519661 0.00014582506 -0.14315043 0.040467344 -0.20879994
-0.031079125 0.049836457 -0.025125152 -0.049201634 0.012068019 -0.16196027 -0.095351845 0.024866745
-0.12967175 0.11099999 -0.121742405 0.025078226 0.04105643 -0.06145471 0.082160786 -0.036475163
0.084571294 -0.116575144 -0.08184353 -0.12876232 -0.12516907 0.036126878 0.04808032 -0.082308285
0.0025709092 -0.010739078 -0.04570206 -0.04164262 -0.043265518 0.0049332664 -0.033062007 0.06472123
-0.13924651 0.08438098 -0.1678445 -0.04709742 -0.02394762 -0.13927452 0.13111515 -0.026618833
-0.19630621 0.08895768 0.014299353 0.013681286 -0.09968572 -0.07423206 0.025784845 -0.17223206
-0.20537704 -0.03253633 -0.08064617 -0.08023341 0.086693786 -0.009821394 -0.011651268 0.108267866
-0.0137487175 -0.18012606 -0.05106424 0.10846114 -0.033335105 -0.20349379 0.053101048 -0.15750016
-0.09713433 0.024095774 -0.18262695 -0.026180014 -0.01841972 -0.07249718 -0.048560854 -0.09385899
-0.16711625 -0.12973467 0.06533377 -0.05781915 0.02371991 -0.07629987 0.070146054 0.006085721
-0.13604333 0.04663051 -0.15141144 -0.09726961 -0.059533715 0.051888473 0.045593284 0.05720847
-0.0016136012 0.06991883 -0.036266334 -0.018577894 -0.0124109 -0.14121023 0.057891496 -0.030365193
-0.12167069 -0.11014889 0.028503308 -0.004747046 0.08927759 -0.08698226 0.08456355 0.049079034
0.12964195 0.07542811 -0.15869966 -0.09122807 -0.0025402815 0.09445719 -0.11583161 0.12708376
0.06996528 -0.15405689 -0.14938629 -0.17058131 -0.1510765 0.1036901 0.06303094 0.082424544
-0.10814289 0.05408698 0.030874407 -0.044038903 -0.070767194 -0.059845474 0.086773455 -0.0030480819
-0.066814184 -0.12386051 -0.18743123 -0.19801737 -0.11958763 -0.005491361 -0.08801242 -0.091653444
0.0333454 -0.056074724 -0.08414489 0.111503534 -0.090592355 0.064034104 0.07120245 0.0041858386
0.10374819 0.07658997 -0.0012998348 0.011991589 -0.122905135 -0.089343034 -0.027977018 -0.16840804
-0.12453726 0.03079883 -0.19301537 0.044031914 0.046111003 -0.051970504 0.04072019 0.023053259
0.05160731 0.14315829 -0.014489714 -0.06745478 -0.081217654 0.02642853 0.15714541 -0.19160396
0.009048188 -0.09745387 0.059677597 0.09875867 0.105772234 -0.122153126 -0.06292676 -0.012684909
-0.009428074 -0.041552577 -0.14222595 0.09342507 -0.19538568 -0.18139197 0.08297364 0.0590872
0.0226809 0.14992285 -0.08765041 0.053917915 0.010871568 -0.054008435 0.115316294 -0.16744846
-0.08587648 0.060357176 -0.019313749 0.052723292 -0.10616111 -0.13960318 -0.0153896315 -0.0567307
-0.15510722 0.01209668 -0.19210505 -0.030917777 -0.071055554 -0.08494182 -0.19866808 0.079776205
-0.19456032 0.101224 -0.08990727 -0.12697972 0.102894254 0.00023943711 0.1037489 0.03064916
0.08985139 0.12987423 0.095313445 0.0025022323 0.09874201 -0.12214311 -0.08864925 0.06666141
-0.16470698 -0.07145704 0.08222539 0.03627204 -0.13913289 0.12165802 0.01818372 0.13562512
0.13398272 0.08887165 0.10036707 -0.023952875 -0.07462715 0.088387355 0.11947711 -0.02124623
-0.14860861 -0.12551019 -0.1937374 -0.023777815 -0.12701307 0.08652964 -0.095886715 -0.035569407
00000000: ee2b 15be b164 36be 3362 cabd 1f69 cebc
00000010: 9ee8 1839 0796 12be 16c1 253d a7cf 55be
00000020: a699 febc 5021 4c3d 43d3 cdbc a787 49bd
00000030: f1b8 453c ead8 25be d447 c3bd 58b5 cb3c
00000040: acc8 04be f653 e33d 1554 f9bd da70 cd3c
00000050: ca2a 283d efb7 7bbd ea43 a83d fb66 15bd
00000060: b733 ad3d f3be eebd 959d a7bd 45da 03be
00000070: 522c 00be c7f9 133d dfef 443d 3f91 a8bd
00000080: b37c 283b f5f2 2fbc 1532 3bbd 7491 2abd
00000090: 2f37 31bd 3da7 a13b 076c 07bd 908c 843d
000000a0: a396 0ebe efcf ac3d 6edf 2bbe 39e9 40bd
000000b0: cd2d c4bc fb9d 0ebe 0d43 063e bd0f dabc
000000c0: 7f04 49be 722f b63d d547 6a3c 7927 603c
000000d0: 0728 ccbd fa06 98bd bd3a d33c 9a5d 30be
000000e0: 5c4e 52be d144 05bd d229 a5bd 6a51 a4bd
000000f0: 838c b13d eae9 20bc f6e4 3ebc 8bbb dd3d
00000100: 4d42 61bc f772 38be bd28 51bd e020 de3d
00000110: 648a 08bd ad60 50be 7c80 593d b947 21be
00000120: 5dee c6bd 8064 c53c 8f02 3bbe 7877 d6bc
00000130: f4e4 96bc 6779 94bd bfe7 46bd 2439 c0bd
00000140: 8620 2bbe 2ad9 04be b6cd 853d c6d3 6cbd
00000150: 4250 c23c 1b43 9cbd bca8 8f3d ba6a c73b
00000160: f14e 0bbe a2ff 3e3d 9a0b 1bbe 4a35 c7bd
00000170: a0d9 73bd 0289 543d 06c0 3a3d 6e53 6a3d
00000180: 797f d3ba 9b31 8f3d 028c 14bd ab30 98bc
00000190: 1657 4bbc 6a99 10be a21f 6d3d 6dc0 f8bc
000001a0: 7c2e f9bd be95 e1bd c57f e93c 1c8d 9bbb
000001b0: 2bd7 b63d c123 b2bd a82f ad3d 1907 493d
000001c0: dcc0 043e 0e7a 9a3d 2a82 22be c8d5 babd
000001d0: da7a 26bb c572 c13d 2039 edbd 3f22 023e
000001e0: f549 8f3d 17c1 1dbe b8f8 18be deac 2ebe
000001f0: ccb3 1abe 7a5b d43d 5e16 813d 33ce a83d
00000200: 057a ddbd 4f8a 5d3d 53ec fc3c 2362 34bd
00000210: 64ee 90bd 8720 75bd 48b6 b13d 54c2 47bb
00000220: e0d5 88bd 94aa fdbd f9ed 3fbe 11c5 4abe
00000230: 5cea f4bd e0f0 b3bb db3f b4bd cdb4 bbbd
00000240: 3095 083d 9cae 65bd 2854 acbd f75b e43d
00000250: 7c88 b9bd 5024 833d 97d2 913d 5c29 893b
00000260: ee79 d43d 34db 9c3d 385f aaba 5f78 443c
00000270: b0b5 fbbd 7bf9 b6bd 0f30 e5bc 2873 2cbe
00000280: 640d ffbd d44d fc3c d2a5 45be cf5a 343d
00000290: e4de 3c3d 06df 54bd 37ca 263d 30da bc3c
000002a0: 3062 533d 1698 123e 4466 6dbc bb25 8abd
000002b0: 7155 a6bd a580 d83c baea 203e d433 44be
000002c0: da3e 143c e595 c7bd 7f70 743d fc41 ca3d
000002d0: 1d9f d83d 6b2b fabd bfdf 80bd 5dd4 4fbc
000002e0: 3578 1abc 0933 2abd aea3 11be a555 bf3d
000002f0: 2f13 48be d1be 39be 15ee a93d 6b05 723d
00000300: 4bcd b93c 6085 193e 0f82 b3bd 08d9 5c3d
00000310: a91e 323c f337 5dbd f32a ec3d 9c77 2bbe
00000320: 02e0 afbd 1639 773d de37 9ebc 61f4 573d
00000330: ff6a d9bd 23f4 0ebe cb24 7cbc 735e 68bd
00000340: 6dd4 1ebe 2731 463c 30b7 44be 4747 fdbc
00000350: 9385 91bd faf5 adbd a56f 4bbe b561 a33d
00000360: d23a 47be 874e cf3d 4e21 b8bd f906 02be
00000370: 39ba d23d 6911 7b39 4e7a d43d f213 fb3c
00000380: 0104 b83d c0fd 043e b233 c33d 7efc 233b
00000390: 4039 ca3d 2b26 fabd bd8d b5bd c785 883d
000003a0: f2a8 28be 1258 92bd c965 a83d fe91 143d
000003b0: da78 0ebe d727 f93d 06f6 943c 50e1 0a3e
000003c0: c432 093e 5702 b63d 408d cd3d d238 c4bc
000003d0: 1fd6 98bd 6e04 b53d 6ab0 f43d 930c aebc
000003e0: db2c 18be be85 00be 1963 46be b1c9 c2bc
000003f0: b70f 02be 7436 b13d 4160 c4bd 3ab1 11bd

sensor_model.2.bias f4 [64]
0.036015086 -0.13982195 0.037076987 -0.045744907 -0.12280159 0.07599709 -0.11712054 -0.07391893
0.09422855 -0.08385268 -0.017531702 0.0033110806 -0.027824732 0.03550006 -0.06203084 -0.0065658097
-0.094774865 -0.08204106 -0.023157706 0.058687203 0.058329385 0.01536079 -0.023182588 -0.080244325
-0.10406289 -0.03646387 0.0046946583 -0.16049169 -0.003020755 0.044584773 -0.08785296 -0.01650538
-0.0961376 -0.087841466 0.018796429 0.013556932 -0.021876577 -0.12619667 0.025979774 -0.09947625
-0.02577259 0.08264014 0.02606693 -0.024817666 -0.10253867 -0.088105984 0.06494639 -0.097405516
-0.03101046 0.006797532 -0.11250951 -0.11206788 -0.023792205 -0.08641535 0.014657867 -0.03492932
-0.066066734 0.0083316555 -0.06554951 -0.093038 0.014590696 -0.07493131 -0.004285126 -0.0134495525
00000000: 8e84 133d 7c2d 0fbe 0ade 173d 035f 3bbd
00000010: 667f fbbd 5da4 9b3d e5dc efbd cf62 97bd
00000020: e6fa c03d f4ba abbd a59e 8fbc b7fe 583b
00000030: b1f0 e3bc 8368 113d 0d14 7ebd 0126 d7bb
00000040: 5319 c2bd 2505 a8bd 3bb5 bdbc fe61 703d
00000050: cbea 6e3d d3ab 7b3c 69e9 bdbc 2357 a4bd
00000060: ed1e d5bd 245b 15bd a6d5 993b ef57 24be
00000070: dcf7 45bb 869e 363d 41ec b3bd 4a36 87bc
00000080: cae3 c4bd 3ae6 b3bd f8fa 993c e51d 5e3c
00000090: 8236 b3bc b339 01be 89d3 d43c 34ba cbbd
000000a0: 0a21 d3bc 3c3f a93d 508a d53c 6b4e cbbc
000000b0: cbff d1bd e970 b4bd 9d02 853d 8b7c c7bd
000000c0: a609 febc d5bd de3b 636b e6bd d883 e5bd
000000d0: dfe7 c2bc 88fa b0bd 8d27 703c 0c12 0fbd
000000e0: ff4d 87bd 7f81 083c d23e 86bd b58a bebd
000000f0: d10d 6f3c 9675 99bd 3e6a 8cbb 835b 5cbc

sensor_model.4.weight f4 [16, 64]
0.08887705 -0.2024189 -0.051926546 -0.18203916 -0.1999154 0.039235953 -0.026055062 -0.15962076
-0.13176812 -0.012645017 0.18422088 0.05794899 -0.13664949 0.20587336 0.050168198 0.027027639
-0.043314412 -0.037304133 0.037046876 0.16509064 -0.12654774 -0.18216209 -0.09151543 -0.091913365
-0.03429077 -0.08877903 0.09969688 0.09929631 -0.0254973 -0.04600185 -0.20525052 -0.19537127
0.2585428 0.22885945 0.15865764 0.111207046 -0.2858887 -0.13252965 -0.08444673 0.0124811465
-0.1296712 0.120038405 -0.0018936002 0.2780336 -0.11405459 0.15903044 0.102485836 -0.22056255
-0.008829726 0.27366203 -0.028750055 0.2202132 0.08439052 0.22019482 -0.063826256 -0.0016961746
0.006098039 -0.07564192 0.040256087 -0.0075979033 -0.077637985 -0.07238674 0.16040754 0.18039104
0.16388969 0.15840094 -0.119377255 0.20756826 0.21485327 0.08929859 -0.10995665 -0.21031995
-0.19799891 -0.18175153 -0.10492258 -0.22702661 -0.043624878 0.21926527 0.21061058 0.20437954
-0.26509932 -0.26013464 -0.1922591 -0.21214865 -0.25514078 0.09759252 -0.0065548997 0.16847247
-0.11870344 -0.083949536 0.14206639 -0.017680917 -0.2138955 -0.18940946 0.26013955 0.077974886
-0.0066222986 0.07427803 -0.0654485 -0.053445928 0.23862383 0.13727461 -0.06954463 0.15215111
-0.26503286 -0.011447261 0.11697243 0.036951963 -0.20752782 0.0474091 -0.090219095 -0.24779873
-0.014438744 0.021699699 0.08998865 0.19309269 0.10751866 -0.26862013 -0.17468408 -0.17652424
-0.2811989 0.09334955 -0.06301352 0.20378628 0.07579544 -0.2209845 -0.048393358 0.0518895
0.070673056 0.053250935 -0.028545441 0.009386015 -0.18612538 -0.17526126 -0.12913433 0.2495569
0.05477934 -0.054926142 0.03618793 0.09259208 0.18426937 -0.1559631 0.08108331 -0.12875931
0.15572323 -0.083983794 0.21346506 -0.222419 -0.017837722 -0.049242888 0.14625397 0.08445351
0.092132024 -0.12518714 -0.021494985 0.04944107 -0.08797691 0.13040185 0.013542204 0.07118978
-0.14364855 0.20481858 -0.24813943 0.02733264 -0.061094273 -0.13945001 -0.09824768 -0.24034618
0.1275998 -0.006247566 -0.025690809 -0.18397877 0.1421318 -0.12140619 -0.18857272 0.21393244
-0.1703918 -0.19538873 0.022760808 0.18799536 -0.26297897 -0.041834652 -0.018658819 -0.021818815
-0.07409352 0.17470816 -0.049403638 0.14791636 -0.028665982 0.20832066 -0.17863055 0.0080829
-0.2039645 0.2360117 -0.18189448 -0.19392507 0.049752682 0.07801661 0.056528922 0.016235089
-0.114207506 -0.10029049 0.118919715 0.2843284 -0.14143732 -0.20894882 -0.16127501 0.16657083
-0.2546898 0.10314454 0.05398893 0.27272573 -0.12138913 0.076518595 -0.024261743 0.1612488
0.07329642 0.1313093 -0.20958167 0.26326677 -0.06760727 -0.07107362 -0.25575215 -0.09594253
-0.060881563 -0.047674224 0.15760234 0.21078904 0.0856507 0.05790011 0.22393595 -0.12600048
-0.11517961 -0.07214208 -0.015515026 -0.044572305 0.18016553 -0.26702031 0.15016668 -0.068011194
-0.013945841 -0.18620265 -0.18669261 0.018518534 0.046231158 0.10556155 0.22678702 -0.13164651
-0.18180965 -0.13973983 -0.083019465 -0.18013607 -0.10388038 0.22300062 0.24526712 -0.114777595
00000000: 2c05 b63d e646 4fbe eeb0 54bd 7968 3abe
00000010: 9fb6 4cbe e1b5 203d 6d71 d5bc a073 23be
00000020: 39ee 06be 0c2d 4fbc 66a4 3c3e ec5b 6d3d
00000030: d8ed 0bbe 77d0 523e 2b7d 4d3d 1169 dd3c
00000040: 746a 31bd 38cc 18bd 77be 173d 850d 293e
00000050: bb95 01be b388 3abe 716c bbbd 133d bcbd
00000060: 7a74 0cbd c8d1 b5bd e12d cc3d dd5b cb3d
00000070: b7df d0bc 706c 3cbd 312d 52be 680f 48be
00000080: b95f 843e 225a 6a3e 2677 223e 85c0 e33d
00000090: 0160 92be dab5 07be 68f2 acbd b97d 4c3c
000000a0: 87c8 04be b2d6 f53d ae32 f8ba 6c5a 8e3e
000000b0: 7495 e9bd e0d8 223e 18e4 d13d 26db 61be
000000c0: 8eaa 10bc 6e1d 8c3e 3c85 ebbc 927f 613e
000000d0: f0d4 ac3d c07a 613e 57b7 82bd 2d52 deba
000000e0: 0fd2 c73b 27ea 9abd 91e3 243d d5f7 f8bb
000000f0: aa00 9fbd 803f 94bd e041 243e 6eb8 383e
00000100: b3d2 273e db33 223e 107c f4bd c68c 543e
00000110: 7f02 5c3e 2ee2 b63d f430 e1bd 1d5e 57be
00000120: 3ac0 4abe 131d 3abe a6e1 d6bd aa79 68be
00000130: 00b0 32bd 1387 603e 4daa 573e df48 513e
00000140: 19bb 87be 5e30 85be 92df 44be 7f3d 59be
00000150: d0a1 82be 96de c73d 7cca d6bb 0c84 2c3e
00000160: ca1a f3bd bced abbd da79 113e 92d7 90bc
00000170: 6c07 5bbe 8ef4 41be 0331 853e 4cb1 9f3d
00000180: deff d8bb 141f 983d dd09 86bd 1eea 5abd
00000190: ce59 743e b791 0c3e 6a6d 8ebd 80cd 1b3e
000001a0: 63b2 87be 4b8d 3bbc 3e8f ef3d f15a 173d
000001b0: 2c82 54be 0b30 423d cac4 b8bd f3be 7dbe
000001c0: 7b90 6cbc 91c3 b13c f84b b83d 17ba 453e
000001d0: be32 dc3d 9488 89be 62e0 32be c5c2 34be
000001e0: 4df9 8fbe 0d2e bf3d 3b0d 81bd 5aad 503e
000001f0: a43a 9b3d c349 62be 1d38 46bd 168a 543d
00000200: 09bd 903d a71d 5a3d 21d8 e9bc cdc7 193c
00000210: a797 3ebe b077 33be ca3b 04be d88b 7f3e
00000220: 4d60 603d 3cfa 60bd cb39 143d eba0 bd3d
00000230: 1cb1 3c3e cab4 1fbe 020f a63d 7bd9 03be
00000240: e975 1f3e b2ff abbd 9696 5a3e cec1 63be
00000250: 6a20 92bc e9b2 49bd 9ac3 153e f6f5 ac3d
00000260: b7af bc3d 0f31 00be 4016 b0bc b882 4a3d
00000270: 3d2d b4bd 1088 053e 1fe0 5d3c f3cb 913d
00000280: 9b18 13be f6bb 513e 4318 7ebe b3e8 df3c
00000290: fd3d 7abd fccb 0ebe 1436 c9bd 4f1d 76be
000002a0: 86a9 023e 62b8 ccbb 8875 d2bc ee64 3cbe
000002b0: 008b 113e cfa3 f8bd 3519 41be 1b11 5b3e
000002c0: 307b 2ebe fc13 48be e074 ba3c db81 403e
000002d0: 2ea5 86be d05a 2bbd 61da 98bc 5fbd b2bc
000002e0: 58be 97bd b2e6 323e 785b 4abd 6377 173e
000002f0: ecd4 eabc 0352 553e edea 36be 246e 043c
00000300: 12dc 50be 0dad 713e 8c42 3abe 4b94 46be
00000310: 78c9 4b3d 2cc7 9f3d df8a 673d 73ff 843c
00000320: a0e5 e9bd 1a65 cdbd 2e8c f33d 7e93 913e
00000330: f2d4 10be aef6 55be 4725 25be 8b91 2a3e
00000340: b466 82be 723d d33d 7f23 5d3d b5a2 8b3e
00000350: dd9a f8bd c8b5 9c3d 90c0 c6bc 681e 253e
00000360: 6f1c 963d f275 063e 949c 56be e7ca 863e
00000370: ae75 8abd 0c8f 91bd f2f1 82be 847d c4bd
00000380: f25e 79bd 0c46 43bd 8262 213e 15d9 573e
00000390: a269 af3d aa28 6d3d 774f 653e 4506 01be
000003a0: 4ae3 ebbd 3abf 93bd bc32 7ebc 7391 36bd
000003b0: 507d 383e e3b6 88be 4bc5 193e 7449 8bbd
000003c0: 197d 64bc e8ab 3ebe 592c 3fbe 2eb4 973c
000003d0: e25c 3d3d a730 d83d db3a 683e 58ce 06be
000003e0: 4f2c 3abe f517 0fbe 1c06 aabd 9775 38be
000003f0: 3dbf d4bd 465a 643e 4e27 7b3e 8410 ebbd

sensor_model.4.bias f4 [16]
0.22903898 -0.042345285 0.053579196 -0.11003348 0.10674669 -0.07168456 -0.017920427 0.17751288
-0.085368074 -0.09172488 0.19333236 -0.047163118 -0.10502136 -0.11984874 -0.10959689 -0.04080604
00000000: 3289 6a3e 4072 2dbd dc75 5b3d 3c59 e1bd
00000010: 029e da3d 5bcf 92bd dccd 92bc f0c5 353e
00000020: 75d5 aebd 41da bbbd ebf8 453e 1d2e 41bd
00000030: 7015 d7bd 4273 f5bd 5674 e0bd 3c24 27bd

state_model.0.weight f4 [16, 18]
0.081829436 0.1784195 0.44401687 -0.22581613 -0.34866938 0.18909925 -0.34004685 -0.013297981
-0.3031243 -0.07369416 -0.41633207 -0.33834797 0.35012463 -0.035243228 0.30871382 -0.40461907
0.080294415 0.42161718 -0.1330055 -0.27190268 0.101246886 -0.38432643 -0.10572037 0.27121404
0.13800034 0.37919974 0.25262895 -0.024955526 0.0051730885 -0.35658112 0.091215715 0.40131125
0.39560425 0.21384479 -0.021253398 -0.32656416 -0.48822427 -0.20374578 0.19492558 -0.20784484
-0.16974902 0.17629567 0.25018346 -0.32113013 -0.37436578 -0.39964676 -0.346963 0.3790029
0.09313155 -0.12811425 -0.36593324 0.36010185 0.2123673 -0.08954089 0.078561656 -0.30498594
0.27527902 0.053195316 0.11390805 -0.143814 0.40509066 -0.1942349 0.2385781 0.26096982
-0.055570595 0.14327331 0.13347824 -0.26928005 0.013124308 0.011659331 0.20982176 -0.25250724
-0.042111095 -0.2695493 0.2189418 0.26904815 0.24677163 0.23903804 0.16082731 0.033480946
0.09417458 0.38950604 0.21649134 -0.09655518 0.35066012 0.28765163 -0.3173753 -0.070466176
-0.046200957 -0.13072963 0.28512987 -0.017447103 0.24348365 -0.24042779 -0.1791216 0.28616512
0.15695284 0.18112856 -0.25404954 -0.34644455 -0.3069323 -0.35034636 0.16744132 0.376332
0.11306979 -0.34606397 -0.1799127 0.24778703 0.2580273 0.21817431 -0.26208475 0.19939436
-0.24804206 -0.3845547 0.07377609 0.008521757 -0.19114901 0.077447265 -0.20462254 -0.045643006
-0.24127519 0.18841475 0.09695997 0.28487962 -0.3242327 0.33357453 0.20018096 -0.14701353
0.037061956 0.01506586 0.15597329 0.061492648 -0.28708157 0.18279347 -0.08570387 -0.07626416
0.11824869 -0.3037525 -0.28598136 -0.099017486 0.2036267 0.43326765 0.011148629 0.19496858
-0.14439528 -0.20747325 0.17739333 0.19280238 -0.31224316 0.30199283 -0.026345652 -0.26893198
0.3555706 -0.2711903 -0.13787545 -0.25116685 0.25078633 -0.23893686 -0.04412315 -0.15015352
0.1799288 0.07968637 0.34195077 -0.097110756 0.3041768 -0.17969209 -0.3204824 0.30323154
-0.13034496 0.4703707 -0.20657036 -0.3802182 -0.2044649 0.2665732 -0.103213064 0.23114625
-0.18060361 -0.0041687675 0.17120542 -0.18512301 0.15096745 0.29779583 0.16206789 -0.013622614
0.024620779 0.02500533 0.27814314 0.10384194 -0.34139162 -0.29351124 0.20231935 0.063953355
0.25966194 0.14690289 -0.31117228 -0.3673331 -0.10826333 -0.048216578 0.19506323 0.36412403
0.14394143 0.22869106 0.26455012 0.10272383 0.22550249 -0.14346382 -0.19874789 -0.05467513
0.34866074 -0.30032858 0.2955731 -0.31322595 0.26377216 0.23453559 0.27142793 0.12698328
0.25424656 -0.071843274 -0.46023867 0.023136735 -0.23614314 0.4808774 -0.32292476 0.18222219
0.025268244 -0.15887286 -0.39074844 0.35340363 0.28065616 0.1558778 0.20641668 0.19352767
0.24791959 -0.27271485 0.113581784 0.011179764 -0.13200201 0.11663284 0.096588366 -0.13559242
0.15203275 -0.13923465 0.30053338 -0.30874655 -0.3900127 -0.34306654 0.32931232 0.26962736
0.062148783 0.21685779 -0.025402252 -0.0056951726 0.18628936 0.15195298 0.28770337 -0.39453694
00000000: 3196 a73d 9ab3 363e 2e56 e33e 583c 67be
00000010: cb84 b2be 3ca3 413e 9f1a aebe c6df 59bc
00000020: 1c33 9bbe f7ec 96bd 7a29 d5be f23b adbe
00000030: 8943 b33e 345b 10bd bd0f 9e3e 3b2a cfbe
00000040: 6671 a43d 35de d73e 9832 08be d436 8bbe
00000050: 875a cf3d 6fc6 c4be ec83 d8bd 91dc 8a3e
00000060: f64f 0d3e 7826 c23e 9558 813e 886f ccbc
00000070: 0383 a93b cd91 b6be 4ecf ba3d ab78 cd3e
00000080: a48c ca3e 21fa 5a3e 9b1b aebc 6b33 a7be
00000090: 88f8 f9be bca2 50be 929a 473e 47d5 54be
000000a0: b0d2 2dbe da86 343e 0c18 803e 2b6b a4be
000000b0: dfac bfbe 809e ccbe 22a5 b1be ab0c c23e
000000c0: c1bb be3d 6230 03be 9a5b bbbe 455f b83e
000000d0: d076 593e 3761 b7bd efe4 a03d 1e27 9cbe
000000e0: 5ff1 8c3e 55e3 593d a048 e93d fa43 13be
000000f0: 0b68 cf3e 83e5 46be d14d 743e d69d 853e
00000100: fe9d 63bd 3db6 123e 85ae 083e 13df 89be
00000110: 5607 573c c706 3f3c 84db 563e a148 81be
00000120: af7c 2cbd 5e02 8abe 4732 603e aec0 893e
00000130: b4b1 7c3e 63c6 743e eaaf 243e 5123 093d
00000140: 9ade c03d 566d c73e e8af 5d3e b9be c5bd
00000150: b989 b33e 1347 933e 047f a2be 9250 90bd
00000160: 373d 3dbd fddd 05be 8bfc 913e 3aed 8ebc
00000170: c753 793e b432 76be a76b 37be 3c84 923e
00000180: 3fb8 203e c479 393e c812 82be 2e61 b1be
00000190: 3b26 9dbe 9960 b3be bd75 2b3e 97ae c03e
000001a0: 2291 e73d 4c2f b1be 093b 38be e2bb 7d3e
000001b0: 271c 843e 1669 5f3e f92f 86be 092e 4c3e
000001c0: bdfe 7dbe 5be4 c4be eb17 973d d79e 0b3c
000001d0: 91bc 43be ac9c 9e3d 9288 51be 29f4 3abd
000001e0: d810 77be ccef 403e f392 c63d bedb 913e
000001f0: d401 a6be 48ca aa3e 3dfc 4c3e b78a 16be
00000200: 47ce 173d ccd6 763c 76b7 1f3e b7df 7b3d
00000210: 5bfc 92be 362e 3b3e 8385 afbd 6230 9cbd
00000220: 5f2c f23d 7385 9bbe 266c 92be aec9 cabd
00000230: 8583 503e 42d5 dd3e bda8 363c d8a5 473e
00000240: 5bdc 13be de73 54be 99a6 353e fd6d 453e
00000250: 56de 9fbe ce9e 9a3e d6d2 d7bc 74b1 89be
00000260: 5a0d b63e 74d9 8abe 392f 0dbe f198 80be
00000270: 1167 803e ddab 74be 7aba 34bd d8c1 19be
00000280: 413f 383e 9c32 a33d 2c14 af3e 01e2 c6bd
00000290: 10bd 9b3e 3401 38be 4516 a4be 2a41 9b3e
000002a0: 2679 05be 6ed4 f03e 2e87 53be f6ab c2be
000002b0: 3f5f 51be 487c 883e 5f61 d3bd 9ab1 6c3e
000002c0: 27f0 38be 289a 88bb 7950 2f3e e390 3dbe
000002d0: 3697 1a3e b278 983e 20f5 253e 6231 5fbc
000002e0: 84b1 c93c fad7 cc3c c768 8e3e 15ab d43d
000002f0: e2ca aebe 1b47 96be ce2c 4f3e faf9 823d
00000300: 69f2 843e b66d 163e f951 9fbe 1613 bcbe
00000310: 2ab9 ddbd bf7e 45bd a8be 473e 776e ba3e
00000320: 6265 133e fd2d 6a3e 1d73 873e df60 d23d
00000330: 20ea 663e 2ee8 12be 9184 4bbe 07f3 5fbd
00000340: a983 b23e abc4 99be 5b55 973e 275f a0be
00000350: 250d 873e 192a 703e 9af8 8a3e e807 023e
00000360: 9b2c 823e 9122 93bd 67a4 ebbe 4089 bd3c
00000370: 82cf 71be 9035 f63e 6556 a5be 7498 3a3e
00000380: 59ff ce3c 91af 22be 2e10 c8be 52f1 b43e
00000390: 2ab2 8f3e 6e9e 1f3e e55e 533e 1e2c 463e
000003a0: a2de 7d3e 48a1 8bbe 919d e83d 542b 373c
000003b0: 892b 07be 33dd ee3d 1fd0 c53d bdd8 0abe
000003c0: 79ae 1b3e 8793 0ebe 83df 993e 0714 9ebe
000003d0: bfaf c7be 6ba6 afbe a09b a83e 990c 8a3e
000003e0: b98f 7e3d f80f 5e3e 6218 d0bc 929e babb
000003f0: a3c2 3e3e 9099 1b3e db4d 933e bf00 cabe

state_model.0.bias f4 [16]
0.091246955 -0.08131294 -0.13319986 0.07687284 -0.22242953 0.032015514 -0.0912741 0.1725618
0.10677268 -0.1468895 0.18869318 -0.16889109 -0.038332082 0.039981104 -0.1552556 -0.07123143
00000000: afdf ba3d 6687 a6bd 8b65 08be 826f 9d3d
00000010: 91c4 63be b322 033d eaed babd 0ab4 303e
00000020: a3ab da3d 336a 16be c938 413e c9f1 2cbe
00000030: 1a02 1dbd 3ac3 233d 53fb 1ebe c9e1 91bd

state_model.2.weight f4 [1, 16]
0.08613118 -0.105630554 0.15728877 -0.3251259 0.010784446 -0.047572255 0.2006078 -0.6078701
-0.33728483 0.37536213 -0.5324747 0.4743713 -0.17343915 -0.00032534887 0.047727138 -0.204692
00000000: 8b65 b03d d554 d8bd 4f10 213e e776 a6be
00000010: 3fb1 303c 20db 42bd 226c 4d3e 609d 1bbf
00000020: 99b0 acbe 772f c03e 4350 08bf cce0 f23e
00000030: 089a 31be 9693 aab9 887d 433d c89a 51be
