Pytorch_DRL/DDPG/models/backup/5.31/best_ca_critic.model (torch_old, 225090 bytes, 9 tensors)

sensor_model.0.weight f4 [128, 360]
00000000: a083 73bc a022 a43b 6055 2abc f4c7 febc
00000010: a74f a6bd 4202 dcbd 78c0 063c 1b15 87bd
00000020: 50d9 d63c cc02 a13d d89a 793d 40bd a1bb
00000030: 7e1d bb3d 48ae f93c d867 a3bc 984c 22bc
00000040: a048 5d3b 587d 633c 7298 a73d a0da 4dbb
00000050: 842e 1fbd f26f bfbd a9df 8fbd c000 0c3d
00000060: 503d 1d3d e81e 8dbc 1e93 c4bd a075 c43b
00000070: 6cfb 9fbd 620e 42bd 88c9 90bc f8a1 acbc
00000080: e29f 803d f6a7 3cbd 5c50 b1bc 98c2 283d
00000090: 02d2 a23d ecba 9d3d 8dda d9bd c0c4 923d
000000a0: e652 b9bd f0c3 7f3c 31d3 adbd 086d b0bc
000000b0: 02f4 903d 8893 803c 48ec 99bd 6eae 943d
000000c0: b080 80bb c0cc 723d c0c2 9abd e98d d0bd
000000d0: 53f1 d0bd 2274 d23d 10a8 95bd 1bca 80bd
000000e0: 180e e03c a87b c2bc b8a0 c0bc 66a1 d5bd
000000f0: 5bc3 85bd 5cc9 adbd 8ad7 b73d e038 a4bd
00000100: 8081 253d 00a0 c3b9 dcd5 3c3d ea82 a63d
00000110: 8835 20bd 0adc 803d 1603 6cbd 0087 853d
00000120: b0d7 823b 7621 ad3d 1fe3 90bd e164 dfbd
00000130: 34a0 b4bd af1a 55bd e059 c1bc 4833 30bc
00000140: 9e30 be3d ea7b d83d f821 e03c 3ad7 adbd
00000150: 3c4b 85bd cbec 98bd dcba 5c3d 6c1e c6bc
00000160: 30d8 c3bd da7d 89bd 4218 bf3d 80f7 b8ba
00000170: f0de 99bd f6b3 a33d a006 1ebc cc95 8fbd
00000180: 9a60 d73d 8458 a6bd 18c3 ba3d 2e2f 94bd
00000190: 3426 fbbc e449 a4bd a458 263d 8a7f bd3d
000001a0: bff5 8ebd 8c25 14bd 60bc 98bd 109c 1abd
000001b0: ae27 92bd 403a d93b 00ea c5bc bcd6 91bc
000001c0: ee01 923d 80ee dfbc 78f5 afbc 5c30 97bd
000001d0: b060 acbc 9462 c3bc 988d 54bc 85fd 84bd
000001e0: 2db5 80bd 6424 4f3d e80f 9abc 001a d6bb
000001f0: 95b3 ddbd 1440 1e3d 788a 46bc 208b c13c
00000200: 8c42 a9bc d0a4 da3d 84e4 663d 2aae c23d
00000210: 720f 45bd 7e9a b03d 5251 d33d e0da 71bd
00000220: 3849 19bd 5a00 a8bd cc36 11bd d952 83bd
00000230: acea eebc 4af4 a93d c834 683d 0c7f 013d
00000240: e038 633b 848b b9bd e0ba 643c 726b 9ebd
00000250: 1e22 ae3d 5ac6 b1bd b6d7 e13d 6adc b13d
00000260: 60de 6f3d 8001 0b3b 7151 83bd 009c 3fbc
00000270: e091 983d 980f 3a3d defe 963d 8860 babd
00000280: 2bee d3bd 0011 6b3a 84c6 b03d 2879 bd3d
00000290: 92e6 1abd c818 7a3d f03a b5bc 27d4 d4bd
000002a0: 284b 5c3d 2984 d4bd a8fd 043d 1cc1 1c3d
000002b0: b43b b13d 94ad dd3d 9021 043d 8e99 11bd
000002c0: 08da f8bc 98db 883c d835 d43c 2077 173b
000002d0: 34a3 553d 00df c7bc b064 38bc 0cff 27bd
000002e0: 6048 82bd d0a3 ccbc d71d b0bd 90d7 6f3d
000002f0: fcd7 2b3d 1dfc d0bd 724b d7bd f2e5 16bd
00000300: 541e c8bc c001 fb3a 0087 363d 8e66 15bd
00000310: cc06 673d b9c9 b8bd b061 84bd 750b a5bd
00000320: 78eb 553d 40f3 5f3d c0d4 213d a0e0 b43b
00000330: 5ef7 26bd 188f a43d d625 b3bd 546b 9a3d
00000340: c849 a93c 5489 243d b062 fabb 2483 563d
00000350: dbdc b7bd 1185 d0bd d0e6 903c b47b d33d
00000360: b03c 353d a2ac 85bd 0589 6dbd be3b 9abd
00000370: 404c 56bd 603f 1e3b 800e 3bbb 28e1 bbbd
00000380: 34cf cabd 8591 6dbd 5eab d13d d634 b83d
00000390: 447f 17bd c0fb 7bbd 31f0 afbd c006 d93c
000003a0: b098 223d ce13 d0bd 8a5b a2bd 58b4 69bc
000003b0: 60c9 c53b 90d7 8c3d 626f bbbd 349f 823d
000003c0: 1cb5 7dbd 98a1 a53c 5b6d bcbd 2c29 e2bd
000003d0: 022f 58bd 8ef9 a93d 0807 383d 5685 a03d
000003e0: 709d 13bd 00c9 723a c0a1 923b b0ef 993b
000003f0: f643 ab3d c8f1 04bd 06e8 21bd cc34 80bd
-0.014862925 0.0050090104 -0.010396332 -0.031101204 -0.08120661 -0.10742618 0.008224599 -0.065958224
0.02622667 0.078618616 0.060938686 -0.0049358904 0.091364846 0.030478612 -0.019946977 -0.009905957
0.0033765212 0.013884865 0.081833735 -0.0031410828 -0.03886272 -0.09347524 -0.07025082 0.034180403
0.03838855 -0.017226651 -0.09598373 0.0059954673 -0.07811627 -0.047376998 -0.017674223 -0.021073326
0.06280495 -0.046058618 -0.021644764 0.041201204 0.07950212 0.07701668 -0.106373884 0.07166433
-0.09049015 0.01561068 -0.08487547 -0.021536365 0.07077791 0.015695348 -0.0751577 0.07259832
-0.0039215907 0.059277296 -0.07556677 -0.10183317 -0.10202279 0.10276057 -0.07307446 -0.062885486
0.02735047 -0.023740605 -0.023514137 -0.10431175 -0.06531402 -0.08485672 0.08976658 -0.080186605
0.040406704 -0.00037312508 0.04610239 0.081304386 -0.03911355 0.06291969 -0.05762013 0.0651989
0.003992997 0.08453648 -0.0707457 -0.10907913 -0.08819619 -0.0520274 -0.023602426 -0.010754414
0.09286617 0.1057051 0.027359948 -0.08488317 -0.065084904 -0.0746704 0.05388914 -0.024184428
-0.09562719 -0.067134574 0.09330799 -0.0014111847 -0.07513225 0.07993309 -0.009645134 -0.07010993
0.10516472 -0.08122352 0.091192424 -0.07235561 -0.030657865 -0.08021906 0.040611878 0.09252842
-0.06980466 -0.03616862 -0.07457805 -0.03774649 -0.071364745 0.0066292584 -0.024159431 -0.017802589
0.07129274 -0.027335405 -0.021479353 -0.07382271 -0.021042198 -0.023850717 -0.012973212 -0.064936675
-0.062845565 0.050571814 -0.018806413 -0.006533861 -0.10825268 0.03863533 -0.012117974 0.02362591
-0.020661615 0.10675967 0.056370273 0.095058754 -0.048110433 0.08623217 0.10318245 -0.059046626
-0.037423342 -0.08203192 -0.03545265 -0.06412286 -0.029164635 0.082985476 0.05669096 0.031615302
0.0034671351 -0.090598136 0.01396057 -0.07735337 0.08502601 -0.08680411 0.11027472 0.08684619
0.058561683 0.002121061 -0.06412018 -0.011694908 0.074496984 0.045425028 0.07372831 -0.09100443
-0.10348161 0.0008967072 0.08631614 0.09251624 -0.037817545 0.06105879 -0.02212283 -0.10392027
0.053782612 -0.1037677 0.032468468 0.0382701 0.086539656 0.10824123 0.03225857 -0.03554683
-0.030377403 0.016706273 0.025904581 0.0023111776 0.052157596 -0.024398327 -0.0112544745 -0.041014716
-0.06361461 -0.024980456 -0.085994415 0.058555186 0.041954026 -0.10204337 -0.10512437 -0.036840387
-0.024428524 0.0019150302 0.04456234 -0.036474757 0.056402966 -0.090228505 -0.06463945 -0.08058826
0.052226514 0.05467534 0.039509535 0.0055199414 -0.04076325 0.080351055 -0.08747451 0.075400025
0.020665064 0.04017003 -0.007641159 0.05237116 -0.08977672 -0.101816304 0.017688185 0.10326329
0.04424733 -0.06527068 -0.057992 -0.07530926 -0.05231881 0.002414666 -0.0028542578 -0.091738045
-0.09902802 -0.058000106 0.10237764 0.08994453 -0.036986604 -0.061519384 -0.08590735 0.026492476
0.039696395 -0.101600274 -0.07927616 -0.014264189 0.0060359687 0.06877053 -0.09152104 0.06378022
-0.061940297 0.020218655 -0.092005454 -0.11043009 -0.052779205 0.08299552 0.04492858 0.07837932
-0.036038816 0.0009261519 0.0044748485 0.0046977624 0.08362572 -0.032457143 -0.039527915 -0.0626007

sensor_model.0.bias f4 [128]
00000000: 82ab 33bd d3a0 3cbb 5441 adbc b4da 5bba
00000010: 911f 48bb 2709 ebba f6ac 6cbb 83fb d9bb
00000020: 18a3 6ebc cd0a 3dbd 424a 35bb 010b 2cbc
00000030: 40a3 dbba fd2e 3abd 44ec 9cb9 1509 43bc
00000040: 967b 84bc a4af ebbc a9d3 c1ba d602 05bb
00000050: 3c5f 39bd faf5 62bb 0bb4 2cba 297d 10bc
00000060: da5c 27bd 6010 5ebc c80a e3ba 8844 93bb
00000070: afc1 06bb 57fe 11bb 2dc6 bfbc 42f8 04bc
00000080: 2475 72bc 88be 66bc 3f2c 30bd fcb0 47bc
00000090: 203a e4bc 9c1f 8aba 80a5 dabc 4326 19bd
000000a0: 6024 e2ba 1c65 00bd 4f53 bbbc f70a 1cbd
000000b0: 9c46 47bd 84a5 64bc 92c2 42bb 94a1 5bbb
000000c0: c9ba ccba aaca b5bb 3588 06ba c043 50bd
000000d0: 7e67 30b9 eb62 5ebb e66d 45bc 00e4 b3b9
000000e0: 56e7 1cbc 9645 30bc 7dbf 3aba 40ff d5bb
000000f0: a7e8 03bc c448 feb9 837a bdbb 95d4 d7bc
00000100: d2b6 00bd 7b08 e3ba c344 dabb 0b54 01bb
00000110: 5619 26bd 5c99 12bc 0b2b f9bc 9fcc 6bba
00000120: 8852 1cbb a099 64bb 3501 fdbc e0a2 13bd
00000130: 7c66 7dbb cbf3 03bd d82b fbba b8a7 01ba
00000140: 7b3d ecbc be38 8abc 4f09 dcbc 209a 8fba
00000150: e5f2 28bb 3aa6 3fbd e1de 34bb 4c67 29bb
00000160: 0cbb aebc 5223 fdba 8038 07ba 10d2 e6bb
00000170: 73b8 bfbb cca5 d7ba 7c67 5ebb c468 31bc
00000180: 9432 0eba 2485 a8ba a8c7 f6bc f070 b2bb
00000190: 9822 a4bc 9a61 07bb 36a2 6fbb 595c 8dbb
000001a0: 80c4 8ab9 d646 c0ba 4ccf 14bd f0f7 2ebb
000001b0: 1cdb 36ba b863 1fbc 8a2b 12bd e4c8 21ba
000001c0: 6455 84bb 6489 63bc ab23 81ba 48de 18bd
000001d0: aa0b aabc 2995 43bd 9612 40bd 3743 d2bb
000001e0: 5965 1cbc f31c 04bd 977c e1ba 19fe dabc
000001f0: e853 25bc 65cc 36bd 1f37 23bc 56d3 d1b9
-0.043864734 -0.0028782382 -0.021149315 -0.00083867763 -0.0030536393 -0.0017931805 -0.0036113835 -0.006652297
-0.014565252 -0.04615288 -0.002766267 -0.01050067 -0.0016757026 -0.045454968 -0.0002993067 -0.011904021
-0.016172212 -0.028770275 -0.0014787811 -0.002029588 -0.04525684 -0.0034631477 -0.0006588108 -0.008818903
-0.040860035 -0.013553709 -0.0017321939 -0.0044942535 -0.0020562222 -0.0022276843 -0.023409927 -0.00811583
-0.014798436 -0.014083512 -0.043010946 -0.012188192 -0.027859747 -0.0010537985 -0.026690245 -0.037390005
-0.0017253272 -0.031346425 -0.022866873 -0.038096394 -0.048651323 -0.013955478 -0.0029718024 -0.0033513056
-0.0015619631 -0.005547841 -0.0005131991 -0.05084586 -0.00016823222 -0.0033933471 -0.012050128 -0.00034311414
-0.009576639 -0.010758778 -0.0007123871 -0.0065306723 -0.008051074 -0.0004850087 -0.005782427 -0.026346484
-0.03142435 -0.0017321253 -0.006661029 -0.0019733931 -0.040551506 -0.008947697 -0.030416032 -0.00089950295
-0.0023852903 -0.0034881607 -0.030884365 -0.036044 -0.0038665822 -0.03221492 -0.0019162847 -0.00049459515
-0.02883791 -0.01687276 -0.026859907 -0.0010955967 -0.0025779542 -0.046789385 -0.0027598666 -0.0025848923
-0.021329425 -0.0019312894 -0.00051582605 -0.0070440844 -0.0058508455 -0.001645261 -0.0033936193 -0.010828201
-0.0005424407 -0.0012857062 -0.0301245 -0.005445592 -0.020036027 -0.002065754 -0.003656519 -0.004313987
-0.00026467815 -0.0014669548 -0.036330506 -0.0026698075 -0.0006975399 -0.009728365 -0.035686053 -0.00061715976
-0.0040384997 -0.013887737 -0.0009852549 -0.03732136 -0.020757515 -0.047749672 -0.046892725 -0.006416704
-0.009545648 -0.03225417 -0.0017203268 -0.026732491 -0.010090806 -0.04462852 -0.009961872 -0.00040021044

sensor_model.2.weight f4 [64, 128]
00000000: 934d 2dbe 0066 29bc 1808 3bbd 318a abbd
00000010: fe6a d43d 6a56 fa3d 5a7e b73d 8798 e3bd
00000020: 3807 fdbc 3054 d3bd b936 333e bcb1 373d
00000030: 8204 c73d 80d4 61bd e061 5e3c a7ad 343e
00000040: cec1 d33d fc5d 0abe 767e bbbd 6831 da3c
00000050: d7bd 123e ec23 29bd aa06 86bd 61f3 97bd
00000060: 1806 02bd 46af 5bbd 3862 1cbd 10c4 3d3c
00000070: 50e0 903c f47e 29be 31dd 2d3e d0e3 71bd
00000080: 205d abbc 4018 1b3c 2fe0 29be d8bb 9bbc
00000090: e182 103e 8c49 f5bd 7c87 673d a8bf f03c
000000a0: 1a3c c23d 0098 cab9 400d 863d 24e1 24be
000000b0: f0b4 0fbe 70c4 093c 8a4d e43d 3870 893d
000000c0: 77d6 0f3e ba65 863d 95ca 10be 3cfd 4d3d
000000d0: df3d 24be 4800 b8bd ba36 8d3d d8e8 82bc
000000e0: a8d4 83bc a82a 02bd 3a37 77bd 3446 3a3d
000000f0: 91bb cdbd da22 843d 13f2 d0bd 9217 df3d
00000100: 87bd 313e fd00 263e 2667 c43d 44d0 4a3d
00000110: 02b5 f03d c0c6 20be 0a30 d93d 10c3 b1bc
00000120: 10ec 703c a0cf 80bd 555a 87bd 0285 ec3d
00000130: 08f0 593d 805d f5ba 178c 1a3e 501c 77bd
00000140: e3b3 2f3e 40f1 bb3b 20ac 973b 88e3 0bbd
00000150: 1be8 283e c74b dcbd 9ec0 eb3d d06c bebc
00000160: e08f ebbc bb2d ddbd 3215 883d 2040 18bd
00000170: ace4 593d ef8c ecbd bca6 19bd 82fc 843d
00000180: 5049 133c 0ad3 bc3d 78f5 d23c 10ed fbbd
00000190: a202 e23d c22d bb3d da94 af3d 0ec1 be3d
000001a0: 1044 1c3c 5157 133e ba05 933d 82e7 f3bd
000001b0: 67dc 143e a337 123e daaa e33d 053a 243e
000001c0: 5ef1 ed3d 75c2 323e e611 c4bd 3e99 893d
000001d0: d141 e5bd a2d1 c0bd 2c8e 1bbe 0881 9abc
000001e0: 0a53 d63d 4808 6cbd c66b ed3d a940 123e
000001f0: 0c47 b0bd ec1d 0fbd 3a42 fa3d 680a 17be
00000200: 88b4 93bc 0878 eebd 84e5 0dbe 5092 20bc
00000210: 126b 07be 451c 063e 8c3d 6e3d 7471 81bd
00000220: cc34 66bd 0573 22be aa4a e53d e427 0e3d
00000230: 5fd6 303e 9536 2abe 54fa 15be 0413 803d
00000240: 03ee 1e3e 6cb1 41bd a88b 933c 006e cabc
00000250: 94cc 6b3d 689c 40bd ad0c 09be 9542 183e
00000260: 4ece 22be e0ab fc3c e036 ed3b 3ec0 993d
00000270: b506 183e c82e 18bd 5c2f 1e3d f2e4 ce3d
00000280: 66e2 bc3d c04c 263c 083d 6d3d 08dd 34be
00000290: 03eb 113e d224 fb3d ae8f a53d 8677 32be
000002a0: 599b c7bd 74ba 06be d07b 5dbc 6858 0f3d
000002b0: 0056 a13a 5e6f 17be 036b 183e d84e 423d
000002c0: 53e0 1d3e 007a f0ba bf0d 0d3e 5eca 02be
000002d0: dc22 7a3d 04a6 473d 1c51 d2bd 32d0 c13d
000002e0: 0c78 313d 640a febd 3f29 223e b93c 163e
000002f0: 4e93 bd3d 95eb 1e3e 40db 153b 42c2 ef3d
00000300: 9719 1a3e a06f 1f3c f0c9 333c fde6 1abe
00000310: e046 c43c d157 2dbe 95dd 9dbd 8682 23be
00000320: 86e9 ca3d 8b9f 043e d240 9d3d 602b 1f3d
00000330: 8c0d 273d a013 ff3c 50f3 66bc d758 1abe
00000340: 76f6 c1bd 7a0a c43d 2407 b4bd 0c32 0c3d
00000350: 56fc 5dbd fc51 77bd 6874 a23c 4d48 33be
00000360: 80e2 1a3d 1bb4 033e 202e 483d 8538 34be
00000370: 8354 d6bd 743f 29bd dc72 063d 6c6d 19bd
00000380: dead 77bd 2e39 84bd ba1d fa3d f01e 633c
00000390: d447 513d 2e9b 93bd 9db2 04be 8632 8bbd
000003a0: bb5d 293e e476 733d 10ab 773c 8355 083e
000003b0: 105e 4a3d 04d8 633d 83e4 21be 985f 42bd
000003c0: 8090 56bc 44be 0ebd 00b7 ee3b fcec 32be
000003d0: 7d9a 313e 807b 8c3a eeae 01be 2c91 cbbd
000003e0: 3d2c 9ebd 59f9 b4bd 501f 003c bee0 dd3d
000003f0: 8040 393d 46e3 34be 3899 ba3c 6648 d53d
-0.16924123 -0.01033926 -0.045662016 -0.08375967 0.1037197 0.122235134 0.089596465 -0.11113077
-0.030887231 -0.10318792 0.17501344 0.044847235 0.09717657 -0.055134296 0.01357314 0.17644368
0.103397 -0.13512415 -0.0915498 0.026634887 0.1433023 -0.041294023 -0.0654424 -0.07419468
-0.031744093 -0.05363395 -0.038179606 0.0115823895 0.017685086 -0.16552335 0.16978909 -0.05905515
-0.020918429 0.009466231 -0.16589426 -0.01901047 0.14112426 -0.119769186 0.056525692 0.029388264
0.0948412 -0.0003864169 0.06545496 -0.1610151 -0.14033866 0.008408651 0.11147602 0.06710857
0.14046656 0.065623716 -0.14139779 0.05029033 -0.16039227 -0.08984429 0.06895204 -0.01598017
-0.016092613 -0.03177896 -0.060355403 0.045477107 -0.10045541 0.0645196 -0.10202422 0.108931676
0.17357455 0.16211314 0.095899865 0.049515024 0.117532745 -0.15700817 0.10604866 -0.021699458
0.014704719 -0.06289601 -0.06609026 0.11548807 0.053207427 -0.0018719882 0.15092503 -0.060329735
0.17158465 0.0057355464 0.004628673 -0.034152538 0.16494791 -0.10756641 0.11511348 -0.023245245
-0.028755128 -0.10799738 0.06644668 -0.03717053 0.053196594 -0.115503184 -0.037512526 0.064934745
0.008989647 0.0921994 0.025751814 -0.123010755 0.110356584 0.09139587 0.08573313 0.09314166
0.009537712 0.14388777 0.07178827 -0.11909391 0.14537202 0.14279036 0.11116572 0.16037758
0.11618303 0.17456992 -0.09573726 0.06718682 -0.11194194 -0.09414984 -0.15190953 -0.018860355
0.10465057 -0.057625085 0.11592822 0.14282478 -0.08607301 -0.034940645 0.12219663 -0.14750063
-0.01803042 -0.11643988 -0.13857085 -0.009800509 -0.13224438 0.13096721 0.058164164 -0.063204676
-0.056202695 -0.15864189 0.11195882 0.03470601 0.17269276 -0.16622384 -0.14646274 0.06253627
0.15520482 -0.047288343 0.01801093 -0.024710655 0.057568148 -0.04702416 -0.13383742 0.14869149
-0.15899011 0.030843675 0.0072392076 0.075073704 0.14846309 -0.03715399 0.038619384 0.101022616
0.092228696 0.010150135 0.057919532 -0.17662442 0.14249806 0.12262882 0.08084045 -0.17428407
-0.09746427 -0.13157064 -0.013518289 0.03499642 0.0012308955 -0.14788577 0.14884572 0.047438473
0.15417604 -0.0018346906 0.13774775 -0.1277251 0.0610684 0.04874231 -0.10269377 0.09463538
0.043327376 -0.124043256 0.15836047 0.14671601 0.09256612 0.15519555 0.002286628 0.117069736
0.15048824 0.009731203 0.010973439 -0.15127178 0.023959577 -0.1692803 -0.07708279 -0.1596776
0.09907822 0.12951486 0.07678379 0.038859725 0.040784404 0.031137288 -0.014096096 -0.15072952
-0.09470837 0.09572311 -0.087904245 0.034227416 -0.054195724 -0.06038092 0.019830897 -0.1750805
0.037813663 0.12861674 0.048872113 -0.17599685 -0.10465338 -0.04132028 0.032824382 -0.03745787
-0.060468547 -0.06456219 0.12212701 0.013862357 0.05109389 -0.072073326 -0.1295876 -0.06796746
0.16539662 0.059439555 0.015116468 0.1331387 0.04940611 0.05562593 -0.15809827 -0.047454447
-0.013095975 -0.03484942 0.007284999 -0.17473215 0.17344089 0.0010717958 -0.12664387 -0.09939799
-0.077232815 -0.08836622 0.0078199655 0.10833882 0.045227528 -0.17664823 0.022778139 0.104141995

sensor_model.2.bias f4 [64]
00000000: 775b 1bbd 9003 1fbd 4c47 0cbc 25c2 d3b9
00000010: 0dd8 a5bd 0695 63bd 3f80 08bd f0f8 2fbb
00000020: 3092 87bd 7c45 88bc 4c0e ad3e 821d aa3e
00000030: 6ba8 afbd e648 cdbc c688 d8bc efa2 86bc
00000040: 1906 4abd 1ad7 9bbd 8242 f2bb 8d83 fabc
00000050: e3a2 6abd 9fdd 31bc 3eb4 b93e 2f0a ecbc
00000060: e378 d6bc ad10 c53e fd3b c0bc 568c a9bd
00000070: d7ec 9d3e 40d6 abbb 0800 d1bc 612b 0abc
00000080: 809f 96bc 7635 f2bc a248 c7bc ac21 8d3e
00000090: 40f6 3bbc 9223 86bd ae3e 92bd b6c8 973e
000000a0: d18a 0dbc e653 73bd b4f4 ad3e 16f6 44bb
000000b0: 1a99 aabd 579d 47bc 5576 24bc 176e 65bd
000000c0: 0d61 1ebc 006a 55bc 0828 38bc bf3b acbd
000000d0: 3571 f9bc 7078 7abb f74a 62bb d89a b1bd
000000e0: 2b78 b83e 28e1 2dbd 6da9 54ba d124 f7ba
000000f0: a0d9 50bd 35e7 15bc 2b55 a6bc 23a2 5bbd
-0.037929025 -0.038821757 -0.00856192 -0.00040389705 -0.08097849 -0.05556204 -0.03332543 -0.002685126
-0.0661968 -0.016634695 0.3379997 0.33225638 -0.08577045 -0.025059175 -0.026432406 -0.016435115
-0.04932222 -0.07609387 -0.0073931823 -0.030580306 -0.057284247 -0.010856061 0.36270326 -0.02881345
-0.02618069 0.38489285 -0.023466105 -0.0827872 0.30844757 -0.0052440464 -0.02551271 -0.008433194
-0.018386602 -0.029566508 -0.024326626 0.27564752 -0.011472285 -0.06549753 -0.071408615 0.29645318
-0.008639053 -0.059406184 0.33975756 -0.0030053905 -0.08329983 -0.012183509 -0.010037978 -0.056013193
-0.009666693 -0.013025761 -0.011240013 -0.08409833 -0.03044949 -0.003821876 -0.0034529546 -0.08672112
0.3602918 -0.042451054 -0.00081124046 -0.0018855577 -0.050988793 -0.009149362 -0.020304283 -0.053621422

target_model.0.weight f4 [16, 66]
00000000: c278 1dbe 46e1 1f3e 6150 3dbd 992d 33be
00000010: 8051 473b e04d 53bc 94ac bb3d 0cd5 fabd
00000020: f0ea 80be 7e48 49be 25da 97bb 5b53 d6bb
00000030: c032 313e 38d3 b5bd e02f 7ebe 36bc 993d
00000040: b400 ce3d 56e9 5c3e ea10 c43d df9e 693b
00000050: 12b0 b5bd 4aae 3d3e 09d9 63bd 2378 e33d
00000060: ac57 a43d 4444 c1be 9283 e8bd 2ff5 47be
00000070: e7c8 853d 7edf ddbd eaf7 79be 1520 e0bd
00000080: 54dc c23d ec44 29bd 8ffb 8dbe dd5a eebc
00000090: 8a4c 00be 5e1f 473e e45b 2f3e 3995 58be
000000a0: 71bc 4e3e f80f d2bc 11b5 76be ee45 0c3c
000000b0: 749b bf3d 61bc 42bd 8625 97bd 3405 3fbe
000000c0: ad75 3b3e cc72 7b3e e8f0 a63d 10bf 87bc
000000d0: 5e27 d9bb 3b56 71be 7cdc e5bd 500f a3bd
000000e0: 341f c9be 51d3 cbbd 2590 753e 56ed dc3d
000000f0: 786e 283e d396 093d 9fc5 1d3e a2f3 00be
00000100: b595 febd 07f5 ea3d 48e6 423e c39b 00be
00000110: cfd0 1abc 9807 20be 72b6 3f3e bc40 37be
00000120: 50a9 1b3d 07d6 d13d 70f0 af3d 5c19 033e
00000130: 6ab7 40bc f311 6a3e 804d 40bb c3a9 1d3d
00000140: 0875 09be 423d 9dbd 2c84 19be a017 703d
00000150: 5cb8 fd3d 9e52 143e 6a7e 633e 6bf9 8b3e
00000160: 4d3f 173b 287e 0dbd 8e40 6bbe a913 0c3e
00000170: 7c59 4ebe 1ca1 703e 2d91 7cbe b00b 183e
00000180: a201 43be 10b0 833e 06ea a7bd 2754 8abe
00000190: 3d9e a6bd 0d06 39be ae3c 70be 2858 873e
000001a0: f478 08bd f642 373e 2f7d 0f3e 70c9 363d
000001b0: b1f1 5abe 02fe 43be 48c5 8f3d 0c08 aa3d
000001c0: ba49 51be 52cf dbbd b887 8cbd ace5 9bbd
000001d0: 8082 c13d 2492 803e b970 69be 5cc4 92bd
000001e0: 1e22 343e b003 b73d 92cf 4b3e 84b2 a03b
000001f0: 3004 463e f87b fbbc 74ca 19be 8f18 5e3e
00000200: 92df ecbd f49c 723e 8367 cf3b 1147 83be
00000210: 5437 c93d 2ad2 c1bd 8806 25be c58d 48be
00000220: 4c99 d03d 0a89 9fbd a0d6 e13d 994c 3cbe
00000230: 2c77 d1bd f0b6 b13d 9336 afbd 9227 b0be
00000240: a810 70bd a660 8bbd 82f7 493e 531d 18be
00000250: 04e2 853e f8ad c9bc 3a52 6a3d 9902 4bbc
00000260: 90e8 25bd 4e37 6bbe 8236 0ebd 405f 4b3e
00000270: c0fb 0ebe aeb4 bc3d a566 223c 767a 623e
00000280: 7cbc 91be 01ee f63d 2681 a5bd a46b 1fbe
00000290: e89e de3d cc9a ad3d 009e 403d 9848 933d
000002a0: 660c 4dbe 6088 41bc 2049 13bc a243 23be
000002b0: c82a 313e 7e2b 41be 1580 47be d21a 69be
000002c0: a8d1 2b3d 957b 2e3d 9a36 09be 605a 7bbd
000002d0: a2a4 43be 1c36 753e ec6c a3bd 4011 9e3b
000002e0: c4c7 0c3e a1a5 adbe 1766 74be 20b9 bc3c
000002f0: c376 4abe 9c25 4bbe 4d19 d03d 1b3a 8cbe
00000300: 974b 3cbe e4e9 06bd 37b5 853e 702d a1bc
00000310: 34aa 57be 5a6f debd 12ce 7bbe 60f9 d83d
00000320: 5bde 093d 1216 143e e670 42be f8b3 603e
00000330: 4056 f4bb 1be7 b1be 6809 7c3e 0046 0a3e
00000340: 96b9 2dbf 2eff 08bf acc6 a7bd 60df 43be
00000350: 42a9 54be d16e 53be 4ca7 d9bd e36a 7ebe
00000360: ad7a 1bbe 08cb 5d3e da66 51be 281b 793e
00000370: 41ba 26bf 13af 94bc dd10 603e cfcb 12bf
00000380: 2c96 9b3e 365a 90bd a972 18bf f49f 223e
00000390: 54fd 9a3d dd65 60bb faaf bfbd 68e9 cc3d
000003a0: ef45 e5bc 75ae 00bf 803b 403e 683d 923d
000003b0: e02d bd3d 2064 e0be cd61 f1bb 78aa 9c3d
000003c0: f3cc 32bf 140c 2cbd c02a 42bc c603 17bd
000003d0: 432e 283e 98d3 413d 89e4 873b d18f 06be
000003e0: e805 163d 0619 523e 3c58 2a3d 3cb0 56bb
000003f0: 411d 2bbc 9b14 4fbe c83c 16bf a49c 7a3e
-0.15378097 0.15613279 -0.046219233 -0.17497863 0.0030413568 -0.012896985 0.09163776 -0.12247667
-0.25179243 -0.1965656 -0.004634159 -0.0065406985 0.17304516 -0.088781774 -0.2482295 0.075066015
0.10058728 0.21573386 0.095735386 0.0035647673 -0.08871473 0.18523517 -0.055626903 0.11106899
0.080245346 -0.37747395 -0.1135322 -0.19527124 0.0653246 -0.108336434 -0.24410978 -0.10943619
0.095146805 -0.041325495 -0.27730986 -0.029096061 -0.12529197 0.1944556 0.17124897 -0.21150674
0.20189072 -0.02564238 -0.24092509 0.008561594 0.09355822 -0.047542933 -0.07380204 -0.18654329
0.18306608 0.2455551 0.08151418 -0.016570598 -0.0066270074 -0.2356805 -0.11223695 -0.07961905
-0.3928162 -0.09952415 0.23980768 0.10787456 0.1644839 0.033591103 0.15407418 -0.12592939
-0.12430898 0.114725165 0.19033158 -0.12559418 -0.009449198 -0.15627897 0.18721941 -0.17895788
0.038003266 0.102459006 0.08590782 0.12802643 -0.011762479 0.2285841 -0.0029343069 0.038491976
-0.1342355 -0.076776996 -0.14991826 0.05861628 0.123886794 0.14484641 0.22216192 0.27338728
0.0023078502 -0.03454414 -0.22973844 0.13679375 -0.20151323 0.23498958 -0.24664755 0.14848208
-0.19043592 0.25720263 -0.08198933 -0.27017328 -0.0813565 -0.18068714 -0.23460647 0.26434445
-0.033318475 0.17896637 0.14012598 0.0446257 -0.2138126 -0.19139865 0.0702005 0.08302316
-0.2043828 -0.107329026 -0.06861824 -0.07612166 0.09448719 0.25111496 -0.22796907 -0.07166359
0.1759114 0.0893625 0.199034 0.004904093 0.19337535 -0.030698761 -0.15018636 0.21689056
-0.1156608 0.23692685 0.006329478 -0.25640157 0.09825006 -0.09463914 -0.16115773 -0.19585331
0.10185489 -0.0778981 0.110272646 -0.18388595 -0.10227808 0.08677471 -0.08555331 -0.3440519
-0.058609635 -0.068055436 0.19723323 -0.14854936 0.26149 -0.024619088 0.057207324 -0.012390756
-0.040504992 -0.22970316 -0.03471995 0.19860554 -0.13963223 0.092141494 0.009912168 0.22117028
-0.28464115 0.120571144 -0.08081274 -0.15568405 0.10870153 0.08476791 0.04702568 0.071915805
-0.20024261 -0.0118122995 -0.008989602 -0.15943769 0.17301476 -0.18864247 -0.19482453 -0.22764137
0.04194799 0.042598326 -0.13399735 -0.061365485 -0.19105771 0.23946422 -0.079797596 0.0048238337
0.1374808 -0.33915427 -0.23867069 0.023037493 -0.19771867 -0.19838566 0.10161076 -0.2738808
-0.1838821 -0.0329379 0.26114818 -0.019674987 -0.21061021 -0.108610824 -0.24590328 0.105944395
0.03365932 0.14461544 -0.1898838 0.21943653 -0.007456571 -0.34746632 0.24612963 0.13503265
-0.67861307 -0.53514373 -0.081921905 -0.1912818 -0.20767692 -0.20647742 -0.106276125 -0.24845462
-0.15183516 0.21659482 -0.20449391 0.24326766 -0.6512795 -0.018149888 0.21881433 -0.5734224
0.3038801 -0.07048456 -0.5954996 0.1588133 0.0756785 -0.0034240403 -0.09359737 0.10005456
-0.027987448 -0.502662 0.18772697 0.071406186 0.092372656 -0.4382639 -0.007366395 0.07649702
-0.6984398 -0.042003706 -0.011851013 -0.036868833 0.16423897 0.047320932 0.0041471166 -0.13140799
0.036626726 0.20517358 0.041588053 -0.0032758852 -0.010443986 -0.20222704 -0.58686495 0.24473816

target_model.0.bias f4 [16]
00000000: ca3d d53d facd bb3c 34d4 c7bd 2c0a 03bf
00000010: 0060 cdbd 56ce 0c3f f1c8 94be 3b03 6bbc
00000020: 6d63 cfbd d400 5d3e eae8 b2bd 685d 0dbf
00000030: 971f 163f 58ee ea3c af64 02be c118 51bb
0.10412176 0.022925366 -0.097572714 -0.51187396 -0.10028076 0.55002344 -0.29059556 -0.014344032
-0.10126386 0.21582347 -0.08735831 -0.5522065 0.5864195 0.028678104 -0.1273372 -0.0031905624

state_model.0.weight f4 [16, 18]
00000000: 62d8 94be bb04 c13e 034b b33e ab01 75be
00000010: c63d 17be 8886 a63e 5ece 02be 2dd9 60be
00000020: 6f1c ba3e ef0b c13e 0880 e8bd a51b 22be
00000030: fbd1 163f fce1 22be d3f0 8fbe b1b6 58be
00000040: b350 eb3e 2a52 8fbe a1c1 37be 2eed 87be
00000050: 4e01 873e 978d 663e e9d8 c4be 7eaa 653e
00000060: 9c18 febd 2c12 9f3e 8e74 ac3e 28c2 86be
00000070: 00ae b23a 17c0 21bf a344 d5bd 7f11 8fbe
00000080: a12d 4abf 247f e0be 1831 833e 28a5 6b3f
00000090: 36fe 0a3e 5e67 89bd 12ab 3d3e 3bce 8d3e
000000a0: 2075 e13d 6baa 5d3e 784e f5bd 79b7 1f3e
000000b0: 2d28 c33e 84fa a6be dcdc cfbe 4203 ea3e
000000c0: 1866 64be 830f 7e3d 17b2 2e3e 482e 233e
000000d0: 70d6 9bbe b4b9 323f 1e35 4bbc 2fe5 49be
000000e0: 238e a73e a74c babd 164e 9cbe 6d8e c0be
000000f0: 0440 03bd 3f9c 3f3e 698b 33bb 225b 143e
00000100: 450b d0be 4557 343d 1bb7 a3bd 42c7 9a3e
00000110: fa7d a03e 8424 253e f55b 9a3c 2d12 0ebe
00000120: e836 82bd f25d 0e3f 77a3 3fbd 936f b53d
00000130: ef9b 9abe 4267 a8be ee58 01be ccb0 983e
00000140: 026a a53e 2b74 493e 0065 9abd af5f 6dbe
00000150: 6c52 fbbd 28df 7a3e 760d d13e 4303 2a3d
00000160: 99f5 733f c1ee 1abf 91c3 33bf a7e8 b5be
00000170: 33d6 16be 7207 8dbe f80b f93e adc8 90be
00000180: 0e9a 643f 9131 d93b a7ef cbbe fe6f 353e
00000190: f286 5bbe ffd6 5fbf 52b6 11be 1ad3 9ebd
000001a0: 444c af3d 6293 ef3d a11b 043e 3fc2 61be
000001b0: 657a 2e3e 6c9f 643e 7e29 54be bcef f33d
000001c0: f65b 5dbe 288c a93e 473b 363e d4a1 663e
000001d0: 171f 5bbe 4d1b d23e 06eb 363e c893 aa3e
000001e0: 2c47 053f d601 6c3d 5909 f63e f9a9 e13e
000001f0: f652 a53e 89a2 36bf 67c1 ac3d add3 5abf
00000200: d1c0 a63e 1d33 0d3e 4d4e ce3d bbb4 033d
00000210: 905e bdbe d65f c03d fd1a 5cbe b8b2 90bd
00000220: be75 193e 5a47 3bbe bf30 8b3d 5cc1 83bd
00000230: cfca 10bf 1e43 093e e92e 89bf 360a 613e
00000240: 22b0 c8be dde0 97bd 8009 b03d 8618 0d3f
00000250: 6437 e4bd 0fc4 acbe cb57 f3bd 1c19 8f3e
00000260: 1872 a63e 2579 1cbd 681f 42bd fc24 693e
00000270: 6d36 b8bc 617a 2e3d 4ce6 303e 2949 e4bd
00000280: 40f3 273f 27c2 1ebe 933b 9a3e ec90 d1be
00000290: 6fef 923e 68af 3ebf 579b d3bf 7dfc 87be
000002a0: b50c 83bf 46f1 f6be 0c7b ebbb 3e52 f1bd
000002b0: 7a2c 1ebe 7346 11bf db94 bc3e 072a 3e3e
000002c0: 3d8d 5d3e cd8c da3d f2e5 71be ac82 b2bd
000002d0: 3ac2 833d 0406 fabf 1065 b13e b0a3 d0be
000002e0: e9eb 08bf 14e4 9d3d ee6b d3bf 82ca 323d
000002f0: 6c88 953c 6887 6fbd 32a4 98be ab99 00bf
00000300: 5b98 c8bd a9b6 903e 3c32 e4bf 2b9b df3e
00000310: 7781 01bf c559 d13e d829 243e adcc f5bd
00000320: 13f6 e33d b730 97bd cd66 ba3d b4ff 433f
00000330: 1789 a23c 1c2e 26be d887 c5be 6440 46bd
00000340: d8ce 82be c1f0 00bf 90b3 923e 14d5 e53e
00000350: 9bb8 713e 0fb4 393e 1d68 1f3f 6d5e 07bf
00000360: 9e97 d33e 447c 6b3f 8287 013e 1c87 fe3e
00000370: 62ce 5a3d c00b 40be a8bf 93be 8d0b febc
00000380: ebb4 0ebf dcf8 2abf df8d a23e 6322 7c3e
00000390: 0240 02bf 9edf 8dbe c27b c0bd 5331 80be
000003a0: 1bae 0fbf 8682 19bf 6166 8a3e 036b 26bf
000003b0: 0ba6 e5bd cfa2 ae3e 65d9 9d3e 5d49 c23e
000003c0: 414b 173e 147e 4a3e 91f0 78be ba0b dfbe
000003d0: 48da 8cbd f5c1 163f 22a0 93bd 39f4 28be
000003e0: 8aaf c63e 6047 75be 4701 54bf df05 093f
000003f0: 39ac afbd 4cf8 1cbe 07b6 dd3d 15ea c3bc
-0.29071337 0.37698922 0.35018167 -0.23926418 -0.14769658 0.32524514 -0.12774035 -0.21957846
0.36349818 0.37704417 -0.11352545 -0.15830858 0.58914155 -0.15906519 -0.28113422 -0.21163441
0.45960006 -0.27992374 -0.17944957 -0.2654814 0.26368183 0.2251495 -0.3844674 0.22428319
-0.124070376 0.31068552 0.33682674 -0.26320004 0.0013632178 -0.6318373 -0.10413482 -0.27943036
-0.78975874 -0.43847 0.25623393 0.92048883 0.13573536 -0.06709169 0.1852229 0.27696404
0.11008668 0.2164704 -0.11977857 0.15597333 0.3811659 -0.32613003 -0.4059819 0.4570561
-0.2230457 0.062026512 0.17060123 0.15935624 -0.3043704 0.6981461 -0.012402801 -0.19716333
0.3272563 -0.090966515 -0.30528325 -0.37608662 -0.032043472 0.18711947 -0.0027396327 0.1448789
-0.40633598 0.04402854 -0.07993909 0.30230147 0.31346112 0.16127211 0.018842677 -0.13874121
-0.06358129 0.556121 -0.04678675 0.08859172 -0.30197093 -0.3289128 -0.1263158 0.29822385
0.3230744 0.19673221 -0.075387955 -0.23181032 -0.1227158 0.2449919 0.40830582 0.041507017
0.9529663 -0.6052056 -0.70220286 -0.35529062 -0.14730148 -0.27544743 0.48641944 -0.28278103
0.8929757 0.006628223 -0.39831278 0.17718503 -0.21438196 -0.87437433 -0.14229706 -0.07755108
0.085594684 0.11698033 0.12901165 -0.22046755 0.17038877 0.2232644 -0.20718953 0.1191096
-0.21617112 0.33114743 0.1779605 0.2252267 -0.21398579 0.41036454 0.17863092 0.33315873
0.52061725 0.05761894 0.48054007 0.4407499 0.32289857 -0.7134176 0.08435326 -0.8547924
0.32568982 0.1378903 0.100735284 0.03215478 -0.36986208 0.09393279 -0.2149467 -0.07065338
0.14986321 -0.18288937 0.06796407 -0.06433365 -0.5655946 0.1340451 -1.0717441 0.21976551
-0.3919688 -0.07415936 0.08595562 0.55115545 -0.111433774 -0.3374333 -0.118819796 0.27948844
0.32508922 -0.03820147 -0.047393233 0.22768015 -0.02248689 0.04259718 0.17275351 -0.11146767
0.65605545 -0.1550375 0.30123577 -0.4093088 0.28698298 -0.744864 -1.6531781 -0.2655982
-1.0238253 -0.48230952 -0.007186299 -0.117832646 -0.15446654 -0.5674812 0.36832318 0.1857072
0.2163591 0.10671387 -0.23622873 -0.0871633 0.0643353 -1.9533086 0.34647417 -0.40749884
-0.5348497 0.07709518 -1.6517313 0.043650158 0.018253528 -0.058478743 -0.2981277 -0.5023448
-0.097946845 0.2826436 -1.782783 0.4367307 -0.5058817 0.408888 0.16031587 -0.120019294
0.11130919 -0.073823385 0.09101639 0.76562047 0.01984076 -0.16228527 -0.38580203 -0.04840125
-0.25548434 -0.5036736 0.2865262 0.44889128 0.23605578 0.18135093 0.6226824 -0.5287846
0.41326612 0.9198649 0.12649348 0.49712455 0.05341948 -0.18754482 -0.2885716 -0.031011367
-0.5574481 -0.6678598 0.31748864 0.24622492 -0.5087892 -0.2770967 -0.09398605 -0.2503763
-0.5612504 -0.5996479 0.27031234 -0.65007037 -0.11213311 0.34108588 0.3082992 0.37946597
0.14774801 0.19774657 -0.24310519 -0.43563634 -0.06877571 0.58889705 -0.07208277 -0.16499414
0.388058 -0.23953009 -0.8281445 0.53524584 -0.08577771 -0.15329093 0.108257346 -0.02391533

state_model.0.bias f4 [16]
00000000: 067e 7d3f c0ea 4b3f af27 7e3f 817a 95be
00000010: 1576 1cbf d8df bf3e 37b4 743f 9e2a 2f3f
00000020: 7463 65bf e293 09bf 3070 2bbe c4af 773f
00000030: 84b1 1e3d 7037 273f e788 0e3f 644e 1ebf
0.9902042 0.79655075 0.992793 -0.29195026 -0.6111768 0.37475467 0.95587486 0.68424404
-0.8960488 -0.53741276 -0.16742015 0.9675257 0.03874351 0.65318966 0.55677646 -0.61838365

state_model.2.weight f4 [1, 16]
00000000: 8c19 663f 6041 1f3f 8709 2d3f 4783 70be
00000010: 1e99 c6bf 465f 4b3c 359b 3d3f 755f 143f
00000020: 02f3 46bf abee 8dbd 7ad3 18be ca79 123f
00000030: b299 a53e 0d65 053f a285 8d3e d138 6abe
0.8988273 0.6220913 0.6759266 -0.23487578 -1.5515478 0.012412852 0.7406495 0.57958156
-0.7771455 -0.06930288 -0.14924422 0.57217085 0.32343823 0.52107316 0.27641016 -0.22873236
