Pytorch_DRL/DDPG/models/backup/4.2_train_critic/best_ca_critic.model (torch_old, 559066 bytes, 13 tensors)

sensor_model.0.weight f4 [256, 360]
000000 b5 f1 94 3d c0 58 d4 ba 08 c8 90 bd 1f a9 7c bd
       0.072726645 -0.0016200766 -0.07069403 -0.061684724
000010 95 37 95 3d 76 e4 53 bd 33 bf 5f bd 28 f7 3c bc
       0.07285992 -0.05173155 -0.0546257 -0.011533536
000020 62 bc 80 bd 50 88 88 3c 44 19 94 bc c0 c0 df bb
       -0.06285931 0.016666561 -0.018078454 -0.0068283975
000030 a1 2c 42 bd 3c 1c c9 bc 62 fa 2b 3d a1 f5 9a 3d
       -0.047405843 -0.024549596 0.04198683 0.07566381
000040 10 6f 9e bb bd a2 be 3d ed 83 9c bd 0c 3c 94 bc
       -0.004835017 0.093083836 -0.0764235 -0.018095039
000050 10 24 38 bd 52 c5 ab bd 30 1c 7d bc f3 6e 72 bd
       -0.044956267 -0.08387245 -0.015448615 -0.05918784
000060 2d 95 a7 3d 61 eb 2b bd dd 69 43 bd 10 d3 1b bc
       0.0818275 -0.04197252 -0.04770838 -0.00951077
000070 51 9b 83 3d f4 ab 9b 3c 31 1d 9f 3d 82 d0 88 bd
       0.06426109 0.019002892 0.0776924 -0.06680395
000080 a6 0a 47 bd 82 c0 4b 3d 7f f4 a1 3d 2e d0 1c 3d
       -0.04859414 0.049744137 0.07907962 0.038284473
000090 f2 98 09 3d 0a 2c 41 bd 9b 45 40 bd a9 a1 b6 3d
       0.033593126 -0.04716114 -0.04694138 0.08917553
0000a0 78 7b 0e 3c 0c c5 c3 bc 2d 97 8c 3d 95 83 bc 3d
       0.008696429 -0.02389767 0.06864772 0.09204785
0000b0 28 4e 83 bc e0 41 d7 3b 5c b2 d9 bc a3 ca a1 3d
       -0.016028479 0.006569132 -0.026574306 0.07899978
0000c0 a4 24 9c 3c a4 ba c1 3c 50 94 4e 3c 4a 50 4f 3d
       0.01906044 0.023648567 0.012608603 0.05061368
0000d0 a0 d4 24 3c c0 6a c0 bb ee 48 55 3d 15 5b a4 3d
       0.010060459 -0.0058721006 0.052071504 0.08025185
0000e0 84 e3 df 3c 83 a6 bf bd ee bc 77 3d 40 97 a2 bb
       0.027330168 -0.093579315 0.06048291 -0.004961878
0000f0 06 c4 48 3d ab 3e c9 3d 2f 07 be 3d e8 65 04 3c
       0.049015068 0.09826406 0.09278714 0.008080937
000100 a0 4e 82 bd 20 17 39 bb 22 31 49 3d cb 5b 24 bd
       -0.06362653 -0.0028242543 0.049119122 -0.040126603
000110 89 ff 99 bd 74 1f 63 bd 52 dc 5a bd 3d ba bf 3d
       -0.075194426 -0.055449918 -0.05343277 0.09361694
000120 77 b3 9b 3d a3 95 60 bd a6 56 0f 3d ee ac 5b 3d
       0.076025896 -0.054830205 0.034994744 0.053631715
000130 80 d9 9d bc ac a2 8c 3c 90 aa 63 bd 32 8c 7e 3d
       -0.019268751 0.017167412 -0.055582583 0.06214542
000140 ef 1f ae 3d 20 9b 6b bd 2a 0b 29 3d 1c 29 be 3c
       0.085021846 -0.057520986 0.041270413 0.023212962
000150 0e d5 5a 3d 38 83 cc bc 18 df 7c bc 50 85 96 bb
       0.05342584 -0.024964914 -0.015434049 -0.004593529
000160 71 8c 35 bd c2 5f 90 bd 52 c7 73 3d f8 39 13 3c
       -0.04432339 -0.07049514 0.05951626 0.008985989
000170 25 82 6b bd a3 78 b9 3d ee 14 42 bd f7 46 ae 3d
       -0.057497162 0.09056213 -0.04738324 0.08509629
000180 b0 15 4d bc 23 76 b3 3d 48 c9 8e bd 22 72 b7 bd
       -0.012517378 0.08762767 -0.06971985 -0.08957316
000190 b8 b4 ca 3c c0 4b e4 bb f0 b2 84 3b 45 48 aa bd
       0.024744377 -0.006967038 0.0040496513 -0.083145656
0001a0 7f ed 3f bd c0 ea 34 3b b1 99 82 3d 68 24 9e bc
       -0.046857353 0.0027605742 0.063769706 -0.01930447
0001b0 b9 11 9d 3d 3e 9a 71 bd 10 07 b0 bd 58 04 b3 3c
       0.07669396 -0.058984987 -0.08595097 0.021852657
0001c0 69 34 76 bd 2f 9a a5 3d 6e 8c 29 bd 6f cd a2 3d
       -0.060108576 0.08086049 -0.04139369 0.079493396
0001d0 02 f3 8a bd 12 c4 1d bd 75 27 a0 3d bf da bc 3d
       -0.06784631 -0.038517065 0.07820026 0.0922141
0001e0 68 6e 6b bd 02 62 02 3d 16 12 63 3d 3e d9 5c bd
       -0.05747834 0.03183175 0.05543717 -0.053918116
0001f0 14 df 92 bd 80 49 b9 bb 52 66 c8 bd c0 70 64 3b
       -0.07171455 -0.005654514 -0.09785141 0.0034857243
000200 44 0d 9e bc 20 05 9c bb 7a 90 7d 3d aa 2d 2a 3d
       -0.019293435 -0.004761353 0.06190536 0.041547455
000210 e8 21 c3 3c 45 91 91 3d a2 a0 15 bd 37 d6 b7 3d
       0.023819879 0.07107786 -0.036530145 0.08976405
000220 18 f5 c9 bc 91 17 87 3d 24 75 98 bc 2c 64 a2 bc
       -0.024653003 0.06596292 -0.018610545 -0.019823156
000230 f7 b4 aa 3d d1 b6 c1 3d 6d 61 4a bd 80 26 fd bc
       0.083352976 0.094586976 -0.04940932 -0.030902147
000240 d4 1d ce bc aa 98 47 3d a6 b0 93 bd ea f6 55 3d
       -0.025160708 0.048729576 -0.072114274 0.05223743
000250 26 17 6a 3d 70 ec e5 3b a6 4b 1f 3d 0e ea 2e 3d
       0.057150982 0.007016711 0.038890503 0.04270368
000260 60 27 02 bc 8f 9b 55 bd df 32 81 3d 49 65 bd 3d
       -0.007943958 -0.052150305 0.06308531 0.09247834
000270 aa 74 12 bd bc 43 bd bd 0a 51 a2 bd 1a 44 b9 bd
       -0.03575579 -0.09241435 -0.07925613 -0.090461925
000280 49 bc 46 bd e0 9f d0 bb 0f 48 82 3d 9a 59 1e 3d
       -0.048519406 -0.006366715 0.063614 0.03865967
000290 85 58 a1 3d 5a 4c 08 3d b0 97 d5 bc 62 3e a2 bd
       0.07878212 0.03327594 -0.026073307 -0.07922055
0002a0 51 24 a3 bd 01 bb c3 3d 8e a8 28 3d af a2 bc bd
       -0.07965911 0.095571525 0.04117637 -0.09210717
0002b0 c0 8f 95 bb 25 db 9a 3d 42 82 4d bd f9 b1 37 bd
       -0.0045642555 0.0756133 -0.05017305 -0.044847462
0002c0 b4 1e 89 bd 90 da da 3b 8a ab 91 bd 74 b5 fc 3c
       -0.06695309 0.0066788867 -0.071127966 0.030848242
0002d0 89 7a a1 3d b2 cf 0e 3d 99 58 bc 3d 4a b9 51 3d
       0.078847 0.034866042 0.09196586 0.051202096
0002e0 4e aa 89 bd 28 67 2d 3c c0 df 2b bb 27 d3 b0 bd
       -0.06721936 0.010583676 -0.0026225895 -0.08634024
0002f0 d1 37 8d 3d fb 1c 80 3d d1 b9 9e bd b4 ea e5 3c
       0.06895412 0.062555276 -0.077502854 0.028066017
000300 7f 76 93 3d 54 87 c8 3c c9 4a 8c 3d 00 a0 d1 38
       0.07200336 0.024478592 0.06850202 9.995699e-05
000310 fd dd 90 3d 53 c5 8e bd 6d b2 b1 bd c6 55 a6 bd
       0.07073591 -0.0697123 -0.0867661 -0.08121829
000320 18 2b af bc b0 b1 ee 3b 76 3d 6a 3d 30 9d d8 3b
       -0.021382853 0.0072843656 0.05718752 0.006610535
000330 d0 b8 19 bc 76 9c 09 3d a0 f5 c5 bd 63 2d 85 bd
       -0.009382442 0.03359648 -0.0966599 -0.065027975
000340 d0 96 fd bc 53 e5 c7 3d 3a 36 31 3d ca 02 c9 bd
       -0.030955702 0.09760537 0.043264605 -0.09814985
000350 c4 e2 49 bd 55 db b3 bd 40 2b f1 3b 86 3d 95 bd
       -0.049288526 -0.08782069 0.007359892 -0.07287125
000360 4d d5 85 bd 64 09 88 bd 50 70 c4 bb 86 e9 8d bd
       -0.065348245 -0.06642416 -0.005994834 -0.06929307
000370 7a da 2a 3d 84 28 aa bd 3e 23 0c 3d 38 7b c2 bd
       0.04171226 -0.08308509 0.034213297 -0.09496158
000380 89 03 a4 3d 35 ec ad 3d af 52 a7 3d 28 c1 9e bc
       0.08008487 0.084923185 0.081700675 -0.019379213
000390 08 a9 49 3c 6c 53 f9 bc de e5 19 3d f4 f7 83 bc
       0.012308367 -0.030435286 0.037572734 -0.016109444
0003a0 97 36 98 3d 00 01 59 3a c4 0b a4 3c 07 30 c0 bd
       0.07432287 0.0008278042 0.020025142 -0.093841605
0003b0 6a 92 12 3d d4 ba e7 3c 80 93 53 3a 46 79 7e 3d
       0.035784163 0.028287329 0.00080709904 0.062127374
0003c0 08 33 c6 3c 56 15 28 bd 57 ae c4 3d e1 cd 97 3d
       0.024194255 -0.041035973 0.09603565 0.07412315
0003d0 7a 54 89 bd 73 27 6a bd 9b 9c 86 3d 04 39 9b bc
       -0.06705566 -0.057166528 0.06572839 -0.018948086
0003e0 58 fb d1 3c 1b 3f 9d 3d 04 0f a8 3c 00 9c 00 39
       0.025632545 0.07678052 0.020514973 0.00012265146
0003f0 90 58 dc bb 98 d2 33 bd 5c 67 b3 3c 27 b6 a9 3d
       -0.0067244247 -0.04390201 0.021899872 0.08286696

sensor_model.0.bias f4 [256]
000000 3d b1 e0 b7 77 10 24 bd 62 76 2b bd e0 bb 63 bb
       -2.6785414e-05 -0.040054765 -0.041860946 -0.0034749433
000010 e0 d0 a9 ba 80 6e af ba 72 01 06 bd f5 2d 68 ba
       -0.0012955926 -0.0013384372 -0.032716222 -0.0008856946
000020 78 46 56 bd 25 96 67 b9 c0 ef 81 ba c0 40 02 bd
       -0.052313298 -0.0002208581 -0.000991337 -0.03180003
000030 31 4a 9f b9 1f 85 18 ba c1 1b e2 bc 31 16 ca b8
       -0.0003038212 -0.00058181764 -0.027601125 -9.636244e-05
000040 fc fb 89 bc 48 37 3c bc 3e 87 1f ba 98 9a 69 bb
       -0.016843788 -0.011487789 -0.00060855213 -0.0035645124
000050 23 2a 4b b8 cd ce a7 b9 de f3 4a bd 24 57 8a ba
       -4.8438214e-05 -0.000320068 -0.049548976 -0.0010554534
000060 80 4a b9 b9 ad 27 ca bc 35 1d 4c bd c7 78 4c bb
       -0.00035341457 -0.024677122 -0.04983254 -0.0031199919
000070 88 20 9d bc 71 e2 8b ba b5 d4 27 bd df 1f 1b ba
       -0.019180551 -0.0010672343 -0.040974338 -0.000591753
000080 87 7d 09 bd 70 39 af bb e4 8b b3 bc 5b 62 f8 bc
       -0.033566978 -0.0053474233 -0.021917291 -0.030320337
000090 e6 75 f0 bc ac bf 18 bc 2f 3b b0 b9 ee 24 e7 b8
       -0.029353093 -0.009323042 -0.0003361343 -0.00011021817
0000a0 72 71 f4 bc 7f 0e a2 ba 13 ea 62 ba f4 f9 f3 b9
       -0.029839251 -0.0012363939 -0.00086560956 -0.000465348
0000b0 1a 5e 1a b9 82 b4 0c ba 57 ee 1f ba 47 68 18 ba
       -0.0001472164 -0.0005367474 -0.0006100884 -0.00058138784
0000c0 2d 99 05 ba 94 d9 15 bd fd 4d 44 bd f0 3b b7 bc
       -0.00050963723 -0.03658445 -0.047925938 -0.022367448
0000d0 4b c0 f1 b9 a8 c9 a3 bb 3d 66 49 bd cb 31 42 b9
       -0.00046110371 -0.0049984045 -0.049169768 -0.00018519831
0000e0 05 92 fe b9 e6 2a 32 ba d4 af a2 bc e0 7d 12 bb
       -0.00048555448 -0.00067965535 -0.019859232 -0.002235286
0000f0 4c 2d 35 bd 3a 05 80 bc c2 47 af bc 29 d1 89 ba
       -0.04423265 -0.015627492 -0.021396521 -0.0010514605
000100 72 b4 d8 bc 05 23 f7 b8 31 9d ae bb cd c6 bc ba
       -0.02645323 -0.00011784401 -0.0053287973 -0.0014402509
000110 e0 11 bd ba 6c 1d 6a ba 40 13 25 bd af 23 3c bd
       -0.0014424883 -0.0008930776 -0.04030156 -0.045932468
000120 af f9 f2 bb a6 43 e5 bc c2 33 ec bc 00 2e d4 b9
       -0.0074150185 -0.027986359 -0.028833274 -0.00040470064
000130 43 52 00 bd 16 b8 aa bc 8d 62 b6 ba 93 44 c6 bc
       -0.03132845 -0.020839732 -0.0013914868 -0.02420262
000140 88 e4 c6 ba ec e7 51 bc c0 db 2f bb 5b 3c a5 ba
       -0.0015174309 -0.012811642 -0.0026833862 -0.0012606488
000150 b9 74 c0 bc 19 79 65 b9 a0 0c d7 bb 10 3e 16 bb
       -0.023493158 -0.00021884254 -0.0065627843 -0.0022925176
000160 e8 12 20 bc e0 5f a6 ba 88 a2 a9 bb 32 9f c4 ba
       -0.009770133 -0.0012693368 -0.005176846 -0.0015001057
000170 e8 46 8e bc 37 c6 12 bb 58 0a 86 ba 38 0d f8 bb
       -0.017367795 -0.0022395977 -0.0010226471 -0.007569935
000180 0d 86 ad bb cd 82 fc b9 d8 36 c8 bb b7 a0 b7 bb
       -0.005295521 -0.0004816264 -0.0061100535 -0.0056038755
000190 90 e6 40 bd 21 9b 07 bc 5f 98 a9 b9 37 bf 5d ba
       -0.04709488 -0.008276732 -0.00032347717 -0.0008458974
0001a0 f3 90 11 ba 2e fc a6 ba 86 8a 68 b8 8e 9e 18 ba
       -0.000555291 -0.001273995 -5.544212e-05 -0.00058219663
0001b0 83 5b e5 b9 ec 61 7e b8 76 6f 39 bd fc 5b 49 bd
       -0.00043746465 -6.0649516e-05 -0.045272313 -0.04915999
0001c0 1a 91 81 bc 5d 46 4b ba f5 7c 4e bd 1e fc 4c ba
       -0.01581626 -0.00077543204 -0.050412137 -0.0007819551
0001d0 38 85 9f bc bb fb 5b ba d9 bf 5c bb 8e 3b 1c bd
       -0.019472703 -0.0008391698 -0.0033683686 -0.038142733
0001e0 b0 a2 69 ba 13 99 e0 bb a0 ef 2e bb d0 41 37 bd
       -0.0008912487 -0.0068541854 -0.002669312 -0.044740498
0001f0 37 14 47 bd b6 4b ba bb ef e7 02 bc 0a 7a 4c bd
       -0.048603263 -0.005685295 -0.007989868 -0.049921073
000200 7c c1 4e bb c7 f5 0a bb 88 17 be bb 2f f6 38 b9
       -0.003154843 -0.0021203624 -0.005801145 -0.00017639318
000210 d0 af cc bb 45 76 67 ba 9c ca 91 bc 26 b1 46 ba
       -0.0062465444 -0.0008829574 -0.017796807 -0.0007579498
000220 f8 92 02 bc 00 5c 55 ba fd 65 df bc cd 43 d3 b9
       -0.00796961 -0.0008139014 -0.027270311 -0.00040295572
000230 0e e4 14 ba b5 d3 1f b9 9e ea d1 ba 70 f3 08 bb
       -0.0005679735 -0.00015242289 -0.0016015356 -0.0020897053
000240 4f 43 9a bb d4 48 46 bb d0 07 31 bd 00 38 30 b8
       -0.004707731 -0.0030255811 -0.04322034 -4.2013824e-05
000250 15 31 ff bb 15 42 4a bd 1c 75 e2 ba 00 ce de b9
       -0.0077878335 -0.049379427 -0.0017277333 -0.00042496622
000260 98 b9 fc bc 20 57 71 bb 1b de de bc 94 87 56 b9
       -0.030850217 -0.0036825612 -0.027205518 -0.00020459137
000270 fd bb a3 b9 c3 72 f4 bc 66 3b eb bc 17 63 39 ba
       -0.00031229845 -0.029839879 -0.028714847 -0.00070719555
000280 1a e9 0c b9 8f 69 10 ba f6 79 06 bd 0e cc b7 b7
       -0.00013438278 -0.00055088935 -0.032831155 -2.191032e-05
000290 2d 5c 0b bc b5 e1 f1 bc d6 19 24 bb b6 88 4a bd
       -0.008505863 -0.02952657 -0.0025039813 -0.049446784
0002a0 f8 71 38 b9 44 8c 12 bc 5e 19 aa ba 26 ee d6 ba
       -0.00017590064 -0.008944575 -0.0012977531 -0.0016397878
0002b0 4e 85 12 ba c2 5b e3 ba ee dc 91 ba f2 ff 26 ba
       -0.0005589322 -0.0017346072 -0.0011128464 -0.0006370536
0002c0 5c ee a6 bc 3b a8 0f ba 7a 09 a8 bc a1 2e c0 ba
       -0.02037733 -0.00054800854 -0.020512331 -0.0014662334
0002d0 18 e2 da bb 1b d5 87 b9 94 b2 56 bc c1 89 ad b9
       -0.0066797845 -0.00025907982 -0.0131041 -0.00033099766
0002e0 70 c2 52 bb d8 3e 17 bd 4d 19 bc b8 b5 21 48 b9
       -0.003215935 -0.036925167 -8.969251e-05 -0.00019086043
0002f0 88 19 de b8 8e 2b ce b9 e9 65 0c bc 98 5e 76 ba
       -0.000105905405 -0.00039323833 -0.008569219 -0.0009398251
000300 25 0f c2 bc f0 7a 29 ba 9b b3 9d b9 b1 7c 42 bd
       -0.023688862 -0.00064651575 -0.0003007919 -0.047482196
000310 ab cd ee bc 03 49 ea bc b2 27 f9 b8 27 6f bb bb
       -0.029150805 -0.028599268 -0.00011880639 -0.0057200375
000320 5b 0a da b9 14 c2 8a bc 2f 6c 23 b8 5b 30 7d bb
       -0.00041587916 -0.016938247 -3.8962982e-05 -0.0038633558
000330 ec 77 c7 bc 64 3e 0e bc b8 8c de b9 93 75 ca bc
       -0.024349175 -0.008681867 -0.00042447983 -0.024714267
000340 a2 d7 26 bd 4c 8f 73 b9 7c 73 20 ba 3c 56 04 bc
       -0.040732987 -0.00023227668 -0.0006120724 -0.0080772005
000350 4d d4 9f bb 72 6e 01 bd d7 2f 8f ba bb 4d f4 ba
       -0.004877603 -0.03159947 -0.0010924292 -0.0018638888
000360 03 0e 40 ba 5a 71 25 b9 68 b8 94 ba 66 72 0f bd
       -0.00073263067 -0.00015777853 -0.0011346461 -0.03502121
000370 b8 23 9c bb 8c 62 a6 bb 6d 60 69 b9 05 be 44 bd
       -0.004765 -0.0050776657 -0.00022256533 -0.04803278
000380 7a 60 b1 bb a1 b5 c7 ba b0 b1 a1 bb a4 19 91 bc
       -0.005413112 -0.0015236625 -0.004934512 -0.017712422
000390 ab 47 e6 bc 6a e2 85 bc 80 a8 2f ba 73 6a ce bc
       -0.028110346 -0.016343314 -0.00067008287 -0.025197243
0003a0 05 e0 b9 b8 62 53 d2 ba 73 b2 44 bd c3 d2 54 ba
       -8.863214e-05 -0.0016046579 -0.048021745 -0.0008118564
0003b0 c8 6b b1 bc 9c c7 7c bc 80 a5 bf b7 79 2b cb b8
       -0.02165784 -0.01542845 -2.2846041e-05 -9.687892e-05
0003c0 a0 ec f9 bc f8 ca ca ba 63 22 2d b9 b0 c5 31 bb
       -0.03050834 -0.0015471866 -0.00016511376 -0.0027125888
0003d0 ae 08 0b bd b8 53 01 ba f1 a3 0d bd d1 0e e2 bc
       -0.033943824 -0.00049334345 -0.034580175 -0.027594956
0003e0 7c 7f 1c bd f8 27 b8 bb 11 4c fc b9 2f 0f 39 bd
       -0.038207516 -0.005619999 -0.0004812186 -0.045180496
0003f0 a9 a7 e0 b8 48 99 e5 bc c0 ff 8e bb 2d 01 71 ba
       -0.000107123815 -0.028027192 -0.004363984 -0.00091935956

sensor_model.2.weight f4 [128, 256]
000000 70 80 64 bd 52 e2 bf bd 40 33 56 3b 28 7e 59 3d
       -0.05578655 -0.09369339 0.0032684356 0.053098828
000010 f6 37 d3 3d 00 3a 0d bb a0 d2 20 3d 34 19 56 bd
       0.10313408 -0.0021549463 0.039263368 -0.05227013
000020 1e fc a4 3d e8 48 c5 3d 0e 4f 80 bd f2 d8 f0 3d
       0.080559 0.096330464 -0.062650785 0.11760129
000030 3c 3e b4 bd d8 26 bf 3c 20 25 48 3d 18 7e f9 3c
       -0.08800933 0.023333952 0.04886353 0.030455634
000040 a4 1d a1 3d 4c d0 80 bd 18 07 11 3d 30 c5 e0 3c
       0.078669816 -0.062897295 0.035407156 0.027437776
000050 70 af 7d bd a0 83 d3 bb 02 31 a9 3d 40 da c3 bb
       -0.06193489 -0.0064549 0.082613006 -0.005976945
000060 4e 5f ef 3d 14 4d 92 bd 60 e0 f1 3d 80 15 a7 3c
       0.116881 -0.07143608 0.11810374 0.020395994
000070 ac 74 45 3d 8c c8 0c bd ac 03 d9 bd 00 ce eb 3d
       0.04820697 -0.034370944 -0.105964035 0.11513901
000080 24 eb b9 bd c0 5e 16 3c 10 d8 3b 3c 8c 45 e1 bd
       -0.09078053 0.009177864 0.0114650875 -0.10999593
000090 be ab cf 3d 34 b8 8c 3d c0 db 2e 3d c4 ed 88 3d
       0.10140179 0.068710715 0.04269004 0.06685975
0000a0 92 ea cc 3d 3c 48 7d bd 2a 59 f7 bd 00 fb b2 3d
       0.10005678 -0.061836466 -0.120775536 0.08739281
0000b0 aa a8 e9 3d c0 c1 a8 bb 60 e5 ef bd f4 15 a0 bd
       0.11409123 -0.00515005 -0.11713672 -0.07816687
0000c0 98 db bb bc 7a 9b a1 bd 0a 73 80 3d 90 37 db 3c
       -0.022931859 -0.07890983 0.06271942 0.026759893
0000d0 7a 0d b2 3d 00 8f 8f bd c4 a6 ee 3d d0 de c1 3d
       0.08693977 -0.07009697 0.11652902 0.09466326
0000e0 00 52 af 3c 0a 70 81 3d f8 dd 16 3d 40 1c d9 bc
       0.021401405 0.06320198 0.03683278 -0.026502728
0000f0 e0 50 7a bd 00 c8 9f bc da 62 fe 3d 40 8b 96 3b
       -0.061112285 -0.019504547 0.12421198 0.0045942366
000100 c0 56 59 3c 00 70 ed 3c 00 18 5d 3a 8c 05 bc bd
       0.013265312 0.02898407 0.0008434057 -0.091807455
000110 28 e8 96 bc fe 50 83 3d d6 09 d1 bd 00 70 0a 3d
       -0.018421248 0.064119324 -0.10206954 0.033798218
000120 70 bf f0 bd 56 da b2 3d b4 5f d2 3d a8 c3 9c bc
       -0.11755264 0.087330505 0.1027216 -0.019136265
000130 a0 0b 99 bb 48 e6 fd bc ec aa 08 bd e4 4f 07 bd
       -0.0046705753 -0.030993596 -0.03336613 -0.033035174
000140 e4 01 b0 3d 5e fe f7 bd 00 e6 c2 3c 62 da aa bd
       0.085941106 -0.121090636 0.023791313 -0.083424345
000150 d0 4d 9c 3d e0 06 88 3d a4 05 3b bd 98 34 74 bd
       0.07632029 0.06641936 -0.045659676 -0.05962047
000160 c0 24 2a bc 8c 7c 44 3d 16 78 85 3d d8 21 46 3d
       -0.010384738 0.04797034 0.06517045 0.04837212
000170 00 c3 c2 3d 1c 8b be 3d a0 67 2f bc 42 b7 eb 3d
       0.095098495 0.09303877 -0.0107058585 0.11509563
000180 14 54 3b bd 9e 71 aa 3d d4 4e 32 bd 58 03 c3 bc
       -0.04573448 0.08322452 -0.043532208 -0.023805305
000190 02 2f a6 3d 64 ae ab bd 10 7a a4 bd 20 56 eb bc
       0.08114435 -0.08382872 -0.08031094 -0.028727591
0001a0 2a 1c c6 bd 90 67 75 3d c0 1f 50 3b 64 ce 16 bd
       -0.096733406 0.059913218 0.0031757206 -0.036817923
0001b0 00 5d e6 ba e2 17 e3 3d 1e e8 93 bd f4 90 b1 bd
       -0.0017575324 0.1108854 -0.07222007 -0.08670226
0001c0 34 fc b3 3d d0 f5 94 3d 1c 78 9e bd 58 1a 25 bd
       0.08788338 0.072734475 -0.07737753 -0.040308326
0001d0 9a 9e ea 3d 44 e1 ce bd 0a e8 f3 bd 00 53 cc bb
       0.11456032 -0.1010156 -0.11909492 -0.0062354803
0001e0 ba 00 da 3d 80 b0 bf bd 74 b3 33 bd f8 16 2d bd
       0.1064467 -0.093598366 -0.04387231 -0.042258233
0001f0 0e 14 b6 3d b2 14 c5 bd 70 b5 df bc 78 96 cb 3d
       0.08890544 -0.09623088 -0.027308196 0.09940809
000200 ae 55 dc bd ce 4c a8 bd a2 ed a5 3d 70 7f 37 bc
       -0.107585296 -0.08217774 0.081019655 -0.011199817
000210 72 40 cd 3d 4c eb 8c 3d c0 fe 1c bc c0 e4 f3 bc
       0.100220576 0.06880817 -0.0095822215 -0.029772162
000220 f8 a9 2f bd f4 db fa bd 90 ce 6f bd 9a 41 e4 bd
       -0.042886704 -0.12248984 -0.058546603 -0.11145325
000230 b0 37 f3 3d 9a 1a a5 bd 7a d5 dc bd 18 a0 85 3d
       0.11875856 -0.080617145 -0.10782905 0.06524676
000240 60 82 8f bb 00 93 d6 bd e6 5c e6 3d 50 73 ab bc
       -0.0043795556 -0.10477257 0.11248188 -0.020929009
000250 78 77 8c 3c 7a d2 ea bd 34 81 bd bd b0 60 a6 3d
       0.01714681 -0.114659265 -0.09253159 0.081239104
000260 9c 26 7f 3d e0 f1 e5 bd a8 52 03 bd 80 d4 6b 3d
       0.06229268 -0.112277746 -0.03206125 0.057575703
000270 18 b9 77 bd c8 2a fd bd 98 bc 09 bd 98 dc 44 3d
       -0.060479254 -0.123616755 -0.033627123 0.048061937
000280 f8 bc 55 3d d0 62 66 3c cc 3a 30 3d dc 1d 2d bd
       0.052182168 0.014061645 0.043024823 -0.042264804
000290 6c 1f 43 bd a2 a6 9d bd d8 44 6f 3d c8 03 9c 3d
       -0.047637388 -0.07697798 0.058415264 0.07617909
0002a0 ae 36 c1 bd fc 9f a6 bd f8 a2 bd bd d6 86 c7 bd
       -0.094342574 -0.08135983 -0.092595994 -0.09742515
0002b0 00 0a 3e bc 6e ba c0 bd 58 bf 8d bd c8 d6 34 3d
       -0.011599064 -0.09410559 -0.069212615 0.044150144
0002c0 62 0a cf 3d b6 3e 85 bd ba c7 a6 3d 60 20 25 3c
       0.10109402 -0.06506102 0.081435636 0.01007852
0002d0 ee 2c ec 3d 64 ed fa 3d 46 e1 f7 bd 48 8b 9a bd
       0.11532007 0.1225231 -0.121035144 -0.07546097
0002e0 b8 56 8f 3c a0 b2 73 bc 38 1a ca 3c 0a cf f9 bd
       0.017497405 -0.0148741305 0.024670705 -0.12197693
0002f0 b0 b2 6c bc 80 b1 8b 3a b0 8d 56 3d 74 56 13 bd
       -0.014446899 0.0010657758 0.052381217 -0.03597112
000300 f4 56 55 3d 6c 77 fc 3d d0 af 75 bd 70 33 91 bd
       0.052084878 0.123274654 -0.05998212 -0.07089889
000310 66 4f d3 bd 38 38 b0 3c e2 8e de 3d 00 85 f8 3a
       -0.103178784 0.021511182 0.108670965 0.0018960536
000320 c0 85 7e 3b f4 c7 d5 3d 1a 52 ca 3d 7c 60 c1 bd
       0.0038837045 0.10438529 0.09878941 -0.09442231
000330 68 b0 ae 3c 04 9a b4 3d 86 e4 d9 bd ac c8 53 bd
       0.021324351 0.08818439 -0.106392905 -0.051705047
000340 e0 34 05 bc 3c ae 34 bd 48 c5 7c bd 3e 83 c8 bd
       -0.008130282 -0.044111475 -0.06171158 -0.097906575
000350 66 29 d6 bd b8 53 4f bd 08 82 e0 bd e0 f2 22 bc
       -0.10457115 -0.05061695 -0.109623015 -0.009945601
000360 b4 a1 0a 3d 1c 60 fa bd f0 bf 70 bc a2 26 de bd
       0.03384562 -0.12225363 -0.014694199 -0.108472124
000370 7e e1 c1 3d e0 f4 65 3d b0 47 3b bd 00 22 24 bb
       0.09466837 0.056141734 -0.045722663 -0.002504468
000380 40 6c f7 bb 00 6f 6f bc 8c c0 4e 3d 22 74 87 bd
       -0.007550746 -0.014613867 0.050476596 -0.066139475
000390 b4 75 61 bd 92 bd cf bd e2 bc a2 3d 80 b0 9c 3d
       -0.05504389 -0.101435795 0.07946183 0.07650852
0003a0 96 c7 e1 3d 00 5e de 3b 26 e6 b0 bd 2c 87 71 bd
       0.11024396 0.006786108 -0.08637647 -0.0589668
0003b0 8c 8f 1a bd a0 7e d3 3b 40 a4 82 bc 0c 0b 81 bd
       -0.037734553 0.006454304 -0.015947461 -0.06300935
0003c0 88 ea 32 bd 88 e6 c6 bd b8 2a eb 3d a8 74 f8 bd
       -0.043680698 -0.09711939 0.11482757 -0.121316254
0003d0 68 bb e6 3d 50 c3 99 3d ba f8 b0 bd 2c ff 59 3d
       0.11266214 0.07507956 -0.08641191 0.053221866
0003e0 58 62 fe 3c 10 6c 1d 3d b0 9c 56 3d b0 e1 43 3d
       0.031052753 0.038433135 0.052395523 0.047822654
0003f0 40 cc 5a 3d dc dd ca bd 28 6c 81 3c 10 a6 43 3c
       0.053417444 -0.099055976 0.015798643 0.011941448

sensor_model.2.bias f4 [128]
000000 5c 10 24 bd e8 fa e0 bc 52 12 85 bc 84 7a 78 bb
       -0.040054664 -0.027463391 -0.016244087 -0.0037914822
000010 a8 6c 9f bc 5a b6 bd bc 90 44 9b bb 2a 1e a1 bc
       -0.019460991 -0.023158241 -0.004738398 -0.019667704
000020 f2 30 64 bd 6e c4 23 3e ef c0 87 bd 5a d0 f4 bc
       -0.05571074 0.159929 -0.06628596 -0.029884506
000030 98 54 43 bd 7e 0f 61 bd 9f 0a c5 bc 1f d5 1e bd
       -0.047688097 -0.054946415 -0.024052916 -0.038777467
000040 6e e6 77 bc 6d 79 1a 3e 64 bc 16 bc 2e 69 24 3e
       -0.015130622 0.15085383 -0.009200189 0.16055748
000050 70 fe 24 3e ba 5e 4a 3e ae 22 95 3e da 88 6a bd
       0.16112685 0.19762698 0.2912802 -0.057259418
000060 46 1f 25 b9 e3 75 fd bc e9 ab 94 bb ae 3d 16 bd
       -0.00015747276 -0.030940002 -0.004537095 -0.036679916
000070 25 5c 4c bb 14 40 02 bd 83 20 44 bc 27 a0 08 ba
       -0.0031182852 -0.03179939 -0.011970642 -0.0005211853
000080 42 02 01 bc 6a 3b 4c bd c2 0f cc bc 0f 31 1a bd
       -0.007874073 -0.04986135 -0.024909858 -0.037644442
000090 73 db ad bc d8 b2 72 bc e8 2f eb bc 46 e1 34 bd
       -0.021222806 -0.0148131475 -0.028709367 -0.04416015
0000a0 21 ba 83 bd db 9e b3 bc d0 da 41 bc 75 03 67 bb
       -0.06431986 -0.021926334 -0.011831954 -0.0035249863
0000b0 32 ed 57 bd 21 2b dd bc 06 fe ce bb 98 04 60 bd
       -0.05271644 -0.026998105 -0.006316903 -0.05469188
0000c0 80 18 b1 bc 7a 15 58 bb 53 f0 1f 3e 7a 7f 74 3e
       -0.021618128 -0.0032971785 0.1561902 0.23876753
0000d0 ce a4 5b bd 05 09 8d bc dc fa 29 bd c2 50 d1 bc
       -0.053623967 -0.017216215 -0.041499004 -0.025551204
0000e0 7c b3 a0 bb 13 d5 e9 bc 17 85 4d 3e 7d fc 33 3e
       -0.0049042087 -0.028543985 0.20070301 0.17576785
0000f0 b9 de 29 3e 9c 93 a2 bc ee f7 4e bd 70 46 2e bd
       0.16588868 -0.019845776 -0.050529413 -0.042547643
000100 60 8f d4 bc 88 ca 1a bb e1 3e 07 bc 0b e7 dd ba
       -0.025947273 -0.0023619253 -0.008254738 -0.0016929818
000110 78 85 f6 bc 4c 26 ad b9 7e 9d 07 bb a6 d2 5b bd
       -0.03009294 -0.00033025665 -0.0020693238 -0.053667687
000120 58 bc 7b bd d6 1b 4f bd 65 c8 da bb fb ed ed bb
       -0.061458915 -0.050563656 -0.006676721 -0.0072610355
000130 13 c6 a2 bc 7a 9b d5 bc 4c d7 9b bc 03 95 98 bb
       -0.01986984 -0.026075114 -0.01902356 -0.0046564355
000140 10 2a 88 bc 88 12 40 bc 61 ed 63 3e fe ab 82 bb
       -0.01662162 -0.011723168 0.22258522 -0.003987788
000150 8e 77 58 bd fa 78 08 bd 88 58 6e bc 90 28 f5 bc
       -0.05284839 -0.033318497 -0.014547475 -0.029926568
000160 66 e2 58 bd 6d d1 aa ba 62 db 6e bd fe d0 4b bd
       -0.052950285 -0.0013032384 -0.05831469 -0.049759857
000170 91 92 a3 bb 3e 1c c7 bc 47 f3 d0 bc d8 d2 65 bd
       -0.0049918373 -0.02430546 -0.025506629 -0.05610928
000180 fe 2b 70 b7 d9 e2 d0 3d 4c f0 4a bd 96 3c 3a bc
       -1.43153575e-05 0.10199518 -0.04954557 -0.011366984
000190 35 cf 7e ba ee f2 4c bd 10 c3 ef bb f4 c7 5a bd
       -0.00097202073 -0.050036363 -0.0073169544 -0.053413346
0001a0 ed 6e 61 bd d6 6c 25 3e 98 f2 5b bd a2 0a f5 bc
       -0.055037428 0.16154799 -0.053698152 -0.029912297
0001b0 4a 89 35 ba 7b ca 86 ba 64 1a fa bc 48 26 5e bc
       -0.000692506 -0.0010283733 -0.030530162 -0.013558932
0001c0 dc fc bf bc 60 01 1e bb c4 95 3f bd d6 6a 71 ba
       -0.023436002 -0.0024109706 -0.046773687 -0.000920934
0001d0 0a ee 62 bd 0c d9 90 bc 80 68 32 3e 7b d4 f2 3c
       -0.055402793 -0.017681621 0.17422676 0.029642334
0001e0 53 5a 2a bd 28 c0 f8 bc bd 36 f6 bb 6e 24 07 bd
       -0.041590046 -0.030365065 -0.0075138495 -0.032993726
0001f0 30 b5 54 bd 64 7f d4 bc 7a 2d 58 bc ce 57 09 bd
       -0.051930606 -0.02593965 -0.013194436 -0.033531003

sensor_model.4.weight f4 [64, 128]
000000 a0 e9 80 bd d8 ad 16 3d 20 f2 42 3e af e3 26 bd
       -0.062945604 0.036786884 0.19037676 -0.04074448
000010 8a bb c2 3d 8a 18 04 3e 61 40 0e be cc 39 2f 3e
       0.095084265 0.12899986 -0.13891746 0.17111892
000020 58 2e 6e bd 62 cb 52 bd fc f6 94 3d 77 46 c5 3d
       -0.058149666 -0.051463492 0.07273671 0.09632581
000030 29 20 18 3e f8 b8 44 bd 0a a5 a3 3c 4d 76 35 be
       0.14856018 -0.048027962 0.019976158 -0.1772091
000040 5c 58 d3 3d ed b6 7a 3d ac fa 92 bc d1 d9 df bc
       0.103195876 0.061209608 -0.017941795 -0.027325543
000050 a4 e3 54 be 9f 7d 86 bc 39 ba 98 3d 1d 13 00 3e
       -0.20789963 -0.016417323 0.07457394 0.12507291
000060 38 e8 a1 bd ac 8b 35 3c 26 fb d7 bd 74 10 1e bd
       -0.0790562 0.011080664 -0.1054595 -0.03858991
000070 fd 07 de bd 2a bf ca 3d cb 2b 31 be 4c 56 c0 bc
       -0.108413674 0.09899743 -0.17301862 -0.02347865
000080 d6 a6 d9 3d 60 46 a2 bb 2e 3f 9c bd 64 23 81 3d
       0.106275246 -0.004952237 -0.07629238 0.06305578
000090 b0 16 b8 3d a5 ff 97 bd e9 e5 26 be 85 36 09 3e
       0.08988702 -0.07421807 -0.16298641 0.13399704
0000a0 59 ba fd 3c 2a 31 0b 3c 08 15 fb bc 41 18 15 bd
       0.030972647 0.008495608 -0.030649677 -0.036400083
0000b0 fd 5b 08 be 10 26 05 3e ce ad 3c be 9c a0 10 be
       -0.1331634 0.13002801 -0.18425676 -0.14123768
0000c0 da 01 16 be a4 a7 93 bd 63 40 b7 3b 44 a3 6e bd
       -0.14649144 -0.07209709 0.0055923923 -0.05826117
0000d0 e1 aa eb bd e9 4b 1b 3c 80 75 eb 3c 3d 4f 97 bd
       -0.11507202 0.009478548 0.028742552 -0.073881604
0000e0 d3 96 c4 bb c5 a2 1e 3e f2 a9 32 be c4 9e 12 be
       -0.005999425 0.15491779 -0.17447641 -0.14318377
0000f0 8b c5 23 be 31 cc 5f bd 3d 27 b6 bd c0 f2 0b bd
       -0.15993325 -0.05463809 -0.08894203 -0.03416705
000100 02 c7 98 3d b0 1e 19 bd c2 94 49 3c a9 fd fd 3d
       0.07459833 -0.03738278 0.012303533 0.124018975
000110 a1 28 18 3e 3a c4 f5 bd 37 b1 0c 3e 38 61 b4 bc
       0.14859249 -0.12000318 0.13739477 -0.022019014
000120 34 07 03 bd 0c 85 93 3d 77 56 e7 3c f0 6f 65 bd
       -0.03198929 0.07203111 0.028239472 -0.056014955
000130 08 53 ae 3d 9e 2b 96 3c d8 16 37 3d b3 ca 1b be
       0.08511931 0.018331345 0.04469952 -0.15214042
000140 a0 a1 00 3c 37 35 c6 3d ac 0c 28 3d 6e ef 53 be
       0.007851034 0.09678119 0.04102771 -0.20696804
000150 d8 de 8e bd 82 75 c3 3d 48 dd 34 3d 32 cf 1c 3d
       -0.06976098 0.09543897 0.044156343 0.038283534
000160 1d a8 08 be da 31 06 be 70 83 1a 3d f0 e1 74 3d
       -0.1334538 -0.13104954 0.037723005 0.059785783
000170 19 e1 8e bd ca b7 2d 3e d1 49 cb bd ae 41 2c be
       -0.06976528 0.16964641 -0.09926189 -0.1682193
000180 aa 6a d2 bd e1 ba 4d 3c d2 94 cf bd 69 15 ba 3c
       -0.10274251 0.012556762 -0.10135807 0.022715287
000190 ef c5 21 be 52 21 2e be 01 25 86 3d 6c 56 35 bd
       -0.15798162 -0.17004898 0.06550027 -0.04427187
0001a0 bb 01 28 3c af b3 98 3d 3c 58 18 bd 2d c5 db bd
       0.010254319 0.07456147 -0.03719352 -0.10730968
0001b0 98 98 08 be c9 32 b5 3c 98 75 d9 bc 60 b5 34 3d
       -0.1333946 0.022118943 -0.02654533 0.044118285
0001c0 54 92 35 3d f5 d9 92 3d 2e 93 e7 3d f8 c1 64 3d
       0.044329002 0.07170478 0.11307369 0.055849046
0001d0 43 2d 29 3e f1 6e b8 3c 09 16 a1 bd c3 dd 47 be
       0.16521172 0.022513838 -0.07865531 -0.19518189
0001e0 a9 9f e8 3c b3 5e 19 be 69 d4 04 be 33 0a bb bd
       0.028396444 -0.14977531 -0.12971653 -0.09132805
0001f0 89 77 27 be 5e 5d 4d be 6e d5 ce 3d 01 bd d4 bd
       -0.16354193 -0.20055148 0.10099302 -0.10387612
000200 c2 6c 8b 3d 13 2c 28 3e af 77 32 be 37 fc c0 bd
       0.06807853 0.16423063 -0.17428468 -0.09423106
000210 4c 8e 7e 3d ee f4 88 3d 29 88 8d bd f2 a2 cb 3d
       0.062147424 0.06687342 -0.06910736 0.09943189
000220 11 a5 d6 bd 15 ac 08 be e5 13 0f be 26 05 cf 3d
       -0.10480703 -0.13346894 -0.13972433 0.10108404
000230 12 51 00 be f5 d9 17 be 27 18 a0 3d b9 3e 03 3e
       -0.12530926 -0.14829238 0.07817107 0.12816896
000240 11 3f 1b be 59 f7 d4 3d aa d9 31 be f7 83 04 bd
       -0.15160777 0.1039874 -0.17368189 -0.032352414
000250 46 29 db bc 6c e5 12 3d af 84 85 3d 2a 52 bf 3d
       -0.02675308 0.035863325 0.06519448 0.093418434
000260 b4 64 f0 bd 51 d5 b3 3d 54 eb 1e 3e b8 66 7a 3d
       -0.117379576 0.08780921 0.15519458 0.061133116
000270 28 31 8d 3d c8 fa 1f bd 38 93 55 3d d1 cf 0a 3e
       0.068941414 -0.039057523 0.052142352 0.13555838
000280 ed 99 be bc 34 59 10 bd cd c2 8e 3b 08 83 06 3d
       -0.023266757 -0.03524132 0.004356718 0.032839805
000290 12 3b c7 bd f2 0a cc 3d 65 83 d7 3d f0 a8 14 be
       -0.09728064 0.09963025 0.105231084 -0.1451757
0002a0 6e 61 20 be 00 37 65 3c e7 57 2c 3e 5a 30 9e 3d
       -0.15662166 0.013990164 0.16830407 0.07724066
0002b0 f8 e9 51 3d a4 29 52 bc 4f 52 68 bd 84 1b 81 3d
       0.05124852 -0.012827311 -0.05671912 0.06304076
0002c0 69 10 28 3e 55 b8 e9 3d f1 b3 fe 3d d0 0f ed 3d
       0.1641251 0.11412112 0.12436665 0.115752816
0002d0 68 2e 33 bd d0 60 bf 3c a9 78 2d be b2 cd 2a 3e
       -0.04374543 0.023361593 -0.1694056 0.16680029
0002e0 5a ce d2 3d dd ed 1e be 7f cb 12 be 6c 4c 50 3d
       0.10293265 -0.15520425 -0.1433544 0.05085413
0002f0 22 b5 26 3e 91 8b f6 3d a0 d5 5b 3c 95 ab 07 3e
       0.16280034 0.12038339 0.013417631 0.13249047
000300 4f 2c 24 3e 4b e6 07 be 0e 26 9a 3d 67 80 1f 3e
       0.16032527 -0.13271444 0.075267896 0.15576325
000310 96 4a c4 bd ec ff 2f be 35 13 38 3d f0 77 20 bd
       -0.09584539 -0.1718747 0.044940192 -0.03917688
000320 fc 5d 3c bd d0 51 1a be d2 77 de 3d 0c 3b 69 3c
       -0.045988068 -0.15070271 0.10862698 0.014235269
000330 e9 10 26 be 7e f7 f7 bd 59 8a 1f be 66 ae e3 3d
       -0.16217388 -0.12107752 -0.15580119 0.11117248
000340 a9 5b 20 3e 3b 43 1f 3e 62 e1 54 3c 40 0b db 3d
       0.15659966 0.1555299 0.012993189 0.10695505
000350 ea 30 84 3d 52 d8 9d 3d 92 83 9a 3d ac da 05 bd
       0.06454642 0.077072755 0.07544626 -0.032679245
000360 d1 1b 05 be 75 bf b7 3d 9d a3 e8 bd 26 4e 82 bd
       -0.12998892 0.089720644 -0.11359332 -0.06362562
000370 56 12 ab bd aa eb 1a be 33 d8 08 be 54 d8 14 bd
       -0.08353107 -0.15128961 -0.13363723 -0.03633912
000380 4b 9c b6 bd 4b 1d 87 bd fe f7 28 be c8 91 f5 3c
       -0.08916529 -0.06597384 -0.16500852 0.02997674
000390 69 96 69 bd 15 31 12 3e 9d 43 64 3d 8d 0c d9 bd
       -0.057028208 0.14276536 0.055728544 -0.10598097
0003a0 30 8d 37 3d 95 10 4b bd 67 0d 19 3e 00 4e e7 3a
       0.04481238 -0.04957636 0.14946519 0.0017647147
0003b0 e8 89 4d 3d e8 03 dd bd 09 d2 06 be d9 a6 29 3e
       0.050180346 -0.10791761 -0.1316606 0.16567554
0003c0 ae e7 f5 3d 4d 46 b9 3d 56 63 d2 3d 70 d7 80 3c
       0.1200708 0.09046612 0.10272853 0.015727729
0003d0 48 60 44 3d 1e 43 04 3e ff 75 82 bd a9 2b d8 3d
       0.047943383 0.12916228 -0.06370162 0.105552025
0003e0 cf be 93 bd 14 db 02 bd 65 d6 88 3d db 6e b2 bd
       -0.07214128 -0.03194721 0.066815175 -0.0871255
0003f0 b4 67 2f 3d 03 47 9f 3d c7 28 04 be 16 e8 c0 3d
       0.04282351 0.07777216 -0.1290618 0.09419267

sensor_model.4.bias f4 [64]
000000 30 8e 76 3e 91 d7 bb bd 34 27 7a bd a1 0b 40 bd
       0.24077678 -0.091719754 -0.061072543 -0.04688609
000010 cb 81 0e bd a4 e2 51 3c a9 60 68 bd 69 f9 3d bb
       -0.03479175 0.012810383 -0.056732807 -0.0028987771
000020 49 54 60 3c 7a 72 d3 3e 30 4e 12 bd a4 65 50 bd
       0.01369197 0.41298276 -0.035719097 -0.050878182
000030 10 4d 81 bd 5b e5 bd 3e 29 cf bb 3e 9b 7c a1 bd
       -0.06313527 0.37089047 0.36681488 -0.07885095
000040 c0 58 19 bc 44 7d 01 bd 82 81 e6 3e 3d f0 8e bd
       -0.009359539 -0.031613603 0.45020682 -0.069794156
000050 fe 20 de bc 59 16 a5 bc 36 30 9e 3e 9c a3 d0 3e
       -0.027115341 -0.020152258 0.30896157 0.40749824
000060 66 5f a7 bd c7 75 88 bd df e0 c8 bc d4 2e c8 bc
       -0.08172493 -0.06663089 -0.02452129 -0.024436392
000070 55 56 22 3d 14 db 50 3c 50 cf 24 3d b8 f2 73 bd
       0.039633114 0.012747545 0.04023677 -0.059557647
000080 7e 72 b5 3c 70 86 37 bd 7f 5a d6 bc 00 88 bb 39
       0.02214932 -0.044805944 -0.026166199 0.00035768747
000090 73 9c a0 3e 40 53 f9 bb 1d 0b 72 3d e0 9d 7a 3d
       0.3136936 -0.007608801 0.05909263 0.061185718
0000a0 97 58 f0 3e 30 a6 6f bd f0 8d f5 3e bf 9c 9c 3e
       0.4694259 -0.058508098 0.47959852 0.30588338
0000b0 6f 77 08 3d ce 9f 56 bd 60 f5 7e bd 96 a5 7a bd
       0.033317026 -0.052398495 -0.062245727 -0.06119307
0000c0 01 82 2d bd 71 b2 d2 3c d2 30 55 3d 9a 1f 44 bd
       -0.04236031 0.025719853 0.05204851 -0.0478817
0000d0 fd a9 b3 3c fa 0f bc bd a1 35 5c 3d cb 87 67 3c
       0.021931643 -0.09182735 0.053762082 0.014131497
0000e0 06 1f 93 3d 03 6e c7 3e f6 d6 5f bd 5a de 25 bc
       0.071836516 0.3895112 -0.054648362 -0.0101238135
0000f0 94 6a 8c bd 9d c2 96 bd db 2d f6 3e eb 9c 33 3e
       -0.06856266 -0.07361338 0.4808186 0.17540328

target_model.0.weight f4 [64, 66]
000000 08 dc 81 be 29 9b 34 be 56 de 80 3d d9 42 9c bd
       -0.25363183 -0.17637314 0.06292407 -0.07629938
000010 07 8d fb 3d d3 57 70 3d 28 d3 0e bd b6 4e 32 3e
       0.12282758 0.058677506 -0.034869343 0.17412838
000020 4f 89 2b 3e 26 4c 1f be e9 c6 0a 3e 52 af 18 be
       0.16751598 -0.15556392 0.1355244 -0.1491063
000030 8c 06 25 bd 7b 1e 28 3e b2 28 b1 3d 9e f9 94 bd
       -0.040289447 0.16417877 0.0865034 -0.07274173
000040 cf 88 52 bd d6 24 85 3d 9e b4 ce 3d 33 2c 16 3e
       -0.051400002 0.065011665 0.10093044 0.14665298
000050 34 27 48 3d 81 9d 1f 3e 3d a3 20 3e 41 b4 61 be
       0.048865512 0.15587427 0.1568727 -0.22041418
000060 fb 6c 48 3c ec cb 4a 3e 02 63 6b bd 49 c7 57 be
       0.012233014 0.19804353 -0.057467468 -0.21072115
000070 58 cd 20 3e 65 29 48 bc ab 0c 4d be 9a a0 00 be
       0.15703332 -0.0122169005 -0.20024364 -0.12561265
000080 8e 21 08 3e c5 58 56 be 2f fd 2f be 2b ec 59 be
       0.1329405 -0.209323 -0.17186426 -0.21281497
000090 14 88 5d bd 00 78 5c 3c ba 38 8b 3d 6d e6 28 be
       -0.054084852 0.013456345 0.06797929 -0.1649415
0000a0 98 ff 00 be bd d7 91 3c 6a b0 44 be 5e e5 7b bd
       -0.12597501 0.017803067 -0.19207922 -0.06149804
0000b0 20 31 e9 3d c4 ea 53 3d ca 50 1d be a4 06 15 3d
       0.11386323 0.05173756 -0.1536285 0.036383286
0000c0 d1 14 46 3e 55 78 08 be c6 51 ec bd 94 f4 b4 3d
       0.19343878 -0.13327153 -0.115390345 0.08835712
0000d0 23 03 30 3e 92 34 13 be 6b bc 87 3d f7 c5 00 3e
       0.17188697 -0.14375523 0.06627735 0.12575518
0000e0 9d 72 1c 3e 51 3e 84 be 79 a7 34 3e 3b cc 5a 3e
       0.15278096 -0.25828794 0.17642011 0.2136697
0000f0 ac 39 71 3d c0 34 0e 3e c8 a3 77 be 02 10 bd bd
       0.05889289 0.1388731 -0.24183571 -0.09231569
000100 ad 4b 45 3d 34 93 76 3b c5 51 0e be 62 19 c7 3c
       0.048167873 0.003762436 -0.1389838 0.024304096
000110 20 63 04 be ac c6 17 be 7f ab f9 bd a8 84 33 bb
       -0.12928438 -0.14821881 -0.121909134 -0.0027392302
000120 89 7b 59 be 67 30 2c be 17 5f 24 3e 66 79 92 be
       -0.21238531 -0.16815339 0.16051899 -0.28608245
000130 9a 07 05 be 91 4f 4b be c4 da 11 3e 0e c5 de 3b
       -0.12991181 -0.19854571 0.14243609 0.006798393
000140 6f f9 88 bd 47 f5 41 3e fc a8 e9 bd a4 0e 7e 3d
       -0.06688201 0.18941222 -0.11409184 0.06202568
000150 9e ca dc bd d8 21 0f 3d 10 b5 10 be 56 d8 ac bd
       -0.10780834 0.034944385 -0.1413157 -0.084397
000160 cf bb 61 3c ca dc 95 3d dc 52 05 3e 32 87 4c 3e
       0.013777687 0.07317503 0.1301989 0.19973448
000170 2d 20 6a be 11 76 0e 3e 16 15 d2 3b 8a 33 66 3c
       -0.22863837 0.13912226 0.006411205 0.014050374
000180 92 f0 8c bd 3d cd 4e 3e 26 80 9e b8 02 48 a3 bd
       -0.06881823 0.2019548 -7.5578966e-05 -0.07972719
000190 06 a4 71 bd 76 43 9c 3d f9 c2 70 bc 71 6b 2a be
       -0.058994316 0.07630055 -0.014694923 -0.16642548
0001a0 c2 cb 8e bd e0 24 4e 38 2e a5 d1 3d f1 93 fd bd
       -0.069724575 4.914857e-05 0.10236584 -0.12381733
0001b0 86 c6 d0 3d fa ea 4c be 7e a9 e4 3d 00 61 00 3a
       0.10194115 -0.20011511 0.111651406 0.00048972666
0001c0 03 e0 3e be 46 3b fa 3d 6e f1 e2 3d 7b 49 ba 3d
       -0.18640141 0.12218337 0.11081205 0.090960465
0001d0 00 75 77 bb 19 db 40 3e db fb 9a bd d3 6b 10 3d
       -0.0037758946 0.18833579 -0.07567569 0.03525908
0001e0 8a 7a a3 bd da 19 1c 3d f6 30 d5 bd 34 38 ec 3c
       -0.07982357 0.03811059 -0.10409729 0.028835393
0001f0 00 0e e7 3b ec 33 f6 bd db 32 15 be 6a c4 51 3e
       0.0070512295 -0.12021622 -0.14570181 0.20485082
000200 a3 96 95 be dc 54 cc 3c 66 1b 3b be f2 2b af 3d
       -0.2921649 0.024942808 -0.1827217 0.08553304
000210 b9 aa 66 be 0f 53 ee bd 20 fd 32 be e2 7f db bc
       -0.22526063 -0.11636936 -0.17479372 -0.026794378
000220 dc 24 9a bb 7a 0c b9 3b f9 2e 41 3e 56 b2 ac bd
       -0.004704101 0.0056472393 0.18865575 -0.084324524
000230 39 a5 14 bc ed 2c 7f be d0 28 ce bc 9f f0 b9 3d
       -0.009072595 -0.24919482 -0.025165945 0.09079098
000240 85 9c 83 bc 70 23 ab 3d 9f de f6 bd 94 ec 72 3d
       -0.016065845 0.083563685 -0.1205418 0.05930765
000250 f3 ea 5a 39 20 50 83 3c 68 d3 3e 3d 77 a0 18 3e
       0.00020877626 0.016029418 0.04658833 0.14904962
000260 80 6f 9f bd 8d 54 67 be 32 11 83 be 20 2f 83 be
       -0.07784939 -0.22590847 -0.25599056 -0.2562189
000270 93 31 19 be f0 dd 6e 3d d5 ec b8 3d 57 70 30 3e
       -0.14960317 0.058317125 0.09029547 0.17230354
000280 02 d7 b3 3d 6f 9e 43 be 71 b6 e3 bd 35 9a 5c be
       0.08781244 -0.19103406 -0.11118782 -0.215432
000290 83 26 ad 3c 14 e2 47 be 56 29 f4 3d 4e 3f ae 3d
       0.021136528 -0.19519836 0.11921947 0.08508168
0002a0 a5 69 8e be 06 08 9d 3d 0c be 94 be 99 59 b0 3d
       -0.27814975 0.07667546 -0.29051244 0.086108394
0002b0 aa 27 fb 3d e2 b1 54 be f2 db 2c be 7a a5 0f bd
       0.12263425 -0.20770982 -0.16880777 -0.03506992
0002c0 e0 f3 d0 bd 0e 72 eb bd 37 c7 70 3e 57 58 cb bd
       -0.102027655 -0.114963636 0.23513494 -0.09928959
0002d0 38 14 2e bd 78 14 be 3c af d2 58 3e 28 76 a3 3d
       -0.04249975 0.02320312 0.2117412 0.07981521
0002e0 9d aa c4 bc e0 48 09 be 9d 97 0c be 00 ad 50 3e
       -0.024007136 -0.13406706 -0.13729711 0.20378494
0002f0 26 86 21 be a3 77 88 be e7 b5 f2 bd 2e 34 0b be
       -0.1577383 -0.26653776 -0.11851101 -0.13594124
000300 f9 79 0c 3e 37 71 7f 3d 78 6a fb 3d f3 9c 9e bc
       0.13718404 0.06236383 0.12276167 -0.019361949
000310 3f 02 1c be 34 14 7b 3e 6b 10 07 3e 52 95 ba 3d
       -0.15235232 0.24519426 0.13189857 0.09110512
000320 85 06 41 3e df 1d 24 39 e7 23 4e 3e 36 76 e8 3d
       0.18850143 0.00015651387 0.20130883 0.11350672
000330 04 a2 8d bd ff df 0e bd d8 17 3a be b3 df bd 3d
       -0.06915668 -0.034881588 -0.18173158 0.09271183
000340 58 3a a2 bc 42 65 d7 3d 42 47 92 3d 97 49 65 3c
       -0.019803211 0.1051736 0.071424976 0.013994596
000350 b1 a0 f1 bd 58 65 61 bd f4 24 68 be c6 70 bf 3d
       -0.117982276 -0.05502829 -0.22670346 0.09347682
000360 6a 3f 47 3b b8 de 2d bd 6a 35 9b 3d c2 a2 36 3e
       0.0030402788 -0.04244873 0.07578547 0.17835525
000370 95 8d 8f bd 8e 4b 11 3e b7 81 d6 bc 6b 51 30 bc
       -0.070094265 0.14188978 -0.0261849 -0.010761599
000380 00 e8 65 39 f3 78 02 3e f6 0b 31 be 06 b5 fd bc
       0.00021925569 0.12741451 -0.17289719 -0.030970108
000390 f3 56 74 bd 9d 05 0e 3e 6d 55 21 3e 00 42 6e ba
       -0.059653234 0.13869329 0.15755244 -0.0009088814
0003a0 b0 c3 01 be 00 ca 98 39 f9 a9 c9 3d c8 0c 31 be
       -0.12672305 0.000291422 0.09846873 -0.17290032
0003b0 1b 97 a9 3d 83 42 13 be f0 b4 f3 bd c8 e3 09 3d
       0.08280774 -0.14380841 -0.118997455 0.033664495
0003c0 a4 28 8a bd d3 80 d1 3c d0 e9 5e bd 91 a3 b3 3d
       -0.06746033 0.025574123 -0.0544222 0.08771432
0003d0 f0 47 50 3d 71 cf 45 3e 44 fe 15 3d 78 02 56 be
       0.050849855 0.19317414 0.03661944 -0.20899379
0003e0 e6 62 fb 3d b2 df b7 3d 26 90 ee bd d9 b2 4b 3e
       0.12274723 0.08978213 -0.11648588 0.19892444
0003f0 7b 08 2b be cc e0 2c be 2e 67 81 3d 99 76 ce bd
       -0.16702454 -0.16882628 0.06318508 -0.100812145

target_model.0.bias f4 [64]
000000 18 0c 77 be 67 40 a2 bd 5b da 32 3e 95 8f d4 bd
       -0.24125707 -0.0792244 0.17466109 -0.103789486
000010 56 6c 1f 3f 41 cd cb 3e 54 2a fc 3b 31 31 78 3e
       0.6227468 0.39805034 0.0076954756 0.24237515
000020 3d 6b 84 bd 53 83 73 3e e8 df 8f 3d a6 b0 2d be
       -0.064657666 0.23780565 0.070251286 -0.16961917
000030 80 86 36 3f 0e 43 11 be e4 1a 6f bb be 2d 4e 3d
       0.7129898 -0.14185736 -0.0036484534 0.050336592
000040 f9 a2 b6 3d 6a fd 09 3f 90 92 98 be be a0 b1 be
       0.08917803 0.53902304 -0.29799318 -0.3469295
000050 09 ae 52 3d ab 97 00 3f 3b 7f ae bd aa db c9 3e
       0.051435504 0.50231427 -0.08520361 0.39425403
000060 3e 2b d8 3e de 3a 20 be 47 e0 25 be 6a 05 d3 3e
       0.4222049 -0.15647456 -0.16198836 0.41215068
000070 63 54 85 3d 53 85 17 3f 3a 22 83 bd 18 8e 01 be
       0.06510236 0.5918781 -0.064030126 -0.1265186
000080 29 1e 24 3f 02 8a c4 3e 10 cb f6 bd 57 65 b7 3d
       0.6410852 0.38386542 -0.1205045 0.08954876
000090 67 cd ce bd 0c 53 02 be d4 c0 ff 3c c3 3d 15 be
       -0.10097771 -0.12726992 0.031219877 -0.14574341
0000a0 78 01 2a be f5 02 15 3f e7 3d b8 be a1 51 35 be
       -0.16602123 0.5820764 -0.35984728 -0.1770692
0000b0 3d 13 b6 bd 07 12 63 bd 80 2f e2 3b 72 33 7a bd
       -0.08890388 -0.055437114 0.006902635 -0.06108422
0000c0 2f ed 23 3f 40 3c b7 bd 8a 4e c9 bc e0 f2 81 bc
       0.6403379 -0.08947039 -0.024573583 -0.015862882
0000d0 22 d2 ee bd 0e 1d 51 bd df 30 ac bd 04 e9 b4 bc
       -0.116611734 -0.0510531 -0.08407759 -0.022083767
0000e0 f8 c7 d3 3d 0a 88 1a be 68 a3 99 bb d2 0a 09 bb
       0.103408754 -0.15090957 -0.004688669 -0.002091099
0000f0 e4 05 c0 3e 5e ea b1 bd 82 ae 0e be 81 ab f6 bd
       0.37504494 -0.0868728 -0.13933757 -0.120444305

target_model.2.weight f4 [16, 64]
000000 94 fd b7 bc 0a a3 95 3e 30 24 ce 3c e2 f4 22 3e
       -0.022459783 0.2922595 0.02516374 0.15913728
000010 51 fa 12 3e 1f 3e 83 3d 2b 70 40 be 1c 79 56 be
       0.143533 0.06408333 -0.18792789 -0.20944637
000020 a1 e3 92 3b 34 ae 4d 3e 10 30 83 3e ba c0 c5 bd
       0.004482702 0.20085984 0.25622606 -0.096559
000030 9f 04 52 3e 23 b2 9f 3d e7 bf 7c 3e 24 c1 21 3c
       0.20509575 0.07797649 0.2468258 0.0098727085
000040 60 11 7f bd 57 b6 fe bd 0e d4 41 bc ed a2 b5 be
       -0.06227243 -0.12437122 -0.011830343 -0.35475865
000050 68 f7 b0 3d 84 3c 2c bd 73 da 41 be 33 e1 97 3d
       0.08640939 -0.0420499 -0.18930988 0.07416
000060 77 df 2c 3e bf b3 6b be 64 0e 1b be 6b 74 7e bc
       0.1688212 -0.23017786 -0.15142208 -0.015530686
000070 97 79 b5 3d b8 31 bb 3e 75 71 65 3e 96 b2 70 3e
       0.08861082 0.3656137 0.22406562 0.23505625
000080 c4 8e 13 3d 9f c9 0e be e0 1a b6 3d 13 e9 93 3c
       0.036024824 -0.139441 0.08891845 0.018055474
000090 e3 77 48 be 68 b3 f1 bd 3e 80 a7 3d d7 91 c5 3a
       -0.19576983 -0.11801797 0.08178757 0.0015073371
0000a0 1d 88 df 3d 3b fa 64 3e f4 a2 92 be fa d4 81 bd
       0.109146334 0.2236108 -0.28639948 -0.0633945
0000b0 ca b0 f0 bc 18 09 f1 bb 10 d3 74 3d 41 86 fd bd
       -0.029381175 -0.0073558204 0.059771597 -0.123791225
0000c0 fd a8 c3 3d 5d 34 ed 3d ec b7 49 bd e0 eb a2 be
       0.09553716 0.11582253 -0.049247667 -0.31820583
0000d0 4b 32 80 be 42 50 93 3e d3 2a 9f bd 44 65 94 3c
       -0.2503837 0.2877217 -0.0777184 0.018114693
0000e0 43 bc 31 3d 23 a7 0b bd a6 5e 52 be c4 0a bf bd
       0.04339243 -0.03409494 -0.20543918 -0.09328225
0000f0 27 99 e5 3d 62 b6 88 be 68 95 36 be 81 c8 4b be
       0.11210852 -0.26701647 -0.17830431 -0.19900705
000100 72 59 95 bd 99 07 77 3e 58 41 89 3d 2d 8b 4f 3e
       -0.07292451 0.24123992 0.067019165 0.20267935
000110 ff 2c 64 3e 04 63 1f be 24 79 b5 bd de 34 ae be
       0.2228279 -0.15565115 -0.08860996 -0.3402471
000120 28 0e ed bc 9e 84 4b be 32 31 44 3e f7 09 b0 bc
       -0.028937414 -0.19874808 0.19159392 -0.021489127
000130 05 d1 d1 3e 8f bd 3c 3e 75 3b 51 be 85 53 01 be
       0.40979782 0.18431686 -0.20432837 -0.12629516
000140 09 8c 11 bd 3b 46 bd bd 67 a9 01 3e ab 53 2b 3e
       -0.03553394 -0.09241911 0.12662278 0.16731136
000150 75 51 0b be 78 5b 60 be d2 df 69 3d 4c 65 dc 3d
       -0.13605292 -0.21909893 0.057098217 0.10761508
000160 51 23 8e 3e 4b 5b 00 be 55 98 4d 3d fb 52 c7 be
       0.2776132 -0.12534826 0.050194103 -0.38930497
000170 68 2c 2e 3c 9f 9b 7c 3e b5 59 8b 3d 3e 66 33 be
       0.010630704 0.2466874 0.0680422 -0.17519471
000180 46 73 cb 3e 3e b2 54 3d 8e 3f 94 3c 0a 55 4d be
       0.39736384 0.051927797 0.018096711 -0.20051971
000190 32 5b a9 bc 3e 59 3e be 10 f3 e0 3d 88 3f e2 3d
       -0.020673368 -0.1858873 0.109838605 0.11047274
0001a0 b6 e5 3b be 3e 95 cb 3e 5f 5c b2 bc 3b b5 6a 3c
       -0.18349347 0.397623 -0.021772562 0.014325435
0001b0 a4 e8 dd 3c c8 97 41 be 88 24 5d 3e f2 d6 81 3e
       0.02708847 -0.18905556 0.21595967 0.25359303
0001c0 17 03 22 3e d1 77 15 3e fa 1e 5f 3e 27 67 77 3d
       0.15821491 0.14596488 0.2178916 0.060401108
0001d0 86 f2 85 be 11 a6 b1 bd 22 ba 31 3e f5 63 85 bc
       -0.26161593 -0.08674253 0.1735616 -0.016283015
0001e0 3b ac d7 3d 77 a9 4a be 22 22 92 3e d7 2e ae bd
       0.10530897 -0.19791208 0.28541666 -0.08505028
0001f0 68 17 e4 bc a4 0e 6a bd 63 56 68 be c2 29 94 3e
       -0.027843192 -0.05714287 -0.22689204 0.2893811
000200 4e f4 18 be 56 4e 4b 3e 60 63 f8 3d 7a b8 5e 3e
       -0.14936945 0.19854102 0.12128329 0.2175006
000210 4c 5a 82 3e 20 ca c2 bc 8c 21 88 3d 32 f5 a3 bd
       0.25459516 -0.023778021 0.066470236 -0.08005752
000220 c4 9d 90 3d b7 2d 8b be 62 14 eb bd 0e 54 88 3e
       0.070613414 -0.27183315 -0.11478497 0.2662663
000230 6e 31 10 3e 60 22 87 3c 64 44 ed 3d 20 c7 2c 3c
       0.14081356 0.016495883 0.1158531 0.010545522
000240 1c 02 83 3e da d2 a8 bd ee c4 83 3e 00 9c c8 39
       0.25587547 -0.08243342 0.25736183 0.00038263202
000250 42 72 23 3e 36 08 05 3e 28 9b 21 3e 88 5b 9d 3d
       0.15961555 0.12991413 0.15781844 0.07683474
000260 38 b8 58 bd e8 1c 68 3d 24 f7 7f 3e 90 d2 c3 3d
       -0.05291006 0.056668192 0.2499662 0.09561646
000270 c0 b2 04 3d 49 d7 88 be 9a 3e 43 be be d0 e8 bd
       0.03239703 -0.2672675 -0.1906685 -0.113679394
000280 8b 16 81 be 06 4c 81 bd 4a ac 0a be 00 fb 85 bb
       -0.2521251 -0.063133284 -0.13542286 -0.0040887594
000290 8e 90 18 be 86 7b 38 3e 80 a4 8b 3d bc 09 88 3d
       -0.14898893 0.1801587 0.06818485 0.06642482
0002a0 b6 ad 67 be 58 4c 16 3d 50 69 1c be a0 c0 10 3d
       -0.22624859 0.0366939 -0.15274549 0.03533995
0002b0 2a a3 4a be b4 16 a1 3d 7c 60 93 bd 2c f4 35 3e
       -0.19788805 0.078656584 -0.07196137 0.17768925
0002c0 cc 9f a3 3d 60 b6 34 3e 30 1c 50 be e6 79 86 be
       0.07989463 0.17647696 -0.20323253 -0.26264876
0002d0 9a 45 09 3e 90 10 13 bd 03 f8 79 be f9 43 4a be
       0.13405457 -0.035904467 -0.24411015 -0.19752492
0002e0 98 0d 94 3d 18 47 75 3d 68 59 6d be 8d d8 81 be
       0.07229155 0.059882253 -0.23178637 -0.25360528
0002f0 a0 81 6b bc c0 0f 6b 3e b9 ff 0e be 68 37 c8 bc
       -0.014374167 0.22955227 -0.13964738 -0.024440482
000300 a0 1e 4e bc e4 28 05 bd 38 de d6 3d 34 19 81 bd
       -0.012580544 -0.0325097 0.104916036 -0.06303635
000310 6a b6 f0 3d ec 3e 0c be ee 26 57 be fb 0c aa 3d
       0.11753543 -0.13695878 -0.21010944 0.08303257
000320 29 e9 32 bb ad c8 98 be b0 6f 10 3d fa 96 83 3e
       -0.0027299619 -0.29840603 0.035262764 0.25701123
000330 87 76 f8 3d 5b 1c 03 3e 2f a6 d9 bd 48 48 6f be
       0.12131982 0.12803786 -0.106274 -0.23367417
000340 64 34 5c be a1 bc 3e 3e 50 9c 28 3e 40 d3 d3 3b
       -0.2150436 0.18626644 0.16465878 0.006464392
000350 c6 bc 87 3e ce 46 56 3c 8c 00 46 bd 12 ba ad 3d
       0.2651121 0.013078405 -0.048340365 0.08482756
000360 46 05 98 be 48 6a 47 3d c3 35 86 be c0 7f 7e bd
       -0.29691523 0.048685342 -0.26212892 -0.06213355
000370 f0 1c 1f 3e fa f4 cc bd 84 87 4b 3e 80 b3 3e 3d
       0.15538383 -0.10007663 0.19875914 0.046557903
000380 c6 e4 82 be 07 c9 d7 3b d3 45 68 be 94 df a7 bd
       -0.25565165 0.0065852436 -0.22682886 -0.08196941
000390 6a f9 4e 3e ea 5d f6 bd d6 8a 52 be 38 54 aa 3d
       0.20212331 -0.120296314 -0.20560774 0.08316845
0003a0 eb 4c 09 3e 94 d8 52 bd 22 61 55 3d 00 62 04 3b
       0.13408248 -0.051476076 0.052094586 0.0020200014
0003b0 ae a9 ba 3d 80 4d 42 bb ef 97 6e be 2f d8 62 be
       0.09114395 -0.0029648244 -0.23300146 -0.2215278
0003c0 f7 f7 2e 3e 94 d3 d5 3d bc ac 81 3c 0a 29 08 3e
       0.17086779 0.10440746 0.015829436 0.13296905
0003d0 2e 41 01 be ea e7 7a be 32 46 90 3c b0 48 54 bd
       -0.1262252 -0.2450253 0.017611597 -0.051827133
0003e0 27 f7 41 be bc a5 76 be e0 ba f9 3d 92 fd 0b 3e
       -0.18941937 -0.2408666 0.12193847 0.13670948
0003f0 b2 80 6a bc 17 70 35 be eb 99 83 be 44 98 a2 bd
       -0.01431291 -0.1771854 -0.25703368 -0.079391986
