Pytorch_DRL/DDPG/models/backup/3.30/best_ca_actor.model (torch_old, 557663 bytes, 12 tensors)

sensor_model.0.weight f4 [256, 360]
000000 d3 f4 21 bd f0 6e 87 bc 5f 2a 21 bd d4 82 c9 3c
       -0.039540123 -0.016532391 -0.03934705 0.024598517
000010 ce 9c 14 3d e8 b6 11 3c b8 19 27 bc 80 c2 b0 3c
       0.036282353 0.008893706 -0.010199003 0.02157712
000020 28 b2 8e bc 46 11 0a 3d 20 c7 c9 bb b0 f7 a6 3c
       -0.017418936 0.03370788 -0.0061577708 0.020381778
000030 1b 19 96 bd 00 24 d0 3b 46 b6 44 bd f8 8e 8f bd
       -0.07329007 0.006351948 -0.048025392 -0.07009691
000040 4e 5a 8b bd 3c 64 e2 bc 9a ef be bd bc 40 80 3c
       -0.068043336 -0.027635686 -0.09323044 0.015655868
000050 e0 67 3a bb 3d f5 bd bd 6d 04 8d 3d 84 d7 fb bc
       -0.0028443262 -0.09275291 0.0688561 -0.030742414
000060 22 36 7d 3d a6 fd 6e bd c4 a7 86 bd 7c 4d 0e bd
       0.061819203 -0.058347367 -0.065749675 -0.034741864
000070 8c 51 be 3c cf 71 92 3d 8e 6d 47 3d 34 b7 f4 bc
       0.023232244 0.071506135 0.048688464 -0.029872514
000080 4d e7 c1 3d a0 6a 87 3c 06 2d 15 3d 0e 9c 38 3d
       0.09467945 0.016530335 0.03641989 0.0450707
000090 a4 d0 a0 bd 87 66 9f 3d c8 c4 d4 3c a0 c7 42 bc
       -0.07852295 0.077832274 0.025972739 -0.011888415
0000a0 c4 e2 b3 bd 9c 50 c1 bd 00 a8 b6 b9 80 15 cc 3b
       -0.087834865 -0.09439203 -0.00034838915 0.006228149
0000b0 e0 49 05 bc a8 35 07 bc b3 37 8a 3d e8 10 2e bc
       -0.008135289 -0.008252539 0.06748905 -0.010624148
0000c0 be a9 86 bd f8 92 80 bd 75 d8 aa bd ce 30 24 3d
       -0.065753445 -0.06278032 -0.08342067 0.040085606
0000d0 e0 b3 a0 3b ef 74 c2 3d 40 26 42 bc ea e2 af bd
       0.0049042553 0.094949596 -0.01184994 -0.08588202
0000e0 cd fb 44 bd 50 c9 a5 3c 70 ac a6 bb 6b eb bf bd
       -0.0480917 0.020237595 -0.005086474 -0.09371074
0000f0 cc ad f0 3c a4 5b f5 bc 80 2d c2 3a c0 55 e7 bb
       0.029379748 -0.029950924 0.0014814585 -0.0070597827
000100 e0 7d 34 bd 77 3a c8 3d 99 f2 b1 3d 10 3c 67 bd
       -0.044065356 0.09776776 0.0868885 -0.056453764
000110 07 16 37 bd 40 ab 59 bb 00 5f 67 bc e2 a2 3b 3d
       -0.04469874 -0.0033213645 -0.014121771 0.045809634
000120 32 4d 3d 3d b1 80 b2 3d b3 df b5 bd 31 fd 84 3d
       0.046216197 0.08715952 -0.08880558 0.06493605
000130 cf 7b 7f bd d0 36 8b 3c c0 51 b9 bd 80 48 32 bb
       -0.062373932 0.01699391 -0.09048796 -0.0027203858
000140 0a 7a a3 bd a6 f8 b0 bd c1 95 1f bd b8 ac 46 bc
       -0.079822615 -0.08641176 -0.038961176 -0.01212614
000150 96 54 1a 3d c0 be 27 3c 66 fc a3 bd c3 12 bf bd
       0.037678324 0.010238349 -0.080071256 -0.093297504
000160 10 66 b1 3c 30 3f af 3b 44 09 92 bd 04 b6 17 bd
       0.021655113 0.0053481087 -0.071306735 -0.037038818
000170 60 85 b5 bb 11 45 85 bd e8 0a 1b 3c 72 12 29 3d
       -0.005539581 -0.06507314 0.0094630495 0.041277356
000180 58 a5 a2 bd da 4a 12 3d ac 29 ba bc c1 17 c3 3d
       -0.07941693 0.035715915 -0.022724949 0.09526015
000190 b3 97 9f 3d bf b8 51 bd b0 82 64 bc a4 b4 90 bc
       0.07792606 -0.05120158 -0.013947174 -0.017664261
0001a0 42 f9 85 bd 2a a0 86 bd cc 2b 00 bd 14 ef e7 3c
       -0.06541683 -0.065735176 -0.031291768 0.028312244
0001b0 57 6b 83 3d a8 4f 41 bd ba 3c 5e 3d 28 f8 85 3c
       0.06416958 -0.047195107 0.054257132 0.016353682
0001c0 a6 d5 1c 3d 89 42 af 3d 54 4b 92 bc 4f d4 c0 bd
       0.03828969 0.085576124 -0.017858185 -0.09415495
0001d0 84 74 b1 bc 84 95 e9 bc 06 ca 16 3d 37 98 6f bd
       -0.021662004 -0.028513677 0.03681376 -0.058494773
0001e0 17 73 af bd 6c c5 98 bc 6e 94 5a 3d ae 15 3d 3d
       -0.085668735 -0.018648826 0.05336421 0.046163253
0001f0 60 07 fc bb 33 f0 67 bd d0 66 17 3c c1 8e c7 bd
       -0.007691309 -0.056625556 0.009240821 -0.09744025
000200 14 b5 aa bd 80 42 32 3b 6b 3f 88 3d e2 13 41 bd
       -0.08335319 0.0027200282 0.06652721 -0.047138102
000210 81 d0 86 bd a0 df a9 bd 89 a4 7f bd 20 2b b9 bb
       -0.06582738 -0.08294606 -0.062412772 -0.005650893
000220 1e 34 6d 3d 17 57 3f bd c7 26 c1 3d 00 9b f8 39
       0.05791103 -0.046713915 0.09431224 0.0004741773
000230 20 ef 8d bd e6 2a ad bd 4e 6b 0f bd 80 76 46 3c
       -0.06930375 -0.08455448 -0.035014443 0.012113214
000240 56 d2 1a 3d 09 a2 b5 bd 62 c4 12 bd 74 b4 d7 bc
       0.03779825 -0.088687964 -0.035831816 -0.026331164
000250 92 33 7a 3d 51 08 ca 3d b7 ee c3 3d e8 a0 6f bc
       0.061084338 0.098648675 0.095670156 -0.014625765
000260 a1 0f 41 bd c8 22 c5 bc c0 7b f9 3a ee b6 71 3d
       -0.047134046 -0.024064437 0.0019034073 0.059012346
000270 84 f7 86 bd 0a 5b 20 3d f6 40 4f 3d 70 ef d7 bc
       -0.065901786 0.03914932 0.05059906 -0.02635929
000280 0e bb 5f bd 23 18 a5 3d 07 c4 5b bd e8 e8 b2 bd
       -0.05462175 0.08061244 -0.053653743 -0.087358296
000290 9e 46 25 3d 1a 93 81 bd d5 69 8e bd d4 d1 b3 3c
       0.04035055 -0.063268855 -0.069537796 0.02195064
0002a0 85 40 af 3d 90 32 71 3c 3a d7 29 3d 99 fb b0 3d
       0.08557228 0.014721528 0.04146502 0.086417384
0002b0 9e b5 bd bd db 90 c0 3d f9 b3 1d bd 94 52 b1 bd
       -0.09263156 0.09402629 -0.038501713 -0.08658329
0002c0 35 a7 99 3d a7 ec b2 bd a0 db dc 3b 99 d5 82 3d
       0.07502595 -0.08736544 0.0067400485 0.06388397
0002d0 38 85 d6 bc e0 31 c1 bc 7c c8 8c bd 70 3d ae bd
       -0.02618657 -0.023583353 -0.06874177 -0.08507812
0002e0 60 67 21 bd 38 ae 33 3c 8c 00 68 bd a8 dc a3 3c
       -0.039405227 0.01096683 -0.056641147 0.020002678
0002f0 3e 9c 4b 3d 28 ff bc 3c 70 1f f7 bc 7e f8 6a bd
       0.04970955 0.023070887 -0.030166358 -0.057365887
000300 79 02 af 3d 86 18 39 bd d1 57 98 3d 25 1d c6 bd
       0.085453935 -0.045189403 0.07438625 -0.09673528
000310 c6 b3 12 bd 28 38 b0 bd 29 3e 66 bd 94 e2 be 3c
       -0.035815977 -0.08604461 -0.056211624 0.0233014
000320 1b 0e 90 3d 29 67 90 bd e0 cf 1c bb 1c 1d 85 3c
       0.070339404 -0.07050926 -0.0023927614 0.016249232
000330 76 04 b8 bd 60 c8 bb bd 0c ac ef 3c 68 73 c6 3c
       -0.08985226 -0.09169078 0.029256843 0.024224952
000340 c6 8e 79 3d e5 73 5d bd 08 4e 7d bc 52 ea 80 bd
       0.060927175 -0.054065604 -0.015460499 -0.06294693
000350 83 27 27 bd eb cd bb 3d b4 e4 e9 3c f8 95 e7 bc
       -0.040809166 0.09170135 0.028551437 -0.028269753
000360 e0 6f 58 bc 48 ba 94 bc 33 2c 86 bd 89 7d 3d bd
       -0.013210267 -0.018155232 -0.06551399 -0.046262298
000370 ab ed 59 bd 3f 20 c9 3d 40 9d 08 bc 6c 8c cf bc
       -0.053205173 0.098206036 -0.008338273 -0.025335513
000380 59 0d 35 bd a7 c5 a4 bd 6f ea c5 bd be ac b2 bd
       -0.044202182 -0.08045512 -0.09663855 -0.08724354
000390 f5 6c 40 bd d6 02 17 3d 7b 81 63 bd 17 7e b0 3d
       -0.04697891 0.03686794 -0.055543404 0.086178
0003a0 e7 77 bd 3d dc 87 f3 3c 2b e7 94 bd cd 54 c2 3d
       0.09251385 0.029727869 -0.07270654 0.09488831
0003b0 64 d2 db 3c 7e 7e 08 3d f2 9e 2b 3d 00 f6 33 bb
       0.02683372 0.033323757 0.04189963 -0.002745986
0003c0 c2 eb 70 3d dc c7 ec bc 1e 31 1a 3d 55 75 7c bd
       0.058818586 -0.028903894 0.037644498 -0.061635334
0003d0 30 7e 16 3c 39 5c a8 bd bb 88 af 3d cc 67 9c bd
       0.009185359 -0.08220715 0.08571001 -0.07636985
0003e0 c0 01 e1 3b 50 3d 54 3c 0e 12 76 bd a2 6b 27 bd
       0.0068666637 0.012954071 -0.060075812 -0.04087413
0003f0 60 76 6b bb 4a c6 60 3d e5 e9 92 bd 36 54 42 3d
       -0.0035928711 0.054876603 -0.07173518 0.04744359

sensor_model.0.bias f4 [256]
000000 c1 d0 c3 bc 54 b3 41 bd 88 49 05 bc cc bc 35 bc
       -0.023903253 -0.04729016 -0.008135207 -0.011092376
000010 90 80 cf bb 3c 3e 18 bc 84 35 31 bc 14 f7 53 bd
       -0.0063324645 -0.009292182 -0.010815982 -0.051749304
000020 e9 33 8e ba 65 79 0d bd 0a 38 b1 bc 8b f3 1f bd
       -0.0010849211 -0.0345396 -0.021633167 -0.03905062
000030 48 ed 12 ba 56 2a 18 ba f4 e5 77 bc f3 91 f3 ba
       -0.00056048157 -0.00058046484 -0.015130509 -0.0018582925
000040 21 cd 17 b9 f0 06 0e bb c2 1e e7 bc 10 de 4e bc
       -0.00014476899 -0.0021671616 -0.028212909 -0.012626186
000050 aa 70 33 bd 4c d0 3f bc 76 ec 95 3d d2 ef 1c bd
       -0.043808617 -0.011707377 0.07320492 -0.038314648
000060 bd 4e 09 ba 06 af 46 3d 8e 8c 1d bd da 54 16 ba
       -0.0005237868 0.04850676 -0.03846412 -0.000573469
000070 24 07 74 bc 1c e3 11 bc d5 2f 2f 3d b1 58 9b 3d
       -0.014894281 -0.008904245 0.042770226 0.07585276
000080 a6 26 1d 3d 1d 01 52 bd c5 b5 c5 bc 90 64 12 ba
       0.038366936 -0.051270593 -0.024134526 -0.0005584443
000090 be 0a e6 bc 07 9c 65 3d 06 ba e9 bc 1e fa a0 3d
       -0.028081294 0.056057002 -0.028531086 0.07860206
0000a0 7c 28 81 bc 10 46 78 bb e8 ff 5f bc 30 f0 52 bb
       -0.015766375 -0.0037883557 -0.013671853 -0.003218662
0000b0 82 77 b0 bc 04 5e 49 3d 13 47 8c 3d 6a 0d 67 3d
       -0.02154136 0.049161926 0.06849494 0.056409277
0000c0 a7 e1 0b 3d 03 d2 1e bd b4 e7 ef bc 61 f4 b1 bc
       0.034150746 -0.0387745 -0.02928529 -0.021722974
0000d0 1c ec 51 bd a2 81 00 3d 3d d7 48 3d 90 40 88 3d
       -0.051250562 0.031373627 0.049033392 0.06652939
0000e0 88 2e 1b bd e4 f3 1a 3c dc 8e 4c ba 6f d5 c0 bc
       -0.037886173 0.009457562 -0.000780327 -0.023539273
0000f0 7d c2 90 3c 74 c4 85 bc cb 36 39 3d 5b 4b fc 3c
       0.017670864 -0.016329028 0.04521827 0.030797651
000100 36 80 da bc b3 89 c2 b9 5a 77 b2 bc ec 16 0f bd
       -0.026672464 -0.00037105157 -0.021785427 -0.03493397
000110 8e 7d 25 bd 66 ea 76 3d 08 c3 9e bb 60 55 70 b9
       -0.04040294 0.060282134 -0.004845027 -0.00022919988
000120 ee 01 8e bc 71 b2 0f bd 02 0d 29 bd 34 bf 16 3d
       -0.017334905 -0.035082284 -0.04127217 0.03680344
000130 01 fa eb bc 8e 0b 3a 3d 31 47 23 bd 8f 8e 9c ba
       -0.028805735 0.045421176 -0.039862815 -0.0011944341
000140 15 8c 40 bd f0 73 2e 3d b4 71 14 bc ef f0 43 bd
       -0.047008593 0.042591035 -0.009060312 -0.047837194
000150 ce 0f 05 3d 65 92 36 3d 52 9f c2 bc 45 5b 44 bd
       0.032485776 0.044573206 -0.02375761 -0.047938604
000160 f5 0e 9e 3d 2e a5 36 bd be f1 05 b9 00 24 62 bb
       0.077176966 -0.04459112 -0.00012773924 -0.003450632
000170 48 c7 60 3d 69 06 22 bd 18 34 bb bc 92 fd 59 ba
       0.05487755 -0.039556894 -0.022851989 -0.0008315678
000180 c2 96 36 bd 4d 9a 3e bd 2e 61 88 3d bf 9c 7e 3d
       -0.044577368 -0.04653387 0.066591606 0.062161203
000190 71 5d 0e 3d 35 93 90 3d 50 cb 66 bc 10 f9 06 3d
       0.03475708 0.070593275 -0.014086559 0.03295237
0001a0 a5 81 7f 3d 73 0b 32 bd 81 cc f1 bc e7 78 56 bd
       0.062379498 -0.04346795 -0.02951646 -0.052361395
0001b0 08 4b 86 bb 80 79 0a bd 61 33 37 3d ea 2d 2e bd
       -0.0040983 -0.033807278 0.044726733 -0.042524256
0001c0 3d 19 16 b9 90 f5 06 bd fa ed ad bc e4 0b a3 bc
       -0.00014314517 -0.03294903 -0.02123164 -0.01990313
0001d0 f8 7a 31 b9 6c 83 97 bc f5 28 62 3d 6d 47 44 ba
       -0.00016925845 -0.018495284 0.05521484 -0.000748745
0001e0 e0 c5 82 bb e2 94 0c bd dd ac 13 ba 78 9a 8f bb
       -0.0039908737 -0.034321673 -0.00056333636 -0.004382428
0001f0 85 35 f1 bc 68 04 a5 bc 8d 62 31 bd 6b c8 f5 bc
       -0.029444465 -0.020143703 -0.043306876 -0.030002793
000200 fd e1 6e 3d d4 eb 7d bc ef d0 98 3d ed 16 1d b9
       0.058320988 -0.01549812 0.07461726 -0.00014981227
000210 db e7 66 b8 52 a4 24 bd 70 7b 1d bd 48 4e 81 3d
       -5.5052205e-05 -0.04019577 -0.038447797 0.06313759
000220 ad 42 51 bd f8 72 61 3d c6 8c 9b bc 58 72 c0 bb
       -0.051088978 0.055041283 -0.018988024 -0.005873006
000230 4d 6a 6b 3d bd 2c 57 bd b2 52 ea bc 79 9a be bc
       0.057474423 -0.0525329 -0.028603885 -0.023267018
000240 7c 68 11 ba af d4 9a b8 36 ae cb b9 80 77 90 ba
       -0.00055468804 -7.382908e-05 -0.00038848975 -0.0011021942
000250 fe 49 c5 b8 88 b8 cc bb 9c 90 34 bd 70 13 4b bd
       -9.407474e-05 -0.006247584 -0.044083223 -0.049579084
000260 40 0c 70 ba 48 41 dd bc ec d1 76 3d 12 cc 33 bd
       -0.0009157099 -0.027008668 0.06025879 -0.04389579
000270 06 84 24 3d 58 fe 8c bb d6 fd 41 3d 32 9e 8a bc
       0.04016497 -0.004302781 0.047361217 -0.016921137
000280 00 2e 4e b9 3b d0 11 3d 30 6f 3f bd 79 60 d8 bc
       -0.00019662827 0.035598975 -0.046736896 -0.02641319
000290 1e 2c 80 b9 9b f1 78 3d a6 47 b7 bc 74 13 05 bd
       -0.00024446932 0.060777288 -0.022373032 -0.032489255
0002a0 c0 58 1d bc b5 3a 24 bd 5a c1 85 bc 56 5d 69 3d
       -0.009603679 -0.04009505 -0.016327549 0.056973778
0002b0 e4 3f 1a bd 78 f2 3b 3d 78 7e 3d ba 0c 2f 9e bc
       -0.037658587 0.045885533 -0.0007228623 -0.019309543
0002c0 51 54 f0 b9 eb 45 70 3d 31 52 74 b9 ae 47 24 3d
       -0.00045839188 0.05866043 -0.00023300272 0.04010742
0002d0 a3 3e 22 3c c0 9d f7 ba 37 36 aa 3d 49 2b 42 3d
       0.009902629 -0.0018891618 0.08311122 0.04740456
0002e0 ed a5 56 bd 09 35 a0 3d d7 3d 4c ba 71 57 d5 b8
       -0.052404333 0.07822616 -0.0007791197 -0.00010172919
0002f0 77 0b 3d bd 23 47 9e 3d 11 8a 14 3d d5 87 1c 3d
       -0.04615351 0.07728412 0.036264483 0.038215477
000300 49 89 19 ba c0 d8 1b bb 88 f7 0a b9 7c ad dc bc
       -0.0005856944 -0.0023780316 -0.00013252918 -0.026938193
000310 48 13 a9 3c 42 fb 4f bd 65 57 14 3d dc ef 3c bd
       0.020639077 -0.050776727 0.03621616 -0.046127185
000320 a8 cd 94 bc ec b7 68 bc a1 4d 34 3d 30 f2 47 bc
       -0.01816447 -0.014204007 0.044019345 -0.012203738
000330 64 f0 3f 3d 4a 82 0b bd 80 1c 0c bc 68 56 4b 3d
       0.046860114 -0.0340598 -0.008551717 0.04964295
000340 41 39 38 bd c0 0a 99 ba 20 81 5c 3d e8 e6 4b bd
       -0.044976477 -0.0011676177 0.05383408 -0.049780756
000350 62 7d 59 3d 93 25 c0 bc b0 bd e3 bc 08 79 a0 bc
       0.05309809 -0.023455417 -0.027800411 -0.019588962
000360 82 9b ec bc 72 98 80 bc b9 af a6 3c 76 89 a4 bc
       -0.028882746 -0.015697692 0.020347463 -0.020085078
000370 a8 a3 0d bc 10 61 39 bc 75 ed 50 ba c6 04 28 3d
       -0.008644976 -0.011314645 -0.0007969954 0.041020177
000380 94 35 70 bc 98 e8 1d bd fb b4 37 b9 8f 17 14 bd
       -0.0146612115 -0.038551897 -0.0001751966 -0.03615528
000390 70 86 63 bc 80 d3 4c ba a0 8e 9e 3d 6a 53 be bc
       -0.013887033 -0.00078134984 0.07742047 -0.023233134
0003a0 57 6c 23 bd 70 f4 33 bc dd a2 7c ba a0 68 82 bb
       -0.039898243 -0.010983571 -0.00096373056 -0.0039797574
0003b0 2e ec 01 bd 61 d5 bf b9 53 53 1e 3d c7 9e 49 3d
       -0.03171938 -0.0003658934 0.038653683 0.049223687
0003c0 55 84 4f 3d f7 88 9a 3d 6b 4d 01 bd 4b e5 8f 3d
       0.05066331 0.07545655 -0.031567972 0.07026156
0003d0 af 74 d9 bc 34 81 1b bd 98 13 21 bd b4 91 3a 3d
       -0.026544897 -0.037965015 -0.039325327 0.04554911
0003e0 6e 36 1b bd 65 d7 3b bd d0 35 e0 bb 12 e0 28 bd
       -0.037893705 -0.045859713 -0.0068423524 -0.041229315
0003f0 4b 12 43 bd 79 93 6e 3d 40 15 55 ba 0e c6 73 3d
       -0.047624867 0.05824611 -0.00081284717 0.05951505

sensor_model.2.weight f4 [128, 256]
000000 d4 01 ff 3d 0e 90 dd bd 10 ee 19 bd 9e d1 97 3d
       0.124515206 -0.10818492 -0.03758055 0.07413028
000010 0c 61 5a bd 3a 12 a1 3d 24 fb 2b bd 2e 24 dd 3d
       -0.053315207 0.078648046 -0.041987553 0.10797916
000020 f0 53 77 3d 88 67 a9 bd 24 42 f7 3d 28 bf 70 bd
       0.060382783 -0.082717 0.12073162 -0.05877605
000030 00 9d 7d 3b 40 3c 23 3c 6c 51 a3 bd a4 c5 71 bd
       0.0038698316 0.009963095 -0.07974514 -0.059026375
000040 50 43 eb bd 40 12 ea bb dc 86 62 3d 80 1e a5 3b
       -0.11487448 -0.007143289 0.055304393 0.0050390363
000050 dc 59 11 3d 68 11 d3 3c 86 6f fd bd c0 8d 64 bd
       0.035486087 0.025765136 -0.12374787 -0.055799246
000060 5c c2 96 3d 80 f6 6e bb e4 ec c3 3d a0 de 6c 3c
       0.0736129 -0.0036462843 0.09566668 0.014457375
000070 40 2c 8a 3b d8 18 77 bd 70 06 94 bd c0 82 af bc
       0.004216701 -0.060326427 -0.0722779 -0.021424651
000080 24 aa 51 bd 90 c7 c8 3c ca 99 e9 bd 5c 69 d9 bd
       -0.05118765 0.024509221 -0.11406286 -0.10615799
000090 b8 2f e2 bc dc 8d 95 3d c0 5b 0f bc f0 90 f7 3d
       -0.027610645 0.07302448 -0.008749902 0.120881915
0000a0 58 f5 88 bc 48 bb 3d 3d 30 a7 37 3d 08 73 87 3c
       -0.016718552 0.046321183 0.044837177 0.016534343
0000b0 a0 b1 85 3d 7a ef aa bd 6c c0 10 bd 08 e2 c1 3c
       0.0652802 -0.08346458 -0.035339758 0.02366735
0000c0 18 12 99 bd e0 f4 30 bd d4 80 95 3d 48 3d 7d 3d
       -0.07474154 -0.04320228 0.07299963 0.06182602
0000d0 40 66 60 3d 98 a7 ae bc 68 33 c7 3d be 6a b1 3d
       0.054785013 -0.02132015 0.09726602 0.086629376
0000e0 08 ff 24 3d ba f2 db bd 54 2a b7 3d 76 48 ca 3d
       0.04028228 -0.10739656 0.0894362 0.09877102
0000f0 cc fd 1b bd 10 1b 43 bd cc ce 7f bd 1e b5 f7 bd
       -0.038083836 -0.04763323 -0.062453076 -0.12095092
000100 c0 b1 7c 3d 52 47 83 bd 9c 7c b3 bd 40 6a 5a bd
       0.061692953 -0.06410088 -0.08764002 -0.053323984
000110 c0 d3 7c 3b f4 14 1a bd 1e 07 f7 bd c8 2b d8 bc
       0.0038578361 -0.03761764 -0.12061904 -0.026388064
000120 40 14 a6 bc 3e 36 dc 3d 64 e7 f2 bd 58 37 e6 bd
       -0.020273328 0.107525334 -0.118605405 -0.11241025
000130 a0 22 c6 bb 70 52 bc bd 48 c0 9a bd 6e 25 91 bd
       -0.006046608 -0.09195411 -0.07556206 -0.07087217
000140 f0 ce dd bd 0e 67 90 3d 4c 7b 10 bd b8 b4 3a bd
       -0.10830486 0.07050906 -0.035273835 -0.045582503
000150 3c 42 4f 3d 24 f6 cb bd 18 4c 31 bd 38 e9 90 3c
       0.050600275 -0.09959057 -0.04328546 0.017689332
000160 96 42 93 bd 90 41 25 3d 30 1b 8c bd b2 07 92 3d
       -0.07190435 0.04034573 -0.06841123 0.07130374
000170 92 b9 b4 bd 80 e9 e3 bb de 75 90 3d 54 13 c7 3d
       -0.08824457 -0.0069553256 0.070537314 0.097204834
000180 84 f3 9d bd 16 bb 9e 3d 94 5e f0 bd b0 7b 4d bd
       -0.077124625 0.077505276 -0.11736789 -0.050166786
000190 a0 49 3d 3c ce 71 ac bd d0 8a ce 3c 36 3d d4 bd
       0.011553198 -0.08420144 0.025212675 -0.103632376
0001a0 3a c1 c6 3d 64 ec ff 3d ee 48 d7 3d 52 f2 b5 3d
       0.09704824 0.1249626 0.10511957 0.088841096
0001b0 38 5c 2f bd f4 a1 40 3d 00 8f 8e 3a 5e d2 a9 3d
       -0.042812556 0.04702945 0.0010876358 0.082920775
0001c0 0e 2a f2 3d c0 30 ea 3c a6 d4 af 3d e8 7f 85 3d
       0.118244275 0.028587699 0.08585481 0.06518537
0001d0 c0 57 ec bb e0 e8 37 3d fa 09 be 3d 2c 6a fc 3d
       -0.007212609 0.04489982 0.09279247 0.12324938
0001e0 b0 5d 9e 3d 50 61 8d bc 6c 59 58 bd e0 3d 7e bc
       0.07732713 -0.017258316 -0.052819654 -0.015517682
0001f0 de df d4 bd ce 69 af bd 24 9d 4e bd 24 db a3 3d
       -0.10394262 -0.085651025 -0.05044283 0.08000782
000200 40 fe 1b 3b f8 dc c2 bc cc 5f 02 3d d4 9e 5c 3d
       0.0023802668 -0.023787007 0.03182964 0.053862408
000210 d8 0e b2 3d 48 c3 b0 3c 14 c0 67 3d a0 ce 20 3c
       0.086942375 0.021577492 0.056579664 0.009814888
000220 70 7d 46 3d 00 d0 d3 3c 1c 22 47 3d 40 fb ea 3b
       0.04845947 0.025856018 0.048616514 0.0071710646
000230 e4 4b 56 bd e0 cd 9a bc 58 44 6e 3d a8 ea 26 3d
       -0.05231847 -0.018896997 0.058170646 0.04075113
000240 70 97 ae bd 60 66 9d bc 80 4d 0c bd 00 00 e7 bd
       -0.08524978 -0.019213855 -0.034253597 -0.11279297
000250 1e 3d f3 bd 80 b2 fd bc 40 5e 06 3c ec b8 ce bd
       -0.118768916 -0.030968904 0.008201182 -0.10093865
000260 58 67 5c 3d 50 8c 48 3d 80 1e 56 3d 98 fa d3 bc
       0.053809494 0.048961937 0.05227518 -0.025876328
000270 34 42 5b bd 38 44 d1 bd c8 c4 c1 bd 68 b9 f2 bd
       -0.053529933 -0.1021809 -0.09461361 -0.1185177
000280 66 fb 9c bd a0 b9 47 3d c0 62 ce 3c cc 1e 8c 3d
       -0.07665138 0.04876101 0.025193572 0.068418115
000290 60 61 f8 bd c8 0a 94 3d 2c 2b 64 bd 6c de d8 3d
       -0.12127948 0.07228619 -0.055705234 0.105892986
0002a0 7c 85 d3 3d 88 69 7c 3d e8 ae 10 bd a0 41 13 bc
       0.103281945 0.06162408 -0.035323054 -0.008987814
0002b0 f4 8a 67 3d 3c ec 23 bd 00 72 b3 3c 30 85 70 bc
       0.056529 -0.040020213 0.021904945 -0.014680192
0002c0 66 ff d9 3d 44 01 e8 3d 78 d8 b3 bd 1c 1a d4 3d
       0.106444165 0.113283664 -0.087815225 0.103565425
0002d0 9a 1e e4 bd 50 09 9f 3d b8 66 8d 3d ae fb 9e bd
       -0.11138649 0.07765448 0.06904358 -0.07762848
0002e0 00 b4 07 b9 5a 01 ac 3d 30 e6 35 3c c0 f8 b1 3d
       -0.00012941658 0.08398695 0.011102244 0.086900234
0002f0 72 9d e8 bd d6 fa a2 3d b4 61 fe bd f0 ab 4b 3c
       -0.11358155 0.079579994 -0.12420979 0.01243113
000300 06 41 8b bd ce de 9d bd 40 b3 70 bd 3e 2b a7 bd
       -0.067995116 -0.07708512 -0.058764696 -0.08162545
000310 8c 64 10 3d 00 88 dd bb 40 89 54 3b a0 88 ac 3c
       0.03525214 -0.006760597 0.003243044 0.021061242
000320 80 e5 ac 3d 28 4e e8 bc 80 fb 7e bc 5e 95 a3 bd
       0.08442211 -0.02835758 -0.015562892 -0.07987474
000330 30 4a 5b bc 26 df df bd f6 f6 89 3d 6e 52 e5 bd
       -0.013384387 -0.10931234 0.06736557 -0.11197363
000340 50 44 0e bd 30 d5 44 3c f4 2e c8 3d 3e b0 97 bd
       -0.034733117 0.0120137185 0.097745806 -0.074066624
000350 be ad ff 3d 70 47 02 3c 34 cc 52 3d a2 af 9f 3d
       0.124843106 0.007951602 0.051464275 0.07797171
000360 26 a8 fe 3d 9a 56 f3 bd ac 2a e6 3d e4 d3 08 bd
       0.124344155 -0.11881752 0.11238608 -0.0334052
000370 ee 0b fa 3d 12 02 f3 bd 7e 6e de bd 28 a7 cb 3c
       0.12209307 -0.11865629 -0.108609185 0.02485998
000380 dc cd 8c 3d e0 1d 22 3c 84 81 d5 bd 96 52 98 3d
       0.06875202 0.009894818 -0.10425094 0.07437627
000390 b8 8d d9 3d d8 7d 99 bd d0 48 ce bd a4 1d 02 3d
       0.10622734 -0.07494706 -0.10072482 0.03176655
0003a0 0c d7 85 bd 98 89 ec bd 98 ef 50 bd f4 19 b3 3d
       -0.065351576 -0.115496814 -0.051009744 0.087451845
0003b0 d0 32 20 3d 40 51 08 3d 88 47 ed 3c f6 1f e3 bd
       0.03911096 0.03328061 0.028964773 -0.110900804
0003c0 24 56 2e 3d 24 de 72 3d c8 95 cf 3c e0 af 86 bc
       0.04256262 0.05929388 0.025339976 -0.016441286
0003d0 16 09 90 3d 78 4d 97 3d 60 a8 f3 3c 00 ee 02 bd
       0.07032983 0.07387823 0.029743373 -0.031965256
0003e0 d4 6f 87 3d c8 60 99 bd 9e 40 d1 3d 0a 11 d9 3d
       0.066131264 -0.07489163 0.10217403 0.10598953
0003f0 fc c7 c0 bd bc f3 73 bd 90 b9 27 3d 5c 5b d0 3d
       -0.09413144 -0.059558615 0.04094845 0.101736754

sensor_model.2.bias f4 [128]
000000 10 7a d1 bb b8 b4 67 bc 08 42 02 bd 6a 9e 80 bc
       -0.006392725 -0.014142208 -0.031801254 -0.015700538
000010 e8 9a 03 bc 48 ad 0a bc 40 49 9b ba e6 55 4a 3d
       -0.008032538 -0.008464165 -0.0011847392 0.049398325
000020 2c ff 45 bd c8 c6 95 bc 0c 19 aa 3c de 15 8d 3c
       -0.048339054 -0.018283263 0.020763896 0.017222341
000030 67 0f a4 3d 5b 1d 01 3d e4 40 60 3c 93 2c d4 bc
       0.0801075 0.031522136 0.013687346 -0.02590016
000040 c5 eb 17 3c 48 a0 d4 3c eb 07 3e bb c9 c2 98 3d
       0.00927252 0.025955334 -0.0028996419 0.07459027
000050 a4 a7 c6 3d 80 22 65 bd 12 45 3d bd ac d1 bb bc
       0.09699944 -0.055941105 -0.04620845 -0.022927128
000060 89 cd a9 3d 5d 85 f6 bc eb 18 10 3c d5 fb 8c 3d
       0.08291156 -0.03009289 0.008795003 0.06883971
000070 c0 b7 6d bd 4c 7d 61 bd 9e 85 74 bc 5c cd 15 3b
       -0.058036566 -0.055051133 -0.014924435 0.0022858
000080 bb ac 82 bd c6 68 1b bd d6 43 04 3c 63 84 f4 3c
       -0.06380602 -0.037941717 0.008072814 0.029848283
000090 0a ec f7 3c ec c7 38 3d 82 b9 48 bd 44 8f 8d 3d
       0.03026392 0.045112535 -0.04900504 0.069120914
0000a0 97 de 30 3c cc 82 8f 3d 6b ac ba 3d 8e 0d 47 bd
       0.010795257 0.070073694 0.09114917 -0.04859691
0000b0 e8 ff 69 bd be f0 9a 3d cf 60 93 3c 48 40 db bc
       -0.057128817 0.07565449 0.017990498 -0.02676405
0000c0 02 1a 55 bd 04 63 12 bd b5 8a ea 3c b3 df 1d 3d
       -0.052026756 -0.03573896 0.028630594 0.038543414
0000d0 f9 48 fc 3c 58 bb e4 bc cb 20 f5 3c 94 db b9 bc
       0.030796515 -0.027921364 0.029922863 -0.02268771
0000e0 e8 b1 62 bd 0c ef 5e bd c8 bf 8b 3b 4e 6a 26 bd
       -0.055345446 -0.05442719 0.0042648055 -0.040628724
0000f0 64 e3 91 bc 1d 6c 05 bd 48 8b fb 3c 4a 9d 83 3c
       -0.017808624 -0.032573808 0.030706063 0.016066212
000100 34 6d 84 3b 7a 98 ff bc e9 78 96 bb 97 58 ca 3d
       0.0040413383 -0.031200636 -0.0045920503 0.098801784
000110 b8 cc e8 3b 67 46 03 3d 2c ff 72 bd a2 db 60 bd
       0.0071044825 0.032049563 -0.059325382 -0.05489696
000120 2c f7 95 3c be 49 6d 3d ae 42 07 bd 75 8e ce 3c
       0.018306337 0.057931654 -0.033022575 0.025214413
000130 9f 03 88 3c d8 06 5c bd 2d 5b b8 3d 96 c5 14 3d
       0.01660329 -0.053717464 0.090017654 0.036321245
000140 50 9e f5 3b f5 4e 49 bd 00 b1 88 39 ac 23 f7 bc
       0.007495679 -0.049147565 0.00026071817 -0.030168377
000150 98 47 6c bd 10 78 e0 3c ca 2a 57 bd 72 68 16 bd
       -0.057685465 0.027401 -0.05253104 -0.0367207
000160 44 5a 57 bd d8 38 a1 3c c3 75 91 3d 18 1f 71 bd
       -0.05257632 0.019680426 0.071025394 -0.058867544
000170 0c 37 25 bd 88 c1 e4 bc 07 5e 3a 3c da 5f cf 3d
       -0.0403357 -0.027924314 0.011374957 0.10125704
000180 d5 fa 99 3d dc 32 05 bd 6c eb eb bc 00 85 5e 3b
       0.075185455 -0.032519206 -0.028798781 0.0033953786
000190 a0 33 35 bc 24 16 24 bd 2f 83 63 3d 30 a2 6b bd
       -0.011059672 -0.040060177 0.05554503 -0.05752772
0001a0 d6 1d 9a bc e4 85 c9 bc 38 98 96 bc 84 3f 88 bc
       -0.018813055 -0.024599977 -0.01838313 -0.01663185
0001b0 1a bf 1c bc c4 66 02 bd 05 b1 0e 3d a4 9d 84 3c
       -0.009567047 -0.031836286 0.034836788 0.01618845
0001c0 d1 94 b4 3d 46 af 9b 3c 77 74 43 3c 2c 06 e4 3b
       0.08817447 0.019004475 0.011929623 0.0069587436
0001d0 31 1c cf 3c ac 4f d5 bc 90 86 49 3d 67 0e de bc
       0.025281997 -0.026038967 0.049200594 -0.027106477
0001e0 71 f8 bc bc e6 82 30 bd 68 70 94 bc f8 0a 7a bc
       -0.023067685 -0.043093584 -0.018120006 -0.015261404
0001f0 ce d5 3c bc 96 8c 64 3d 29 af c8 3a 1e 59 e6 bc
       -0.011525584 0.055798136 0.0015310991 -0.028118666

sensor_model.4.weight f4 [64, 128]
000000 92 d2 09 be b4 9f d7 bb dd 6b 06 3e a1 bf 94 bd
       -0.13459232 -0.0065803174 0.13127084 -0.07263113
000010 46 56 13 be cb 0a ab bd d8 de 10 be e0 7e 09 be
       -0.1438838 -0.08351668 -0.14147508 -0.13427305
000020 dd 5e 1c 3e 40 10 72 bd 88 02 55 bd 80 27 9d bd
       0.15270562 -0.05909753 -0.052004367 -0.0767355
000030 37 13 36 3e cb 25 43 3e 8a 8d ea 3d 9d 0a dd 3d
       0.17780767 0.19057386 0.11452778 0.1079304
000040 0f 59 1d bd 2a 43 c1 3c a4 b8 19 bc 1b e8 8a 3b
       -0.03841501 0.023591597 -0.009382401 0.004239095
000050 23 b4 6d bd 88 cf da 3c 53 8c be bd bb 3f c7 bd
       -0.05803312 0.026710287 -0.093041085 -0.097289525
000060 08 0d cc 3d 6c 31 1b 3d 80 ee 50 bd 0b d3 18 3e
       0.09963423 0.03788893 -0.0510087 0.14924257
000070 d0 23 f9 bd 0e 30 b6 3d 9b 6a 8c bd d3 88 d3 3d
       -0.12165034 0.088958845 -0.06856271 0.103288315
000080 f6 de 02 be a7 ba 20 3e d9 4b 65 3b 48 5d c3 bc
       -0.12780365 0.15696202 0.0034987836 -0.02384819
000090 d2 f5 fa bd 9a 77 43 3e 02 35 d7 3d 02 95 a4 3d
       -0.12253918 0.19088593 0.10508157 0.080362335
0000a0 98 b9 44 bd 1b c5 17 3e 40 4a b0 bd 26 62 9c 3d
       -0.04802856 0.14821284 -0.08607912 0.07635908
0000b0 e4 cf df bd e4 07 9a bd 70 49 f4 3d c2 8a f1 3d
       -0.10928324 -0.07521036 0.119280696 0.11794044
0000c0 ce 7a 20 be b0 cc 52 bd 00 d7 9b 3c 08 61 77 3a
       -0.15671846 -0.051464736 0.019023418 0.0009436761
0000d0 6e b9 07 be cb a1 33 be 97 e5 0e 3b 21 a4 dc bd
       -0.1325433 -0.17542188 0.0021804327 -0.107734926
0000e0 74 f3 6e 3d 9a 0f bb bd a6 c5 43 3d e4 ce 4c 3d
       0.058337644 -0.09133835 0.047795914 0.050001994
0000f0 6e 38 e5 3d 06 06 ba bc bb bc 23 3d 60 a6 18 be
       0.11192404 -0.02270795 0.03997491 -0.14907217
000100 ae 10 6b 3d c7 5d d7 3d 52 bc b6 bc ec 7d 08 3e
       0.057388954 0.105159335 -0.022306595 0.13329285
000110 81 8e d1 bd 8a 8c e7 3b 2e bd b2 3d 40 0a fb bb
       -0.102322586 0.007066314 0.087274894 -0.007661134
000120 d7 4d c4 3d 34 35 08 3d d4 f5 24 3d 03 97 f1 bd
       0.09585159 0.033253863 0.040273502 -0.11796381
000130 25 31 30 bd 60 54 d4 bb 6d f9 8b 3c b2 41 3f 3e
       -0.043015618 -0.006479785 0.017086709 0.18677405
000140 2c e9 de bd 0b 54 ea 3c 8b 4f dc bd 80 26 f4 3c
       -0.10884318 0.028604528 -0.10757359 0.029803514
000150 67 7a f9 bd 9f 00 0e 3e 28 b8 89 bd 2d 90 1a 3d
       -0.121815495 0.13867424 -0.06724578 0.037735153
000160 85 11 30 be a0 54 43 3c bb d5 04 bd f3 2d c8 bd
       -0.17194183 0.011922032 -0.03243039 -0.09774389
000170 7e 95 92 bd 0c 9d 12 bd 09 d6 f5 bd 42 de f9 bb
       -0.071574196 -0.035794303 -0.120037146 -0.007625372
000180 51 29 07 3d 4d 09 f6 3c d6 66 f4 3d 93 41 29 3e
       0.032998387 0.030033732 0.11933677 0.16528921
000190 e5 44 33 3e 66 78 a4 3d 8b 34 c2 bd 54 db 08 bd
       0.1750675 0.08030777 -0.09482678 -0.033412293
0001a0 ab 74 e7 3d bf 09 2c be ae 0c 87 3d e8 cd a9 bd
       0.113015495 -0.16800593 0.06594215 -0.082912266
0001b0 50 af c0 3d 20 cf c9 bb c6 d6 2b 3c f1 97 9a 3d
       0.09408438 -0.0061587244 0.010488218 0.07548512
0001c0 d9 a0 4b be 68 06 9d bd a5 9b 24 3e 64 02 ec bc
       -0.19885577 -0.076672375 0.16074999 -0.028809734
0001d0 a3 62 86 bd 28 58 1a 3d c3 e4 23 bc 5c 05 40 bc
       -0.06561782 0.03768173 -0.0100032715 -0.011720028
0001e0 b1 0e fc bc 00 32 65 ba fd 5b b3 bd 60 7a 34 bd
       -0.030768724 -0.00087431073 -0.0875778 -0.04406202
0001f0 d8 32 10 be 12 5e e8 3d 35 f1 e9 bd 47 5f d9 bd
       -0.14081895 0.113460675 -0.1142296 -0.10613876
000200 75 d8 cb bd 79 c1 31 3e 96 fd e0 3d 67 24 0f 3e
       -0.09953395 0.1735896 0.10985868 0.1397873
000210 80 d2 cf 3a 4c 00 7e 3d 7c c9 a1 bd 92 4d da 3d
       0.001585558 0.062012002 -0.07899758 0.106593266
000220 d4 97 73 3d 8e 4e e2 3d 3a 57 d2 3d db b6 91 bd
       0.059470966 0.11050139 0.102705434 -0.07114955
000230 d9 07 d4 bd 66 8d d3 3d 3c 9a 4b bd 1c 3b 6d 3d
       -0.10353059 0.10329704 -0.049707636 0.0579177
000240 f6 4b be 3d 5d 2e 02 be dc 83 33 3d 76 ae 23 be
       0.09291832 -0.12712999 0.043826923 -0.1598452
000250 51 2d 23 be 90 78 51 3d 36 48 d0 3d d8 7d 42 3d
       -0.15935256 0.051140368 0.10170023 0.047483295
000260 d6 1a b7 3d 2d 86 bb bd 58 12 4d 3d a0 88 6c bd
       0.089406654 -0.091564514 0.050066322 -0.057747483
000270 41 c2 2a 3e a0 22 2d be 70 6c f4 3c be 34 ee bd
       0.16675664 -0.1690774 0.029836863 -0.116311535
000280 80 5d 72 bc ea 6e 65 bd 5e 59 d0 3d de e2 fe 3d
       -0.0147928 -0.05601398 0.101732954 0.12445615
000290 5a cc a1 3d 06 de 9d 3d 74 54 0a bd b5 b3 04 be
       0.07900305 0.07708363 -0.033771947 -0.12959178
0002a0 c8 79 38 bd 4a b9 db 3d be 32 97 3d 9f 17 32 3e
       -0.045038015 0.107287005 0.07382725 0.17391823
0002b0 7e b2 82 bd 20 c3 41 3d 4b 7d 9d bd 90 ba ee bd
       -0.06381701 0.047305226 -0.07689913 -0.11656678
0002c0 fa e6 20 be 1a f2 1e be f6 e8 99 bd d0 72 5f 3d
       -0.1571311 -0.15522042 -0.07515137 0.054552853
0002d0 38 6d e8 bc d0 c8 b5 3c 36 3f c3 bd aa 9d b9 bd
       -0.028372392 0.022190481 -0.09533541 -0.09063275
0002e0 d2 59 92 bd 02 38 82 3d a5 58 a4 bd d3 91 30 3e
       -0.07146038 0.06358339 -0.0802472 0.17243128
0002f0 30 d7 27 bd 1e 71 78 bd ec 48 5a 3d a6 e9 2e be
       -0.040976703 -0.060654752 0.0532922 -0.17081317
000300 98 a4 ea bc cf 7e 84 bd 06 f2 b2 3d 1d f7 d2 bd
       -0.028642938 -0.06469499 0.087375686 -0.10301039
000310 5f 91 2d 3e e7 be 26 be c5 8b 11 3e be 0b ef 3d
       0.16949986 -0.16283761 0.14213474 0.116721615
000320 38 7f 10 be 58 14 dc bd a5 91 04 3e 28 3c a5 bd
       -0.1411103 -0.10746068 0.12946184 -0.080681145
000330 20 d1 80 3b a7 42 24 be ca cd d1 3d a0 ad a8 3c
       0.0039311796 -0.16041051 0.10244329 0.020590603
000340 7c 8b 40 bd eb 91 31 be 8a 68 ce 3d ca 1e 9d 3d
       -0.047008023 -0.1734082 0.10078533 0.07671888
000350 18 11 af bc 64 f6 2f be 68 ed fe bc b0 32 28 be
       -0.021370456 -0.17183834 -0.031119063 -0.16425586
000360 c7 3c 1a 3e 1c a6 6a 3d b5 81 d3 bd b6 18 d0 3d
       0.15062247 0.05728732 -0.10327474 0.10160963
000370 a4 00 25 3d e4 4f 7e 3d 7e f7 d8 bd 59 c1 32 be
       0.040283814 0.06208791 -0.105940804 -0.17456569
000380 00 78 20 39 d9 b2 1d be 03 8a 9f bd 60 41 f4 3c
       0.00015303493 -0.15400256 -0.077899955 0.02981633
000390 d6 9f f1 3d 07 8a 02 3e 56 4d b3 3d eb 79 2e be
       0.117980644 0.12747966 0.08754985 -0.17038696
0003a0 35 2a 17 be 6b 56 12 be 50 c9 db bc b1 53 9e bd
       -0.14762194 -0.14290778 -0.026829392 -0.077308066
0003b0 ee 6c cb 3d 00 b3 00 bd 19 c7 2e 3e a0 b9 67 3d
       0.09932886 -0.031420708 0.17068137 0.05657351
0003c0 72 a3 d9 3d 58 a3 2a be 40 fa 74 bb 80 d6 07 be
       0.10626878 -0.16663873 -0.0037380606 -0.13265419
0003d0 e0 46 4d 3c 88 eb 7a 3d a0 7f f0 bc 5c d1 ec bd
       0.012529105 0.061259776 -0.029357731 -0.1156337
0003e0 28 70 2c be 15 e9 b0 bd ff be 10 3e 00 7e 25 bb
       -0.16839659 -0.08638207 0.14135359 -0.0025252104
0003f0 e7 c6 e6 bd ec ff 6c 3d b0 95 85 3c 0e ac eb 3d
       -0.11268406 0.057861254 0.016306728 0.11507426

sensor_model.4.bias f4 [64]
000000 9b 77 f9 3d 3e e7 83 bd c5 5c 38 bd 30 65 09 3e
       0.12181016 -0.0644059 -0.045010347 0.13417506
000010 f7 56 e3 3c 2b 2d 2b 3d 4c 31 96 bd ed ae e3 3d
       0.027751429 0.041791122 -0.073336214 0.11117349
000020 06 75 9b bd 37 3e e6 3d 65 34 e1 b9 fe 2d 83 bd
       -0.0759068 0.11242335 -0.0004295438 -0.06405257
000030 0a ad 18 bd ae 73 6b 3d 14 28 cc bc 7d a3 a8 3c
       -0.037274398 0.057483368 -0.024921454 0.02058577
000040 45 b5 4a 3c dc e8 9c bd 73 e5 dc 3d 1c fa b5 3c
       0.01237232 -0.07661602 0.107859515 0.022213988
000050 b3 2d 23 3d 3c 64 87 3d 29 75 e3 3b b8 0a b0 bd
       0.039838504 0.06610915 0.006941457 -0.085957944
000060 3c 50 40 3d 41 57 bf 3d 8c 9a db 3d 19 a7 0c bd
       0.046951517 0.09342814 0.10722837 -0.034339044
000070 a1 21 a1 3c 7c cf 56 bd 2f 72 7b bd e5 65 cd 3d
       0.019669356 -0.052443966 -0.06138819 0.100292005
000080 bd 61 6d bc 5d 72 3e 3d b6 7c a3 bd 3d c3 8a 3d
       -0.014488635 0.046495784 -0.07982771 0.0677552
000090 a0 85 ae 3c 6a d0 ac bd 65 20 7e 3d f8 13 20 3e
       0.021303952 -0.08438189 0.062042613 0.15632617
0000a0 a1 2e 85 bd 90 01 f5 3d e9 fe 98 bd f1 5f 05 3d
       -0.065030344 0.11963189 -0.07470495 0.0325622
0000b0 f6 4c 85 bd d9 87 66 3d f3 fc 9b 3d 40 37 3c bd
       -0.0650882 0.0562819 0.076166056 -0.045951128
0000c0 18 8d 3b 3d cc c5 0a bd 62 bf a3 bc 14 00 92 bd
       0.045788854 -0.03388004 -0.01998872 -0.07128921
0000d0 33 c0 73 3d 24 76 02 bc e7 c4 8b 3d 6d ac de 3c
       0.059509467 -0.007962737 0.068246655 0.027181828
0000e0 aa b1 f7 bc 55 26 58 bd 00 72 e3 3c 27 17 a1 bd
       -0.030236084 -0.05277093 0.02776432 -0.07865744
0000f0 fd d3 5f bd 93 28 81 3d 50 f8 44 3d 5e 30 04 3e
       -0.054645527 0.06306567 0.04808837 0.12909076

target_model.0.weight f4 [64, 66]
000000 aa f3 a8 bd 00 e4 2e bb b8 fd 9e 3c f1 64 57 3c
       -0.082496 -0.0026686192 0.019408092 0.013146625
000010 f2 e6 74 3d ef 0c 3a bd 85 2e 2b be 94 78 16 be
       0.05979056 -0.04542249 -0.16716965 -0.14694434
000020 ef 65 27 3e d2 a2 81 be 13 a2 9d 3c 16 39 e7 3d
       0.16347478 -0.25319535 0.019242322 0.11290185
000030 c8 b4 b7 bc 4a 07 83 bd 57 fd 1f be df 32 0d be
       -0.02242507 -0.06397875 -0.15623985 -0.13788937
000040 a5 4c ed 3c c8 5a c5 3c 8c 16 15 be 0d 80 01 3e
       0.028967211 0.02409114 -0.14559382 0.12646504
000050 5e 29 0f 3e c9 1b fc 3d 82 89 f2 3d 23 a7 db bd
       0.13980624 0.12309987 0.11842634 -0.10725238
000060 17 99 da bd 80 99 06 3e 12 e9 00 be 0e f9 4d 3e
       -0.10673731 0.13144493 -0.1258891 0.20114538
000070 89 72 81 3d 42 8a 39 be ec 90 7e 3d 6a 79 18 be
       0.06320674 -0.18119147 0.062149927 -0.14890066
000080 0e a5 1b be b9 0a eb 3d fa 6a 61 3e 41 b0 a2 3d
       -0.15199682 0.114766546 0.22013465 0.07943774
000090 a2 b2 a1 bd 9e ef df bd af 55 a0 3d 4d 93 7b 3c
       -0.078954 -0.10934375 0.07828843 0.015354943
0000a0 ed 3c 54 3d 01 a5 68 bd 1b 18 1f 3e fa 6b f0 3d
       0.051815916 -0.056797985 0.1553654 0.11739345
0000b0 da 71 ab 3d 45 bd 3d bd 9e cd 50 be 47 0c 6b 3d
       0.08371325 -0.04632308 -0.20390937 0.057384755
0000c0 72 b8 ac bd 73 5b 06 be 4d af 22 3e 27 36 1e 3e
       -0.08433618 -0.13120823 0.15887184 0.15450345
0000d0 d1 c7 c0 3d 22 73 95 3b fa 1f b4 bd 7f 20 aa 3c
       0.09413112 0.004560844 -0.087951615 0.020767448
0000e0 1a 0a be bd 7c 5b 18 3e 18 04 ed 3d c8 68 b4 3c
       -0.092792705 0.14878649 0.115730464 0.02202262
0000f0 ed bc 1f 3e 79 10 fb 3a cf df 94 bc 75 0e 0c 3e
       0.15599413 0.001915469 -0.018173127 0.1367739
000100 e1 ac 8f 3d c7 98 4b 3d 6e 2b a4 3d 54 1c 6e 3d
       0.07015396 0.049706247 0.08016096 0.058132485
000110 9c b0 55 be d3 cf 36 bc cd fe 2a 3e 03 d5 4c 3e
       -0.20868152 -0.011157948 0.16698761 0.20003133
000120 9e e7 a5 bd f6 d7 2d 3e 1e 6c 8a 3d d7 51 36 3e
       -0.08100818 0.16976914 0.06758903 0.17804657
000130 21 9f 83 bd 13 49 10 3e d1 dc ce bd 9c af 56 3d
       -0.06426836 0.14090376 -0.10100711 0.052413568
000140 e0 c6 3d 3c cb 24 d0 bd a5 f8 1e be 44 8f 1a 3d
       0.01158306 -0.10163268 -0.15524538 0.037734285
000150 db 68 6a bd 68 e1 ac 3c 6c ec cd 3d d1 ed 9a bd
       -0.057228904 0.021103576 0.100548595 -0.07564891
000160 8c 5a 36 be 4a 5e ed 3d 19 2c 1b be 09 99 7a bd
       -0.17807978 0.1159025 -0.1515354 -0.061181102
000170 2e 30 21 be af 9c 5d bd e5 c0 09 be d4 f2 1d 3d
       -0.15741035 -0.054104503 -0.1345249 0.038561657
000180 7a fa c9 3d b8 47 35 be cd 8f 3d be c9 a0 1e 3e
       0.09862228 -0.1770314 -0.18511887 0.15491022
000190 25 b2 26 3e 95 0b 57 be 5f 5d 5a bd e8 1e 4f 3e
       0.16278894 -0.21000512 -0.053311702 0.20226634
0001a0 92 79 19 3e 11 91 04 be ff 3f 14 bd 8b 88 3a 3e
       0.14987782 -0.12945963 -0.036193844 0.1821615
0001b0 47 d5 0f 3e a8 25 4e bd 84 82 67 3d 2f 88 e9 3b
       0.14046203 -0.05032888 0.056520954 0.00712683
0001c0 16 07 49 3e d2 b3 3c 3e 99 11 1b 3e d3 88 9e 3d
       0.1963161 0.18427971 0.15143432 0.07740941
0001d0 90 18 30 bd 16 39 f7 3d 27 00 fa 3d 10 2b 1b be
       -0.042992175 0.12071435 0.1220706 -0.15153146
0001e0 b3 46 57 be df fe 36 be 93 1a 17 3e 06 38 f0 3d
       -0.21023063 -0.17870663 0.14756231 0.117294356
0001f0 f8 4c 07 3e 02 48 a3 3d b3 b9 df bd 3b a5 dc bc
       0.13212955 0.07972719 -0.10924091 -0.026934257
000200 d5 32 1a 3e dc fc 0f be 07 62 57 3e 2d 55 7e bd
       0.15058453 -0.14061302 0.21033488 -0.06209295
000210 86 99 5e be 92 67 83 bd 5c 75 e0 bd f4 6d 8a be
       -0.21738252 -0.06416239 -0.109598845 -0.27037013
000220 3e 9e 38 3e ee ee 15 be 12 1e 2c be f4 27 8a be
       0.18029115 -0.14641926 -0.16808346 -0.26983607
000230 a3 d4 16 3e e7 46 22 be 92 11 f2 bc 64 77 1e 3d
       0.14729552 -0.1584736 -0.029549394 0.03868808
000240 e0 07 fb bb 7e c3 e6 3d 0f 70 55 3e a8 65 ac bd
       -0.007660851 0.11267756 0.20843528 -0.08417827
000250 ab 83 87 bd aa f1 3c be 69 05 f5 3d 88 b2 33 be
       -0.066169105 -0.18451563 0.119639225 -0.17548573
000260 47 3c d2 bd 86 f5 6e be 2b 73 8f bd 41 31 41 3e
       -0.10265403 -0.23335847 -0.070043884 0.18866445
000270 28 80 4d 3c 0f 4c b9 3d 1e 22 0a be 6c 45 02 be
       0.012542762 0.0904771 -0.13489577 -0.12721795
000280 89 69 c4 bd 58 7f cc bc 79 96 20 3e 49 57 bd bd
       -0.09590442 -0.024963066 0.15682401 -0.09245164
000290 98 50 66 39 b5 2c e0 3d 8f a7 58 3e 98 7c 14 3e
       0.00021964533 0.10946027 0.21157669 0.14500654
0002a0 64 dd 68 3c 1d 0a 98 bd f4 a4 b8 3d 62 8d 0e be
       0.01421294 -0.07423804 0.09015837 -0.13921121
0002b0 d0 ca b6 3d c8 9e 24 3e 90 8a ce 3c 01 0f e9 3d
       0.08925402 0.16076195 0.025212556 0.11379815
0002c0 c8 08 0b be fd ec 0b be 1f a2 bd 3d 81 27 4c be
       -0.13577569 -0.13664623 0.09259438 -0.19936945
0002d0 f3 c5 9f 3d 53 30 fd 3d 86 55 55 3e 9f 56 14 3e
       0.07801428 0.12362733 0.20833406 0.14486168
0002e0 0c 19 92 bd de 65 7f bc 5c 3e 9e 3d 18 85 63 be
       -0.071336836 -0.015588252 0.07726738 -0.2221874
0002f0 af ad fe bd 74 21 96 3c 03 c6 9f bc 5a a1 b5 3d
       -0.12435471 0.018326499 -0.019503599 0.08868666
000300 7c 29 7d 3d e4 2a 7b 3d a7 fd cd 3d a0 65 81 be
       0.06180714 0.0613202 0.10058146 -0.25272846
000310 fd 3c 43 be e4 3c 89 3d 03 d5 61 3e d1 dd 57 be
       -0.19066234 0.06701067 0.22053914 -0.2108071
000320 f7 a8 c3 bd f7 04 03 be e6 1f 01 be 46 40 2b 3e
       -0.09553712 -0.12794863 -0.12609825 0.16723737
000330 be c2 86 3d 05 70 1f be ec 58 05 3d 5d c3 3d 3c
       0.06580113 -0.15570076 0.032555506 0.011582223
000340 02 8d a5 3d 60 c7 58 bc cc 95 4f bd 8d b6 5a 3e
       0.08083536 -0.013231128 -0.050679967 0.213587
000350 dc 17 ac bd 81 0a 30 3e d3 43 60 3c 87 94 e2 bd
       -0.08402988 0.17191507 0.013688046 -0.110634856
000360 59 e7 3d be 23 50 3b 3e 82 9d 1f be db b2 68 3c
       -0.18545283 0.18292288 -0.15587428 0.014202799
000370 a1 5a ab bc 54 14 8b bd 45 46 33 3e 67 3a 80 3e
       -0.020917239 -0.06790987 0.17507274 0.25044557
000380 9f 91 22 be b5 f9 b3 3d fb d2 0a be 20 4a e4 bb
       -0.15875863 0.08787862 -0.13557045 -0.006966844
000390 c0 6f c3 bb 5f 9c 0b 3e ae f9 c7 bc 14 68 0c be
       -0.0059642494 0.1363387 -0.024411049 -0.13711578
0003a0 ac d1 15 3e 6e a0 2a be 06 04 35 be 53 a8 53 3e
       0.14630765 -0.16662762 -0.17677316 0.2066968
0003b0 79 d1 38 3e 8f 83 77 3e a5 72 0c be c0 9e 22 3e
       0.18048657 0.2417128 -0.13715608 0.15880871
0003c0 1f d9 17 be ea 0b 2c be da 49 83 3d 72 95 bc 3d
       -0.14828919 -0.1680142 0.064105704 0.09208192
0003d0 04 96 0f be af 39 b5 3c 51 93 d3 3d 67 d3 b9 3d
       -0.1402207 0.022122232 0.10330833 0.09073525
0003e0 53 b9 5c 3d 84 79 2c be 86 ad 0d be 2b 4e 12 be
       0.053887676 -0.1684323 -0.13835725 -0.14287631
0003f0 e9 1c a3 3c 23 86 4d 3e 1d 76 04 bd a3 d0 56 bc
       0.019911246 0.200707 -0.032339204 -0.013111266

target_model.0.bias f4 [64]
000000 b0 71 d7 bd 41 c2 ab bd 5b ee 28 bd dd bd 7e 3d
       -0.10519731 -0.0838666 -0.04124294 0.062192786
000010 16 06 c4 3d 40 e6 15 3e 84 43 ce 3b e2 b2 06 bc
       0.09571473 0.14638615 0.0062946696 -0.00822136
000020 af b0 7d bd 65 0f f4 3d 25 44 a2 3d 88 3d a1 bc
       -0.061936077 0.11916999 0.07923154 -0.01968266
000030 1f 9b 33 3d 43 04 ea bd 35 ca 11 3e a0 d3 24 be
       0.043849107 -0.11426594 0.14237292 -0.16096354
000040 3b 74 63 3d f6 f3 f9 bd 85 52 af bd 1f 3e 00 3e
       0.055530768 -0.12204735 -0.08560661 0.12523697
000050 63 ac 95 3d 25 fc 00 3d 4d 61 e2 bc 0f cd 0f be
       0.07308271 0.031490464 -0.027634287 -0.14043067
000060 1c 6a 28 bc b0 a2 94 bd 65 54 19 3e d6 5b 90 bd
       -0.010279205 -0.07257593 0.149736 -0.07048766
000070 e5 a9 aa bd ba 77 36 3e 7a 02 f0 3d 09 f2 8f 3d
       -0.08333186 0.1781911 0.11719222 0.070285864
000080 36 ac c8 39 10 b3 99 3d 13 fe 4f 3c 86 8c 83 3d
       0.0003827528 0.075048566 0.012694853 0.06423287
000090 fd 86 26 3e 0a 6a fb 3c a2 63 9b bd a2 59 9f 38
       0.16262431 0.030690212 -0.07587363 7.598406e-05
0000a0 a5 56 51 3b 19 64 97 3d 81 31 f4 bd 2a 36 24 3c
       0.0031942513 0.07392139 -0.119235046 0.010022679
0000b0 bb c9 b1 bb ef 39 cc 3c 20 33 3e 3d e9 41 a1 bd
       -0.0054256595 0.024929969 0.046435475 -0.078738995
0000c0 6f 02 15 3e 16 b3 2b 3c 42 bc 0b be 11 99 7e bd
       0.1455171 0.010479709 -0.13646033 -0.062157694
0000d0 61 4d bc bd b6 24 31 3e c7 77 97 39 19 5f bf bc
       -0.09194446 0.1729916 0.00028890205 -0.023360776
0000e0 22 62 e8 3d aa 0f 18 3e b6 25 cc ba f1 63 2d 3d
       0.11346842 0.14849725 -0.0015575204 0.04233164
0000f0 31 15 b6 3d 97 aa d5 3d 40 71 c8 bd 34 33 c8 3d
       0.08890761 0.10432928 -0.09787226 0.09775391

target_model.2.weight f4 [16, 64]
000000 e1 12 bd 3b 7c bd 3a 3d 37 27 3d bd 8d 16 7d 3d
       0.005770073 0.045590863 -0.046179976 0.061789084
000010 a0 aa 3a bd a9 49 34 3e aa e4 ae 3d 84 33 8e 3e
       -0.045572877 0.17606224 0.08539708 0.27773678
000020 84 79 72 be fc 5d 1f 3e b8 6b 5c 3e c8 f2 59 be
       -0.23679167 0.15563196 0.21525466 -0.2128402
000030 a1 d7 28 be b0 b3 47 be bc 91 5b bd 5c bb 3e 3e
       -0.16488506 -0.19502139 -0.05360578 0.1862616
000040 c7 77 f8 bd 38 38 25 be 35 55 1a be 77 6c fe 3d
       -0.12132221 -0.16134727 -0.15071566 0.12423032
000050 9f a2 7e be 60 f1 06 bd 7f 4b df bc 84 f1 c4 ba
       -0.24866723 -0.032945037 -0.027257679 -0.001502559
000060 70 ee 44 be 79 95 5a bd 3a 92 5e be b9 c5 66 be
       -0.19231582 -0.053365204 -0.21735469 -0.22536363
000070 17 d0 09 3e b3 4b 5b 3d ff 3f 3a 3e 6f ef 07 bd
       0.13458286 0.05353899 0.18188475 -0.033187326
000080 3a 43 15 3e 1f 8f 82 bd 2f eb 2f be af f5 ee bb
       0.14576426 -0.063749544 -0.17179559 -0.0072924714
000090 9f 41 82 3e a7 ec 8d be 84 62 b2 bd d1 3b 02 3d
       0.2544069 -0.27719614 -0.087101966 0.031795327
0000a0 cf 3c 9b be b8 29 1d 3e 40 06 98 3e e5 8a a9 3d
       -0.3031983 0.15347946 0.29692268 0.08278445
0000b0 91 09 6d 3e 83 61 0b 3e 47 24 e9 bb 94 17 15 bb
       0.2314818 0.13611417 -0.0071149203 -0.002274965
0000c0 bb 64 91 3e e4 f6 8b bd 9c 20 1d 3e 0e ca 06 3e
       0.28397164 -0.068342 0.1534447 0.13163015
0000d0 77 e0 42 3e 4d de d8 3d a9 4a 2b be f3 01 ea bd
       0.19030939 0.105892755 -0.167277 -0.11426153
0000e0 93 98 1d 3e d6 d5 0c 3e 45 2f b2 bd a9 96 6b 3e
       0.15390234 0.13753447 -0.08700422 0.23006691
0000f0 2e be b5 bd 8c 70 94 3e ea 60 48 be 89 c0 7d 3e
       -0.088741645 0.28992116 -0.1956822 0.24780478
000100 88 b1 ae 3b 90 76 86 be 58 1f 4f 3e cf b3 54 3d
       0.005331222 -0.2626233 0.202268 0.05192929
000110 84 92 3b be 2f bd fa 3d 8f ce aa 3d 32 cd 24 bd
       -0.1831761 0.12243115 0.08340179 -0.040234752
000120 a1 b5 68 bb eb 17 84 3e b8 f0 63 3d 26 6f 10 3e
       -0.003550865 0.25799498 0.05564949 0.141049
000130 dc f8 d5 bd 65 2c c9 bd e6 04 ba 3d 92 43 24 3d
       -0.10447857 -0.09822921 0.090829656 0.040103503
000140 10 5c b6 3d 42 71 a9 bd a0 d0 8f 3d 8a 09 af be
       0.08904278 -0.08273555 0.07022214 -0.34186965
000150 1c 79 08 be f2 3a bb bd 2f 03 57 be 33 85 bc bc
       -0.1332745 -0.09142102 -0.20997308 -0.023012733
000160 ba ab b3 3d d3 37 f9 bd c2 f5 49 3d 51 aa 31 3e
       0.087729886 -0.12168851 0.04930664 0.17350127
000170 8e c7 9e bd a3 60 55 3e 38 32 86 3e 75 71 c3 3d
       -0.07752906 0.20837645 0.2621019 0.095431246
000180 e2 f2 64 be e9 d3 42 3e fe 3a 14 be 04 23 15 be
       -0.22358277 0.1902615 -0.14475629 -0.14564139
000190 e3 d4 b8 bd 62 a9 52 3c bb ec 90 bd 54 8e 8d bb
       -0.0902498 0.012857767 -0.07076403 -0.0043199454
0001a0 b9 21 4b 3e bc a9 19 3e 4d a9 c1 3d 85 96 6f 3e
       0.19837083 0.15006155 0.0945612 0.23397262
0001b0 c7 f4 1a be ea 60 0c be be 04 ad 3d e0 2c 5f 3e
       -0.15132438 -0.13708845 0.0844817 0.21794462
0001c0 62 7d 07 3e 7a 52 95 3d cf e2 ac 3e 1d 5e 05 3e
       0.13231423 0.07291122 0.3376679 0.13024183
0001d0 55 f6 a3 3d 95 4d 97 be 98 d5 74 be 6a 0e 0f 3d
       0.080059685 -0.29551378 -0.23909605 0.034925856
0001e0 d6 2c 56 be 06 c0 76 be b5 53 60 be dc 0b 00 3e
       -0.20915541 -0.24096689 -0.21906932 0.12504524
0001f0 b1 ee 8b 3e 81 0e 61 3d 17 a6 e5 bd 3f f1 6c 3e
       0.27330545 0.054945473 -0.1121332 0.23138903
000200 74 32 a7 3d 75 38 00 be ad e4 20 be c7 6c 62 bc
       0.0816392 -0.12521537 -0.15712233 -0.01381988
000210 4c 3c 65 be 57 f7 48 be f5 24 b4 3b b6 1d d2 3d
       -0.22386283 -0.19625603 0.0054975697 0.10259573
000220 92 2e 0e 3e 60 71 83 3d b4 15 4d 3e 04 a3 3a be
       0.13884953 0.06418109 0.2002781 -0.18226248
000230 ad d1 91 be 5e 06 11 3e 53 90 41 3e ea 74 9a 3d
       -0.28480282 0.14162585 0.18902712 0.07541831
000240 9b 75 7c 3e 91 cd 7f be 1a 27 14 3e 4f b3 4b bb
       0.24654238 -0.24980761 0.14468041 -0.0031082218
000250 7f 10 34 be d5 eb 71 be a2 43 49 3d b5 14 3d be
       -0.17584418 -0.23625119 0.049136765 -0.1846493
000260 59 89 84 bd c4 30 3a be 88 bf 59 3d 00 d4 de 3d
       -0.064715095 -0.18182665 0.053161174 0.108802795
000270 ce c7 97 3d 92 a7 92 be 25 ef 97 bd 87 78 1a bd
       0.074111566 -0.2864347 -0.0741866 -0.0377126
000280 af 4f e4 bd cf 84 2c 3e 58 2b 19 be 17 66 12 3e
       -0.11148011 0.16847537 -0.1495794 0.14296757
000290 8f 2a 86 be 98 f6 50 bd bd 8e 39 be 55 b1 2a 3c
       -0.26204345 -0.05101642 -0.18120857 0.010418256
0002a0 df 19 3d be da 14 cf 3e f6 2d 8c bc 2a ce 6d 3e
       -0.184669 0.40445596 -0.01711176 0.23223177
0002b0 ad 8a 8f be 6e ac af bd 5b c5 13 3e 04 4f 8c be
       -0.2803549 -0.0857781 0.14430754 -0.27404034
0002c0 27 15 8f be e1 74 15 3e 5f 40 cb ba 88 4f e3 3c
       -0.27945825 0.14595367 -0.0015506855 0.027747884
0002d0 6d c1 06 3d 7f 09 7d 3e 5e a8 69 3e 7e b3 9e 3d
       0.03289931 0.24710654 0.22818133 0.07749079
0002e0 29 17 a3 3d 1d 44 1d 3e db 20 4d 3e 31 72 66 3d
       0.07963402 0.15358014 0.20032065 0.056261245
0002f0 d2 2e 81 3e 2d f8 37 be bb 3d 0d be 7a a9 38 3e
       0.25231034 -0.17965765 -0.1379308 0.180334
000300 7f a2 4b 3e ef ff 82 be 1c 3a ef 3d 1a 5b 19 3e
       0.19886206 -0.25585887 0.11681005 0.14976159
000310 47 f3 3a 3e e4 a6 06 be b0 4a 8e be de f1 93 be
       0.18256865 -0.13149601 -0.27791357 -0.28895468
000320 4a 01 f7 bd 5a af db 3d 4b a1 8e 3e 56 a7 b4 bd
       -0.12060793 0.10726805 0.27857432 -0.08820979
000330 0d 2b 87 bc 92 23 d7 3d 9e 7c d8 3d c1 14 eb 3b
       -0.01650002 0.105048314 0.10570644 0.007174105
000340 d0 f0 21 be 77 db 51 3e ee eb 45 3e 7f 81 0a be
       -0.15814519 0.20493875 0.19328281 -0.13525961
000350 a7 06 16 be 21 fe 6b 3e 73 8e 39 be 67 30 c2 3d
       -0.14650975 0.23046161 -0.18120746 0.09481888
000360 f2 8d 2c be fc 86 62 3e 10 ae 73 be 0a c0 fe 3d
       -0.16851023 0.22121805 -0.23796868 0.12438972
000370 bc 8a c5 bd 91 ce 89 bd f4 46 bf bc 3f 0a 34 be
       -0.09645602 -0.067288525 -0.023349263 -0.17582034
000380 96 50 98 3b de 69 83 3e e0 09 14 3e aa 81 44 3e
       0.0046482785 0.25666708 0.14456892 0.19190088
000390 d7 c0 a8 bc 0a 31 49 3e 30 97 40 be 73 9d 74 3d
       -0.020599766 0.19647613 -0.18807673 0.059720468
0003a0 e9 68 1d 3e cc 82 81 be 4e 4f ed bd 11 d9 96 3d
       0.15372051 -0.25295103 -0.11587392 0.07365621
0003b0 9b 4e 0b be d6 50 d0 bd 0c 1f 97 3e 57 0b 01 3e
       -0.13604204 -0.10171668 0.29515874 0.12601982
0003c0 fa ea 4b 3e de 6b 0a 3e 1c 45 92 be b6 b2 8d 3e
       0.19913855 0.1351771 -0.2856835 0.27675408
0003d0 19 5b 9e 3d 58 24 91 3d 2e b6 35 be 65 12 fd bd
       0.07732219 0.0708701 -0.17745277 -0.12357024
0003e0 8d 92 a8 bd c1 73 67 3e dd e1 3d 3e 41 cd 00 3d
       -0.08231077 0.2260275 0.18543191 0.031445745
0003f0 46 d8 80 3e 2e 91 a2 bd 66 99 8f 3d 6d 4a 8a 3e
       0.25165004 -0.07937847 0.0701168 0.27009907

target_model.2.bias f4 [16]
000000 e3 e0 5e 3d 38 4f 63 3d 5b 70 cb 3d 9a d0 68 3d
       0.054413687 0.05549547 0.099335395 0.056839563
000010 58 b6 22 3e 12 e4 2d 3a dc 6e 10 3b 7a 88 c1 3d
       0.15889871 0.00066334114 0.0022038734 0.09449859
000020 5b 47 cc bc dd ff 26 be df 43 6a bd 7c 0b d2 bd
       -0.024936369 -0.16308542 -0.057193633 -0.10256097
000030 01 4f 19 3d 8d 5c 67 3d 0c 15 ff bd 58 73 79 bd
       0.03742886 0.056484748 -0.12455186 -0.060901016
