Pytorch_DRL/HNRN/models/backup/3.19/best_ca_actor.model (torch_old, 223530 bytes, 8 tensors)

sensor_model.0.weight f4 [128, 360]
0.0132118445 -0.0025966435 0.06506467 0.028485194 0.081207745 -0.02379283 0.030612882 0.030209254
0.062055726 -0.040286854 0.065411 -0.0060294797 0.04412928 0.06149583 0.0657022 0.032149307
0.025836054 0.03517652 -0.020346131 0.08872884 -0.023904983 0.0526073 0.067744724 0.10668717
-0.047743198 0.08287296 0.06646814 0.004833795 0.027018715 0.029034387 -0.007937338 0.14151436
-0.028857889 -0.014270676 0.06318576 -0.034028996 0.08720157 0.09575745 -0.0054551875 -0.05709151
0.11851809 -0.019722162 0.020872861 -0.016068593 0.08905901 -0.022388175 0.0038199655 0.01652492
-0.03554176 0.079998046 -0.007782924 -0.067788966 0.076401316 0.028109385 0.040291533 0.04814971
-0.043029822 -0.016085107 -0.013648378 0.021610616 0.012028289 0.052917156 0.082601674 -0.010714323
0.030593105 0.04849589 0.09711215 -0.006310035 -0.022226114 0.04683549 -0.03176086 0.09568046
0.010398273 0.03501372 0.04367775 0.059405528 -0.02925681 -0.017856905 0.10043156 0.06775081
0.046443913 -0.047175165 0.015437899 0.057200998 0.072010696 0.0113011785 0.074279815 -0.025470622
0.059041325 0.031861488 0.02791641 0.106224656 -0.0045388583 -0.003870863 -0.0044066543 0.09427734
0.06535774 0.023690177 0.027334305 0.017034052 0.0351301 0.081358455 0.029349303 -0.016100733
0.010513032 0.092976116 -0.017015858 0.090814166 0.057848588 -0.024542147 0.06922448 0.07435294
-0.053185694 0.010487036 0.09134708 -0.017804895 0.012312715 0.03364111 0.030420301 0.046640668
0.038027607 -0.036317278 0.09211387 -0.026115324 0.020257087 0.06365095 0.07915065 -0.0057582255
-0.022981409 0.063777916 -0.041410115 0.060739167 -0.0034959824 0.087906785 0.0044125505 0.08438048
-0.0075671636 -0.01289916 0.0857739 -0.010319235 0.026339846 -0.045003567 0.13227826 0.059730195
0.0031011652 0.026748048 0.046346214 0.09739476 -0.032723002 0.123427525 -0.029891072 0.029267482
0.049840346 -0.04251894 0.08010884 0.034187503 0.021104755 0.010903795 0.054942325 0.040136423
0.07272668 -0.010244642 0.012926095 0.058256704 0.078624934 -0.033988938 0.052755762 0.014761048
0.05431726 -0.02492012 0.11173161 -0.060356937 0.038006872 0.12131299 -0.05382026 0.12028371
-0.04389829 -0.002844281 0.08386246 0.06643189 0.007854625 0.012528602 -0.016020546 0.045631737
0.03806642 0.016369734 0.02498147 0.028936226 0.011919651 0.08611145 -0.05631396 0.0028179367
0.026238581 0.09930528 -0.0023399068 0.01317347 0.0032000702 0.00032594727 0.032275166 -0.014982502
0.07311013 -0.036394168 -0.045796506 0.07202363 0.0335446 0.08669429 0.04548393 -0.022516198
0.007823336 0.0016955271 0.05238205 0.03514256 0.0495583 -0.046387855 0.002176256 0.0905843
-0.032328524 0.078994185 0.028899234 0.067747764 -0.026881926 0.0032021045 0.05228541 -0.007800146
0.016372848 0.046199374 0.04616495 -0.02643671 0.04139711 0.002951967 0.0023002063 0.047895238
0.051707238 0.024754612 -0.004774368 -0.048187293 0.10223458 0.12699468 -0.043273922 0.005645279
0.025400667 0.095069714 -0.035795413 0.013194865 0.07076724 0.044965904 0.07549994 -0.02838722
-0.018720761 0.04571143 0.025373027 0.06502912 0.027087677 0.05058139 -0.04153255 0.10174367
00000000: 7e76 583c 732c 2abb a040 853d c859 e93c
00000010: 3f50 a63d 2ee9 c2bc dec7 fa3c 6679 f73c
00000020: 252e 7e3d d403 25bd 34f6 853d f192 c5bb
00000030: e7c0 343d 0de3 7b3d e08e 863d feae 033d
00000040: 22a6 d33c 4115 103d eeac a6bc 77b7 b53d
00000050: 62d4 c3bc c17a 573d bfbd 8a3d ce7e da3d
00000060: 5f8e 43bd 4cb9 a93d 7320 883d d064 9e3b
00000070: 5a56 dd3c 86d9 ed3c 9c0b 02bc 24e9 103e
00000080: 6167 ecbc 8ecf 69bc 8967 813d fd61 0bbd
00000090: bd96 b23d 7b1c c43d 6ec1 b2bb cad8 69bd
000000a0: 9db9 f23d 5f90 a1bc 90fd aa3c 48a2 83bc
000000b0: 9264 b63d 6867 b7bc 6358 7a3b 455f 873c
000000c0: 3d94 11bd 04d6 a33d e607 ffbb f1d4 8abd
000000d0: 4b78 9c3d a745 e63c bc08 253d a138 453d
000000e0: 0a40 30bd eac4 83bc 729d 5fbc bf08 b13c
000000f0: 4d12 453c a9bf 583d 112b a93d 218b 2fbc
00000100: 649e fa3c a0a3 463d bce2 c63d 69c4 cebb
00000110: 8a13 b6bc 92d6 3f3d ad17 02bd 1ef4 c33d
00000120: 855d 2a3c 8c6a 0f3d 71e7 323d 3653 733d
00000130: faab efbc a548 92bc 10af cd3d f0c0 8a3d
00000140: f93b 3e3d bf3a 41bd 3eef 7c3c 984b 6a3d
00000150: 587a 933d 9428 393c 0420 983d c4a7 d0bc
00000160: 51d5 713d 3181 023d f4b0 e43c 508c d93d
00000170: b4ba 94bb 4eae 7dbb b265 90bb 7a14 c13d
00000180: 47da 853d e711 c23c 31ec df3c ff8a 8b3c
00000190: 94e4 0f3d 439f a63d f36d f03c afe5 83bc
000001a0: da3e 2c3c 436a be3d d764 8bbc c7fc b93d
000001b0: a4f2 6c3d 9d0c c9bc 90c5 8d3d 5b46 983d
000001c0: 3ed9 59bd d1d1 2b3c 2e14 bb3d 92db 91bc
000001d0: 45bb 493c 43cb 093d ff33 f93c 490a 3f3d
000001e0: d6c2 1b3d 6dc1 14bd 32a6 bc3d ceef d5bc
000001f0: 31f2 a53c 6e5b 823d bc19 a23d 7faf bcbb
00000200: 8243 bcbc ff9d 823d a79d 29bd a2c9 783d
00000210: da1c 65bb 7908 b43d 2897 903b accf ac3d
00000220: f8f5 f7bb 0057 53bc 3aaa af3d 0212 29bc
00000230: a9c6 d73c a955 38bd f473 073e a6a7 743d
00000240: eb3c 4b3b b91e db3c 87d5 3d3d e776 c73d
00000250: 8e08 06bd 92c7 fc3d 1fde f4bc 5cc2 ef3c
00000260: 6425 4c3d 5728 2ebd 1a10 a43d 3208 0c3d
00000270: e1e3 ac3c d5a5 323c 340b 613d 1766 243d
00000280: baf1 943d 25d9 27bc f9c7 533c 959e 6e3d
00000290: 1c06 a13d fc37 0bbd 6d16 583d 53d8 713c
000002a0: c67b 5e3d 4825 ccbc 8bd3 e43d d638 77bd
000002b0: 18ad 1b3d f272 f83d a272 5cbd 4e57 f63d
000002c0: b1ce 33bd 1e67 3abb 15c0 ab3d 710d 883d
000002d0: afb0 003c c444 4d3c 853d 83bc 58e8 3a3d
000002e0: 89eb 1b3d d219 863c f1a5 cc3c aa0b ed3c
000002f0: a44a 433c 335b b03d 78a9 66bd 22ad 383b
00000300: 4bf2 d63c 9160 cb3d 1f59 19bb 8ad5 573c
00000310: 45b8 513b e7e3 aa39 f732 043d 2b79 75bc
00000320: c4ba 953d 0d12 15bd 1e95 3bbd 2081 933d
00000330: 1066 093d c78c b13d 5b4d 3a3d e473 b8bc
00000340: 732d 003c 733c de3a 8f8e 563d a5f1 0f3d
00000350: a5fd 4a3d 3101 3ebd 849f 0e3b 4384 b93d
00000360: ea6a 04bd b4c7 a13d 16be ec3c 57bf 8a3d
00000370: 7c37 dcbc 66da 513b 3a29 563d 5e98 ffbb
00000380: 5a20 863c 8e3b 3d3d 7517 3d3d cd91 d8bc
00000390: 0490 293d ca75 413b 0fbf 163b cc2d 443d
000003a0: f8ca 533d 2fca ca3c 4d72 9cbb 0a60 45bd
000003b0: 5d60 d13d e50a 023e ff3f 31bd 08fc b83b
000003c0: 0f15 d03c e9b3 c23d 369e 12bd 462f 583c
000003d0: 6aee 903d 2b2e 383d b69f 9a3d 518c e8bc
000003e0: 485c 99bc e93b 3b3d 18db cf3c fd2d 853d
000003f0: fae6 dd3c 6e2e 4f3d 091e 2abd fc5e d03d

sensor_model.0.bias f4 [128]
0.045145907 -0.0015560209 0.110063866 0.09188892 0.100278065 -0.08593477 -0.0025162878 -0.001433487
0.0814091 0.025803322 0.09887382 -0.0060106087 -0.09546183 0.0071992115 0.06529746 -0.0012242629
0.04459401 -0.0009937114 -0.095610954 0.03631455 0.0808402 -0.14784333 0.10305845 0.072722316
-0.051010504 0.073076814 -0.039031073 0.1016658 0.09201086 -0.062745444 -0.0033269238 -0.013499421
0.085082136 -0.032318927 -0.018943343 0.00234981 0.09220252 0.019648055 -0.16520555 -0.0016110231
0.116854444 0.008525877 0.07244208 0.024761716 -0.09265274 -0.12822203 -0.13765335 -0.07949641
0.101120815 0.09333656 0.087012686 -0.0072062835 0.0298483 -0.026120465 -0.05687646 -0.18057042
0.11627446 0.043443196 0.06861209 -0.017245213 -0.1111195 -0.070826344 -0.007366251 -0.10395199
0.08225621 0.088178255 -0.049128674 0.07056198 -0.0008469509 -0.10451186 0.058258057 0.033906154
0.007090439 0.024310654 -0.117951095 -0.09266051 -0.11846109 0.077051856 0.103511035 0.12369564
-0.073105246 0.048041105 -0.04947042 -0.11465995 0.022819022 0.08286913 0.010887176 0.0690327
0.054997366 -0.041959763 0.048574448 0.13750048 0.02869126 -0.026342768 -0.16076623 0.06639915
-0.13343693 0.07335088 -0.0021988433 0.07953486 0.021028556 -0.04671048 -0.037743215 0.06054982
0.10655598 -0.11269486 -0.032856707 -0.14138062 0.03306348 -0.15852512 0.040867228 0.061709195
0.11036474 -0.04623145 -0.00032901793 0.08280729 0.12739828 0.113458134 -0.014779318 0.14887375
0.027424589 0.05937889 -0.002769074 0.0060439687 0.11609377 -0.005368613 -0.14671646 0.011713821
00000000: eaea 383d 66f3 cbba 2a69 e13d 4230 bc3d
00000010: 965e cd3d 92fe afbd 4ee8 24bb d8e3 bbba
00000020: d0b9 a63d 7d61 d33c 5b7e ca3d a4f4 c4bb
00000030: 7e81 c3bd 5de7 eb3b adba 853d 7277 a0ba
00000040: 35a8 363d 6c3f 82ba adcf c3bd 91be 143d
00000050: 8c8f a53d 3e64 17be 4f10 d33d 70ef 943d
00000060: 64f0 50bd 4ca9 953d 0cdf 1fbd 2936 d03d
00000070: 3170 bc3d af80 80bd 8508 5abb ad2c 5dbc
00000080: 8b3f ae3d da60 04bd 122f 9bbc 45ff 193b
00000090: add4 bc3d f5f4 a03c a52b 29be f728 d3ba
000000a0: 6251 ef3d 1fb0 0b3c 835c 943d 15d9 ca3c
000000b0: b8c0 bdbd a34c 03be 00f5 0cbe 04cf a2bd
000000c0: 6e18 cf3d 3d27 bf3d b533 b23d b022 ecbb
000000d0: 6c84 f43c 96fa d5bc 4af7 68bd 74e7 38be
000000e0: 4e21 ee3d 7ef1 313d 7f84 8c3d d545 8dbc
000000f0: 9f92 e3bd 670d 91bd 9860 f1bb c8e4 d4bd
00000100: f275 a83d cd96 b43d 263b 49bd cd82 903d
00000110: ea05 5eba 500a d6bd 00a0 6e3d 2ee1 0a3d
00000120: ea56 e83b 2327 c73c 5890 f1bd cbc4 bdbd
00000130: ba9b f2bd 5dcd 9d3d 98fd d33d 2454 fd3d
00000140: 34b8 95bd c0c6 443d 7fa1 4abd d6d2 eabd
00000150: f5ee ba3c 4ab7 a93d 2060 323c 0461 8d3d
00000160: eb44 613d 00de 2bbd 00f6 463d edcc 0c3e
00000170: ef09 eb3c cacc d7bc e79f 24be 47fc 873d
00000180: b1a3 08be fc38 963d 781a 10bb 2ce3 a23d
00000190: 1444 ac3c 7d53 3fbd a198 1abd 1703 783d
000001a0: 063a da3d 90cc e6bd c194 06bd 15c6 10be
000001b0: 926d 073d 6954 22be 6564 273d c8c2 7c3d
000001c0: e906 e23d 305d 3dbd 0a80 acb9 de96 a93d
000001d0: b274 023e bd5c e83d f424 72bc 5c72 183e
000001e0: 88a9 e03c 4737 733d 5a79 35bb 7c0c c63b
000001f0: 92c2 ed3d 31eb afbb d73c 16be 54eb 3f3c

sensor_model.2.weight f4 [64, 128]
0.00901519 0.068122834 0.20947652 -0.02249584 -0.090047434 0.18478045 0.009625475 -0.013684732
-0.08839179 -0.026412085 0.09655391 0.16627905 0.15154167 0.059936207 0.024005966 0.052500542
-0.027695289 0.20982389 -0.048389133 0.18304604 0.23008248 0.14413488 0.04013513 0.043304127
0.020555455 0.14153169 0.07737587 0.23288783 -0.076834485 0.1883944 0.13266346 0.091828994
0.15598258 -0.031235445 -0.09126327 0.20202354 -0.020730117 0.084742814 -0.022920603 0.029724637
0.13664137 -0.002411453 0.09690698 -0.0903373 -0.074982785 0.122508794 -0.0561957 0.09129483
0.11496369 -0.07627819 0.025353244 0.07621603 0.059718136 -0.008319137 0.22868384 0.13770047
0.004286984 -0.10019524 0.033615664 0.036120348 0.014529029 -0.013936549 -0.07345306 0.010270091
0.03917505 0.07715887 -0.024835823 -0.028726308 0.1524213 -0.07375085 0.06520412 -0.012826578
0.060290925 0.17527944 0.16944215 0.014693413 -0.09162693 -0.00831906 -0.08444537 -0.019000676
0.0048786597 0.039349012 -0.13878869 -0.08167069 0.06816864 0.23244996 -0.011935782 4.1847343e-06
-0.12206036 0.12784196 0.12719847 -0.03782119 -0.0995485 0.002050094 0.15482692 0.08866886
-0.1097179 0.100861646 0.036017563 0.062011868 0.18453942 0.070930764 0.13760026 0.17696223
0.20542781 0.06790756 -0.0483361 0.02768631 0.036468156 0.17138566 0.06682931 0.11370239
0.006377253 0.04693476 -0.002989788 0.12048072 0.13134168 0.2127351 0.19160628 0.20213109
-0.10064332 0.03885608 0.22380336 0.18962598 0.20990518 -0.11450243 -0.038571563 0.06536409
0.14833075 -0.10449004 0.0628644 -0.10775937 -0.06530845 -0.12659405 0.024137652 0.11772731
-0.0105494205 0.009744845 0.0457428 -0.0049953507 0.018178776 0.06291329 -0.006365768 -0.09076416
0.13685305 0.18623205 0.16832587 0.1867421 0.15692848 0.056009706 0.022640811 0.16229433
0.0054592486 0.006908461 -0.03540662 -0.07065644 0.14379649 0.15508707 0.06958809 -0.00958301
-0.08053598 -0.07166235 0.13311355 0.10190166 0.16684031 -0.036596563 0.06871889 0.028012117
-0.020502385 0.050683767 0.048678678 -0.026371216 -0.012655181 0.13625135 -0.08152729 0.11552962
0.09665441 0.15296806 0.11644259 0.15446275 0.1289577 0.20816152 -0.085433856 -0.0011145726
-0.033089332 -0.103815645 -0.06861237 0.17094909 -0.13791469 0.0941008 0.17449313 -0.07989592
-0.0061952504 0.21010512 0.026136907 0.15901463 -0.12559517 -0.03371305 -0.0018545053 0.17782778
-0.12717624 0.08052266 -0.17409514 0.08154016 -0.027673978 0.051592104 0.1475401 0.16695389
0.106615365 -0.15173475 -0.008819371 -0.105480164 -0.15254161 0.07118633 -0.12360228 0.080203734
-0.11079143 -0.088421956 -0.07351933 0.14977196 0.19104049 0.17398666 0.029095203 0.15364021
-0.1512771 0.008660797 -0.067892574 0.16135922 -0.005638067 -0.126799 0.1612745 -0.05727679
0.16141172 0.1617792 -0.0602025 0.0046604876 -0.14927663 -0.10193805 0.017810728 -0.040186636
0.15765011 0.1559632 -0.06530644 0.009532641 0.10549838 -0.037371762 -0.13399342 -0.0064677955
0.008560313 0.112633355 0.17484252 -0.09074067 0.19223073 -0.055600476 -0.0089773955 0.04396118
00000000: 73b4 133c fc83 8b3d 0381 563e 3249 b8bc
00000010: ca6a b8bd 1637 3d3e 2bb4 1d3c ed35 60bc
00000020: c106 b5bd 285e d8bc 0ebe c53d 0e45 2a3e
00000030: bd2d 1b3e ab7f 753d 29a8 c43c cf0a 573d
00000040: 3be1 e2bc 13dc 563e af33 46bd 6c70 3b3e
00000050: be9a 6b3e 1898 133e bc64 243d ab5f 313d
00000060: ea63 a83c afed 103e 3d77 9e3d 267a 6e3e
00000070: 665b 9dbd 76ea 403e eed8 073e d710 bc3d
00000080: e6b9 1f3e 7ae1 ffbc 3de8 babd 42df 4e3e
00000090: 35d2 a9bc a48d ad3d fdc3 bbbc 1581 f33c
000000a0: b7eb 0b3e 7809 1ebb 2b77 c63d c302 b9bd
000000b0: 9390 99bd e4e5 fa3d 762d 66bd c9f8 ba3d
000000c0: 1572 eb3d bd37 9cbd 9bb1 cf3c 2617 9c3d
000000d0: 019b 743d fd4c 08bc 192c 6a3e 5a01 0d3e
000000e0: d479 8c3b 2933 cdbd 94b0 093d eef2 133d
000000f0: 2a0b 6e3c 2056 64bc 8f6e 96bd e243 283c
00000100: 0476 203d 7805 9e3d 7f74 cbbc 6f53 ebbc
00000110: 5414 1c3e b00a 97bd bd89 853d 9126 52bc
00000120: 9ef3 763d 747c 333e 3e82 2d3e a4bc 703c
00000130: e6a6 bbbd ab4c 08bc b2f1 acbd 4ea7 9bbc
00000140: 2add 9f3b 6e2c 213d 9f1e 0ebe f642 a7bd
00000150: 009c 8b3d 5d07 6e3e 4c8e 43bc 986a 8c36
00000160: c8fa f9bd 01e9 023e 5140 023e 64ea 1abd
00000170: 15e0 cbbd df5a 063b f38a 1e3e 0598 b53d
00000180: c7b3 e0bd 8d90 ce3d 2787 133d 2800 7e3d
00000190: e7f7 3c3e 2644 913d 15e7 0c3e 9635 353e
000001a0: ab5b 523e 1e13 8b3d 13fc 45bd 66ce e23c
000001b0: a25f 153d b97f 2f3e cedd 883d ccdc e83d
000001c0: 47f8 d03b aa3e 403d 52f0 43bb 99be f63d
000001d0: 6f7e 063e 3bd7 593e 7034 443e 74fb 4e3e
000001e0: 161e cebd 8e27 1f3d b52c 653e 502d 423e
000001f0: 62f1 563e 4080 eabd 37fd 1dbd 9cdd 853d
00000200: 04e4 173e e0fe d5bd 0dbf 803d f2b0 dcbd
00000210: 70c0 85bd dfa1 01be 53bc c53c 041b f13d
00000220: 7ad7 2cbc d8a8 1f3c cd5c 3b3d 0ab0 a3bb
00000230: a8eb 943c afd8 803d ef97 d0bb 8fe2 b9bd
00000240: 3523 0c3e 9db3 3e3e 9e5d 2c3e 5239 3f3e
00000250: dcb1 203e 6f6a 653d 3979 b93c 7c30 263e
00000260: 7fe3 b23b 5f60 e23b 8806 11bd 53b4 90bd
00000270: 633f 133e 25cf 1e3e 3384 8e3d 0f02 1dbc
00000280: 0cf0 a4bd b6c3 92bd eb4e 083e d1b1 d03d
00000290: 30d8 2a3e 47e6 15bd 7dbc 8c3d ab79 e53c
000002a0: 9ef4 a7bc c899 4f3d 4b63 473d 7308 d8bc
000002b0: ad57 4fbc 7985 0b3e c8f7 a6bd cb9a ec3d
000002c0: bff2 c53d a9a3 1c3e 7479 ee3d 7c2b 1e3e
000002d0: 7d0d 043e 4b28 553e f2f7 aebd da16 92ba
000002e0: ae88 07bd 4c9d d4bd a484 8cbd 470d 2f3e
000002f0: 8239 0dbe ecb7 c03d 54ae 323e 79a0 a3bd
00000300: 8701 cbbb cc25 573e 111d d63c bbd4 223e
00000310: 059c 00be b216 0abd df12 f3ba 7c18 363e
00000320: 7d3a 02be 10e9 a43d ff45 32be 87fe a63d
00000330: 8ab4 e2bc 3e52 533d c114 173e f6f5 2a3e
00000340: 2859 da3d 5b60 1bbe 207f 10bc fc05 d8bd
00000350: de33 1cbe 23ca 913d 3123 fdbd db41 a43d
00000360: 9ee6 e2bd 9216 b5bd 4d91 96bd d25d 193e
00000370: 1ea0 433e 8f29 323e 1059 ee3c dc53 1d3e
00000380: 62e8 1abe 04e6 0d3c 430b 8bbd 5a3b 253e
00000390: 89bf b8bb 99d7 01be 2425 253e 119b 6abd
000003a0: 1d49 253e 72a9 253e e696 76bd 01b7 983b
000003b0: f9db 18be e5c4 d0bd cee7 913c be9a 24bd
000003c0: 086f 213e d1b4 1f3e 62bf 85bd cb2e 1c3c
000003d0: 890f d83d 2213 19bd 9235 09be cdef d3bb
000003e0: 8e40 0c3c 51ac e63d eb09 333e 3fd6 b9bd
000003f0: 22d8 443e 53bd 63bd ed15 13bc a310 343d

sensor_model.2.bias f4 [64]
0.16177978 -0.009878787 0.1042454 -0.035572693 -0.033829086 -0.09995731 -0.00694098 0.10032289
-0.01895076 0.1024267 0.023315657 0.09812665 -0.056066945 0.07860206 0.050153468 -0.0038633714
0.1741296 0.11028889 -0.102989 0.01707089 -0.0077004004 -0.058956746 0.02311463 -0.14985076
0.073897675 -0.04766474 0.09988306 0.07703447 0.11414499 0.001380611 -0.034700535 0.032194626
0.06476092 -0.05429301 0.0106173875 0.071011215 -0.081766315 0.018495394 -0.078334935 0.06436399
-0.094930075 -0.0583561 0.037353672 0.046287883 0.114084944 -0.12069017 0.06407921 0.015998488
-0.016237207 0.064007305 0.013116688 -0.08446731 -0.081891984 0.119458415 0.10604393 0.06167177
0.11021672 0.035234537 0.013044538 -0.00032068836 0.09271282 0.00392811 0.042464264 0.09748119
00000000: 99a9 253e a3da 21bc 9d7e d53d acb4 11bd
00000010: 5e90 0abd 6bb6 ccbd 2971 e3bb 1676 cd3d
00000020: a03e 9bbc 17c5 d13d 7a00 bf3c a0f6 c83d
00000030: 74a6 65bd 1efa a03d b96d 4d3d 9e30 7dbb
00000040: 084f 323e 24df e13d e6eb d2bd 40d8 8b3c
00000050: a453 fcbb a17c 71bd e45a bd3c 7a72 19be
00000060: aa57 973d 1a3c 43bd 7d8f cc3d 40c4 9d3d
00000070: d9c4 e93d 9ef5 b43a 2622 0ebd 83de 033d
00000080: 60a1 843d 5962 5ebd 8df4 2d3c 546e 913d
00000090: 1975 a7bd a783 973c 116e a0bd 45d1 833d
000000a0: b36a c2bd ce06 6fbd 2a00 193d 5d98 3d3d
000000b0: 5ea5 e93d 682c f7bd f63b 833d 430f 833c
000000c0: e403 85bc 4316 833d 60e7 563c 32fd acbd
000000d0: fcb6 a7bd 9da6 f43d 8f2d d93d 8a9b 7c3d
000000e0: 4eb9 e13d 1752 103d c2b8 553c 1022 a8b9
000000f0: 38e0 bd3d 60b7 803b 02ef 2d3d 38a4 c73d

sensor_model.4.weight f4 [16, 64]
0.14956313 0.06522757 0.100405715 0.07521936 -0.04858068 0.17881027 0.07039167 -0.18528771
-0.06279506 -0.05609129 -0.13040957 -0.00781276 -0.15204658 0.04384398 -0.055967946 0.12405824
-0.16860078 0.22518435 0.13145243 0.09989764 -0.08137848 0.14893618 0.24926737 0.0689498
0.09349549 0.07243647 0.3111127 -0.16419987 0.103663266 0.3359251 0.26204172 -0.15651165
0.15579876 -0.068248 0.08568397 0.13099444 -0.17377377 -0.050687224 0.016049383 -0.052362714
-0.030875558 0.2715231 0.23442514 -0.0031705427 0.031975456 -0.18431081 0.012915286 0.21613032
-0.23520166 0.2059934 -0.18557775 0.10864613 -0.05118315 0.16334012 -0.10913126 -0.023916237
-0.031457618 -0.17417145 -0.0850998 -0.18552184 0.06511862 -0.021736242 0.18754911 -0.15168247
0.20960434 -0.17489666 -0.21862136 0.3247023 0.24419901 -0.26495418 -0.07531136 0.27576917
-0.0506705 0.020199379 0.23691441 -0.18376943 0.13785367 -0.052443147 0.05546158 -0.089944996
-0.09076912 -0.08096297 -0.0067738285 0.2039594 0.059715267 0.17263053 0.044677444 0.20707929
0.101810135 0.009692691 0.2181775 0.22429903 -0.16174331 0.037814856 0.32884398 0.15664944
0.22781657 0.045191396 0.25863734 -0.17159332 -0.16218582 -0.14916559 0.1444029 -0.0033152807
-0.26140696 0.23658074 0.16792275 -0.13648865 0.038787138 -0.07076203 0.06545028 0.28470105
0.10047527 -0.06714801 -0.13561657 0.0046208375 0.17392987 0.070583805 0.22014047 0.29674336
0.006225721 -0.033998884 0.061605323 -0.018670319 0.11328519 -0.027569665 0.109874554 -0.062912405
0.07901245 -0.010658278 0.28757915 -0.23567258 -0.05958049 0.09512195 -0.16275637 0.17258294
0.16034035 -0.17120881 0.25514555 -0.15461871 -0.14159958 0.2627219 0.07290516 0.26251602
-0.098407716 0.022075789 0.00769212 0.06981905 0.30078322 0.045108348 0.12042363 -0.091796905
-0.16808166 -0.08529908 0.26049784 0.03811683 0.11834062 -0.15106107 -0.104248345 0.064325094
-0.19106695 0.20630606 -0.12566838 -0.12351236 0.06272434 0.06900234 0.19157067 -0.09453061
0.03553247 -0.030199282 0.047021512 0.05566005 0.047599535 -0.24220072 0.19077526 0.2762341
0.047313567 0.09608046 0.00022296737 -0.2520709 -0.20907027 0.33341733 0.15581228 -0.22151724
0.1204031 -0.050145753 -0.21015146 -0.18977672 -0.08780935 -0.24959053 0.33483613 0.22142899
-0.21779554 -0.2916497 -0.19276802 -0.092640795 -0.15188722 -0.09385734 0.080856845 -0.06425244
-0.16573338 -0.20104715 0.082883105 0.10201356 -0.14675161 0.23586857 -0.29391307 -0.17059597
0.15897952 -0.18515359 0.1127134 -0.10123167 -0.17550807 -0.0999967 0.076024435 -0.11008813
0.022822868 0.19538549 0.21896227 -0.08502982 0.17676133 -0.03042838 -0.21590333 -0.0021221922
-0.06746296 -0.018037029 0.104737 0.2388744 0.2632205 -0.20692812 0.23556027 -0.253979
-0.14913268 0.11262811 -0.2244313 -0.05529867 0.20389205 0.17429096 0.08768722 0.13484707
0.10398716 -0.089595065 0.19240072 0.01273958 0.08493725 0.04492187 -0.07632379 0.24935569
-0.10300512 -0.15204458 0.1537804 0.2610335 -0.2437367 -0.24104224 0.13894962 0.012573186
00000000: 1427 193e 0896 853d 83a1 cd3d 9c0c 9a3d
00000010: 89fc 46bd 0a1a 373e 8229 903d 10bc 3dbe
00000020: b29a 80bd fbbf 65bd 168a 05be 1701 00bc
00000030: 19b2 1bbe bf95 333d a53e 65bd 3f12 fe3d
00000040: afa5 2cbe ba96 663e 779b 063e 2297 cc3d
00000050: c3a9 a6bd ba82 183e f23f 7f3e 8e35 8d3d
00000060: 907a bf3d 9259 943d 2a4a 9f3e 0324 28be
00000070: 684d d43d 60fe ab3e 552a 863e 9744 20be
00000080: b689 1f3e 9cc5 8bbd 147b af3d 6823 063e
00000090: c0f1 31be 689d 4fbd ff79 833c 497a 56bd
000000a0: bdee fcbc 1305 8b3e 250d 703e e1c8 4fbb
000000b0: b2f8 023d f9bb 3cbe a39a 533c 4451 5d3e
000000c0: b4d8 70be efef 523e 1808 3ebe dd81 de3d
000000d0: 6ca5 51bd a242 273e 3680 dfbd fceb c3bc
000000e0: b4d9 00bd 005a 32be ce48 aebd 70f9 3dbe
000000f0: e95c 853d 3410 b2bc e00c 403e a652 1bbe
00000100: 85a2 563e 1c18 33be 47de 5fbe 613f a63e
00000110: 4e0f 7a3e 13a8 87be d83c 9abd 9e31 8d3e
00000120: df8b 4fbd 2b79 a53c b199 723e 0e2e 3cbe
00000130: 8329 0d3e a0ce 56bd af2b 633d 1535 b8bd
00000140: 29e5 b9bd eacf a5bd fef6 ddbb bcda 503e
00000150: ff97 743d 0fc6 303e b2ff 363d 980c 543e
00000160: d581 d03d 18ce 1e3c ec69 5f3e a5ae 653e
00000170: 0aa0 25be c0e3 1a3d 3d5e a83e b668 203e
00000180: bf48 693e 9d1a 393d 1d6c 843e 29b6 2fbe
00000190: 0a14 26be ddbe 18be 5bde 133e 2e45 59bb
000001a0: 22d7 85be 3942 723e f1f3 2b3e aec3 0bbe
000001b0: 43df 1e3d afeb 90bd cc0a 863d 56c4 913e
000001c0: fac5 cd3d e584 89bd 12df 0abe 656a 973b
000001d0: ac1a 323e 3e8e 903d 816c 613e bfee 973e
000001e0: 2201 cc3b 6a42 0bbd dd55 7c3d 7ff2 98bc
000001f0: 1102 e83d c7d9 e1bc e905 e13d 38d8 80bd
00000200: 48d1 a13d 0fa0 2ebc 933d 933e 2754 71be
00000210: ac0a 74bd 4ccf c23d 9ba9 26be 95b9 303e
00000220: 4330 243e 5d51 2fbe 70a2 823e 5e54 1ebe
00000230: 7bff 10be 7c83 863e 4d4f 953d 8068 863e
00000240: fc89 c9bd 49d8 b43c 2e0e fc3b 4afd 8e3d
00000250: 4200 9a3e 88c3 383d aaa0 f63d 0400 bcbd
00000260: 991d 2cbe 49b1 aebd f95f 853e 6520 1c3d
00000270: 915c f23d c1af 1abe 2880 d5bd e0bc 833d
00000280: 0ea7 43be e541 533e 36af 00be 0cf4 fcbd
00000290: 9e75 803d 1951 8d3d 1a2b 443e 4499 c1bd
000002a0: 7f8a 113d 7c64 f7bc a199 403d cbfb 633d
000002b0: bbf7 423d 7703 78be 975a 433e 8e6e 8d3e
000002c0: dfcb 413d d5c5 c43d 59cc 6939 700f 81be
000002d0: 8416 56be adb5 aa3e 418d 1f3e 6ad5 62be
000002e0: e795 f63d a265 4dbd f231 57be d454 42be
000002f0: 63d5 b3bd a994 7fbe a46f ab3e 48be 623e
00000300: cb05 5fbe 1c53 95be fb64 45be 75ba bdbd
00000310: 5388 1bbe 4738 c0bd 4698 a53d c996 83bd
00000320: 03b6 29be 4edf 4dbe 9ebe a93d 7cec d03d
00000330: 0e46 16be 8887 713e c67b 96be b6b0 2ebe
00000340: 87cb 223e e798 3dbe 48d6 e63d 8d52 cfbd
00000350: 63b8 33be 12cb ccbd b3b2 9b3d e375 e1bd
00000360: 06f7 ba3c 2213 483e a537 603e 1d24 aebd
00000370: ec00 353e f044 f9bc c315 5dbe 7a14 0bbb
00000380: 052a 8abd 64c2 93bc 5a80 d63d 7e9b 743e
00000390: d6c4 863e f7e4 53be b636 713e 8909 82be
000003a0: 3db6 18be 91a9 e63d 52d1 65be dc80 62bd
000003b0: 14c9 503e 5479 323e 5b95 b33d 5a15 0a3e
000003c0: 38f7 d43d 9e7d b7bd b204 453e acb9 503c
000003d0: 95f3 ad3d ffff 373d a64f 9cbd 1957 7f3e
000003e0: 59f4 d2bd 93b1 1bbe 9c78 1d3e 2fa6 853e
000003f0: 1d96 79be c7d3 76be cf48 0e3e c4ff 4d3c

sensor_model.4.bias f4 [16]
-0.0871817 -0.008509465 0.13702747 0.053015683 0.003516933 0.012850078 0.009262264 0.040512033
-0.1437886 -0.094636075 0.094943725 0.05261554 0.032890227 -0.13794455 0.076425806 0.06858519
00000000: 528c b2bd 486b 0bbc ee50 0c3e f926 593d
00000010: 587c 663b 2289 523c c0c0 173c f2ef 253d
00000020: 523d 13be 8fd0 c1bd db71 c23d 6483 573d
00000030: e7b7 063d 5641 0dbe 2285 9c3d 6476 8c3d

sensor_model.6.weight f4 [2, 16]
-0.14839919 0.276648 -0.258272 -0.08566611 0.47466424 -0.38649148 -0.403418 0.4494788
0.14614268 -0.19025242 -0.4405177 -0.4350847 0.2212322 -0.34731656 0.16779749 -0.45103252
-0.3973596 0.09882204 -0.25119263 -0.2705007 -0.2406333 -0.029355658 -0.28241864 0.027796142
-0.057717413 0.012117074 -0.344814 0.0818123 -0.22151114 0.20248228 0.30684423 0.21982174
00000000: f5f5 17be cfa4 8d3e 3a3c 84be b771 afbd
00000010: 3107 f33e 36e2 c5be ce8c cebe 1622 e63e
00000020: 6da6 153e 88d1 42be 898b e1be 6cc3 debe
00000030: b28a 623e 7ad3 b1be 1bd3 2b3e bced e6be
00000040: b872 cbbe 3663 ca3d 529c 80be 117f 8abe
00000050: 9368 76be 477b f0bc 2d99 90be bcb4 e33c
00000060: 1869 6cbd b186 463c 768b b0be 358d a73d
00000070: d1d3 62be 8457 4f3e b01a 9d3e f318 613e

sensor_model.6.bias f4 [2]
0.08607459 -0.13088787
00000000: e047 b03d 7807 06be
