Pytorch_DRL/HNRN/models/backup/4.12(train again)/best_ca_critic.model (torch_old, 225090 bytes, 9 tensors)

sensor_model.0.weight f4 [128, 360]
000000 73 16 be bb 37 cd bb bd 9c 32 b0 bd c6 13 3e 3b
       -0.005801016 -0.09170001 -0.08603403 0.0029003485
000010 0f 65 e5 3c 43 a1 d9 bb ec 32 a3 bc 3e 8d c2 3c
       0.02800229 -0.0066415383 -0.019921742 0.02374899
000020 fe f8 b9 bc 1d f5 e3 3c 9d 47 01 bd ec a2 f8 bc
       -0.022701737 0.02782684 -0.031562436 -0.030351125
000030 ea cd 60 bc 63 d5 b0 bd 01 3a ca 3d a2 02 8f 3d
       -0.013720969 -0.0863445 0.098743446 0.06982924
000040 0a e5 f4 3d 3b 4d 8c 3d 15 90 6b bc be 1e 39 bd
       0.11957748 0.06850668 -0.014377614 -0.045195334
000050 0a 70 27 bd 7d a7 36 bd 86 a7 af 3d 19 a2 0f bd
       -0.040878333 -0.044593323 0.085768744 -0.035066698
000060 ae cb 27 3d 9e 32 b9 bd 44 0a c9 bc c6 35 bf bd
       0.04096573 -0.090428576 -0.024541028 -0.09336428
000070 c4 5a 82 3d 92 6d 43 bc e0 f8 82 3d c6 21 d5 3d
       0.063649684 -0.011927979 0.063951254 0.104068324
000080 08 b2 bb 3d 93 cd c7 bc 97 29 8e bd ee 1d 76 bc
       0.09164816 -0.024390018 -0.069415264 -0.015021784
000090 aa 4b 4b 3d ed 2f ca 3c ec 97 01 3d 2a 47 12 3d
       0.049632706 0.024681056 0.031639025 0.0357124
0000a0 04 8d 6e bc 54 da 83 3d 86 aa c4 bc 31 81 f7 bc
       -0.014559988 0.06438127 -0.024007093 -0.03021297
0000b0 be a3 0b 3d de ac 1f 3c 2f 6a 69 3c b6 58 8c bd
       0.034091704 0.009745805 0.014246508 -0.06852858
0000c0 1a aa 8a bd 44 08 50 bd c5 ef cf 3d a4 5c 2d bd
       -0.067707255 -0.050789133 0.10153154 -0.042324677
0000d0 09 53 23 bd 43 e0 db 3d 18 29 a0 3c 18 9e 89 3d
       -0.03987411 0.10736134 0.019550845 0.06719607
0000e0 b0 81 55 bd 7f 93 86 3d 08 c2 3c 3c ec f9 b2 3d
       -0.052125633 0.065711014 0.01152087 0.08739075
0000f0 2d 46 9f bd 03 be 83 3d 92 40 a3 bd d4 95 94 3d
       -0.07777057 0.06432726 -0.079713 0.0725514
000100 6e e6 4d bd 29 ad d2 bc 6e 13 ad 3d c0 98 9f bd
       -0.050268583 -0.025717335 0.084509715 -0.077928066
000110 8c f5 91 bd d2 5c 8f bc 43 0f b7 3d 23 6a 36 3a
       -0.071269125 -0.017500315 0.08938458 0.00069585646
000120 28 64 8d 3d 09 e3 5d bd db 7d 60 3d 51 e1 83 3c
       0.06903869 -0.054171596 0.054807525 0.01609865
000130 63 07 da 3d eb 94 3d bd 29 e0 80 bd 8d f2 3b 3c
       0.1064594 -0.046284597 -0.06292755 0.011471403
000140 b2 de 44 3d 44 ec bd bc 9b e5 39 bd dd 58 b9 bd
       0.04806394 -0.02318395 -0.045384984 -0.090501525
000150 fe a8 61 bd 40 a0 4c bc a1 ed dd 3d 01 17 98 3d
       -0.055092804 -0.012489378 0.1083634 0.07426263
000160 77 73 d1 3d 20 f3 4a 3d 6b 82 97 3d 7e f9 71 3d
       0.10227101 0.04954827 0.07397922 0.059075825
000170 3e 3f e2 bb 79 4b 40 bc 23 af 85 3d c3 aa f2 bc
       -0.0069045117 -0.011736744 0.06527545 -0.029622441
000180 c1 db 87 3d 66 a4 d4 3d 2f 6e 89 3d d3 bd b5 bd
       0.066337116 0.10382919 0.06710469 -0.08874097
000190 26 b3 b4 3c b6 e9 ba bc 25 57 35 bd e5 f6 8c 3d
       0.02205808 -0.02281652 -0.04427256 0.06883029
0001a0 7c 96 2a 3d af cd e7 3c 90 4e 69 3c ce 67 a1 bd
       0.04164742 0.02829632 0.014239922 -0.07881127
0001b0 73 8e e9 bd c7 72 ab 3d b6 3a 93 3d d8 84 94 bc
       -0.11404123 0.083715014 0.071889326 -0.018129751
0001c0 2e 1b 25 3d ed d5 4a 3d c2 93 b3 bb 61 4e 56 3d
       0.040309124 0.04952042 -0.0054802606 0.05232084
0001d0 2a 7c e9 bb 23 3a 12 3e 45 af e3 bc da ca 54 3d
       -0.007125397 0.1427999 -0.027793536 0.051951267
0001e0 16 c1 5d 3d d6 98 a2 bd 03 90 a6 bc dd f3 d0 3d
       0.05413922 -0.079393074 -0.020332342 0.10202763
0001f0 f2 29 76 bd 2d 32 58 bd cc d3 53 3d 0d a6 20 3d
       -0.060098596 -0.052782226 0.051715657 0.03922086
000200 bc 06 a9 3d 74 c2 20 3d cc 53 32 3d 87 fb 98 bd
       0.082532376 0.039247945 0.043536946 -0.0746985
000210 70 77 a5 3d 3b 00 4a bc 0a 7e e2 bc 4e 59 ca bd
       0.080794215 -0.0123291565 -0.02764799 -0.09880315
000220 ba 28 0a 3e 10 54 5e 3b ce 7d a7 3d 33 99 ba bd
       0.13492098 0.0033924617 0.08178292 -0.09111252
000230 dc ed af bc fd 50 da 3d 20 52 36 3d d4 cb ed bc
       -0.021475725 0.106599785 0.044511914 -0.029027857
000240 61 d2 b4 3d 38 e3 e1 bc f0 a5 4e 3c e3 79 88 bd
       0.08829189 -0.027574167 0.012612805 -0.06663873
000250 0d 6f 5b 3d 45 77 07 bd 5a 92 a4 bd fa bc 35 3c
       0.053572703 -0.03307273 -0.08035727 0.011092419
000260 da 4b f7 bc d6 31 28 bd 17 19 d3 3d f9 11 96 bd
       -0.030187536 -0.041063152 0.1030752 -0.07327647
000270 3a c5 c6 3d 22 d0 9d bd 27 74 05 3b ba ff 9c 3d
       0.09705587 -0.07705714 0.0020363422 0.076659635
000280 48 39 e2 3b 34 59 a5 bd cf d0 e3 bc a0 86 be bc
       0.006903801 -0.08073655 -0.027809529 -0.023257554
000290 93 cc 3a 3d e2 68 a9 3d 5e e8 07 3e a5 7a 0e 3d
       0.045605253 0.08271958 0.13272235 0.03478493
0002a0 af 5d 4c bd f6 1f ac bc 64 3f 4f 3d d1 e4 70 bc
       -0.04989403 -0.021011334 0.050597563 -0.014702992
0002b0 f8 b4 8d bd 43 96 97 3d eb d3 b2 3c 35 ba b9 bd
       -0.06919283 0.07401707 0.021829566 -0.09068719
0002c0 6f 79 9d 3d a5 43 ce bc e7 99 2b 3d e9 9f f7 3d
       0.07689177 -0.02517874 0.04189482 0.12091047
0002d0 0f 8f ef bc c3 5c 5b 3c 2c 1c 20 3d 9b 9c 67 3d
       -0.02924302 0.013388815 0.039089367 0.056545835
0002e0 e0 fe 56 bd a7 cd a2 bd 68 d2 37 3d 85 c9 67 3c
       -0.05248916 -0.07949381 0.044878393 0.014147167
0002f0 45 19 6c bc 6f 1e ac bd c8 1c 27 3d 28 bc 9b 3d
       -0.014410322 -0.08404242 0.040798932 0.07604247
000300 1f 6c 65 3d df e4 8e bd b7 8f 1a 3d c3 da c5 3c
       0.056011315 -0.069772474 0.037734713 0.024152165
000310 62 94 ab 3d b7 e7 df bc 21 76 1d 3d 56 f4 4e bd
       0.08377911 -0.02733217 0.038442735 -0.050525986
000320 3f ed ef 3d af 34 34 bd 41 5a a1 3d 47 ea 9e 3c
       0.11715173 -0.043995555 0.07878543 0.019398822
000330 a8 0e 87 bd ab 71 98 bd 3e c8 95 3d cf d4 6f bd
       -0.06594592 -0.074435554 0.07313584 -0.05855256
000340 81 e1 cf bc 3d de 64 3d 62 3f 9f 3d 47 7a e8 3d
       -0.025376083 0.055876005 0.07775761 0.113514476
000350 7b 24 5e 3c fa 40 d2 3d 7b 74 03 bd b4 e8 c8 bd
       0.013558502 0.102662995 -0.032093506 -0.098100096
000360 b6 44 1c 3c 22 7d b1 bc f2 d6 fd bc 2e 1f de 3d
       0.009537866 -0.021666113 -0.030986283 0.10845791
000370 e6 a5 2c bd 38 65 bc 3d d1 91 0b 3d 32 e4 87 bc
       -0.0421504 0.091989934 0.03407461 -0.016588304
000380 1f ca 27 bc 06 f3 d6 3d 11 9f 2b bd 3f b8 ca 3d
       -0.0102410605 0.10495572 -0.041899744 0.098984234
000390 06 3a 58 bc f3 33 93 3d f9 d2 a5 3d 6e 16 bf bd
       -0.013197428 0.07187643 0.080968805 -0.0933045
0003a0 b3 26 85 3d 1f f9 78 bb 4d c9 83 3c df e0 1f bc
       0.06501522 -0.0037990285 0.016087199 -0.009758203
0003b0 eb d3 55 bd 18 00 8a 3d c8 0b b2 3d 95 d1 64 bd
       -0.052204054 0.06738299 0.08693653 -0.055863936
0003c0 67 75 1b 3d 13 c5 ea 3c 49 bf 3a bd 6c e2 63 bd
       0.03795376 0.028658425 -0.04559258 -0.055635855
0003d0 60 05 06 bd b2 38 83 bd 35 08 62 3c c2 6a 5b bd
       -0.03271997 -0.06407298 0.013795902 -0.05356861
0003e0 da 21 fb 3d 5e 0a d9 3c ee 25 03 3d 16 4c ba 3c
       0.12262316 0.026494201 0.032018594 0.022741359
0003f0 50 c8 ce 3d 49 22 2e bd 0e e7 39 3d f8 18 84 bd
       0.100968 -0.042513166 0.045386367 -0.06450075

sensor_model.0.bias f4 [128]
000000 d1 c0 6e 3e 70 70 97 bd 3d 9c 78 bd a7 10 6d bd
       0.23315741 -0.073944926 -0.060695875 -0.05787721
000010 47 a5 28 bc f3 4c a5 39 31 16 3c bd 3e 75 14 bd
       -0.010293311 0.00031528584 -0.0459196 -0.036244623
000020 35 86 87 bd 45 88 10 bc a5 22 be bc c8 b2 dc bc
       -0.06617395 -0.008821552 -0.02320988 -0.026940718
000030 15 5c 28 bd 7e e7 15 bd 37 17 66 bd 3d 53 aa bc
       -0.04110344 -0.03659772 -0.056174483 -0.020791644
000040 5c 63 43 bd 42 2a 55 bd 42 b7 37 3e fc 36 ef bc
       -0.04770218 -0.052042253 0.17941001 -0.029201023
000050 c1 98 f8 bc 24 fd c8 bc 56 e7 59 bd 11 0a 21 bb
       -0.030346276 -0.02453477 -0.053199135 -0.002457265
000060 57 cc 2d bd 39 a6 61 bd 03 9a 7a bd 0d 3f 40 bc
       -0.0424312 -0.055090163 -0.061182033 -0.0117337825
000070 5d d6 81 bd 82 eb fd bc a0 9a 9b 3c 1e e0 9c 3d
       -0.06339715 -0.030996088 0.01899463 0.076599345
000080 1f 47 e3 bb 13 ee 1d bd 84 cc 86 bb 7a ff 30 bd
       -0.0069359685 -0.038557123 -0.0041137356 -0.04321239
000090 7e c3 8e bd 61 c8 f9 3a b2 3c 03 bd 63 ad cf bc
       -0.06970881 0.001905691 -0.032040305 -0.025351232
0000a0 55 1d 4b bc ed 10 2d bd 4e a6 9e bd 74 47 fb bc
       -0.01239713 -0.04225247 -0.07746564 -0.03067372
0000b0 fa 55 8f bd bb 92 2a 3c 2d 22 95 bd d7 72 ae bc
       -0.069988206 0.01041096 -0.07281909 -0.021294994
0000c0 e9 d4 73 bd aa 1a 63 bd 7b 80 47 bc 1a 27 25 bb
       -0.05952922 -0.05544535 -0.012176628 -0.0025200308
0000d0 eb f5 11 bd c4 54 87 bc e4 44 88 bb db 82 2d 3d
       -0.035634916 -0.016519912 -0.004158603 0.04236112
0000e0 34 02 22 bd 48 f8 8a bc eb 9c b5 bc 89 db b0 bc
       -0.039552882 -0.016964093 -0.02216955 -0.021589058
0000f0 3b e7 16 bd b7 03 8a bc 8e d8 83 bd cc aa 1e bd
       -0.036841612 -0.016847475 -0.06437789 -0.038737103
000100 f0 bc de bb 97 72 e9 bb 44 d7 8b bb 03 37 1c bd
       -0.0067974254 -0.007124256 -0.004267605 -0.0381384
000110 eb 83 fa 3d 95 51 86 3d 8f 35 2f bd fa 79 0d bd
       0.122321926 0.06558529 -0.042775687 -0.034540154
000120 7c a4 aa bc 63 7f 03 bd 81 0e 87 3e 29 4a ad bc
       -0.020830385 -0.032103907 0.26378253 -0.021153526
000130 20 8c 11 bd bf 24 3f bd 5d 3e ce bb dd bc 0a bc
       -0.035534024 -0.046665903 -0.0062940554 -0.00846788
000140 42 be 12 bc bb d2 19 3e 7b 81 5d bd 45 fb 96 bd
       -0.008956494 0.15021794 -0.05407856 -0.073721446
000150 fa f1 9c bd 69 94 12 bc 3e c8 25 bd 0e 1d 95 3d
       -0.07663341 -0.008946517 -0.04047417 0.07280932
000160 2c d3 fb bc 5c 5f 8f bb 41 f9 5d bd 5a ae 3e bd
       -0.030740343 -0.0043753814 -0.054192785 -0.046552993
000170 4c 57 34 3e 2d b8 f2 bc 78 e7 2c bd e3 75 6b bd
       0.17611426 -0.029628837 -0.042212933 -0.057485472
000180 9d 1f bd bc db 02 70 bb 05 d8 db bc e5 91 9b bd
       -0.023086363 -0.0036622796 -0.026836405 -0.075961865
000190 11 13 26 3e 2e cd 07 bd 54 89 78 bd c5 88 7d bd
       0.16218211 -0.03315466 -0.06067784 -0.06189801
0001a0 d4 59 26 bb 1c e6 d0 bd d9 01 fc 3c 06 9b 21 bd
       -0.0025383132 -0.1020014 0.0307626 -0.039454482
0001b0 eb f0 38 bc c3 6e 71 bc f6 e4 62 bc 5c 06 8b bb
       -0.011287908 -0.01473588 -0.013848534 -0.0042427015
0001c0 be 6f 85 bd 40 60 2c 3e 54 78 f1 bc ff 2d 47 3e
       -0.06515454 0.16833591 -0.029476322 0.1945114
0001d0 46 b1 cb 3d 66 e5 ca bc b6 fc b5 bc 61 bf 49 3d
       0.099459216 -0.024767589 -0.022215229 0.04925478
0001e0 4c a7 78 bd 44 60 24 bd db a1 da bc 2f 44 33 bd
       -0.06070642 -0.04013087 -0.026688507 -0.043766197
0001f0 26 88 fd bc 5e ab 9e bc d2 57 96 3e 2d db 9e bc
       -0.03094871 -0.019368824 0.29363877 -0.01939162

sensor_model.2.weight f4 [64, 128]
000000 93 9b 37 be ef 18 86 bc 7d 41 30 3e 30 b6 24 be
       -0.1793044 -0.016369311 0.17212482 -0.16085124
000010 0b e5 21 bd 40 ea 78 3c fd 1c e2 3d 5e 8e b0 3c
       -0.039525073 0.015192568 0.11040685 0.021552261
000020 b1 ea e0 3d 66 33 59 3d 78 8c 2f 3e 52 5f bb 3d
       0.10982264 0.053027533 0.17143428 0.0914904
000030 6c 59 8c bd 80 7a af bc 52 58 90 bc c9 04 a7 bc
       -0.06852993 -0.021420717 -0.01762024 -0.020388024
000040 2b 80 e9 3d 52 94 51 3d 48 82 11 3e ea 7e b6 3d
       0.11401399 0.05116684 0.14209855 0.08910926
000050 3b c0 18 3d a8 89 8d bd da ae 03 be 30 77 5d bd
       0.0372927 -0.069110215 -0.1285967 -0.054068744
000060 67 e7 1d 3e ce be da bc 2a 58 30 3d 3d 7e 8b 39
       0.15420304 -0.02670231 0.04305283 0.000266062
000070 19 78 1d be 9e b0 73 3d c4 90 7b bc 35 ea 28 3d
       -0.15377845 0.059494607 -0.015354339 0.041238982
000080 a6 ff 30 be 3e 20 3b be a9 a7 2c 3d 94 59 e2 bd
       -0.17285022 -0.18274018 0.04215208 -0.11052242
000090 ec a5 ec 3c 90 83 60 3d c6 4c 0b be 9b 2f cb bd
       0.028887711 0.054812968 -0.13603505 -0.099211894
0000a0 b0 7d 5b 3a dc 36 16 3e 98 33 ce 3d b7 c2 a7 3d
       0.0008372916 0.14669365 0.100684345 0.08191436
0000b0 a6 93 e6 3c 34 4d ff bd 41 d6 ae bd 6b b8 b8 3d
       0.028146576 -0.12465897 -0.085369594 0.0901955
0000c0 57 76 1a be e4 66 e0 bd 8e 49 38 be 08 c3 2a be
       -0.15084206 -0.10957125 -0.17996809 -0.16675961
0000d0 18 d9 2c be 27 5b c2 bd 90 6c 15 3e e8 97 d7 3d
       -0.1687969 -0.09490042 0.14592195 0.10527021
0000e0 2e f9 04 be 10 b2 c1 bd c2 1e bd bb c5 f5 b5 3d
       -0.1298568 -0.09457791 -0.005771489 0.088847674
0000f0 ef c0 b7 bd de fa e2 bd b2 fd 8f 3d 8a 5d 17 be
       -0.08972346 -0.11083005 0.070308104 -0.14781776
000100 07 69 ff 3d e3 f8 22 be d6 52 21 bb 0e c8 95 3d
       0.12471204 -0.15915255 -0.0024616024 0.07313548
000110 55 29 21 3b da bc 10 3e ae 06 21 3e 5f e7 52 3d
       0.0024591286 0.14134541 0.15725204 0.051490184
000120 ae ea b9 bb c0 55 1f bd 4b 1a c4 3c 96 99 5b bc
       -0.005673728 -0.038900137 0.023938319 -0.013403317
000130 66 74 76 bd 6e 59 75 3d ba 6d 91 3d e2 32 2c be
       -0.0601696 0.05989974 0.07101007 -0.16816285
000140 91 2c 25 be 33 df 27 be 49 f3 1e be 28 70 6f 3d
       -0.16130282 -0.16393737 -0.15522493 0.05845657
000150 83 8e 7e 3d 4f 20 b0 ba 73 37 bf 3d 9a 92 23 3e
       0.06214763 -0.0013437363 0.09336748 0.15973893
000160 65 c1 7e bd 10 ee 97 3d 65 26 f1 3d 3a 95 39 3e
       -0.062196154 0.07418454 0.11774901 0.18123332
000170 52 84 c3 3d 4f 49 88 3d d4 cf bf bc a9 33 99 3d
       0.095467225 0.066546075 -0.02341453 0.074805565
000180 d2 49 87 bd 37 c3 b8 bd 83 64 a7 bd 03 c9 23 bd
       -0.06605877 -0.09021609 -0.08173468 -0.03998662
000190 ae 16 08 3e 8d ff b7 bd 60 43 82 bd 38 cc 07 3e
       0.13289902 -0.08984289 -0.06360507 0.13261497
0001a0 11 1c b8 3d 1d 5b fa bd c0 31 f7 bd 12 13 3d bd
       0.08989728 -0.1222441 -0.12070036 -0.046160765
0001b0 42 79 07 3e 72 53 f3 bc de 03 7b 3d e3 ad f1 3a
       0.1322985 -0.029702876 0.061282985 0.0018438663
0001c0 86 32 a7 bc e7 79 2d be d6 02 39 3d 2f ce 0e bd
       -0.020409834 -0.16941033 0.04516872 -0.0348646
0001d0 b2 45 16 3e 19 ee dd 3c 15 a1 9c 3d 93 ad e7 bd
       0.14675024 0.027091073 0.076479115 -0.113124035
0001e0 5a 7a a8 3c 2e d7 4c 3d 05 df dd bd eb be 10 3e
       0.020566154 0.0500099 -0.10833553 0.1413533
0001f0 32 c2 cb bd f8 9c 49 3e 80 89 b7 3d 7a e1 a1 3d
       -0.09949149 0.19688785 0.08961773 0.07904334
000200 b7 3e 71 3d ef fa 85 bd 1e b7 0f 3e e6 9f 16 3e
       0.0588977 -0.065420024 0.14034697 0.14709434
000210 50 8c b2 bd 64 68 cd bd 29 27 6c 3d 68 90 86 3c
       -0.08718169 -0.100296766 0.057654534 0.01642628
000220 da e1 b1 bd 6b 39 02 3d df 59 0b 3e 59 73 cd bd
       -0.08685656 0.03179304 0.13608502 -0.100317664
000230 57 50 8e bc fb 16 a3 3d e4 cd 02 3d a2 5c 95 bd
       -0.017372293 0.079633676 0.031934634 -0.07293059
000240 9f 24 9b 3d 69 b9 3f 3d ad 71 27 3e df 22 95 bd
       0.07575344 0.04680768 0.16351958 -0.07282042
000250 00 49 89 bd 0b ac e7 bc b4 86 9e bd 10 35 9c 3d
       -0.06703377 -0.028280279 -0.07740536 0.07627308
000260 26 e9 51 3d 4e 19 af 3d b2 85 3a bd 1b 64 bb 3d
       0.05124774 0.08549748 -0.045537658 0.09149953
000270 16 9a c8 bd 26 d2 8c bd 2a ad 05 be 9f 0e d9 3d
       -0.097950146 -0.0687602 -0.13054338 0.10598492
000280 12 22 2f bd 14 59 cd 3d c5 26 ae 3d 6b fd bb bc
       -0.0427571 0.10026756 0.085034885 -0.022947988
000290 57 e8 a4 3d 76 69 63 3d 13 9a fd bd 73 33 2b 3d
       0.08052128 0.055520497 -0.12382903 0.041797113
0002a0 7e c2 b1 3d 55 ec 1c bd 7c a1 5b bd 51 84 9d bd
       0.086796746 -0.03831132 -0.0536208 -0.07691253
0002b0 50 7b 44 3d 82 9f 8a 3d 10 81 d2 3c 8b 36 71 bc
       0.047969162 0.06768705 0.025696307 -0.014722477
0002c0 c1 e0 a2 bc 73 6f c2 3d 06 86 e0 3b 9b 8f 0e be
       -0.019882562 0.094939135 0.0068519143 -0.13921969
0002d0 dd a2 03 bd a7 65 10 be 9d 5d 07 3e 37 38 55 bc
       -0.03213774 -0.14101277 0.13219304 -0.013013891
0002e0 da ef 92 bd 5a c2 10 be 46 b4 8c bd 4e db 28 bd
       -0.07174654 -0.14136639 -0.06870322 -0.04122477
0002f0 91 12 f4 bc e2 c8 52 3a 65 db d2 3d 3c 7f 8f 3d
       -0.02979401 0.0008040798 0.102957524 0.0700669
000300 0f 41 03 3e 26 f9 0f be a0 dd 64 bd 84 52 e6 bc
       0.12817787 -0.14059886 -0.05587542 -0.028115518
000310 d7 8a f9 3d 08 f7 b3 bc 89 1b 1a 3d cb 85 71 bd
       0.12184685 -0.02196838 0.037623916 -0.058965486
000320 22 98 9a 3d 86 c3 00 3e d7 a1 da 3d 3f 82 c0 bc
       0.07548548 0.12574586 0.106754 -0.023499606
000330 20 45 1d 3e 8d ef b8 3d c4 b6 ea 3d f3 c2 39 3e
       0.153584 0.09030066 0.11460641 0.18140773
000340 f1 ad e4 bd 31 7d cb 3d 2f c4 af bc eb d0 a9 bc
       -0.11165989 0.09935988 -0.021455852 -0.020729503
000350 e4 f7 b2 bd 3d 21 15 3e 8e b5 b9 b9 85 52 09 3e
       -0.08738688 0.1456346 -0.00035421218 0.13410385
000360 ab cb 27 3e c6 d1 3c bd aa cd f1 bd 8b 88 a1 3d
       0.16386287 -0.046098493 -0.118068054 0.07887372
000370 59 f3 b0 3e 82 ff a7 bd 1d 9c a1 3d a4 b4 2b be
       0.3456066 -0.08203031 0.07891104 -0.16768128
000380 1d bb 9b 3d ae 35 06 be fc 62 20 bd 5f 24 07 3c
       0.076040484 -0.13106415 -0.0391569 0.008248418
000390 ad 73 c0 3d da 22 27 3e f4 6d fc 3d 1b 8f 44 3d
       0.093970634 0.16321889 0.123256594 0.04798804
0003a0 f4 a2 fc 3d 51 e2 a2 3d 4a ae 58 bd e0 4d b9 bc
       0.12335768 0.07953323 -0.05290059 -0.022620142
0003b0 04 2c 88 3d 36 e1 d5 bb 49 6e bb bd 65 92 1a 3d
       0.0664902 -0.0065270914 -0.091518946 0.03773727
0003c0 68 20 f0 bc cf ca 07 3e 3b 64 ed 3d fc 29 a2 3e
       -0.029312328 0.13260959 0.11591383 0.31672657
0003d0 66 ea e3 3d 72 60 ca bd 38 02 16 3e 26 44 c9 3d
       0.11128692 -0.09881677 0.14649284 0.098274514
0003e0 3e 1d 58 3d d9 57 29 be 3c fc c2 bd 4c 65 bf 3c
       0.052762263 -0.16537417 -0.09520766 0.023363732
0003f0 4d 48 d5 bd 11 be 84 3e 71 8f 14 3e 7d 07 fe 3d
       -0.10414181 0.2592626 0.14507844 0.12403772

sensor_model.2.bias f4 [64]
000000 93 12 d6 bd bf ed c4 3d 6a 40 db bd 5b 9c 09 bd
       -0.104527615 0.09615659 -0.107056454 -0.033596378
000010 ff 15 a2 3e 42 30 a9 3d 0c 48 ba bd 87 9f 2c bd
       0.31657407 0.082611576 -0.09095773 -0.042144325
000020 13 b9 c7 bd 2d 59 89 3d f2 80 e7 bc b8 06 4a 3e
       -0.09752097 0.06706462 -0.028259728 0.19729125
000030 27 0a c9 3e ac af 69 bd 79 99 fa 3d c3 b2 68 bc
       0.39265558 -0.0570523 0.12236304 -0.014202776
000040 e0 d5 87 bd 2a b6 3f 3c 00 c8 b2 3e fe f8 c6 3d
       -0.0663259 0.011701146 0.34918213 0.0971546
000050 b5 68 95 bd 29 c5 c8 bd 54 99 1a 3c d9 d8 06 3f
       -0.07295362 -0.0980323 0.00943597 0.52674633
000060 3b 81 82 bd f5 33 9e 3d 92 2e 58 3e d0 56 53 bc
       -0.06372305 0.07724754 0.21111515 -0.012899116
000070 d4 30 0d bc 28 19 fa bb 00 b1 d1 b9 4a 5b ac bd
       -0.008617599 -0.0076323934 -0.00039995462 -0.084158495
000080 7e 5e 55 bd 70 73 5f bd a9 a6 b5 bd c3 af de 3e
       -0.052092068 -0.05455345 -0.088696785 0.4349347
000090 1d c8 57 bd a2 9c d7 3d d2 73 b0 bd 7a 93 4a bd
       -0.052681077 0.10527922 -0.08615841 -0.04945705
0000a0 33 76 34 3d d9 19 dc 3e 29 19 b6 bd 93 c1 cd bd
       0.044058036 0.4298847 -0.08891518 -0.10046687
0000b0 58 28 c0 bd 8b 79 3d bc 54 95 b4 bb 2e f7 cf 3c
       -0.09382695 -0.011564623 -0.0055109654 0.02538642
0000c0 7e 63 ec 3e f7 61 10 bd 93 e5 cb bd 2d 76 6e bd
       0.46169657 -0.035249677 -0.09955897 -0.05821817
0000d0 e0 75 92 3e ec 69 10 3f 16 ca 08 3f 7b ac 0d 3f
       0.28605556 0.56411624 0.5343336 0.5534131
0000e0 40 6b 1e bd f6 3c 05 be 2c d9 f5 bb 94 7a 51 bd
       -0.0386765 -0.13011536 -0.0075026955 -0.05114229
0000f0 f5 e2 6d 3c fc 1f 40 3d 91 5f f5 3e 67 bf 67 bd
       0.014519443 0.046905503 0.47924474 -0.05657902

target_model.0.weight f4 [16, 66]
000000 ac 6d f1 3d db cd 3f be a2 b8 1e be 4f 8a 3c bc
       0.117884964 -0.18730871 -0.1550012 -0.011507585
000010 f4 cc ff 3d 35 6b 0c be b9 a9 e9 3d 02 b0 05 be
       0.124902636 -0.13712771 0.11409325 -0.13055423
000020 25 fc 17 be d4 f9 53 be f5 5b 61 3e 65 73 9c 3e
       -0.1484228 -0.2070077 0.22007735 0.3055679
000030 e3 04 99 be 75 e8 00 be 4e 18 90 3e dd 3b 87 bd
       -0.2988654 -0.12588675 0.28143543 -0.06603215
000040 18 7e 39 3e 45 e4 06 3e 00 6f 5c bd 6f 8b 95 be
       0.18114507 0.13173015 -0.053816795 -0.29207942
000050 9f bb 16 be 68 9a 2e be 40 a1 3e 3e 35 0e 4e be
       -0.1472001 -0.17051089 0.186162 -0.20122607
000060 46 17 79 bd d3 67 8d be 5b c2 80 3e db da 4f 3d
       -0.06081321 -0.27618274 0.2514828 0.050745826
000070 5f df ba 3d a1 17 8d bd 57 f0 0e 3e af 16 88 3e
       0.09124636 -0.068892725 0.1395887 0.26579806
000080 59 44 10 bc 17 8b 2d 3e 4b fa 83 3e 4a 6f ec 3d
       -0.008805358 0.1694759 0.25776896 0.11544664
000090 27 a9 2d 3e cb 9b 87 3e 98 f9 83 bd e6 42 02 3e
       0.16959058 0.26486048 -0.064440906 0.12720832
0000a0 79 a2 43 3e 83 90 a1 be 40 9c 6d 3d 52 7a 0c be
       0.19104947 -0.31555566 0.05801034 -0.13718536
0000b0 4c 82 88 3d 5e 1c 73 be f7 a7 2c 3e 94 87 89 be
       0.06665477 -0.2374129 0.16860949 -0.2686125
0000c0 3a 3b 4c be be 08 7f 3e c7 9a fa bd c2 95 57 be
       -0.19944468 0.24905679 -0.12236553 -0.21053222
0000d0 5c b6 f1 3d 21 22 28 bd 49 ed 1a be a0 75 aa be
       0.118023604 -0.041048173 -0.1512958 -0.33292866
0000e0 2c db 91 3d a4 bd 42 be 65 bf 88 3e 75 5f f8 bd
       0.07121882 -0.19017655 0.26708522 -0.12127582
0000f0 8d 6c 0c 3e 54 7b b6 bd 4a 76 47 3d 84 04 06 be
       0.13713284 -0.08910242 0.048696794 -0.1308766
000100 25 06 e4 3d fd d8 dd 3b 70 c3 c6 bd 00 ac 47 bc
       0.111339845 0.006770252 -0.097052455 -0.012187004
000110 ba 1a 19 be 38 d4 85 be ee 5b 83 be f0 ec 13 3d
       -0.14951602 -0.26138473 -0.25656074 0.036114633
000120 e8 1d bc 3d ce 13 4d 3e e0 5a da bd c0 ea 21 3d
       0.09185392 0.20027086 -0.10661864 0.039530516
000130 d6 00 02 3e 00 93 88 bb 7d ef f2 bd f3 9b 88 be
       0.12695631 -0.0041679144 -0.11862085 -0.2668148
000140 26 da 65 be b3 7a f1 3c 7c ff 48 3e 8b a4 2c 3e
       -0.22446498 0.029477453 0.1962871 0.16859643
000150 7a 43 8c bd ae 29 6a 3e f8 e0 04 3d 00 33 75 3e
       -0.06848808 0.22867462 0.03244111 0.23945236
000160 e2 3d b6 bc 0c ae 89 be d2 48 d3 bd d4 70 80 bd
       -0.022246305 -0.268906 -0.10316624 -0.0627152
000170 42 ce 9e bd cf d7 37 be ed 51 0d bd 26 3e 25 be
       -0.07754184 -0.17953418 -0.03450196 -0.16136989
000180 b9 90 1f 3e 6c a7 f1 bd 6e 9f 03 be 58 24 17 bd
       0.15582551 -0.11799511 -0.12853786 -0.036899894
000190 70 8d 3b 3e 9a c5 2c 3e 40 9e 30 3e fb db 14 be
       0.18315673 0.16872254 0.17247868 -0.14537041
0001a0 54 51 8d bd 4a ae 4b 3e 76 79 63 be bf 85 fc bc
       -0.06900278 0.19890705 -0.22214302 -0.030825494
0001b0 70 6e e2 3d aa 13 89 3e cc 0b 6e bd 5f c4 62 bd
       0.110562205 0.26772815 -0.05811672 -0.055363055
0001c0 d0 5f 4d bd 3d 29 62 be e2 71 51 be ac 28 3b bd
       -0.050140202 -0.22086044 -0.20453599 -0.045693085
0001d0 f0 a9 fa 3d 73 64 70 be 60 0e a9 3c f8 11 5d bd
       0.12239444 -0.23475818 0.020636737 -0.053972214
0001e0 77 d6 38 3c 71 d0 51 be 58 ca 0b 3e a0 80 eb 3c
       0.011281601 -0.2048967 0.13651407 0.028747857
0001f0 2d fd 66 3d 22 ee 3a 3e ca 72 26 be bf 2c d2 bd
       0.05639379 0.18254903 -0.16254726 -0.10262441
000200 5b 79 0f be 96 d3 1a 3e 2a 42 45 bd 5a 19 7b 3d
       -0.14011137 0.15119776 -0.048158802 0.061303474
000210 82 4a d5 bd de 76 27 3e 1f 49 3b 3e ff da b9 bd
       -0.10414602 0.16353938 0.18289612 -0.09074973
000220 91 40 27 3c 38 d4 8d 3d c4 0b 2a be 13 bd 8d bd
       0.010208265 0.06925243 -0.1660605 -0.06920829
000230 53 24 de 3d ea 20 3e 3e 69 11 42 3e 0f bd 19 3e
       0.10846772 0.18567243 0.18951954 0.15013526
000240 4b 55 bf ba c4 5d 44 3e 89 31 a2 3d cf de 5f be
       -0.0014597563 0.19176394 0.07919604 -0.21862338
000250 32 34 ec 3d 94 90 6d be 2a 93 5a be 56 76 4e be
       0.11533393 -0.23199683 -0.21345201 -0.20162329
000260 85 47 7b be b2 0e b8 3d 8e 88 92 bb d8 ea 0e be
       -0.24539001 0.08987178 -0.004471845 -0.13956773
000270 eb 73 b1 3d 3d 7b b7 bd 6f 43 91 3d 45 e4 07 3d
       0.08664688 -0.08959053 0.0709294 0.03317668
000280 32 74 a1 3d 8c d8 66 3d 59 44 0e 3e cb c5 9d bd
       0.078834906 0.05635886 0.1389326 -0.07703742
000290 b1 26 9d bd ce 92 1f 3e aa 48 96 bc 88 1c ff 3d
       -0.076733954 0.15583345 -0.018345196 0.12456614
0002a0 2a 5c b5 bb 45 59 76 be 62 9c 1a 3e ed 17 27 ba
       -0.0055346685 -0.24057491 0.15098718 -0.00063741097
0002b0 a7 e0 32 3e 74 d5 73 3e 94 91 de 3d 68 9d 2d 3d
       0.1746851 0.23811895 0.108676106 0.042386442
0002c0 02 61 8f bd 20 65 95 3d 4b 72 21 bc 52 74 a5 3c
       -0.07000925 0.07294679 -0.00985391 0.020197067
0002d0 ff fb 53 be 2f e0 3c 3e d1 b0 eb 3c 3a 81 67 be
       -0.20701598 0.18444894 0.028770836 -0.2260789
0002e0 69 0c 1c 3c 1f 20 42 3b cd 87 4e be 6e da 36 be
       0.009524443 0.0029621196 -0.20168991 -0.17856762
0002f0 29 fb a2 bb 41 a2 18 3e 07 47 85 3e b1 7e 79 3b
       -0.0049737883 0.14905645 0.26030752 0.0038069899
000300 c5 55 bf 3d 36 9b 6d 3e 68 89 46 3e 52 c1 64 3c
       0.09342531 0.2320374 0.19388354 0.013962107
000310 65 54 79 bf c1 af 95 bb 9f 9b a5 bd 5a 5b 0b bd
       -0.973944 -0.0045680706 -0.08086323 -0.034022667
000320 c7 a3 c0 bd 42 c5 68 3e 2f e8 2d 3e d6 2a 75 3c
       -0.09406238 0.22731498 0.16983102 0.014963826
000330 0a 81 3a 3e f5 e4 c2 3c 7e 6a 87 3d 9b 1e 7b bc
       0.18213287 0.023790816 0.06612109 -0.015327121
000340 f1 a1 02 be 06 07 56 be 11 08 71 be 48 e8 01 3e
       -0.12757088 -0.20901117 -0.23538233 0.12686265
000350 ff 7b 79 3b d6 1d db 3d 04 46 59 bd c9 be 15 3e
       0.0038068292 0.1069905 -0.053045288 0.1462356
000360 87 98 84 3c 0c 0f 24 3e 28 67 44 be 37 36 40 bd
       0.016186012 0.16021365 -0.19179976 -0.046926703
000370 8d 02 83 3e 52 96 08 be 73 37 69 be 22 d1 c9 bd
       0.25587884 -0.13338593 -0.22775058 -0.09854342
000380 f7 5b a2 3e c8 a1 3d 3e 89 5d 7c 3e c6 36 d7 bd
       0.3171079 0.18518746 0.24645056 -0.10508494
000390 02 48 5f be e1 55 6e 3d b3 0a 9b 3d 8f d6 5a be
       -0.21804813 0.05818737 0.075704 -0.2137091
0003a0 fb da 42 bd 36 9b 04 bd 87 c9 72 be 85 23 74 bd
       -0.047572117 -0.032374583 -0.23709689 -0.059604187
0003b0 65 ec 35 be 5f ad 3a 3e 4b ed 15 be 08 67 48 3e
       -0.17765959 0.18230198 -0.14641301 0.19570553
0003c0 d3 14 a0 3d 20 84 f4 bb e0 74 34 be d1 d3 67 3e
       0.07816472 -0.0074620396 -0.1762271 0.22639395
0003d0 c6 10 83 bd 1b 55 55 3e 61 1f cc 3d ae 85 e2 bc
       -0.06399684 0.20833246 0.099669226 -0.027651634
0003e0 d0 66 51 bd a6 5c 5a be fa 0c 15 be bd 7a 22 3e
       -0.05112344 -0.21324405 -0.14555731 0.15867133
0003f0 2a ef 89 bc e0 49 16 3e 23 ca 36 be 5c 1d 20 bd
       -0.016837675 0.14676619 -0.17850547 -0.0390905

target_model.0.bias f4 [16]
000000 5c 43 17 bc 2a 47 82 bd 88 43 d9 3e 7e 05 8d bc
       -0.009232368 -0.0636123 0.42434335 -0.017214533
000010 5a 90 47 3d cc 06 26 bd c4 32 f4 b9 bb 12 80 3e
       0.04872165 -0.040533826 -0.0004657713 0.2501429
000020 d2 a7 15 3f 99 ee a3 be 7f 50 a7 3b eb 9d ae be
       0.584592 -0.32017973 0.0051060314 -0.34104857
000030 02 f0 a1 be 3e f3 07 be 0e 9e 38 3f c9 6d 20 bc
       -0.31628424 -0.13276383 0.7211617 -0.0097918

state_model.0.weight f4 [16, 18]
000000 ab 0b b1 3e 08 7d fc 3c 7d db e5 3e 48 a2 58 be
       0.34579214 0.030821338 0.4489402 -0.21155655
000010 cf cb 82 3d 54 ca 1a 3e c0 b9 a8 be 16 dc f2 3e
       0.0638653 0.15116245 -0.32954216 0.47433537
000020 2f 8f f7 3c 0c 6c 4d bd 8a d1 9d 3d ab e1 9f bd
       0.030219642 -0.05015187 0.07705982 -0.078067146
000030 68 eb 65 3e 11 f7 b0 3e 33 cb 3e be dc c9 15 be
       0.22453082 0.34563497 -0.18632202 -0.14627784
000040 28 9f 83 be e3 72 14 3e a5 85 89 3e 10 38 68 3e
       -0.25707364 0.14496951 0.26859775 0.22677636
000050 53 ca 8a be 86 9e ac 3e 56 67 79 be 1f 67 ee 3e
       -0.27107486 0.33714694 -0.24355826 0.4656305
000060 28 b2 aa 3e cc fe d8 bd 61 4a a5 3e cb f5 79 3e
       0.33339047 -0.10595474 0.3228331 0.24410169
000070 aa 4c 15 be 96 1f 3e 3e f3 d8 e0 3e cc 32 37 3c
       -0.14580026 0.18566737 0.4391552 0.0111815445
000080 fb 20 c5 3e 04 a0 6d 3d a6 15 04 3f 33 76 6c 3e
       0.38501725 0.05801393 0.5159553 0.23091964
000090 94 4f d9 3e 9e 06 b3 be 40 fc 43 3e 20 b5 0b bd
       0.42443526 -0.34965986 0.19139194 -0.03410828
0000a0 36 44 1e be 7d 3d 01 3e 98 94 50 be c8 71 ad bd
       -0.15455708 0.12621112 -0.20369184 -0.08468968
0000b0 33 9b be be 17 ce 23 be 23 2a 5d be 28 df 69 3d
       -0.37227783 -0.15996586 -0.21598105 0.057097584
0000c0 99 d0 1d 3d 32 2c 59 3e 55 c1 0d bf 8b 95 4b be
       0.038529012 0.21208265 -0.55373126 -0.19881265
0000d0 4a 00 44 be 10 69 51 bb a2 b9 80 3d 4d 0b 43 3d
       -0.19140735 -0.0031953491 0.06285407 0.0476182
0000e0 50 47 bd 3e 12 50 a0 be 48 24 c0 bd 0b 81 87 3e
       0.3696847 -0.3131109 -0.0938192 0.2646564
0000f0 e3 ad 1d be db c5 51 bd 7d ab 03 3f b7 9d 61 be
       -0.15398364 -0.05121408 0.51433545 -0.2203282
000100 1c 02 95 3e b8 15 6a be 01 92 bd bd 31 45 46 be
       0.29103172 -0.22859848 -0.09256364 -0.19362332
000110 e6 bd 2a 3f 47 63 1b 3b 36 ba 6a 3e 3e 64 2b 3e
       0.6669601 0.0023710297 0.22922596 0.16737458
000120 0c 25 ab 3d a1 3a 42 3e 08 83 08 be 0b be 5e ba
       0.083566755 0.18967678 -0.13331234 -0.00084969465
000130 db 22 52 3d fe 44 8d 3e da 30 5f 3e b7 07 c7 be
       0.051302772 0.275917 0.21795979 -0.38873073
000140 51 c1 b6 bd 61 a3 9e be 18 7e f2 bd 95 14 85 be
       -0.08923591 -0.30984023 -0.11840457 -0.25992265
000150 fa 52 68 be f5 56 b1 be a5 86 1b be 01 66 2d be
       -0.22687903 -0.34636655 -0.15188082 -0.16933443
000160 51 e5 4c be 43 64 82 bc c0 49 8e be 14 e9 9e 3e
       -0.20009352 -0.01591695 -0.27790642 0.310372
000170 60 6f 67 be 27 4e d2 bd f7 9c bf 3e 84 ce fe be
       -0.2260108 -0.102688126 0.37424442 -0.49766934
000180 0d 03 97 be 95 5e 3d bf 6c 99 e8 3d bc 0f 23 3e
       -0.29494515 -0.73972446 0.11357388 0.15923971
000190 39 8f 4d be 5a 5f 54 3c 81 03 cc 3e a2 79 07 3e
       -0.20074166 0.012962187 0.39846423 0.13229993
0001a0 9c 1b 38 3e e6 5f 5c 3e 12 dd 32 c0 75 3f 9c bc
       0.17979282 0.21520957 -2.794743 -0.019073227
0001b0 b3 49 a0 be 69 c0 8a 3e 2f 84 8f be f0 f9 94 bc
       -0.31306228 0.27099922 -0.28030536 -0.018185586
0001c0 2b 6f ac 3e 46 7d 26 bf fa fb 33 be 76 9e e8 be
       0.33678564 -0.650349 -0.1757659 -0.45433396
0001d0 84 a9 00 3e d7 27 8b be 69 23 39 bd 78 7c 31 3d
       0.12564665 -0.27178833 -0.045199785 0.043331593
0001e0 d8 05 dd bc 3b 49 2d bd bf 1b c5 3d f0 74 d8 bc
       -0.026980326 -0.042306166 0.09624433 -0.026422948
0001f0 92 09 02 3f 30 b9 61 3f 9e 24 a4 3e 72 ed 52 be
       0.50795853 0.881732 0.32059187 -0.2059839
000200 32 fe b0 be 60 b5 dd 3e 5c a5 3a 3d 6b b6 5e be
       -0.34568936 0.4330244 0.045567855 -0.21749274
000210 98 a4 ab bd 2d b5 cc 3d 3c a4 46 be 41 b7 af be
       -0.08381003 0.09995494 -0.19398588 -0.343195
000220 01 56 48 3e 03 18 8e 3e 47 a9 0a 3e 7e de 08 3e
       0.19564058 0.27752694 0.13541137 0.13366124
000230 38 53 6d be a7 d5 ea 3d 3c b2 2b bd 95 fb a7 be
       -0.23176277 0.11466532 -0.041918024 -0.3280913
000240 be 01 46 3e 1e 49 0d be f2 ad b0 be 90 63 b3 3e
       0.19336602 -0.13797423 -0.3450771 0.35036898
000250 5e 7d 07 3e c5 71 45 3e af 28 a5 3e 70 1a e2 bd
       0.13231418 0.19281681 0.32257602 -0.11040199
000260 da 7c 45 be c0 16 32 be a8 74 96 bd c6 33 d4 3e
       -0.19285908 -0.17391491 -0.07346469 0.4144575
000270 f8 57 ff bd 19 51 a6 be 57 b4 02 be f5 6f 5b 3e
       -0.124679506 -0.32483748 -0.12764107 0.21429427
000280 88 48 a5 3e c8 5c fa bd 60 b1 f3 bd c2 bd ee 3d
       0.322819 -0.12224728 -0.11899066 0.11657287
000290 32 08 8e bd 08 ec 02 be 09 00 b0 bc fd 15 a8 3e
       -0.06935157 -0.12785351 -0.021484392 0.32829276
0002a0 c9 98 f0 3d be 80 b4 3e 3e 79 3d be 68 12 e5 3e
       0.117478915 0.35254472 -0.18503281 0.44740605
0002b0 e2 f4 aa 3e a4 75 8c be 0b 0f 92 3e c7 a7 3d be
       0.33389956 -0.27433503 0.28527102 -0.18521033
0002c0 0e cd 1b be cd 6c ee bd ae 9e 59 3d ac dc f5 3c
       -0.15214941 -0.11641846 0.053129844 0.030012451
0002d0 5c 16 c3 be 01 20 3d 3e f7 a8 58 3d 8c d6 d6 3d
       -0.38102996 0.1846924 0.052895512 0.1049014
0002e0 5b e8 ed ba 36 dd 4f be 61 ed 3b 3e 3f a4 d0 b9
       -0.0018150912 -0.20299229 0.18352272 -0.00039795224
0002f0 ae ed 21 be b3 79 e5 3e 04 cd da bd 39 de 82 bd
       -0.15813324 0.44819412 -0.10683635 -0.06390042
000300 f5 6f ff bc cf e4 85 3e 5c 24 0a bf f8 3d 8a 3e
       -0.031181315 0.2615113 -0.5396173 0.27000403
000310 a5 f7 8b be ea 5b 1c be 35 c0 24 3e 1b 0d d6 3d
       -0.27337375 -0.15269437 0.16088946 0.104517184
000320 5e 5c 06 3e b5 14 47 be f2 08 a7 3e eb c7 c3 be
       0.13121173 -0.19441493 0.32624012 -0.38238463
000330 73 1d 7b 3e 41 d3 bd 3d 4e 2d 01 be 21 a9 4f 3d
       0.24522953 0.09268809 -0.12614939 0.050698403
000340 19 e3 d6 3d d7 79 21 be b2 68 03 bc a2 d8 b8 be
       0.10492534 -0.15769134 -0.008020567 -0.36102778
000350 71 34 13 be 3d 38 7c 3e d9 5a 6e 3d 13 e1 5a 3e
       -0.14375474 0.24630828 0.058192108 0.21374922
000360 ae e1 69 be ac ac 07 3e ae d3 7a 3e c7 8f b5 be
       -0.22839996 0.13249463 0.24494812 -0.35461256
000370 06 9f f3 be cc 44 fa 3d 37 a5 18 bc fe 79 b5 3e
       -0.47582263 0.12220153 -0.009316734 0.35444635
000380 ae c9 c2 3d 29 ec 33 3e 87 72 d8 be e4 1e 21 3e
       0.095111236 0.17570557 -0.42274877 0.1573444
000390 94 27 80 be da 4e 0d 3e 46 c8 fc 3d 60 a8 22 3d
       -0.25030196 0.1379961 0.123428866 0.039711356
0003a0 10 7e a8 3f 7f 4d 97 3e 70 52 38 3e 70 fa cd 3d
       1.3163471 0.29551312 0.18000197 0.10057533
0003b0 a6 05 54 3e a7 69 c4 be 27 1f 4d 3e 90 d2 5b 3d
       0.2070528 -0.38361856 0.20031415 0.053667605
0003c0 94 42 e1 bb 4f 9c eb bc 43 ed d8 bc 01 9c 7a 3e
       -0.006874392 -0.028761057 -0.026480323 0.24473573
0003d0 79 7a 48 be d1 89 bb bd e6 00 8a be 31 3f a0 be
       -0.1957797 -0.09157146 -0.2695381 -0.3129821
0003e0 57 0d 0c 3f eb 03 23 be 49 66 30 3f c4 1a 59 3d
       0.54707855 -0.15919463 0.68906075 0.05300404
0003f0 de 29 8a be a0 ac 17 bc b9 a7 4f be 30 eb a4 3e
       -0.26985067 -0.009257466 -0.20278825 0.32210684

state_model.0.bias f4 [16]
000000 ab bd 0c bf ce e3 51 3f 0b 30 30 be 03 f7 61 3f
       -0.5497691 0.8198823 -0.17205827 0.88267535
000010 51 e2 3c be 3d 70 19 3f 5c 73 00 3f 26 1a 97 3e
       -0.18445708 0.5993689 0.50176024 0.29512137
000020 c3 5f 17 3e ad 8c 55 be 44 c9 06 3e 10 86 91 be
       0.14782624 -0.20854445 0.13162714 -0.28422594
000030 71 fb 30 bf 55 98 72 3f 44 11 92 be 4c 79 12 3f
       -0.6913367 0.9476369 -0.28528798 0.57216334

state_model.2.weight f4 [1, 16]
000000 e4 13 18 be 2d 9d ec 3e 00 8c 0d bf a2 e1 3d 3f
       -0.14851338 0.46213666 -0.5529175 0.74172413
000010 93 21 94 be f1 30 a4 3e 8a 56 87 3e 42 31 ea 3e
       -0.28931865 0.3206859 0.26433212 0.45740706
000020 10 7b 8f be 98 65 5f be e3 c1 29 be 86 f9 01 3f
       -0.28023577 -0.21816099 -0.16577868 0.5077137
000030 02 4b 1b bf 26 79 da 3e 38 21 9e 3e c4 88 89 3e
       -0.6066133 0.42670554 0.3088472 0.26862156
