Pytorch_DRL/HNRN/models/backup/3.31/best_ca_actor.model (torch_old, 557663 bytes, 12 tensors)

sensor_model.0.weight f4 [256, 360]
0.067782216 0.03994576 0.041274257 -0.031158246 -0.07070336 -0.07188433 -0.059655387 0.084254526
0.070998155 -0.096479625 -0.027032465 0.029654093 0.017178245 0.015863359 -0.055468213 -0.022998989
0.091483004 0.017143562 0.08713051 0.011385307 0.048198067 -0.01255127 -0.008971505 -0.064539775
0.050028168 -0.08255276 0.034160696 -0.07978507 -0.08678136 0.008780561 0.017974205 0.03270688
-0.008633129 0.070074044 0.059403338 0.045374252 -0.038153183 -0.077949956 0.0712752 -0.07364005
0.02066756 0.06898219 -0.08831889 0.003937952 -0.06446175 0.0077663288 -0.087455794 -0.004437357
0.032429256 0.06542777 0.05162584 -0.047367793 -0.09658495 -0.013267882 -0.048167937 -0.076013274
-0.066256925 -0.0473221 0.0076793954 0.09817969 0.07759977 0.09545899 -0.04311471 0.0041463748
-0.05379844 -0.034995213 -0.06806646 0.069570296 0.09040538 0.08688376 -0.07730679 0.04264813
0.01902064 0.057761498 -0.07948609 0.033412524 0.032570712 0.021106273 0.02342949 -0.0012882426
-0.06716424 0.047267996 -0.0785838 -0.08444804 0.062180392 0.065528445 -0.0443168 0.048161887
0.09285525 -0.07335771 0.020665385 -0.00015377998 -0.042099442 0.005763896 0.009016238 0.07128436
-0.06214554 0.07224136 0.065716736 0.06007237 0.0827897 -0.03280227 0.08111357 -0.06571321
-0.028751366 -0.035811245 0.06461287 0.06571599 0.021347418 -0.03029634 -0.049820825 -0.018890753
0.092559285 -0.07275985 -0.03581652 0.08082137 -0.037020452 0.056899093 0.0063409507 -0.07128445
0.05250158 0.026447244 -0.02086299 -0.024193428 -0.057557553 -0.0676133 0.09206142 -0.069639966
-0.09762925 0.049112655 -0.065826036 -0.0015757456 -0.095126174 0.0563026 0.053599216 -0.07997854
-0.07873602 0.097308226 -0.010623351 0.044428937 0.069806434 0.020477988 -0.061993793 -0.036670864
0.002014339 0.07870983 -0.03304398 0.05584865 0.05321119 -0.0370487 0.0072108284 0.07771275
0.08777026 0.019901797 -0.058614094 0.03712409 0.00092370063 0.06232146 -0.030672714 -0.02693373
-0.053691354 -0.057025395 0.03483633 -0.0021457523 0.059378378 0.09617727 -0.00026334822 0.0388472
-0.05659105 -0.0103850365 -0.021897122 0.097982146 0.06433136 0.08809114 -0.043030463 -0.033688284
0.09711575 -0.06451747 0.036311693 0.009620339 0.016634062 -0.06643554 -0.013033666 0.094665326
0.07817114 0.0042689294 -0.018669471 -0.018072322 -0.04747602 0.077876516 -0.04178713 -0.095203556
-0.072917424 0.07111276 0.060005955 0.0966079 0.07932945 0.092954345 -0.016647466 0.06380425
0.06720657 0.048617207 0.027784131 0.00025564432 -0.05885611 0.047034554 0.04539325 -0.066432685
0.018301003 0.026312642 -0.034310773 0.08353532 -0.04695785 0.04819583 0.07895053 0.024087496
0.007826842 0.08980062 -0.09066988 -0.025409363 0.033104204 -0.078646645 0.055124335 -0.09291342
0.082470216 -0.0032857805 -0.04911958 0.055605732 0.053532682 0.052425124 0.09493541 -0.033955917
-0.0039601773 0.017981097 -0.070231356 -0.06324406 0.018187962 0.092346795 0.009879477 0.03427712
-0.0936746 -0.094701506 -0.00822521 -0.030157484 0.040102415 -0.011247605 -0.08171369 -0.029329091
0.038776882 0.028384574 0.08763703 0.012324676 -0.09427364 0.008117005 -0.0071248487 -0.083304964
00000000: 67d1 8a3d 2a9e 233d 320f 293d 943f ffbc
00000010: eccc 90bd 1738 93bd 3559 74bd a38d ac3d
00000020: 7b67 913d 1c97 c5bd 3073 ddbc 24ed f23c
00000030: 64b9 8c3c e0f3 813c a332 63bd 6068 bcbc
00000040: 715b bb3d a870 8c3c 7b71 b23d 7089 3a3c
00000050: 566b 453d d8a3 4dbc 38fd 12bc 6e2d 84bd
00000060: 56ea 4c3d 6c11 a9bd 16ec 0b3d 5b66 a3bd
00000070: 6dba b1bd 58dc 0f3c a43e 933c a6f7 053d
00000080: f871 0dbc fb82 8f3d ea50 733d 5ada 393d
00000090: 8346 1cbd 3aa4 9fbd bbf8 913d 98d0 96bd
000000a0: 044f a93c 8946 8d3d 89e0 b4bd f009 813b
000000b0: 8604 84bd b07c fe3b 061c b3bd 4067 91bb
000000c0: 8ad4 043d fffe 853d 9e75 533d bb04 42bd
000000d0: 55ce c5bd 8861 59bc be4b 45bd d9ac 9bbd
000000e0: b6b1 87bd d1d4 41bd 70a3 fb3b 6f12 c93d
000000f0: a1ec 9e3d 0180 c33d 0d99 30bd 50de 873b
00000100: c15b 5cbd 2457 0fbd 6e66 8bbd df7a 8e3d
00000110: 7526 b93d 1df0 b13d 0653 9ebd ceaf 2e3d
00000120: 2cd1 9b3c 5297 6c3d 9ac9 a2bd 92db 083d
00000130: de68 053d 10e7 ac3c 34ef bf3c 40da a8ba
00000140: 688d 89bd 169c 413d 8bf0 a0bd 18f3 acbd
00000150: deb0 7e3d c733 863d 8885 35bd 6645 453d
00000160: e52a be3d 913c 96bd 744a a93c 0040 21b9
00000170: 7770 2cbd 10df bc3b d8b8 133c 89fd 913d
00000180: 528c 7ebd 47f3 933d 7f96 863d 720e 763d
00000190: a58d a93d ac5b 06bd df1e a63d a694 86bd
000001a0: fc87 ebbc d0ae 12bd c153 843d 1b96 863d
000001b0: c8e0 ae3c 0830 f8bc ec10 4cbd c8c0 9abc
000001c0: b98f bd3d 1e03 95bd 58b4 12bd ad85 a53d
000001d0: c2a2 17bd 060f 693d c0c7 cf3b 95fd 91bd
000001e0: e60b 573d e4a7 d83c dce8 aabc 4c31 c6bc
000001f0: 78c1 6bbd d878 8abd b38a bc3d 669f 8ebd
00000200: d8f1 c7bd 5a2a 493d cdcf 86bd 4089 ceba
00000210: 83d1 c2bd 8e9d 663d da8a 5b3d cacb a3bd
00000220: 5a40 a1bd 8949 c73d 900d 2ebc 1efb 353d
00000230: adf6 8e3d 74c1 a73c 34ed 7dbd 3034 16bd
00000240: 0003 043b 9f32 a13d 2059 07bd 8ec1 643d
00000250: faf3 593d 61c0 17bd d048 ec3b dd27 9f3d
00000260: e5c0 b33d 1809 a33c 5515 70bd 6e0f 183d
00000270: 8024 723a ca44 7f3d 5845 fbbc 20a4 dcbc
00000280: 77eb 5bbd 7693 69bd 8ab0 0e3d c09f 0cbb
00000290: be36 733d 97f8 c43d 0012 8ab9 3e1e 1f3d
000002a0: 04cc 67bd 0026 2abc 9861 b3bc ddaa c83d
000002b0: 29c0 833d 2169 b43d b640 30bd bafc 09bd
000002c0: 9fe4 c63d bc21 84bd 92bb 143d a09e 1d3c
000002d0: 2844 883c 5b0f 88bd 288b 55bc e5df c13d
000002e0: 3118 a03d 60e2 8b3b b8f0 98bc 680c 94bc
000002f0: 3776 42bd b97d 9f3d fb28 2bbd 15fa c2bd
00000300: bb55 95bd 91a3 913d cec8 753d 5dda c53d
00000310: 7b77 a23d d95e be3d 4460 88bc cdab 823d
00000320: 99a3 893d d622 473d 8c9b e33c 0008 8639
00000330: 1b13 71bd 4ea7 403d 46ee 393d dc0d 88bd
00000340: fceb 953c 9c8d d73c 7489 0cbd 9114 ab3d
00000350: e056 40bd fe68 453d d1b0 a13d 2453 c53c
00000360: 283c 003c 63e9 b73d 21b1 b9bd 4c27 d0bc
00000370: 4698 073d 7e11 a1bd 0eca 613d 6449 bebd
00000380: 25e6 a83d 4056 57bb 9d31 49bd d6c2 633d
00000390: 1645 5b3d babb 563d 7f6d c23d 5c15 0bbd
000003a0: 60c4 81bb 184d 933c 75d5 8fbd 1a86 81bd
000003b0: ecfe 943c 5120 bd3d 88dd 213c 2a66 0c3d
000003c0: 78d8 bfbd ddf2 c1bd 08c3 06bc d40c f7bc
000003d0: 6e42 243d e047 38bc 8259 a7bd 9043 f0bc
000003e0: 82d4 1e3d c486 e83c 0b7b b33d 70ed 493c
000003f0: 8a12 c1bd 30fd 043c 9077 e9bb cb9b aabd

sensor_model.0.bias f4 [256]
0.006261888 0.004810814 -0.03690254 -0.0022700056 -0.050072156 -0.0029966757 0.015782194 -0.050463047
-0.04326412 -0.026112232 -0.00026697054 0.017508162 0.037725568 -0.019963384 -0.038721763 -0.04091824
-0.0007408931 -0.043283805 -0.031079246 0.032744557 0.016787192 -0.004419297 -0.0039641894 -0.00062239164
0.029811868 0.005260907 -0.04819004 -0.052347597 -0.041863054 0.01666849 -0.0008901175 -0.030539315
0.02129455 -0.0342768 -0.03528627 0.008712209 -0.0027804635 0.028693678 -0.0008177459 -0.04061933
-0.041047912 -0.025732677 0.02425238 -0.02864255 -0.024682475 0.0025319892 -0.00012098043 -0.014457401
0.01758725 -0.00033906568 -0.00023605472 0.021764997 0.029392883 -0.047979977 0.045493353 -0.013244182
0.0061692027 0.047484215 0.013394454 -0.028901486 -0.0005538036 -0.032329522 0.03565497 0.03458501
-0.035331827 -0.00069696445 0.009122654 -0.008248046 -0.0007624098 -0.0007508023 0.0007401883 -0.008427285
-0.00041535497 0.02542816 0.027114099 0.023462314 0.020963846 0.029632159 -0.04128727 0.027300412
0.04749789 0.035086613 -0.0017178534 0.037030302 -0.04574789 -0.038726065 -0.027570924 -0.027734423
-0.02875514 -0.003409136 0.007685699 0.05600266 -0.00067418494 -0.037424397 -0.035467066 0.0030125875
-0.008005779 -0.032503683 -0.012663335 -0.043665618 0.025159674 0.002253964 -0.020743612 -0.039972626
-0.040814407 -0.018163495 -0.00069052726 -0.00023703961 -0.052057285 0.0026058608 -0.0005831362 -0.0128232725
-0.0009607792 0.018474266 -0.004634071 0.015722387 0.02004313 0.027298613 -0.025287334 0.035196763
-0.039313987 0.047669407 -7.893685e-05 0.017330404 -0.016853563 -0.0049857567 -0.00033059134 -0.004138831
0.0129511515 -0.015009534 -0.00028126297 0.053216618 -0.0019342238 -0.029391281 -0.03073835 0.028705543
-0.0009963431 -0.0007779244 -0.024639418 -0.0008169396 0.00809149 -0.0021321767 0.035061702 -0.010732915
0.027938733 0.010662806 -0.04779484 0.03353296 0.008670217 -0.015828274 0.0060319873 -0.0006901686
-0.004376862 -0.034277 -0.03061601 -0.0005223931 -0.00040955096 -0.0153930895 -0.00022169856 -0.041224122
-0.04361825 -0.048259296 -0.019215219 -0.040369786 -0.011784449 -0.039269302 -0.024054607 -0.03490419
0.023782061 -0.013315938 -0.032332994 -0.03926414 -0.0012329752 0.024620626 -0.041385345 -0.005337648
0.018996531 -0.014405392 0.031634025 -0.025607673 -0.051525194 0.045732718 0.03794878 0.05158494
0.050041903 0.02480305 -0.052357662 -0.013043683 -0.030345198 0.06510692 -0.042128038 -0.005886361
-0.03308951 0.037434474 -0.018807441 -0.03563755 -0.051880114 -0.047053188 -0.0016808286 0.015829662
-0.033403248 0.0044999546 -0.00096771494 -0.036818452 -0.0008210015 0.010809715 0.012849535 0.04886767
-0.0041253828 -0.0011028795 0.049088385 0.03342169 -0.0041231364 -0.050377883 -0.020717148 0.022084989
-0.0506214 -0.010522053 -0.021228466 -0.023822594 0.025510918 0.031400394 0.023396147 -0.008746311
-0.03789087 0.024248429 -0.01829318 -0.05255044 -0.032428563 0.028310664 0.0007573225 -0.032665923
-0.00029797107 -0.012767538 -0.0023105033 0.056972276 0.0002121749 0.00962712 -0.0057659335 -0.0007250945
-0.038175903 -0.020015456 -0.043951496 -0.031821217 0.03543628 -0.04766291 0.0038543881 0.013559536
-0.00075394695 -0.02788603 -0.007639412 0.03981283 0.0011350778 -0.00038963946 0.0064636935 -0.007536836
00000000: 8630 cd3b 08a4 9d3b 1e27 17bd 60c4 14bb
00000010: 7618 4dbd e063 44bb a949 813c 57b2 4ebd
00000020: b835 31bd 52e9 d5bc 2ef8 8bb9 476d 8f3c
00000030: 2086 1a3d 408a a3bc b69a 1ebd e299 27bd
00000040: 7f38 42ba 5c4a 31bd e799 febc 281f 063d
00000050: 4b85 893c c0cf 90bb 08e6 81bb ff27 23ba
00000060: 0538 f43c b063 ac3b eb62 45bd 6f6a 56bd
00000070: 9878 2bbd 5b8c 883c c656 69ba 962d fabc
00000080: e871 ae3c d465 0cbd 5688 10bd a7bd 0e3c
00000090: 7038 36bb 010f eb3c 005e 56ba 7460 26bd
000000a0: db21 28bd 56cd d2bc edac c63c c8a3 eabc
000000b0: e732 cabc bbef 253b e0b6 fdb8 bcde 6cbc
000000c0: 2313 903c a0c4 b1b9 7585 77b9 824c b23c
000000d0: 58c9 f03c a786 44bd 3d57 3a3d 20fe 58bc
000000e0: 0627 ca3b cf7e 423d 6974 5b3c cfc2 ecbc
000000f0: 212d 11ba f66b 04bd f20a 123d 03a9 0d3d
00000100: 1bb8 10bd 7eb4 36ba 2f77 153c d022 07bc
00000110: 75dc 47ba 7dd1 44ba 3209 423a 9812 0abc
00000120: 00c4 d9b9 b74e d03c 631e de3c 0a34 c03c
00000130: 5fbc ab3c 24bf f23c d71c 29bd 1da5 df3c
00000140: 268d 423d fbb6 0f3d 9829 e1ba 16ad 173d
00000150: 2462 3bbd 399f 1ebd 6bdc e1bc 4d33 e3bc
00000160: e68f ebbc d06b 5fbb 51d8 fb3b 0c63 653d
00000170: c9bb 30ba 534a 19bd ea45 11bd d56e 453b
00000180: ac2a 03bc 9522 05bd e079 4fbc b8da 32bd
00000190: a91b ce3c 3eb7 133b 82ee a9bc 56ba 23bd
000001a0: 022d 27bd 9ccb 94bc 8004 35ba d68d 78b9
000001b0: 053a 55bd 17c7 2a3b 9cdd 18ba b418 52bc
000001c0: cddc 7bba 5857 973c 68d9 97bb 3ccc 803c
000001d0: 7d31 a43c 57a1 df3c 6227 cfbc 7b2a 103d
000001e0: b407 21bd ff40 433d e68a a5b8 7ef8 8d3c
000001f0: 7c10 8abc 8f5f a3bb 3853 adb9 089f 87bb
00000200: 1131 543c 8cea 75bc 7a76 93b9 abf9 593d
00000210: c885 fdba fcc5 f0bc fece fbbc e327 eb3c
00000220: ba97 82ba 9fed 4bba 9bd8 c9bc e327 56ba
00000230: 2b92 043c fdbb 0bbb dc9c 0f3d 1cd9 2fbc
00000240: c5df e43c 0db3 2e3c 86c4 43bd db59 093d
00000250: 870d 0e3c 4caa 81bc faa7 c53b 6eec 34ba
00000260: c86b 8fbb 0a66 0cbd 6dce fabc 35f1 08ba
00000270: 00b9 d6b9 4c33 7cbc c177 68b9 a0da 28bd
00000280: 0da9 32bd 8aab 45bd 3c69 9dbc ca5a 25bd
00000290: 9013 41bc d9d8 20bd 2b0e c5bc b2f7 0ebd
000002a0: 99d2 c23c 182b 5abc 9a6f 04bd 6fd3 20bd
000002b0: c89b a1ba 32b1 c93c ae83 29bd 70e7 aebb
000002c0: 9d9e 9b3c 9804 6cbc ae92 013d 2fc7 d1bc
000002d0: 150c 53bd 3b52 3b3d 2e70 1b3d bb4a 533d
000002e0: bdf8 4c3d c42f cb3c fd74 56bd 2cb5 55bc
000002f0: 7e96 f8bc c756 853d 738e 2cbd 60e2 c0bb
00000300: de88 07bd e454 193d 1012 9abc aef8 11bd
00000310: 3e80 54bd d8ba 40bd 404f dcba 35ad 813c
00000320: d8d1 08bd 5b74 933b 40ae 7dba f2ce 16bd
00000330: 7a38 57ba 3b1b 313c db86 523c 7729 483d
00000340: 382e 87bb 7f8e 90ba e710 493d 2fe5 083d
00000350: 601b 87bb 0a59 4ebd 02b7 a9bc 94eb b43c
00000360: 6358 4fbd b064 2cbc 52e7 adbc 9a27 c3bc
00000370: 46fc d03c b39d 003d 47a9 bf3c b04c 0fbc
00000380: 7533 1bbd a4a4 c63c 94db 95bc 213f 57bd
00000390: d0d3 04bd c4eb e73c 0d87 463a b4cc 05bd
000003a0: 0039 9cb9 f02e 51bc d06b 17bb c35b 693d
000003b0: 447b 5e39 11bb 1d3c 28f0 bcbb 4514 3eba
000003c0: 565e 1cbd 74f7 a3bc 7c06 34bd f756 02bd
000003d0: a225 113d 2f3a 43bd e799 7c3b d128 5e3c
000003e0: 86a4 45ba 3e71 e4bc 0854 fabb c712 233d
000003f0: e4c6 943a 8648 ccb9 64cd d33b 90f7 f6bb

sensor_model.2.weight f4 [128, 256]
0.005938834 -0.020049324 -0.12109165 -0.046350196 -0.076165155 0.11200979 -0.00023217662 0.11593941
-0.11386275 0.032753766 -0.1041529 0.005295655 0.11160701 0.11468123 -0.10837321 -0.10125157
-0.041152027 -0.12156038 -0.106231496 -0.035843536 0.07387035 0.08189109 -0.030669749 0.026705507
0.13492458 -0.12293054 -0.051240712 0.0036886632 0.03716722 -0.021038169 -0.094470985 0.05075729
0.088526316 0.043545008 -0.070657626 0.08419551 -0.0652231 0.07584013 -0.085779615 0.035782367
0.009231567 -0.021296427 -0.0016699433 0.024741292 -0.038412154 -0.08997655 -0.101194546 -0.06947331
-0.08570257 -0.011893706 0.041136175 -0.11863532 -0.015367252 -0.08545877 0.0847961 0.08267924
-0.08928203 -0.059647303 -0.024456346 -0.121021956 -0.02709461 0.08660345 -0.019604875 0.016761934
-0.098509654 -0.1283983 -0.017576551 -0.016247436 -0.05214702 0.0010781857 -0.0049391775 -0.117607355
0.0057504475 0.10496772 0.0628105 -0.09742196 -0.04193367 -0.06740498 -0.101651326 0.012056743
-0.021789871 0.054158043 -0.063245304 -0.019233435 -0.087026805 -0.11516319 -0.107932016 0.048134625
-0.013164148 -0.029102728 -0.032552727 -0.1056987 0.050785456 -0.009909704 -0.046537638 0.012062181
-0.031924486 -0.031491667 -0.0074287057 -0.09318727 -0.07758998 -0.088782296 -0.11870591 0.10822874
0.09158933 0.020927086 -0.008424237 0.06065635 0.036933705 -0.06570827 0.008364482 -0.1234667
-0.109532624 -0.06364672 0.10777189 0.0976027 -0.06124296 0.08078386 -0.008731425 -0.122933246
-0.110648096 0.035497036 0.088581644 0.08487657 -0.04194826 0.04514344 -0.048229326 0.07918613
0.109027684 0.024434015 -0.13173208 0.08106014 -0.110723965 -0.07089095 0.072856486 -0.035829622
-0.09903285 0.04326889 -0.06811868 -0.10427943 0.09936589 -0.13552769 0.07328737 0.116606444
0.017621394 -0.068365715 -0.09136121 -0.0019366874 -0.04164116 0.06076321 0.02801045 -0.13539873
0.07870433 -0.051910356 0.04895042 -0.095006645 -0.0048315525 0.069772795 -0.06291896 -0.047162637
-0.004577905 0.085868776 -0.00079515576 0.0008928925 -0.113544315 0.034595057 0.056970105 0.037735447
-0.10853338 -0.030019373 -0.108007535 -0.03958668 -0.097041935 0.04173189 0.07033454 0.123215884
-0.03861209 -0.111801356 -0.06548424 -0.09210734 -0.063213736 0.09940972 -0.06868528 0.046244353
0.07423695 -0.10878951 -0.045181945 0.061528236 -0.07182455 -0.04089504 -0.07820311 0.065314844
-0.11831157 -0.10144962 -0.041842595 0.10455118 0.09268248 -0.087681234 0.04207191 -0.029768698
0.11396478 -0.06422577 -0.09850599 -0.119743004 -0.10410122 0.05828246 0.037281197 0.11182865
-0.018158033 -0.048328586 0.022842294 -0.0811985 0.08675723 -0.08888355 0.06977689 0.083635904
-0.04270062 -0.108089924 -0.0153274685 -0.09089103 0.11263587 0.10455967 0.06676799 0.07188882
0.10812041 -0.02433393 -0.12156138 -0.07538392 -0.0379858 0.026410228 0.042499732 0.05428131
0.01765269 -0.007687539 -0.04587628 -0.03035756 -0.059960473 -0.039147243 -0.07096712 0.039388165
0.020653263 0.026541486 -0.09268524 0.10377677 0.058708366 -0.050140306 -0.10273724 0.04725734
0.06371134 0.09989935 0.008327395 -0.035843197 -0.045358237 0.061254386 -0.00343372 0.038336843
00000000: 8d9a c23b 7b3e a4bc e6fe f7bd b4d9 3dbd
00000010: 7afc 9bbd 6465 e53d 7074 73b9 a471 ed3d
00000020: e030 e9bd d028 063d 1e4e d5bd 2d87 ad3b
00000030: 3792 e43d fedd ea3d c6f2 ddbd fc5c cfbd
00000040: 078f 28bd a6f4 f8bd e68f d9bd acd0 12bd
00000050: 5749 973d 84b6 a73d 203f fbbc 82c5 da3c
00000060: ab29 0a3e 02c3 fbbd c8e1 51bd 80bd 713b
00000070: a83c 183d 3d58 acbc 017a c1bd e0e6 4f3d
00000080: 494d b53d 405c 323d f2b4 90bd b26e ac3d
00000090: b093 85bd 1252 9b3d 39ad afbd 8890 123d
000000a0: 0040 173c d875 aebc 00e2 daba 40ae ca3c
000000b0: 1056 1dbd a045 b8bd 163f cfbd 0648 8ebd
000000c0: d484 afbd d2dd 42bc 687e 283d 13f7 f2bd
000000d0: edc6 7bbc 0205 afbd 94a9 ad3d bc53 a93d
000000e0: 7fd9 b6bd bb50 74bd ad58 c8bc 5cda f7bd
000000f0: 84f5 ddbc 265d b13d 679a a0bc 5350 893c
00000100: 6ebf c9bd d87a 03be b3fc 8fbc 5819 85bc
00000110: 1d98 55bd e951 8d3a d3d8 a1bb 20dc f0bd
00000120: 406e bc3b 51f9 d63d cba2 803d 2a85 c7bd
00000130: a4c2 2bbd 9f0b 8abd 922e d0bd a589 453c
00000140: ac80 b2bc d3d4 5d3d c186 81bd 708f 9dbc
00000150: 1c3b b2bd aeda ebbd 760b ddbd d028 453d
00000160: 70ae 57bc d868 eebc 0256 05bd 8f78 d8bd
00000170: 6904 503d 505c 22bc 409e 3ebd 74a0 453c
00000180: 40c3 02bd 68fd 00bd 806c f3bb f8d8 bebd
00000190: 7fe7 9ebd 7ed3 b5bd 161c f3bd 08a7 dd3d
000001a0: 3093 bb3d 486f ab3c d005 0abc cb72 783d
000001b0: cc47 173d 0f92 86bd 2e0b 093c 1cdc fcbd
000001c0: a452 e0bd 3659 82bd 82b7 dc3d ede3 c73d
000001d0: e6d9 7abd 0272 a53d 400e 0fbc 6dc4 fbbd
000001e0: 789b e2bd 5765 113d 4b6a b53d c4d3 ad3d
000001f0: f0d1 2bbd 54e8 383d 1d8c 45bd 562c a23d
00000200: e849 df3d d829 c83c c6e4 06be dc02 a63d
00000210: 3fc3 e2bd 462f 91bd c835 953d 15c2 12bd
00000220: bcd1 cabd b83a 313d ce81 8bbd 7490 d5bd
00000230: 5880 cb3d c5c7 0abe b017 963d 5ccf ee3d
00000240: be5a 903c 5303 8cbd 961b bbbd 72d8 fdba
00000250: ec8f 2abd d8e2 783d 2c76 e53c f7a5 0abe
00000260: bc2f a13d f49f 54bd 3c80 483d d892 c2bd
00000270: 0052 9ebb 0ae5 8e3d a8db 80bd 9c2d 41bd
00000280: 4002 96bb f8db af3d 0072 50ba 0011 6a3a
00000290: ec89 e8bd 8cb3 0d3d 7c59 693d 7c90 1a3d
000002a0: c046 debd 30eb f5bc 0e33 ddbd a425 22bd
000002b0: ecbd c6bd 0fef 2a3d 8e0b 903d 9c58 fc3d
000002c0: b627 1ebd 1cf8 e4bd 9a1c 86bd c6a2 bcbd
000002d0: 3476 81bd 5397 cb3d deaa 8cbd b86a 3d3d
000002e0: 8b09 983d 09cd debd b410 39bd 0805 7c3d
000002f0: c018 93bd 8f81 27bd f428 a0bd cac3 853d
00000300: 564d f2bd d2c4 cfbd 2463 2bbd ee1e d63d
00000310: 50d0 bd3d 3892 b3bd 9853 2c3d 7cdd f3bc
00000320: 5e66 e93d cd88 83bd 82bd c9bd d23b f5bd
00000330: 0533 d5bd 97b9 6e3d 2bb4 183d 6b06 e53d
00000340: 28c0 94bc 32f4 45bd c31f bb3c 664b a6bd
00000350: c6ad b13d 9408 b6bd 30e7 8e3d 4d49 ab3d
00000360: d8e6 2ebd 405e ddbd 1020 7bbc 1425 babd
00000370: a3ad e63d 6123 d63d a8bd 883d 723a 933d
00000380: 3c6e dd3d f357 c7bc 2cf5 f8bd e262 9abd
00000390: 0097 1bbd 435a d83c 3314 2e3d 1456 5e3d
000003a0: 609c 903c c0e7 fbbb c4e8 3bbd 6bb0 f8bc
000003b0: 1d99 75bd dc58 20bd 3657 91bd 7c55 213d
000003c0: 0831 a93c 886d d93c c2d1 bdbd ea88 d43d
000003d0: 2f78 703d ec5f 4dbd e767 d2bd ea90 413d
000003e0: 177b 823d 0898 cc3d a06f 083c 51d0 12bd
000003f0: 8fc9 39bd e1e5 7a3d 4308 61bb 1807 1d3d

sensor_model.2.bias f4 [128]
0.060779013 0.007125073 -0.060506254 0.028268183 -0.011220619 -0.0073319227 -0.019596457 0.06215884
-0.0017400152 -0.008911461 0.09402175 -0.019372322 0.003975074 -0.030169882 0.05866398 -0.04678916
0.026889738 0.033035908 0.052385367 0.02287576 0.012513359 -0.029104836 0.08629176 0.04962341
0.0065877065 -0.01100193 0.00893323 0.011443432 -0.04892908 0.056866966 -0.04142894 0.011745519
0.026247393 0.049442463 0.012684718 -0.021675289 -0.025022984 0.019438528 -0.0055167284 0.016266674
0.030499225 0.017241945 0.015039555 0.017335068 0.02522485 -0.011677048 -0.02659344 -5.5772296e-05
0.019444322 -0.026744345 0.020255364 0.041512486 -0.0042082304 0.014841376 0.0021391585 0.053259052
0.049676996 0.028672602 -0.016957082 0.009004525 -0.055160508 -0.045223027 -0.051834635 0.014968786
0.0069404007 -0.016774833 0.035311405 -0.0068553314 -0.02416706 -0.0077567548 0.08136029 -0.043534353
-0.06152939 -0.010252466 -0.041627884 0.0257591 0.016053915 0.074585676 0.02486149 -0.010690495
0.042814795 0.043196667 0.049861446 -0.029170938 0.010129648 -0.034413308 0.013755339 0.024932066
-0.05361694 -0.026156269 -0.0037383118 0.015540923 -0.0038757897 0.075210154 0.053031128 -0.02836383
-0.042231344 0.027650166 0.062076904 0.019614598 -0.017417956 0.10380649 0.079994425 0.022556176
-0.008596316 0.030145746 -0.03811081 0.042508896 0.015195053 0.009899246 0.018061979 -0.062038407
-0.008341125 0.025365196 -0.025505807 -0.03200289 -0.037019387 0.073505424 0.023396257 -0.039807267
-0.010730922 0.029331833 0.007187091 0.066991836 0.0041939532 -0.031368755 -0.05909852 0.029681697
00000000: 6af3 783d 7279 e93b 68d5 77bd ad92 e73c
00000010: b0d6 37bc a040 f0bb c088 a0bc 459a 7e3d
00000020: 3911 e4ba 6001 12bc 7a8e c03d b4b2 9ebc
00000030: 5641 823b d426 f7bc a449 703d fea5 3fbd
00000040: de47 dc3c a950 073d 0a92 563d f265 bb3c
00000050: d504 4d3c 446d eebc bcb9 b03d eb41 4b3d
00000060: b0dd d73b 7041 34bc af5c 123c 3c7d 3b3c
00000070: dc69 48bd 56ed 683d 64b1 29bd 4770 403c
00000080: c604 d73c 2e84 4a3d 90d3 4f3c 6090 b1bc
00000090: 00fd ccbc 8c3d 9f3c acc5 b4bb b041 853c
000000a0: 83d9 f93c fb3e 8d3c 7768 763c 4602 8e3c
000000b0: 58a4 ce3c 1751 3fbc 7cda d9bc 0ced 69b8
000000c0: b349 9f3c f516 dbbc 94ee a53c ff08 2a3d
000000d0: 32e5 89bb 3e29 733c 2031 0c3b 2a26 5a3d
000000e0: 1b7a 4b3d cee2 ea3c 94e9 8abc b787 133c
000000f0: fcef 61bd c83b 39bd 8e50 54bd a43f 753c
00000100: 4d6c e33b 606b 89bc b1a2 103d b0a2 e0bb
00000110: 00fa c5bc 602c febb 39a0 a63d 1451 32bd
00000120: 3e06 7cbd f6f9 27bc 0082 2abd c004 d33c
00000130: 8083 833c 60c0 983d 53aa cb3c 3027 2fbc
00000140: 915e 2f3d fdee 303d 843b 4c3d e4f7 eebc
00000150: d3f6 253c f8f4 0cbd 135e 613c 553e cc3c
00000160: 709d 5bbd ac45 d6bc 77fe 74bb 5b9f 7e3c
00000170: f600 7ebb c807 9a3d 2b37 593d 435b e8bc
00000180: c6fa 2cbd 9a82 e23c 5a44 7e3d cbae a03c
00000190: 1ab0 8ebc 7f98 d43d 1ed4 a33d bbc7 b83c
000001a0: 90d7 0cbc 36f4 f63c 151a 1cbd cf1d 2e3d
000001b0: acf4 783c 7230 223c b7f6 933c fc1b 7ebd
000001c0: 37a9 08bc acca cf3c 8ef1 d0bc 7615 03bd
000001d0: a4a1 17bd 038a 963d 82a9 bf3c f20c 23bd
000001e0: c0d0 2fbc 5049 f03c b081 eb3b 0433 893d
000001f0: 6e6d 893b 867c 00bd 4a11 72bd 0827 f33c

sensor_model.4.weight f4 [64, 128]
-0.14044315 0.14606693 0.04993382 -0.17423433 0.1360677 -0.11548072 0.039650485 -0.1706162
0.1604297 -0.08147692 -0.09097628 0.11382427 -0.10985657 -0.1207913 -0.11307496 0.09214394
-0.1346229 -0.090389475 -0.035090182 -0.028468672 0.1160547 0.108171135 0.14672406 0.15506358
-0.13614926 -0.16052699 -0.15222542 -0.1892785 -0.09508961 0.12842394 0.051254198 -0.00093157106
-0.081506036 0.120638 0.06665808 0.10343771 0.04145494 -0.08552862 -0.16808113 -0.034920376
0.0455557 0.15386666 -0.035998803 -0.12653562 0.13139968 0.19359362 -0.058488153 -0.09728922
0.14411436 0.17607988 0.06517449 -0.009467798 0.07774743 -0.087559365 -0.050628223 0.14552635
0.14565161 0.05011724 0.0014838427 0.085597396 -0.038670614 -0.09639199 -0.03034857 0.058641333
0.0010383918 -0.06953479 0.11638314 0.16286959 -0.074605145 -0.11192488 0.084757686 0.10194938
-0.022062661 -0.033297084 0.063403174 -0.007282102 -0.04714285 0.046147324 0.08589179 0.103575006
0.059571486 0.14751922 -0.06768108 0.11258952 0.049383134 0.10352309 -0.06570118 0.03475536
-0.09380672 0.117608175 0.07936287 0.09324041 0.023391508 -0.18254024 0.012114502 0.07514626
0.16857968 -0.2737715 0.099059395 0.07351893 0.20625323 -0.123951994 0.11115692 -0.09871318
0.11263524 0.038170427 0.08953717 -0.12202422 0.09913448 0.09908576 -0.10247027 -0.10581786
-0.12102617 0.030107751 -0.0060744085 -0.13776101 0.12707941 -0.123960115 -0.02864659 -0.021488681
-0.11805743 -0.12579033 -0.13771522 -0.05526239 -0.005895368 -0.05821597 0.11647816 0.090232655
0.1836788 0.0112228375 -0.17137603 0.20922376 -0.09859977 -0.13218862 -0.002725765 0.0070355684
0.0241713 0.094568565 0.038716897 0.026081579 -0.056145854 0.06771767 -0.15982679 -0.16888544
-0.10489842 -0.107636616 0.13604891 -0.02197942 0.12625624 0.11815183 0.11258954 0.011976181
0.09633656 0.018180132 0.12729593 0.011409245 0.11478864 0.057213277 -0.09270248 -0.009611385
0.20659126 0.14313188 0.13726054 -0.16898102 -0.058421686 -0.003514707 -0.14161836 -0.0097916555
-0.168693 0.038203865 0.14921679 -0.16438587 0.04406343 -0.025030449 0.13836263 0.20295236
-0.019146288 0.07296147 0.038879767 0.05511541 0.037643906 -0.11373366 0.097137764 0.08210801
0.11988635 0.12071559 -0.11299972 -0.005436663 -0.08223573 -0.053753816 -0.063984185 -0.023264496
-0.05409355 -0.115196064 -0.10980704 0.116249636 -0.029254362 0.15866213 -0.09100439 0.06539972
0.1400551 -0.11941737 0.057630584 0.08680008 -0.022811372 0.19817014 -0.11968565 -0.1492871
0.06295195 0.18481667 -0.10189166 -0.11598016 -0.12252042 0.0015361458 0.12355992 -0.08824617
-0.0077277273 0.019571118 0.11971787 0.17542265 0.17191146 -0.006270401 0.13730596 0.1899068
-0.013792098 0.08056714 0.0054221316 -0.13303539 0.086680815 0.2142854 0.02592034 -0.07292427
0.010253742 -0.049196206 -0.0951878 0.07069922 0.048995003 0.16057304 0.111415364 -0.050678357
-0.049979113 -0.06763577 0.10003851 0.07813753 -0.1169028 0.174043 0.18907414 0.13439192
-0.06852075 0.020742139 0.1023498 0.19968162 0.15757005 0.101524815 -0.050526217 0.05258167
00000000: 54d0 0fbe 9292 153e 6887 4c3d 7c6a 32be
00000010: 5555 0b3e 2881 ecbd 8c68 223d 03b6 2ebe
00000020: af47 243e 5fdd a6bd c651 babd b31c e93d
00000030: 7bfc e0bd 6e61 f7bd d893 e7bd f6b5 bc3d
00000040: 96da 09be 1e1e b9bd b9ba 0fbd 2237 e9bc
00000050: 16ae ed3d d488 dd3d d53e 163e fdc8 1e3e
00000060: b66a 0bbe 3061 24be fbe0 1bbe 39d2 41be
00000070: 57be c2bd 9181 033e ecef 513d ad34 74ba
00000080: a3ec a6bd 0e11 f73d 0884 883d 26d7 d33d
00000090: a8cc 293d a129 afbd 761d 2cbe ab08 0fbd
000000a0: 9d98 3a3d 398f 1d3e 7b73 13bd 8e92 01be
000000b0: a38d 063e 683d 463e 4691 6fbd 923f c7bd
000000c0: b792 133e 494e 343e 347a 853d d31e 1bbc
000000d0: 0b3a 9f3d 5352 b3bd 8a5f 4fbd dc04 153e
000000e0: b225 153e bc47 4d3d 807d c23a b04d af3d
000000f0: 1465 1ebd 2a69 c5bd 909d f8bc e531 703d
00000100: a61a 883a 4268 8ebd 495a ee3d 49c7 263e
00000110: 95ca 98bd df38 e5bd 7095 ad3d d6ca d03d
00000120: c1bc b4bc 8662 08bd 86d9 813d b39e eebb
00000130: dc18 41bd fa04 3d3d 09e8 af3d 221f d43d
00000140: 3b01 743d 470f 173e 619c 8abd 5695 e63d
00000150: f845 4a3d ea03 d43d 578e 86bd a35b 0e3d
00000160: bd1d c0bd 8edc f03d 0089 a23d d4f4 be3d
00000170: 8c9f bf3c d4eb 3abe e77b 463c 48e6 993d
00000180: 27a0 2c3e c72b 8cbe a7df ca3d 1891 963d
00000190: 0c34 533e 8bda fdbd 3da6 e33d 232a cabd
000001a0: 4ead e63d 9858 1c3d 445f b73d d6e7 f9bd
000001b0: 0507 cb3d 7aed ca3d efdb d1bd 09b7 d8bd
000001c0: 92dc f7bd 88a4 f63c d50b c7bb 3911 0dbe
000001d0: 1b21 023e cdde fdbd 41ac eabc 0809 b0bc
000001e0: 18c8 f1bd 2ecf 00be 3805 0dbe d15a 62bd
000001f0: ee2d c1bb de73 6ebd 1a8c ee3d e6cb b83d
00000200: 4c16 3c3e fedf 373c 337d 2fbe c13e 563e
00000210: adee c9bd 745c 07be c0a2 32bb a08a e63b
00000220: e402 c63c 2aad c13d 9c95 1e3d 09a9 d53c
00000230: 32f9 65bd 90af 8a3d a2a9 23be 4ef0 2cbe
00000240: fcd4 d6bd 9670 dcbd 6850 0b3e 2f0e b4bc
00000250: 5149 013e 96f9 f13d 5895 e63d be37 443c
00000260: 1a4c c53d 80ee 943c dd59 023e d8ed 3a3c
00000270: 4e16 eb3d 7858 6a3d ccda bdbd 1279 1dbc
00000280: a98c 533e 2a91 123e 078e 0c3e 5c09 2dbe
00000290: 944b 6fbd 0057 66bb 6704 11be 2e6d 20bc
000002a0: dcbd 2cbe a87b 1c3d 49cc 183e c554 28be
000002b0: db7b 343d a80c cdbc efae 0d3e bed2 4f3e
000002c0: add8 9cbc d36c 953d 6440 1f3d b2c0 613d
000002d0: 7f30 1a3d 31ed e8bd 2af0 c63d 3f28 a83d
000002e0: fa86 f53d bc39 f73d 666c e7bd 0926 b2bb
000002f0: 356b a8bd f62c 5cbd 240a 83bd 2f95 bebc
00000300: 3391 5dbd eaeb ebbd 83e2 e0bd 4a14 ee3d
00000310: d8a6 efbc 5378 223e 8260 babd 4af0 853d
00000320: 9b6a 0f3e 1891 f4bd 0c0e 6c3d 3ec4 b13d
00000330: eade babc 1ded 4a3e c01d f5bd b8de 18be
00000340: f4ec 803d 9540 3d3e 93ac d0bd 0287 edbd
00000350: fceb fabd 8058 c93a fc0c fd3d 68ba b4bd
00000360: e038 fdbb 9c53 a03c a52e f53d ffa1 333e
00000370: 8f09 303e f077 cdbb ef99 0c3e ee76 423e
00000380: 40f8 61bc 6200 a53d 23ac b13b 6e3a 08be
00000390: b685 b13d a26d 5b3e e556 d43c 5259 95bd
000003a0: 50ff 273c f681 49bd d2f1 c2bd c1ca 903d
000003b0: fcae 483d 426d 243e bd2d e43d 1c94 4fbd
000003c0: e6b6 4cbd 9f84 8abd fee0 cc3d 9206 a03d
000003d0: bc6a efbd 5438 323e a79c 413e 099e 093e
000003e0: 9b54 8cbd 6beb a93c c69c d13d 5779 4c3e
000003f0: 0b5a 213e 3eec cf3d 94f4 4ebd e15f 573d

sensor_model.4.bias f4 [64]
0.046854552 0.029360028 0.026728706 0.026502628 0.020757362 0.1080749 -0.06484428 -0.08265784
0.02848791 -0.090520956 0.051508904 -0.0053748293 -0.07284334 0.06956321 0.038420904 0.02975826
-0.06412098 0.022815734 -0.0083982935 -0.011028911 -0.036206804 -0.037895516 -0.04039671 -0.0246028
-0.029240832 -0.009511518 0.044658475 -0.081861295 -0.029054629 -0.0056880563 -0.043384656 -0.0574365
0.07222238 0.098204695 -0.06473242 -0.035643946 -0.073165916 -0.021412583 0.0006547272 0.0066820155
0.017110236 0.0720072 0.123748295 -0.007997351 -0.015555561 0.05822307 0.06031782 0.025853725
-0.012606031 -0.058363643 0.07062006 -0.032510586 -0.10364956 0.021699224 -0.05952433 0.07365399
-0.019718435 -0.034588683 -0.037442755 0.055941526 -0.003642939 -0.067250945 -0.080555424 0.009678595
00000000: 8fea 3f3d 7184 f03c 29f6 da3c 0a1c d93c
00000010: 580b aa3c 6056 dd3d 14cd 84bd 8348 a9bd
00000020: 7a5f e93c 0d63 b9bd 00fb 523d 561f b0bb
00000030: e42e 95bd 2877 8e3d 3d5f 1d3d 98c7 f33c
00000040: dc51 83bd 10e8 ba3c ff98 09bc 9bb2 34bc
00000050: 964d 14bd 5438 1bbd 0577 25bd d08b c9bc
00000060: 788a efbc 33d6 1bbc ceeb 363d e5a6 a7bd
00000070: f903 eebc e062 babb 1cb4 31bd 8942 6bbd
00000080: 54e9 933d 8b1f c93d 6e92 84bd 63ff 11bd
00000090: 03d8 95bd 7169 afbc 00a2 2b3a cff4 da3b
000000a0: c42a 8c3c 8378 933d bf6f fd3d 5207 03bc
000000b0: c0dc 7ebc 507b 6e3d d20f 773d 31cb d33c
000000c0: 8789 4ebc b70e 6fbd 40a1 903d d229 05bd
000000d0: 3846 d4bd 92c2 b13c c9cf 73bd e7d7 963d
000000e0: 8e88 a1bc ddac 0dbd 935d 19bd f122 653d
000000f0: 60be 6ebb ddba 89bd 3efa a4bd f892 1e3c

target_model.0.weight f4 [64, 66]
0.11190699 0.08022151 0.239305 -0.10601525 -0.12622103 0.1399586 0.09547784 -0.10371102
-0.044432834 0.09782814 0.2156655 -0.016296133 0.008859202 0.06945874 -0.19144115 -0.1128579
-0.14203113 -0.16925496 0.10540186 -0.06337871 0.13242748 0.080659054 -0.112505175 0.010088146
-0.050126724 0.1742031 0.18241152 0.021316161 -0.13891192 -0.1672802 0.106523804 0.22040658
-0.09499388 -0.030750288 -0.059747055 -0.103717804 -0.027039006 0.2457356 -0.016822338 -0.03373144
-0.045635067 0.22273251 -0.1038767 -0.034937195 -0.05477734 -0.12259467 0.011618339 -0.16657735
0.24444856 0.25333598 -0.08416219 0.12373277 0.1805828 -0.1368612 -0.13010862 -0.06540625
-0.17668329 0.08139562 0.001964167 0.19491039 -0.1563279 0.18193176 0.16764146 0.19118837
0.027634788 -0.23418725 0.1530051 0.14050582 0.03578265 0.18998222 0.27605253 0.1834554
-0.04231345 -0.09318323 0.01269636 0.035460547 0.010555109 0.16258815 -0.09385616 0.16415451
0.09850341 0.19963254 0.03489539 0.16022713 -0.038666554 0.16088681 -0.08641165 0.1340412
-0.10417707 0.11543022 -0.1752923 0.09010116 -0.027341159 -0.11879734 0.13116361 0.1783363
-0.20954782 0.013900999 0.1574998 -0.1320372 0.042726234 -0.050655685 0.09985207 0.16693993
0.037375703 -0.21859364 -0.1462485 -0.1225002 -0.164255 0.15279485 0.059225157 0.10014942
0.1351332 0.15324631 -0.07703121 0.123059705 0.05448193 0.17528586 0.03272592 0.053944744
0.12270419 -0.14072824 -0.031305328 0.1888519 -0.010229501 0.17863491 0.1175815 0.0026009418
0.200211 0.18224245 0.009915291 -0.09345368 -0.13793959 -0.16465342 0.19575214 0.14392066
-0.07018572 0.14122374 0.14682704 0.17047311 -0.042563275 -0.002362056 -0.15889503 -0.1306538
0.019133225 -0.035087608 -0.017031081 0.13883936 0.052017495 0.10307743 -0.19026561 -0.006144826
-0.13020417 -0.10488571 0.051179513 0.11889236 -0.15097202 -0.16251412 0.066478394 -0.19972962
0.048102714 0.016958013 -0.069603845 -0.14591064 -0.08280665 -0.0666924 -0.11183892 0.22324793
-0.097555004 0.016215377 0.18366732 -0.0827758 -0.14131525 -0.07424867 0.11028576 -0.12793271
0.034616724 -0.012247541 0.20301959 -0.06676703 -0.07589 -0.142188 0.14605422 0.13292946
-0.24520792 0.15742642 0.0034171974 -0.069961585 -0.09247216 -0.09801894 -0.091167495 -0.22510022
-0.06318103 0.20882386 -0.019910429 0.037761293 0.04493696 0.16755924 0.20417939 0.066347376
0.14225581 0.13662046 0.09606476 0.21939196 0.0533013 0.07595371 -0.18601096 -0.10765047
0.038541894 -0.1682644 0.020827323 0.17095071 0.11496277 0.06477377 -0.05718103 0.12563406
-0.13989736 0.040651266 0.06981004 -0.09246695 0.09323616 0.0034508854 -0.030749395 0.12495872
-0.20414469 0.044851094 0.1516937 0.04419835 -0.13446951 -0.16817498 -0.18933968 0.0680871
-0.08683984 0.1969411 -0.18300726 0.17883356 -0.14201373 0.014861091 0.109985456 0.0021310328
0.057959322 -0.09710757 0.15899204 -0.10861162 0.12024896 -0.14501531 0.08188507 -0.095777705
-0.15063603 -0.18692403 -0.009607174 0.16536085 -0.042491272 0.025355438 -0.008278456 -0.101445265
00000000: 7e2f e53d 2d4b a43d 5f0c 753e 861e d9bd
00000010: 1640 01be 4f51 0f3e e389 c33d 7166 d4bd
00000020: 34ff 35bd 1f5a c83d 6bd7 5c3e 787f 85bc
00000030: 3026 113c 6240 8e3d 2609 44be 0b22 e7bd
00000040: 9c70 11be 2c51 2dbe eedc d73d b2cc 81bd
00000050: 129b 073e 9330 a53d 1d69 e6bd c048 253c
00000060: ae51 4dbd 4c62 323e 16ca 3a3e 3b9f ae3c
00000070: ed3e 0ebe 804b 2bbe 2729 da3d 43b2 613e
00000080: 278c c2bd 07e8 fbbc 54b9 74bd 006a d4bd
00000090: e880 ddbc 1da2 7b3e 00cf 89bc fa29 0abd
000000a0: d6eb 3abd fe13 643e 4fbd d4bd 4e1a 0fbd
000000b0: 345e 60bd ea12 fbbd d95a 3e3c 4193 2abe
000000c0: b950 7a3e 41b5 813e 3a5d acbd 9b67 fd3d
000000d0: b3ea 383e 5825 0cbe 323b 05be b6f3 85bd
000000e0: 77ec 34be bfb2 a63d 41b9 003b 9796 473e
000000f0: 6c14 20be 524c 3a3e 34aa 2b3e e2c6 433e
00000100: 5a62 e23c c8ce 6fbe 5ead 1c3e c2e0 0f3e
00000110: d490 123d b38a 423e c256 8d3e bbdb 3b3e
00000120: de50 2dbd d9d6 bebd 6504 503c 143f 113d
00000130: 56ef 2c3c 827d 263e a937 c0bd 1f18 283e
00000140: 28bc c93d 796c 4c3e 78ee 0e3d 9512 243e
00000150: d260 1ebd 83bf 243e 97f8 b0bd 1942 093e
00000160: ca5a d5bd ae66 ec3d d37f 33be f586 b83d
00000170: 91fa dfbc 054c f3bd c14f 063e cb9d 363e
00000180: b493 56be 04c1 633c a147 213e c234 07be
00000190: b401 2f3d 567c 4fbd 3e7f cc3d 4df2 2a3e
000001a0: 4417 193d 03d7 5fbe 2bc2 15be 63e1 fabd
000001b0: 7632 28be 4176 1c3e 1496 723d 241b cd3d
000001c0: 5c60 0a3e 9aec 1c3e 8ac2 9dbd ba06 fc3d
000001d0: 7228 5f3d 237e 333e 9d0b 063d 2af5 5c3d
000001e0: 564c fb3d 101b 10be 043a 00bd 6462 413e
000001f0: a399 27bc 12ec 363e 92ce f03d 9074 2a3b
00000200: 1d04 4d3e c49d 3a3e bf73 223c a564 bfbd
00000210: 0940 0dbe e89a 28be 4073 483e f05f 133e
00000220: 88bd 8fbd f59c 103e d459 163e 8190 2e3e
00000230: d456 2ebd b9cc 1abb 61b5 22be 1cca 05be
00000240: 48bd 9c3c 06b8 0fbd c484 8bbc e82b 0e3e
00000250: 4c10 553d 421a d33d fdd4 42be 895a c9bb
00000260: 3e54 05be 52ce d6bd 9ca1 513d d67d f33d
00000270: 6998 1abe 1a6a 26be d325 883d ec85 4cbe
00000280: 5a07 453d 88eb 8a3c 768c 8ebd 9969 15be
00000290: 8896 a9bd 0696 88bd ce0b e5bd 1b9b 643e
000002a0: ebca c7bd 1cd6 843c 4913 3c3e 5c86 a9bd
000002b0: f2b4 10be b00f 98bd 80dd e13d cb00 03be
000002c0: 44ca 0d3d e9a9 48bc 5ee4 4f3e 27bd 88bd
000002d0: 376c 9bbd bb99 11be 3d8f 153e a91e 083e
000002e0: c917 7bbe 6434 213e 0ff3 5f3b 0548 8fbd
000002f0: 0b62 bdbd 27be c8bd 06b6 babd ac80 66be
00000300: 0e65 81bd ecd5 553e 321b a3bc 96ab 1a3d
00000310: d10f 383d a694 2b3e 6714 513e 22e1 873d
00000320: 82ab 113e 3ce6 0b3e 9abd c43d 49a8 603e
00000330: 7752 5a3d 9e8d 9b3d a879 3ebe da77 dcbd
00000340: 1bde 1d3d 814d 2cbe 109e aa3c b40d 2f3e
00000350: 9a71 eb3d 1ca8 843d a836 6abd 37a6 003e
00000360: 4141 0fbe f181 263d 91f8 8e3d 505f bdbd
00000370: 9af2 be3d 4028 623b 28e6 fbbc 5bea ff3d
00000380: 4e0b 51be c8b5 373d 9855 1b3e 5409 353d
00000390: 60b2 09be 1036 2cbe 43e2 41be 4071 8b3d
000003a0: 16d9 b1bd edaa 493e 4166 3bbe 2520 373e
000003b0: 0c6c 11be ef7b 733c 0e40 e13d cca8 0b3b
000003c0: c166 6d3d 55e0 c6bd cfce 223e c56f debd
000003d0: 1645 f63d e57e 14be 5cb3 a73d 1a27 c4bd
000003e0: 5540 1abe 0369 3fbe 6967 1dbc 5b54 293e
000003f0: 540b 2ebd 35b6 cf3c 5ca2 07bc 89c2 cfbd

target_model.0.bias f4 [64]
0.095438235 -0.16640311 0.039499532 0.023498688 0.044241704 0.04115294 0.12317369 0.11528876
-0.09440478 0.030828334 0.09415399 0.11229191 0.077117465 0.102759086 -0.055114478 -0.0103378035
0.007491433 0.0822511 -0.045446455 -0.07843943 0.113618344 -0.055097286 0.09222199 -0.08500876
-0.10004107 0.046700407 -0.014516455 -0.052284032 0.0948627 -0.13703406 0.061380297 0.025875406
-0.044581316 0.021510331 0.069561355 -0.058960862 0.16398981 -0.10378611 0.11555961 0.08701272
-0.05790626 -0.14971195 -0.14770295 -0.15757571 0.013007046 0.0051805316 -0.04787136 -0.04871633
-0.051394 -0.14216685 0.09320788 0.026988301 -0.018121863 -0.15378958 -0.019026201 0.027119488
0.11084019 0.058041837 0.06471457 0.0024008318 -0.015905956 0.07835701 -0.01949256 -0.01821315
00000000: 1f75 c33d 9465 2abe 43ca 213d 5280 c03c
00000010: ca36 353d fc8f 283d 7d42 fc3d 831c ec3d
00000020: 4b57 c1bd b48b fc3c cfd3 c03d 4df9 e53d
00000030: c3ef 9d3d 5b73 d23d b8bf 61bd e45f 29bc
00000040: b27a f53b 4473 a83d 1026 3abd daa4 a0bd
00000050: bcb0 e83d b1ad 61bd e2de bc3d 1319 aebd
00000060: 55e2 ccbd ed48 3f3d 6dd6 6dbc c827 56bd
00000070: 6047 c23d a852 0cbe e869 7b3d a9f8 d33c
00000080: e69a 36bd 6f36 b03c 2f76 8e3d f280 71bd
00000090: f2ec 273e d08d d4bd 84aa ec3d ba33 b23d
000000a0: 1d2f 6dbd 174e 19be 713f 17be 875b 21be
000000b0: 811b 553c 73c1 a93b c214 44bd c68a 47bd
000000c0: 8482 52bd 3094 11be c6e3 be3d 9216 dd3c
000000d0: 4d74 94bc 047b 1dbe d6dc 9bbc b029 de3c
000000e0: 2e00 e33d 47bd 6d3d 1389 843d 4657 1d3b
000000f0: 354d 82bc a479 a03d dcae 9fbc be33 95bc

target_model.2.weight f4 [16, 64]
-0.058687694 0.20119618 -0.23855641 -0.20021321 -0.10530789 0.23530543 0.23415893 0.14497645
0.12069909 0.26431388 0.101263754 -0.27017665 0.016201148 0.20171344 -0.016319692 0.21414348
-0.092426464 0.039741434 0.03887173 -0.073893525 -0.2763606 -0.3500361 -0.1676737 0.14548159
0.22220126 -0.106777124 -0.041353535 -0.06434591 0.1110009 -0.25438192 -0.056894474 -0.05412162
0.24414837 -0.23473442 -0.11645103 -0.21831004 0.19946933 -0.12529449 -0.059531625 -0.040600576
-0.16909787 0.24428254 0.13152558 -0.2102115 0.20160775 0.17365287 0.07151612 -8.246863e-05
-0.17097287 0.2724073 0.16426767 0.06130708 -0.19837967 -0.073434755 -0.08914648 0.121370286
0.046750482 -0.328201 0.28008842 0.18306881 -0.15018661 0.07201061 -0.21740063 0.15668164
-0.17075068 -0.2253441 -0.17021888 0.07425484 -0.25940773 0.16490014 -0.21987458 0.14167702
-0.10444161 -0.13307767 0.085861206 0.11934717 0.17810161 0.111448094 -0.08227581 0.24782158
-0.10064761 -0.40021837 -0.15307927 -0.067294255 0.039463073 -0.021328181 0.1465008 -0.19612983
-0.27029818 0.016485585 -0.0731396 0.24376088 0.18689357 -0.15237519 0.18855946 -0.13236094
-0.075858384 0.06363346 -0.13554649 -0.14011025 -0.20480485 -0.25677505 0.22791338 0.013714232
-0.4168598 -0.2036566 -0.22685492 -0.1973833 0.04246104 0.18283437 0.026418963 -0.17907804
-0.24834263 -0.06927707 -0.14842549 0.07598626 0.22794051 -0.3839789 0.2468865 0.12666553
0.23174351 -0.07900801 0.20702787 -0.21842904 -0.15777765 0.017315196 0.1786601 0.10945567
0.261604 0.26443756 -0.069202945 0.16607638 0.12843126 -0.3090847 -0.21498945 -0.14078148
-0.23387223 0.20899107 -0.043594588 0.10066251 0.15299477 0.12733617 -0.09621097 -0.023920089
-0.011638378 0.050936766 -0.033285763 0.11706811 -0.043125924 -0.12874484 -0.13010514 0.25387305
-0.16981359 -0.20922333 0.08559782 0.22886056 0.36181778 -0.37873054 -0.055489637 -0.15318948
0.10083836 -0.22239693 -0.124469325 -0.22632284 0.35161018 -0.18230897 0.072493315 -0.024188407
0.43798378 0.07025372 -0.13685301 0.08136171 -0.08328467 0.066977896 0.20903932 0.2224399
0.0070803445 -0.0013243794 0.03448531 0.21425454 -0.060523704 0.06549327 0.4450626 -0.009410828
0.005779817 -0.16900225 -0.1030139 0.03777282 -0.22204472 0.10680555 0.056466166 -0.24043353
-0.265337 -0.10297712 0.22957833 -0.015373249 0.36828893 0.16886063 -0.22810645 0.0491592
-0.21088472 0.22758685 0.1446956 0.1458883 0.03226109 -0.07889136 0.22834039 0.028112365
0.23339683 0.45758453 0.15018748 -0.04796398 0.19907957 0.20343232 -0.12565526 -0.2755295
-0.18984558 -0.07720342 -0.10843787 -0.09132005 0.062617354 0.040080473 -0.15396088 0.08382921
0.23774564 0.29601067 0.015950631 0.39151266 0.09751321 0.25322917 0.06903366 0.13522124
0.30955523 0.021067983 0.20276542 0.36923036 -0.19579734 -0.16274516 -0.18235296 0.15810858
0.2679595 0.15305136 0.19830695 -0.18160687 -0.23693132 0.25624964 -0.22855444 0.044897407
0.015486148 0.16816725 -0.048631534 -0.2520504 0.22396895 -0.032251213 -0.05041642 0.21564601
00000000: 8262 70bd 5f06 4e3e 2248 74be b104 4dbe
00000010: aaab d7bd e8f3 703e 5cc7 6f3e b574 143e
00000020: 1631 f73d 2654 873e 5f63 cf3d 9854 8abe
00000030: 45b8 843c f88d 4e3e e0b0 85bc 6e48 5b3e
00000040: 164a bdbd eac7 223d f737 1f3d 7d55 97bd
00000050: 237f 8dbe ef37 b3be a8b2 2bbe 20f9 143e
00000060: ba88 633e f7ad dabd 5362 29bd cac7 83bd
00000070: 7154 e33d 593e 82be 2e0a 69bd a2ae 5dbd
00000080: 0802 7a3e 385e 70be e17d eebd ab8c 5fbe
00000090: b041 4c3e 334d 00be 6fd7 73bd ca4c 26bd
000000a0: fe27 2dbe 3425 7a3e a4ae 063e af41 57be
000000b0: 4372 4e3e 0fd2 313e 0b77 923d 02f3 acb8
000000c0: 8313 2fbe f878 8b3e c935 283e 221d 7b3d
000000d0: 0a24 4bbe f664 96bd 6e92 b6bd fc90 f83d
000000e0: 6f7d 3f3d f609 a8be c067 8f3e 6476 3b3e
000000f0: 85ca 19be 4c7a 933d 459e 5ebe 2771 203e
00000100: 44d9 2ebe 9bc0 66be dc4d 2ebe ec12 983d
00000110: 17d1 84be 95db 283e cd26 61be c813 113e
00000120: 7ce5 d5bd 8345 08be 00d8 af3d 4a6c f43d
00000130: 4560 363e e63e e43d 3880 a8bd f1c4 7d3e
00000140: 5620 cebd 6ce9 ccbe d0c0 1cbe 92d1 89bd
00000150: 08a4 213d 70b8 aebc 4e04 163e 42d6 48be
00000160: 8664 8abe c70c 873c 37ca 95bd 749c 793e
00000170: 0761 3f3e 3e08 1cbe bb15 413e a089 07be
00000180: a45b 9bbd 4252 823d b3cc 0abe 1079 0fbe
00000190: 5db8 51be 0578 83be 2062 693e a8b1 603c
000001a0: a66e d5be 5b8b 50be a84c 68be d91e 4abe
000001b0: a1eb 2d3d ef38 3b3e 956c d83c 3c60 37be
000001c0: 884d 7ebe 23e1 8dbd dafc 17be af9e 9b3d
000001d0: 3d69 693e e298 c4be d1cf 7c3e 9cb4 013e
000001e0: 2c4e 6d3e f4ce a1bd 1dff 533e ddab 5fbe
000001f0: 7790 21be 99d8 8d3c acf2 363e 4b2a e03d
00000200: f6f0 853e 5c64 873e 46ba 8dbd ed0f 2a3e
00000210: 7c83 033e 5a40 9ebe 3226 5cbe 0529 10be
00000220: 347c 6fbe c101 563e 3d90 32bd 2528 ce3d
00000230: a9aa 1c3e 6a64 023e 420a c5bd 10f4 c3bc
00000240: e5ae 3ebc 12a3 503d a756 08bd 68c1 ef3d
00000250: cfa4 30bd b0d5 03be 483a 05be a6fb 813e
00000260: 9de3 2dbe a43e 56be e94d af3d 6c5a 6a3e
00000270: 2e40 b93e f8e8 c1be 1a49 63bd b4dd 1cbe
00000280: 5884 ce3d 05bc 63be c6e9 febd 2dc1 67be
00000290: 4006 b43e 34af 3abe 6077 943d c426 c6bc
000002a0: 693f e03e 2fe1 8f3d 3223 0cbe f8a0 a63d
000002b0: 2791 aabd b52b 893d 670e 563e 49c7 633e
000002c0: 3c02 e83b cc96 adba 7840 0d3d 8b65 5b3e
000002d0: b4e7 77bd 5621 863d 3fdf e33e e02f 1abc
000002e0: 9e64 bd3b ed0e 2dbe f4f8 d2bd acb7 1a3d
000002f0: b15f 63be debc da3d 1149 673d 3534 76be
00000300: 40da 87be abe5 d2bd 9516 6b3e 14e0 7bbc
00000310: 5e90 bc3e cde9 2c3e bd94 69be 285b 493d
00000320: 2af2 57be 870c 693e 152b 143e be63 153e
00000330: 3424 043d cb91 a1bd 10d2 693e e74b e63c
00000340: 94ff 6e3e 8548 ea3e bfca 193e e175 44bd
00000350: 84db 4b3e 9050 503e c6ab 00be 3412 8dbe
00000360: e166 42be d41c 9ebd ad14 debd 0206 bbbd
00000370: 873d 803d 6c2b 243d eca7 1dbe a6ae ab3d
00000380: 9873 733e b68e 973e e6aa 823c 5974 c83e
00000390: 01b5 c73d 41a7 813e 8561 8d3d 7077 0a3e
000003a0: 067e 9e3e c396 ac3c bda1 4f3e c30b bd3e
000003b0: 197f 48be aba6 26be bcba 3abe 37e7 213e
000003c0: fd31 893e 7fb9 1c3e fa10 4b3e 27f7 39be
000003d0: 209e 72be 2733 833e 2d0a 6abe 58e6 373d
000003e0: 9db9 7d3c 0934 2c3e dc31 47bd c00c 81be
000003f0: 1e58 653e d919 04bd 7381 4ebd 4fd2 5c3e

target_model.2.bias f4 [16]
-0.055668358 -0.03636793 0.15325092 0.039665353 -0.08902611 -0.04990934 0.13744947 0.035123307
-0.09608442 -0.117351644 0.05080397 -0.006462732 0.026339058 -0.10215594 0.14230038 -0.040628016
00000000: 8104 64bd 8af6 14bd cfed 1c3e 2378 223d
00000010: 5253 b6bd bc6d 4cbd 8ebf 0c3e 75dd 0f3d
00000020: e9c7 c4bd 0f56 f0bd d317 503d 53c5 d3bb
00000030: 02c5 d73c 2237 d1bd 31b7 113e 9069 26bd

target_model.4.weight f4 [2, 16]
0.27583444 0.16543509 -0.5230882 -0.52248996 -0.0628876 0.27627707 -0.26136178 -0.3819247
-0.292261 0.3607002 -0.4670647 0.4418612 0.20959851 0.026065648 -0.04600273 -0.35887706
0.04631273 0.20532604 0.38545552 0.2619505 0.23409095 0.27236527 -0.04733146 -0.01914919
0.44262537 -0.4514896 -0.40719208 -0.38158226 0.15115426 0.45732677 0.528617 -0.22540385
00000000: 2c3a 8d3e d167 293e 1ce9 05bf e7c1 05bf
00000010: 37cb 80bd 3074 8d3e 36d1 85be a28b c3be
00000020: 3ca3 95be b2ad b83e 1b23 efbe a23b e23e
00000030: fea0 563e a087 d53c 5c6d 3cbd bcbe b7be
00000040: 6bb2 3d3d fd40 523e 6d5a c53e 601e 863e
00000050: 8ab5 6f3e 7673 8b3e a2de 41bd c3de 9cbc
00000060: cb9f e23e a529 e7be 7b7b d0be c05e c3be
00000070: 2fc8 1a3e bc26 ea3e 7253 073f 44d0 66be

target_model.4.bias f4 [2]
-0.12152926 -0.08023898
00000000: 55e4 f8bd 5654 a4bd
