Pytorch_DRL/HNRN/models/backup/4.4_test/best_ca_critic.model (torch_old, 225090 bytes, 9 tensors)

sensor_model.0.weight f4 [128, 360]
00000000: 6dd7 bdbb 5436 bcbd c7d4 afbd 73b8 593b
00000010: 679e ea3c 29bb ccbb d5b2 a4bc d993 c43c
00000020: 9df7 babc fed0 df3c b3be 05bd d082 02bd
00000030: 5569 7abc e591 b3bd b51e c83d 44e7 8b3d
00000040: 8b7e f23d 2a69 8a3d 6f79 7cbc 34eb 3fbd
00000050: cc55 2dbd 107b 3cbd 9fc4 ad3d c8f4 13bd
00000060: b050 253d 48b2 babd 481b cebc d5b3 c1bd
00000070: 950d 803d d499 53bc 965a 7f3d c9c6 d23d
00000080: eed4 b83d b2ba cfbc 151b 90bd a456 7bbc
00000090: f96e 4b3d a5dc cd3c 98fc 023d c9b3 0e3d
000000a0: 579f 7abc 4b38 7e3d 1188 d0bc 241e 01bd
000000b0: 831a 053d 4f66 093c c760 573c f95e 8fbd
000000c0: 89d7 8cbd 15e9 54bd d2ab cd3d 1d74 2dbd
000000d0: 5546 21bd 4dbc dd3d 333a ad3c 21e0 8b3d
000000e0: 8690 52bd 2057 883d cd94 453c 31e2 b23d
000000f0: e2d7 a0bd c8c5 823d 77a4 a3bd 54b3 933d
00000100: 9e34 4fbd 6437 d3bc 9695 ad3d a6af 9ebd
00000110: 48e4 91bd de1c 90bc 8c24 b73d 9c87 87b8
00000120: de0c 8c3d 4407 5ebd c566 5e3d fa8f 813c
00000130: 55ae d93d 20f7 3dbd 0834 81bd 5639 303c
00000140: 77dc 423d dfb2 c1bc b37b 3dbd c1b0 bbbd
00000150: f094 66bd 41e6 5cbc 83e9 db3d 40ab 943d
00000160: a447 cc3d 04a5 473d 61d6 943d 4c9f 703d
00000170: dacf e8bb fdad 4bbc 01eb 823d 4ff9 02bd
00000180: 8411 823d 7947 d13d 973e 863d 6f5d b9bd
00000190: 295e a43c 1477 c7bc c075 3abd 1d0a 8b3d
000001a0: 3fe4 263d 1d04 df3c f110 553c 54da a3bd
000001b0: 3e09 edbd 763e a73d 29f2 8e3d ed55 a8bc
000001c0: e24c 1a3d 7a33 453d 7987 d1bb e19c 563d
000001d0: 9e1a e8bb 8fe6 123e 33a7 ddbc 9098 553d
000001e0: 19d3 5b3d 7040 a4bd b5e2 aabc 91ae d03d
000001f0: b54c 77bd efcf 5abd 4937 503d 60c5 203d
00000200: 6832 a63d ce42 173d b5d6 263d e20a 9ebd
00000210: e32e a23d d32a 61bc a280 ecbc d16b ccbd
00000220: e6b0 083e ff78 083b eadd a43d f010 bebd
00000230: 1e98 bfbc f39a d63d c4fe 2b3d db98 02bd
00000240: 8c14 ae3d f2a1 ffbc ab4e 123c 87ce 8ebd
00000250: 2f8f 503d ed6b 0ebd 4740 a8bd fc4e 1e3c
00000260: 2a3b 04bd 79bd 2ebd e790 ce3d 36e2 98bd
00000270: 015e c33d 456e a0bd c77b 5e3a b408 9b3d
00000280: c5b3 c53b 2929 a7bd 8808 eabc 13bf c2bc
00000290: de5a 393d b5c8 a93d e33c 073e 3eca 0a3d
000002a0: b184 56bd fb66 c1bc a531 483d 0cb8 80bc
000002b0: e0d2 90bd 0202 963d 68e5 ae3c 23c2 b9bd
000002c0: d935 9e3d 0f4f cbbc 9b6c 2d3d 53bd f33d
000002d0: 19b3 ffbc 6c18 4a3c a419 193d d7fb 603d
000002e0: bae6 5ebd 06a8 a5bd e25c 323d baab 533c
000002f0: 7469 80bc 9b51 afbd d94a 223d bd24 9b3d
00000300: cce6 623d 5187 8ebd f88a 183d 07de c43c
00000310: 350a ab3d 3006 e8bc c00d 193d 4212 57bd
00000320: dc09 ec3d e75a 3abd 2bcc 9d3d e831 913c
00000330: 1963 8abd afa2 9bbd 9433 933d 3568 75bd
00000340: 6738 dabc 5319 5f3d de45 9d3d a3d9 e73d
00000350: 2325 403c 0127 ce3d b3c5 0abd b173 cbbd
00000360: 5957 f93b 24fa bbbc 3ff4 02bd 5a4f dc3d
00000370: 2f8e 2fbd ee88 bb3d 1816 0a3d e496 8abc
00000380: 858f 31bc 723d d53d d132 32bd 1d0c c63d
00000390: caa9 80bc 676e 8e3d 8fe2 a13d ca30 c4bd
000003a0: 77a2 803d c122 d5bb 89b7 5d3c f8c0 47bc
000003b0: 01da 5dbd 3cd7 863d 5562 b03d 3b33 69bd
000003c0: 1e83 153d f584 e03c 4e81 3fbd 380b 6abd
000003d0: bff5 08bd 82ef 85bd 0d22 4b3c bfdd 62bd
000003e0: 0462 f93d 2dec cf3c 4e67 ff3c 1dc9 bb3c
000003f0: 892a cd3d 3534 32bd 493a 373d 9044 86bd
-0.005793503 -0.0919005 -0.08585506 0.0033221513 0.028639985 -0.006247897 -0.020104805 0.02399628
-0.02282315 0.027321335 -0.032652568 -0.031863034 -0.015283902 -0.087680615 0.09771482 0.0683122
0.118405424 0.0675834 -0.015409811 -0.046855167 -0.04231815 -0.0460158 0.08484768 -0.036122113
0.040360153 -0.09116036 -0.025159493 -0.09458128 0.062525906 -0.012915093 0.06234225 0.102918215
0.09024988 -0.025357578 -0.070364155 -0.015340481 0.04966638 0.025129626 0.031979173 0.034839425
-0.015296779 0.062065404 -0.025455507 -0.031522885 0.032495987 0.008386209 0.013145632 -0.070005365
-0.068770476 -0.051980097 0.10042538 -0.042347062 -0.039373714 0.10826931 0.021145916 0.068298586
-0.05140736 0.06657243 0.012059403 0.08734549 -0.078536764 0.0638538 -0.079903536 0.072119385
-0.05058729 -0.025783248 0.08475797 -0.07748346 -0.07123619 -0.01759189 0.08942518 -6.462561e-05
0.06838392 -0.054206148 0.054297227 0.015815724 0.10628954 -0.046378255 -0.06308752 0.010755857
0.047573533 -0.023644863 -0.046260547 -0.091645725 -0.05629438 -0.013482631 0.10737898 0.07259226
0.09974602 0.048741356 0.07267452 0.058745667 -0.007104856 -0.012431619 0.0639248 -0.03197604
0.06350997 0.102187105 0.06554907 -0.09051024 0.02006443 -0.024348773 -0.04552245 0.06789038
0.040745016 0.027223641 0.013004527 -0.08000627 -0.115740284 0.0816621 0.06979782 -0.020548785
0.037670977 0.048144795 -0.0063943234 0.052395705 -0.007083251 0.14345764 -0.027057266 0.052147448
0.053668115 -0.08020103 -0.020860055 0.10189546 -0.060375888 -0.053420957 0.050833974 0.03925073
0.08115083 0.036928944 0.040732104 -0.077169195 0.07919099 -0.01374312 -0.02886993 -0.09981502
0.13348731 0.0020824072 0.08050139 -0.09280574 -0.023387965 0.10478773 0.04199101 -0.031884056
0.08500013 -0.031205151 0.008929889 -0.06972986 0.0509178 -0.034770895 -0.08215385 0.009662386
-0.032282986 -0.042661164 0.10086232 -0.07465021 0.09539414 -0.07833532 0.0008487072 0.07570019
0.006033393 -0.081621476 -0.028568521 -0.023772752 0.045252673 0.08290235 0.1320682 0.03388428
-0.052372638 -0.023608675 0.04887547 -0.01571276 -0.07071471 0.07324602 0.021349624 -0.09070232
0.077251144 -0.024817972 0.042339902 0.11901345 -0.03121333 0.012334924 0.03737797 0.054927673
-0.054419257 -0.080886886 0.04354561 0.012919361 -0.015675284 -0.08560487 0.03962216 0.07575367
0.055395886 -0.06959403 0.037241906 0.024031652 0.08351556 -0.028323263 0.03736663 -0.052507646
0.11525318 -0.045496847 0.077049576 0.017723992 -0.06757183 -0.07599389 0.07187572 -0.059913833
-0.026638223 0.05446751 0.07679342 0.11320808 0.011727604 0.10066033 -0.033879947 -0.09934176
0.0076092896 -0.022946425 -0.031971212 0.107573226 -0.042860206 0.09156977 0.033712476 -0.016917653
-0.01083744 0.104121104 -0.043505494 0.09670279 -0.015705962 0.06954651 0.07904541 -0.09579618
0.06280988 -0.006504387 0.013532528 -0.012192003 -0.054162983 0.065840214 0.08612505 -0.056933623
0.036501996 0.027407149 -0.046754174 -0.057139605 -0.033437487 -0.06539823 0.012398255 -0.055387255
0.12176898 0.025381172 0.03117719 0.022923047 0.100178786 -0.04350682 0.04473332 -0.06556046

sensor_model.0.bias f4 [128]
00000000: 4a82 713e f96c 8fbd 0109 74bd 7659 72bd
00000010: b242 0cbc bb5a 663b ba2d 3abd f9ea 19bd
00000020: fe83 88bd 4b36 f1bb dd80 cdbc 4f52 cabc
00000030: b785 26bd 758a 15bd 462e 6cbd 6e75 b4bc
00000040: 3b38 45bd 295d 4ebd 1a63 3a3e c290 e2bc
00000050: 6f1c 00bd 4bce dabc 0fc3 5dbd 9ccc 4bba
00000060: 6dd1 25bd d47a 66bd 866a 7abd 2040 24bc
00000070: 3a0f 85bd 669c 05bd 824a b33c 721c a23d
00000080: 2199 b4bb 3c8c 16bd a085 13bb e952 2bbd
00000090: ea6b 8dbd 1cf5 9f3b fb9d 05bd b752 c7bc
000000a0: d643 2fbc 208b 30bd 5042 9dbd 6b06 06bd
000000b0: eff3 91bd ed58 543c 0bb7 94bd 8f97 b6bc
000000c0: 49d1 7cbd eaf0 66bd 9256 2fbc 004f 85bb
000000d0: 60e1 15bd 52a0 50bc f0f3 2bbb 2db7 383d
000000e0: e62c 23bd bd0f 82bc 914f bdbc 7820 bdbc
000000f0: 1aa2 16bd 2e75 56bc 466c 83bd 32d3 19bd
00000100: 922a afbb 08dc b5bb 71ad 42bb bc61 21bd
00000110: a518 003e 6a1e 8c3d c695 32bd b6f1 11bd
00000120: a3e8 afbc 447f 0cbd 1a65 883e f0cb b2bc
00000130: 1b47 14bd 3fb2 3fbd 26e2 a9bb df75 f9bb
00000140: 01fe 17bc b484 1c3e 61ae 60bd 61e7 94bd
00000150: fd77 9bbd 93b7 f8bb 3b60 22bd f0dd 9a3d
00000160: 4ce2 f2bc aa9f 3abb 3e04 5fbd 8782 43bd
00000170: 3e7e 313e 5414 f1bc 9df3 30bd 2630 67bd
00000180: f585 b4bc 8d57 e4ba ed09 cbbc 0c8e 97bd
00000190: a6bc 283e e154 0bbd 1c37 66bd f54a 78bd
000001a0: 95cd 4cba 5bb9 d3bd 87b7 093d f77f 27bd
000001b0: a4af 2ebc feaf 74bc b51c 23bc f5bf 46bb
000001c0: e923 86bd 4126 2f3e 80b9 d4bc e557 443e
000001d0: a2f4 c53d d573 d4bc a364 a2bc f4d1 533d
000001e0: 270d 7dbd 7e6e 2abd 28aa d1bc 12ef 2ebd
000001f0: e8a7 02bd 723e abbc 60a7 973e 3ba4 a6bc
0.23584858 -0.07003207 -0.0595789 -0.059167348 -0.008560823 0.0035149294 -0.045453764 -0.037577603
-0.066658005 -0.0073612086 -0.02508586 -0.02469745 -0.040654864 -0.036508996 -0.057661317 -0.022028651
-0.04814933 -0.050381813 0.18201867 -0.027656917 -0.031277116 -0.026709696 -0.0541411 -0.00077743246
-0.040482927 -0.05626948 -0.061136745 -0.010025054 -0.06497045 -0.032619856 0.021886114 0.07915582
-0.0055114185 -0.03675483 -0.0022510067 -0.041827116 -0.069053486 0.0048815142 -0.032621365 -0.024331434
-0.010697326 -0.04310143 -0.07678664 -0.032720964 -0.07126605 0.012960655 -0.07261475 -0.022289066
-0.061723027 -0.056382097 -0.010701792 -0.0040682554 -0.036591887 -0.012733536 -0.0026237927 0.045096565
-0.03983774 -0.015876645 -0.02310923 -0.023086771 -0.036775686 -0.013089461 -0.06417136 -0.037554927
-0.005345651 -0.0055499114 -0.002970543 -0.039399847 0.12509401 0.068417385 -0.043599866 -0.035630904
-0.021473235 -0.034301057 0.26639634 -0.02182576 -0.036200624 -0.046800848 -0.0051844297 -0.0076129283
-0.009276868 0.15284997 -0.0548538 -0.072706945 -0.07591245 -0.007590243 -0.039642554 0.075618625
-0.029648922 -0.0028476515 -0.054447405 -0.047731902 0.17333314 -0.029428639 -0.043201078 -0.056442402
-0.022036532 -0.0017421112 -0.024785006 -0.0740014 0.16478214 -0.034016494 -0.0562049 -0.06061836
-0.00078126165 -0.10338088 0.03362229 -0.04089352 -0.010661993 -0.014934538 -0.009955575 -0.0030326818
-0.06549818 0.17104436 -0.02596736 0.19174154 0.09665801 -0.02593414 -0.019823378 0.0517139
-0.06178012 -0.04160928 -0.025593832 -0.042708464 -0.03189841 -0.0209038 0.29619884 -0.020341983

sensor_model.2.weight f4 [64, 128]
00000000: d922 36be d332 77bc f0c2 303e 1973 23be
00000010: 5af8 1abd 9eb0 7d3c 2193 e23d 08f3 b13c
00000020: 40c9 e13d ed76 5c3d bd96 303e dd17 bf3d
00000030: 494d 8abd 330c acbc ff94 85bc 0b0f a3bc
00000040: a42a ed3d f7dd 553d ee75 123e ae2c b93d
00000050: 8e5a 1d3d 8e69 8bbd a255 02be 43eb 5cbd
00000060: 7ce6 1e3e 4576 d1bc 58fa 323d 5440 893a
00000070: b889 1cbe 7892 773d fa7d 6dbc 6af8 2d3d
00000080: d92f 30be f9b4 39be ccae 323d 11dc debd
00000090: 1546 fa3c 8829 633d 9033 0abe 09e2 c9bd
000000a0: ca6d e63a e29e 173e 732a d03d 80b0 a93d
000000b0: c73d ef3c 6a1a fcbd 116e acbd 96c7 ba3d
000000c0: 7c56 18be ae15 dfbd 48b9 37be 19d6 2abe
000000d0: d8b5 2bbe 75e3 bfbd ed7c 163e 507f d93d
000000e0: 7be3 04be 4a23 bfbd 280e 8fbb 8f47 b83d
000000f0: 1281 b7bd 7726 e1bd f301 913d 84e9 16be
00000100: 1094 003e d99c 21be 856b a3ba 1f9d 973d
00000110: 2cea 813b 118f 113e 0ae1 213e 9372 573d
00000120: 1319 87bb fa4e 1bbd 4104 d03c a8a2 5abc
00000130: 7c1e 71bd b68b 7a3d 2446 943d 5d05 2bbe
00000140: 51d9 23be 089f 26be 69f1 1dbe 8894 733d
00000150: ec8d 7f3d d12a b638 e86f c13d 9920 263e
00000160: ec5d 7dbd e1ad 993d 061d f33d 9775 3a3e
00000170: ef7d c53d 058a 893d 79f8 babc 3f2f 9b3d
00000180: 1b45 84bd d9d0 b7bd 73d6 a4bd 8588 1ebd
00000190: d828 093e 7a40 b6bd 587e 81bd cbe9 073e
000001a0: 2a6b ba3d a8a6 f8bd ee92 f5bd 2f8e 39bd
000001b0: c3ef 073e b461 efbc 8577 7f3d c55d 413b
000001c0: b4e8 a2bc 36cb 2bbe 6db8 3a3d e12b 0abd
000001d0: f705 173e 7d9b e73c a1a4 9e3d b3e3 e4bd
000001e0: a1d7 b03c e395 513d 65ce dbbd cd8c 113e
000001f0: 59d6 cabd 7ec6 493e 300c bb3d 043a a33d
00000200: 80d6 7b3d 9093 85bd 5063 103e cae1 173e
00000210: b783 b0bd 04f7 cbbd 8b82 6d3d 9908 8d3c
00000220: d6d8 afbd 1e4c 053d 282d 0c3e 2232 cbbd
00000230: 6d0f 83bc 4930 a43d e209 073d 56f3 93bd
00000240: b610 9e3d ed29 443d 97d3 293e a2bc 93bd
00000250: 7fdf 86bd 0e28 dfbc fd1c 9cbd 6569 9e3d
00000260: a616 553d 914f b03d af25 38bd 72ad bd3d
00000270: e551 c6bd 79e7 8abd c76f 04be fd08 dd3d
00000280: 8fed 2abd 0e86 d13d b07e b03d 3828 b3bc
00000290: aa07 a73d 76af 673d 7282 fabd 8f78 303d
000002a0: 7c36 b43d 7060 1abd d78b 57bd c2ab 9abd
000002b0: 74ff 473d ab8c 8d3d 290c da3c f459 5cbc
000002c0: acfa 99bc d142 c43d c091 033c 2dbb 0dbe
000002d0: a5d9 fcbc b105 0fbe 041b 093e 7054 3cbc
000002e0: dea2 91bd 09ab 0fbe 6d62 8abd c776 24bd
000002f0: 43ea f2bc 5426 e03a c501 d43d 188f 903d
00000300: 1960 043e 0d8f 0ebe 66b9 5fbd 1d5b d9bc
00000310: f16b fe3d 15ef a5bc 3496 1d3d 6c05 6dbd
00000320: f5a8 9c3d 3bbd 013e 477f df3d f265 babc
00000330: 6b78 1e3e c942 bc3d c4fb ec3d 82c4 3a3e
00000340: 2791 e2bd 349f d03d 1f1c a9bc 95fe a2bc
00000350: 2dd7 b2bd 80cc 163e ed69 033a 4fe7 0b3e
00000360: 821b 293e 1484 38bd f3a4 efbd 722c a33d
00000370: fb34 b23e 5536 a6bd 488a a33d 738b 2abe
00000380: 9c20 9e3d 9da9 05be bcfa 1cbd fe59 143c
00000390: 48f7 c43d 5a31 283e 17da fd3d e5f3 453d
000003a0: 4e03 ff3d f805 a53d a917 51bd 1a12 b1bc
000003b0: e697 893d 3f2d b3bb 6f45 b9bd 703d 1e3d
000003c0: d822 eabc 8074 0a3e dae5 ee3d 866a a33e
000003d0: dcc3 e73d 3a75 c8bd 080b 173e d5d9 cc3d
000003e0: 4b84 5e3d 9860 28be 5917 c1bd ca13 c53c
000003f0: 882e d4bd 50f8 843e 1453 173e ae9d ff3d
-0.17786731 -0.015087801 0.17261863 -0.15961875 -0.037834503 0.015484003 0.11063219 0.021722332
0.110247135 0.053824354 0.17245002 0.093307234 -0.06753022 -0.02100191 -0.016306398 -0.019904634
0.11580399 0.052213635 0.14302799 0.09041725 0.038416438 -0.06807242 -0.12727979 -0.0539353
0.1551761 -0.02556909 0.043695778 0.0010471442 -0.1528691 0.060442418 -0.014495367 0.042473234
-0.17205752 -0.18135442 0.04362373 -0.10881818 0.030550996 0.05545953 -0.13496232 -0.09857566
0.0017580327 0.14806703 0.101643465 0.08285618 0.029204262 -0.123097256 -0.08419431 0.09120099
-0.14876741 -0.10892807 -0.17941773 -0.16683234 -0.16768587 -0.09369556 0.14696093 0.10619986
-0.12977402 -0.09332903 -0.004365701 0.08998024 -0.08960165 -0.10993665 0.0708045 -0.14737517
0.12556481 -0.15782489 -0.0012467956 0.07403015 0.003964683 0.14214732 0.15808502 0.0525995
-0.004122862 -0.037917115 0.025392653 -0.013344444 -0.058866963 0.061168395 0.07239941 -0.16701265
-0.16000868 -0.16271603 -0.15424122 0.059467822 0.062391207 8.6864115e-05 0.094451725 0.16223373
-0.06185715 0.07503868 0.1187077 0.1820892 0.096431606 0.06715778 -0.02282356 0.07577371
-0.06458493 -0.089753814 -0.080487154 -0.038704414 0.13394487 -0.08899017 -0.06322926 0.13272779
0.09102471 -0.12141162 -0.11990915 -0.045301612 0.13275056 -0.029221393 0.062369842 0.0029505354
-0.019886352 -0.16776738 0.04558604 -0.033733252 0.14748369 0.028272385 0.07746244 -0.11176243
0.021587195 0.051168334 -0.10732726 0.14213867 -0.09904165 0.19704625 0.09133184 0.0797005
0.06148386 -0.06522286 0.14100385 0.14832225 -0.086188726 -0.09959224 0.057985824 0.017216014
-0.0858628 0.032543294 0.136891 -0.099216715 -0.015998567 0.08017022 0.03296841 -0.07224147
0.07718031 0.047891546 0.16584621 -0.07213713 -0.06585597 -0.02724078 -0.076227166 0.07734946
0.052023552 0.08608926 -0.044957813 0.09261598 -0.09683589 -0.06782431 -0.12933265 0.1079273
-0.04173046 0.10230647 0.08617914 -0.021869764 0.08155759 0.056563817 -0.12231912 0.043083724
0.087994546 -0.037689626 -0.052623596 -0.075522915 0.048827603 0.06911596 0.026617127 -0.013449181
-0.018796287 0.09583057 0.008030355 -0.13840933 -0.0308655 -0.13967015 0.13389212 -0.011494741
-0.071111426 -0.14030088 -0.067570545 -0.040152337 -0.02965272 0.0017101266 0.103519 0.07058543
0.12927283 -0.13921757 -0.05462017 -0.026532704 0.12422932 -0.020255605 0.038473323 -0.0578665
0.076494135 0.12669842 0.10912948 -0.02275369 0.15475623 0.09192426 0.11571458 0.18239024
-0.11062842 0.101866156 -0.020643292 -0.019896785 -0.08732448 0.14726448 0.00050130376 0.13662456
0.165144 -0.045047835 -0.117013834 0.07967462 0.34806046 -0.08115832 0.079853594 -0.16654758
0.077210635 -0.13052984 -0.038325056 0.009054659 0.09617478 0.16425076 0.12395113 0.0483283
0.12451802 0.08057779 -0.051047955 -0.021615077 0.067184255 -0.0054680402 -0.090464465 0.03863281
-0.028581068 0.13521004 0.116649345 0.31917208 0.11316654 -0.09787984 0.14750302 0.10002486
0.054325383 -0.16443098 -0.09428281 0.024057288 -0.10360438 0.25970697 0.14777786 0.12481247

sensor_model.2.bias f4 [64]
00000000: aff2 d3bd b786 c93d f62d debd 5c97 06bd
00000010: 0fd8 a03e b8ca a63d 50a3 bfbd cadf 2fbd
00000020: 2e02 cabd 5c1d 8f3d b24e e6bc a1a2 4c3e
00000030: b8ec c73e 2aff 6dbd 7bde fe3d 8d3e 7dbc
00000040: 8855 8bbd 2c47 413c 1e93 b13e c958 c53d
00000050: c367 93bd b3f2 c5bd bfc3 283c 6d48 063f
00000060: 9b8d 82bd ff7a 9b3d 0f82 5a3e 0e1e 45bc
00000070: 0348 00bc 0789 06bc 0676 853a f26f aabd
00000080: 9973 59bd 0a77 62bd d20b b5bd af79 dd3e
00000090: 69bc 54bd d140 dc3d c340 b2bd 5d50 46bd
000000a0: cb17 373d f1f5 da3e d23c b9bd f303 ccbd
000000b0: f8ed c1bd 2f35 30bc 5ba4 a3bb 0805 cd3c
000000c0: 013d eb3e 0c29 14bd d356 cebd 7803 73bd
000000d0: be3c 913e dec9 0f3f 1539 083f f318 0d3f
000000e0: 8222 23bd f17e 04be e918 e0bb 9d34 4dbd
000000f0: 8dd5 593c e966 423d c422 f43e b46b 64bd
-0.103490226 0.09840148 -0.1084861 -0.03285919 0.3141484 0.08144134 -0.09357321 -0.04293803
-0.09863697 0.06988022 -0.028113697 0.19983913 0.3904779 -0.05810467 0.124447785 -0.015456808
-0.06803423 0.011796754 0.34682554 0.09636075 -0.07197525 -0.09665432 0.010300576 0.5245426
-0.06374665 0.07591819 0.21338676 -0.012031091 -0.007829669 -0.008211381 0.0010182268 -0.08322133
-0.05308876 -0.055289306 -0.08840145 0.432569 -0.051937494 0.1075455 -0.087037586 -0.048416484
0.044700425 0.42765763 -0.09044804 -0.09961691 -0.09469217 -0.010754867 -0.004993958 0.025026813
0.4594498 -0.036171958 -0.10075154 -0.05932948 0.28366655 0.561674 0.532121 0.55116194
-0.03982783 -0.1293905 -0.006838907 -0.050099004 0.013295543 0.047461424 0.47682774 -0.055766776

target_model.0.weight f4 [16, 66]
00000000: 5efe f03d b17b 42be c0d0 1fbe 3b6c 52bc
00000010: 885a fb3d 0f95 0dbe cdd8 e73d 5d72 06be
00000020: bc59 1abe ee1d 57be b387 623e a5f5 9a3e
00000030: 313c 9abe e2e2 01be 9d93 8f3e d1bc 89bd
00000040: 4289 373e 645b 063e b49f 66bd 0f47 96be
00000050: 3b42 17be 1b57 2ebe cee7 3d3e 0b51 50be
00000060: ac26 7cbd cb29 8ebe d8af 7e3e 11f3 4b3d
00000070: 3ace ba3d d863 8ebd fa62 0e3e ab02 883e
00000080: ba18 1cbc 764f 2d3e 2fda 833e fd6a e73d
00000090: 0637 2d3e e35b 863e 286b 85bd 3450 023e
000000a0: 6b7a 423e bcbb a2be e7d4 623d 4228 0dbe
000000b0: 60b3 863d c697 74be a52e 2b3e 1afa 89be
000000c0: cba0 4ebe 9153 7e3e 8cef fcbd 86b0 58be
000000d0: a17c ec3d 7354 33bd e872 1dbe 54af abbe
000000e0: f0fd 8f3d db9b 43be c6c2 873e 8623 f9bd
000000f0: 140f 0b3e bd8c b9bd 8225 3c3d 9834 07be
00000100: a73c df3d e090 0e3c 70c3 c6bd 00ac 47bc
00000110: ba1a 19be 38d4 85be ee5b 83be f0ec 133d
00000120: e81d bc3d ce13 4d3e e05a dabd c0ea 213d
00000130: d600 023e 0093 88bb 7def f2bd f39b 88be
00000140: 26da 65be b37a f13c 7cff 483e 8ba4 2c3e
00000150: 7a43 8cbd ae29 6a3e f8e0 043d 0033 753e
00000160: e23d b6bc 0cae 89be d248 d3bd d470 80bd
00000170: 42ce 9ebd cfd7 37be ed51 0dbd 263e 25be
00000180: b990 1f3e 6ca7 f1bd 6e9f 03be 5824 17bd
00000190: 708d 3b3e 9ac5 2c3e 409e 303e fbdb 14be
000001a0: 5451 8dbd 4aae 4b3e 7679 63be bf85 fcbc
000001b0: 706e e23d aa13 893e cc0b 6ebd 5fc4 62bd
000001c0: d05f 4dbd 3d29 62be e271 51be ac28 3bbd
000001d0: f0a9 fa3d 7364 70be 600e a93c f811 5dbd
000001e0: 77d6 383c 71d0 51be 58ca 0b3e a080 eb3c
000001f0: 2dfd 663d 22ee 3a3e ca72 26be bf2c d2bd
00000200: 5b79 0fbe 96d3 1a3e 2a42 45bd 5a19 7b3d
00000210: 8e04 d8bd 575c 253e 0949 3a3e d72f b8bd
00000220: b6d1 043c 319b 8b3d 2816 2bbe f5b4 8ebd
00000230: bdec df3d 2313 3c3e 1d00 433e b79e 173e
00000240: bb74 66bb d67f 423e 2a77 9d3d c918 61be
00000250: c1df ea3d 9490 6dbe 47b7 5cbe ec44 4fbe
00000260: 04ea 7abe b20e b83d 0f3c d2bb 7208 11be
00000270: eb73 b13d 5f80 b9bd 8e20 8d3d e69e 033d
00000280: be85 a03d ad43 6a3d 5944 0e3e cbc5 9dbd
00000290: b126 9dbd ce92 1f3e 299e 9bbc 85ba fa3d
000002a0: 5559 bfbb d57b 78be 5d32 193e acd8 faba
000002b0: a7e0 323e 949e 713e 9491 de3d 689d 2d3d
000002c0: d5d9 8ebd d6bd 933d c894 2dbc a835 ab3c
000002d0: de18 56be eed8 3c3e 6df7 e33c 6b78 68be
000002e0: 9ac8 f53b b20a 783a 7ba8 50be e6fb 38be
000002f0: 2f0c efbb 41a2 183e 0747 853e 9745 453b
00000300: bad5 c03d 369b 6d3e bd7c 443e cef7 553c
00000310: b0d0 79bf a997 f7ba b435 a3bd 947b 14bd
00000320: 187d c1bd b002 673e c7c2 2b3e 122f 893c
00000330: 86b6 3b3e 6288 c33c a532 8a3d f061 8ebc
00000340: 2bc1 03be 001f 58be fdb0 73be 6145 023e
00000350: d5f5 923b 5c94 d83d 46db 65bd ab2a 143e
00000360: 8328 653c fbcd 243e f105 42be e28b 35bd
00000370: 5662 833e 1bce 0abe 119b 6abe 9a3c ccbd
00000380: a040 a13e 4cbc 3e3e 28e9 7e3e 55b8 dcbd
00000390: 4e28 5fbe 5c75 6f3d 7458 a13d 8338 5abe
000003a0: 17a9 3cbd 767c 0cbd 47c7 70be d934 7dbd
000003b0: 2fc3 36be e7fb 3a3e 208c 16be a21c 463e
000003c0: a745 a13d 1a02 0fbc 7145 33be f268 653e
000003d0: 25ee 7abd f954 563e 2972 c73d 262d d7bc
000003e0: f8b6 55bd ab43 5bbe a63e 17be df3f 203e
000003f0: b076 9dbc 6e09 143e 198c 37be 6b80 14bd
0.11767267 -0.18992497 -0.15606976 -0.012843187 0.12273127 -0.13826393 0.11320648 -0.13129564
-0.15073293 -0.21007511 0.22122078 0.30265537 -0.30124047 -0.12684205 0.28042307 -0.06725467
0.17923453 0.131208 -0.05630465 -0.29351088 -0.14771359 -0.17025416 0.18545458 -0.20343415
-0.061560318 -0.2776626 0.24871767 0.049792353 0.09121366 -0.069526374 0.13904944 0.26564535
-0.00952738 0.16924843 0.25752398 0.11299703 0.16915521 0.2624198 -0.06514579 0.12725908
0.18992011 -0.31783855 0.05537882 -0.13784888 0.06577182 -0.23886022 0.16717012 -0.26948625
-0.20178525 0.24836566 -0.123503774 -0.21161088 0.115472086 -0.04378171 -0.15375865 -0.33532202
0.070308566 -0.19102423 0.26515788 -0.12164979 0.1357997 -0.09060047 0.045934208 -0.13203657
0.109002404 0.008701533 -0.097052455 -0.012187004 -0.14951602 -0.26138473 -0.25656074 0.036114633
0.09185392 0.20027086 -0.10661864 0.039530516 0.12695631 -0.0041679144 -0.11862085 -0.2668148
-0.22446498 0.029477453 0.1962871 0.16859643 -0.06848808 0.22867462 0.03244111 0.23945236
-0.022246305 -0.268906 -0.10316624 -0.0627152 -0.07754184 -0.17953418 -0.03450196 -0.16136989
0.15582551 -0.11799511 -0.12853786 -0.036899894 0.18315673 0.16872254 0.17247868 -0.14537041
-0.06900278 0.19890705 -0.22214302 -0.030825494 0.110562205 0.26772815 -0.05811672 -0.055363055
-0.050140202 -0.22086044 -0.20453599 -0.045693085 0.12239444 -0.23475818 0.020636737 -0.053972214
0.011281601 -0.2048967 0.13651407 0.028747857 0.05639379 0.18254903 -0.16254726 -0.10262441
-0.14011137 0.15119776 -0.048158802 0.061303474 -0.10547744 0.16148506 0.18191923 -0.089935
0.00810664 0.0681671 -0.1670767 -0.069681086 0.10933826 0.18366675 0.19043012 0.14806639
-0.0035164792 0.18994078 0.07688744 -0.21982111 0.11468459 -0.23199683 -0.2155429 -0.20241135
-0.24503332 0.08987178 -0.006415851 -0.14163378 0.08664688 -0.09057688 0.06890975 0.03213396
0.07838009 0.057193447 0.1389326 -0.07703742 -0.076733954 0.15583345 -0.018996315 0.12242607
-0.0058395066 -0.24265988 0.14960618 -0.001913806 0.1746851 0.23595649 0.108676106 0.042386442
-0.06975142 0.07213943 -0.010594554 0.020899609 -0.20907924 0.18442127 0.027827943 -0.22702186
0.00750072 0.0009462043 -0.2037677 -0.18064842 -0.0072951536 0.14905645 0.26030752 0.0030101293
0.09415765 0.2320374 0.19188209 0.0130595695 -0.97584057 -0.0018889803 -0.079692274 -0.036250666
-0.09447688 0.22559619 0.1677352 0.016746078 0.18331346 0.023868743 0.06747941 -0.017380685
-0.12866656 -0.21105576 -0.23797984 0.12721778 0.004484872 0.10575172 -0.05611732 0.14469402
0.0139867095 0.160942 -0.18947579 -0.044322856 0.25660962 -0.13555185 -0.22910716 -0.09972496
0.31494617 0.18626517 0.2489363 -0.10777346 -0.21792719 0.058461532 0.07878199 -0.2131062
-0.046059694 -0.034298383 -0.23513518 -0.061817978 -0.17847894 0.18260156 -0.14701891 0.1934686
0.07874613 -0.008728528 -0.17506959 0.22403315 -0.06126227 0.20930852 0.09738571 -0.026266646
-0.052176446 -0.21412532 -0.14769992 0.15649365 -0.019221634 0.14456722 -0.17924537 -0.03625528

target_model.0.bias f4 [16]
00000000: 4bcc 3dbc 2a47 82bd 0b31 d83e 0d8f 9fbc
00000010: ec79 423d cc06 26bd 0501 9eba ef2f 813e
00000020: 7215 153f 99ee a3be c641 e23b eb9d aebe
00000030: e835 a2be 56a5 06be a20d 383f 5683 17bc
-0.011584352 -0.0636123 0.42224917 -0.019477392 0.047479555 -0.040533826 -0.0012054747 0.25231883
0.5823585 -0.32017973 0.0069048135 -0.34104857 -0.31681752 -0.13149008 0.718958 -0.0092476215

state_model.0.weight f4 [16, 18]
00000000: b3e8 b33e 087d fc3c ea82 e33e 1756 5bbe
00000010: a9af 803d 54ca 1a3e c0b9 a8be 90d1 f33e
00000020: a945 053d 0c6c 4dbd 8ad1 9d3d abe1 9fbd
00000030: 68eb 653e 0df5 b23e 2c96 3dbe c7c4 14be
00000040: 3316 83be 1fce 153e b81a 883e 1038 683e
00000050: 9970 8bbe ecdf ab3e a8d7 7abe 1f67 ee3e
00000060: b9d1 aa3e cf02 debd 6a29 a43e cbf5 793e
00000070: 1b37 14be 961f 3e3e 529f e03e 1c99 183c
00000080: 4c01 c43e 3f0e 6b3d c686 033f c448 6c3e
00000090: 944f d93e 9e06 b3be 40fc 433e 20b5 0bbd
000000a0: 3644 1ebe 7d3d 013e 9894 50be c871 adbd
000000b0: 339b bebe 17ce 23be 232a 5dbe 28df 693d
000000c0: 99d0 1d3d 322c 593e 55c1 0dbf 8b95 4bbe
000000d0: 4a00 44be 1069 51bb 921b 763d 4d0b 433d
000000e0: faa0 bc3e bb0e a1be 4205 c3bd 0b81 873e
000000f0: a067 1dbe 4cce 5bbd fd1a 033f b79d 61be
00000100: 308c 953e b815 6abe bb78 bebd ee2e 48be
00000110: 0a2e 2a3f 9ed6 e33a 9c7e 683e ac36 2b3e
00000120: 0c25 ab3d a13a 423e 0883 08be 0bbe 5eba
00000130: db22 523d fe44 8d3e da30 5f3e b707 c7be
00000140: 51c1 b6bd 61a3 9ebe 187e f2bd 9514 85be
00000150: fa52 68be f556 b1be a586 1bbe 0166 2dbe
00000160: 51e5 4cbe 4364 82bc 2589 90be 14e9 9e3e
00000170: ab09 67be 6917 d2bd ad80 c03e 84ce febe
00000180: 0d03 97be 8bbe 3dbf f958 e63d bc0f 233e
00000190: 67de 4cbe 5a5f 543c 8103 cc3e e879 063e
000001a0: b0fe 363e 9de3 5a3e 93d2 32c0 f2a9 81bc
000001b0: 5af0 a1be 69c0 8a3e a1f7 8fbe 3c65 9dbc
000001c0: 50d1 ab3e 467d 26bf 71c8 33be 60b7 e9be
000001d0: 6e1c fd3d d727 8bbe 19c3 34bd 787c 313d
000001e0: ae9d e0bc e424 34bd 2a6d c13d f882 ddbc
000001f0: 0f46 013f 9954 613f 4659 a43e 72ed 52be
00000200: 32fe b0be 4e0e dd3e 0985 393d 6bb6 5ebe
00000210: 98a4 abbd 386f c93d 1188 47be 41b7 afbe
00000220: 0156 483e 0318 8e3e 47a9 0a3e 1bca 063e
00000230: 4e25 6fbe 0ec4 ec3d 79b9 1fbd b660 a7be
00000240: 7e72 453e 1e49 0dbe f2ad b0be fc02 b43e
00000250: 2bfe 073e c571 453e af28 a53e 8582 e0bd
00000260: 3076 44be c016 32be a874 96bd c633 d43e
00000270: f857 ffbd b0ea a4be 9838 01be 18bd 5b3e
00000280: 66f9 a53e 10a4 fbbd 60b1 f3bd c2bd ee3d
00000290: 3208 8ebd 08ec 02be 0900 b0bc fd15 a83e
000002a0: c998 f03d be80 b43e 3e79 3dbe 6812 e53e
000002b0: e2f4 aa3e a475 8cbe 0b0f 923e c7a7 3dbe
000002c0: 0ecd 1bbe cd6c eebd ae9e 593d acdc f53c
000002d0: 5c16 c3be 0120 3d3e f7a8 583d 8cd6 d63d
000002e0: 5be8 edba 36dd 4fbe 61ed 3b3e 3fa4 d0b9
000002f0: aeed 21be b379 e53e 04cd dabd 39de 82bd
00000300: f56f ffbc cfe4 853e 5c24 0abf f83d 8a3e
00000310: a5f7 8bbe ea5b 1cbe 35c0 243e 1b0d d63d
00000320: 5e5c 063e b514 47be f208 a73e ebc7 c3be
00000330: 731d 7b3e 41d3 bd3d 4e2d 01be 21a9 4f3d
00000340: 19e3 d63d d779 21be b268 03bc a2d8 b8be
00000350: 7134 13be 3d38 7c3e d95a 6e3d 13e1 5a3e
00000360: 4862 67be acac 073e d9d7 7c3e 5093 b4be
00000370: 61ab f2be cc44 fa3d 9cdf 1cbc 65df b63e
00000380: e6de c73d 29ec 333e 7ef8 d8be e41e 213e
00000390: acdb 7fbe 9c4a 0f3e adf6 003e 8a4d 243d
000003a0: 7fb8 a83f 8951 9a3e 9a7c 353e 70fa cd3d
000003b0: 27b9 523e 3a28 c5be d6ae 4b3e 90d2 5b3d
000003c0: 828a d9bb 50ac ffbc d2fc eabc 019c 7a3e
000003d0: 9864 47be d189 bbbd 833a 8abe f733 a1be
000003e0: 817d 0b3f 17a8 23be 6bd7 2f3f 3065 583d
000003f0: de29 8abe a0ac 17bc b9a7 4fbe 30eb a43e
0.35138473 0.030821338 0.44435817 -0.2141956 0.062835045 0.15116245 -0.32954216 0.4762082
0.032537136 -0.05015187 0.07705982 -0.078067146 0.22453082 0.34952584 -0.18514317 -0.1452819
-0.25602874 0.1462941 0.26582885 0.22677636 -0.27234343 0.33569276 -0.24496329 0.4656305
0.3336313 -0.108403794 0.32062846 0.24410169 -0.14474146 0.18566737 0.43871552 0.009313848
0.3828224 0.057386633 0.5137752 0.23074633 0.42443526 -0.34965986 0.19139194 -0.03410828
-0.15455708 0.12621112 -0.20369184 -0.08468968 -0.37227783 -0.15996586 -0.21598105 0.057097584
0.038529012 0.21208265 -0.55373126 -0.19881265 -0.19140735 -0.0031953491 0.060084887 0.0476182
0.36841565 -0.3145655 -0.09522487 0.2646564 -0.15371561 -0.053663537 0.51213056 -0.2203282
0.29208517 -0.22859848 -0.09300371 -0.19549152 0.664765 0.0017382686 0.22704548 0.16720074
0.083566755 0.18967678 -0.13331234 -0.00084969465 0.051302772 0.275917 0.21795979 -0.38873073
-0.08923591 -0.30984023 -0.11840457 -0.25992265 -0.22687903 -0.34636655 -0.15188082 -0.16933443
-0.20009352 -0.01591695 -0.28229633 0.310372 -0.22562282 -0.102583714 0.37598172 -0.49766934
-0.29494515 -0.7411887 0.11247439 0.15923971 -0.20006715 0.012962187 0.39846423 0.13132441
0.17870593 0.2137589 -2.7941024 -0.015828107 -0.31628686 0.27099922 -0.28118613 -0.019213311
0.3355813 -0.650349 -0.17556931 -0.45647717 0.12358938 -0.27178833 -0.044131372 0.043331593
-0.027418938 -0.043980494 0.094446495 -0.02703999 0.50497526 0.8801971 0.3209936 -0.2059839
-0.34568936 0.43174976 0.045292888 -0.21749274 -0.08381003 0.098356664 -0.19485499 -0.343195
0.19564058 0.27752694 0.13541137 0.13163035 -0.23354074 0.11560832 -0.03899524 -0.32690972
0.19281957 -0.13797423 -0.3450771 0.35158527 0.13280551 0.19281681 0.32257602 -0.109623946
-0.1918571 -0.17391491 -0.07346469 0.4144575 -0.124679506 -0.32210302 -0.12619245 0.21458852
0.32416838 -0.12287152 -0.11899066 0.11657287 -0.06935157 -0.12785351 -0.021484392 0.32829276
0.117478915 0.35254472 -0.18503281 0.44740605 0.33389956 -0.27433503 0.28527102 -0.18521033
-0.15214941 -0.11641846 0.053129844 0.030012451 -0.38102996 0.1846924 0.052895512 0.1049014
-0.0018150912 -0.20299229 0.18352272 -0.00039795224 -0.15813324 0.44819412 -0.10683635 -0.06390042
-0.031181315 0.2615113 -0.5396173 0.27000403 -0.27337375 -0.15269437 0.16088946 0.104517184
0.13121173 -0.19441493 0.32624012 -0.38238463 0.24522953 0.09268809 -0.12614939 0.050698403
0.10492534 -0.15769134 -0.008020567 -0.36102778 -0.14375474 0.24630828 0.058192108 0.21374922
-0.22596085 0.13249463 0.24691714 -0.3526864 -0.47396377 0.12220153 -0.009574797 0.35717312
0.097593114 0.17570557 -0.42377084 0.1573444 -0.24986142 0.13993305 0.125941 0.04011301
1.3181304 0.3014033 0.17723313 0.10057533 0.20578443 -0.38507253 0.19890913 0.053667605
-0.006638826 -0.031210095 -0.028685007 0.24473573 -0.19471967 -0.09157146 -0.26997766 -0.3148496
0.5448838 -0.1598209 0.68688077 0.052830875 -0.26985067 -0.009257466 -0.20278825 0.32210684

state_model.0.bias f4 [16]
00000000: 1745 0cbf dd51 513f 0b30 30be 0c65 613f
00000010: 51e2 3cbe d526 193f 12e4 ff3e 316e 963e
00000020: b3c1 183e ad8c 55be 44c9 063e 1086 91be
00000030: 4956 30bf 6606 723f 4411 92be 7ecf 113f
-0.5479292 0.8176554 -0.17205827 0.8804481 -0.18445708 0.5982488 0.4997869 0.29380944
0.1491764 -0.20854445 0.13162714 -0.28422594 -0.6888166 0.94541013 -0.28528798 0.5695723

state_model.2.weight f4 [1, 16]
00000000: 2e28 1abe 9781 eb3e 008c 0dbf 3452 3d3f
00000010: 9321 94be 92f1 a33e f35f 863e d734 ea3e
00000020: 768e 8fbe 9865 5fbe e3c1 29be 86f9 013f
00000030: 38d1 1bbf 2f58 d93e 3821 9e3e 7957 883e
-0.1505439 0.45997307 -0.5529175 0.73953557 -0.28931865 0.3202024 0.26245078 0.4574344
-0.28038377 -0.21816099 -0.16577868 0.5077137 -0.6086612 0.4245009 0.3088472 0.26629236
