Pytorch_DRL/HNRN/models/backup/4.1_test_train_critic/best_ca_critic.model (torch_old, 559066 bytes, 13 tensors)

sensor_model.0.weight f4 [256, 360]
0	0x3d94f1b5	0.072726645
1	0xbad458c0	-0.0016200766
2	0xbd90c808	-0.07069403
3	0xbd7ca91f	-0.061684724
4	0x3d953795	0.07285992
5	0xbd53e476	-0.05173155
6	0xbd5fbf33	-0.0546257
7	0xbc3cf728	-0.011533536
8	0xbd80bc62	-0.06285931
9	0x3c888850	0.016666561
10	0xbc941944	-0.018078454
11	0xbbdfc0c0	-0.0068283975
12	0xbd422ca1	-0.047405843
13	0xbcc91c3c	-0.024549596
14	0x3d2bfa62	0.04198683
15	0x3d9af5a1	0.07566381
16	0xbb9e6f10	-0.004835017
17	0x3dbea2bd	0.093083836
18	0xbd9c83ed	-0.0764235
19	0xbc943c0c	-0.018095039
20	0xbd382410	-0.044956267
21	0xbdabc552	-0.08387245
22	0xbc7d1c30	-0.015448615
23	0xbd726ef3	-0.05918784
24	0x3da7952d	0.0818275
25	0xbd2beb61	-0.04197252
26	0xbd4369dd	-0.04770838
27	0xbc1bd310	-0.00951077
28	0x3d839b51	0.06426109
29	0x3c9babf4	0.019002892
30	0x3d9f1d31	0.0776924
31	0xbd88d082	-0.06680395
32	0xbd470aa6	-0.04859414
33	0x3d4bc082	0.049744137
34	0x3da1f47f	0.07907962
35	0x3d1cd02e	0.038284473
36	0x3d0998f2	0.033593126
37	0xbd412c0a	-0.04716114
38	0xbd40459b	-0.04694138
39	0x3db6a1a9	0.08917553
40	0x3c0e7b78	0.008696429
41	0xbcc3c50c	-0.02389767
42	0x3d8c972d	0.06864772
43	0x3dbc8395	0.09204785
44	0xbc834e28	-0.016028479
45	0x3bd741e0	0.006569132
46	0xbcd9b25c	-0.026574306
47	0x3da1caa3	0.07899978
48	0x3c9c24a4	0.01906044
49	0x3cc1baa4	0.023648567
50	0x3c4e9450	0.012608603
51	0x3d4f504a	0.05061368
52	0x3c24d4a0	0.010060459
53	0xbbc06ac0	-0.0058721006
54	0x3d5548ee	0.052071504
55	0x3da45b15	0.08025185
56	0x3cdfe384	0.027330168
57	0xbdbfa683	-0.093579315
58	0x3d77bcee	0.06048291
59	0xbba29740	-0.004961878
60	0x3d48c406	0.049015068
61	0x3dc93eab	0.09826406
62	0x3dbe072f	0.09278714
63	0x3c0465e8	0.008080937
64	0xbd824ea0	-0.06362653
65	0xbb391720	-0.0028242543
66	0x3d493122	0.049119122
67	0xbd245bcb	-0.040126603
68	0xbd99ff89	-0.075194426
69	0xbd631f74	-0.055449918
70	0xbd5adc52	-0.05343277
71	0x3dbfba3d	0.09361694
72	0x3d9bb377	0.076025896
73	0xbd6095a3	-0.054830205
74	0x3d0f56a6	0.034994744
75	0x3d5bacee	0.053631715
76	0xbc9dd980	-0.019268751
77	0x3c8ca2ac	0.017167412
78	0xbd63aa90	-0.055582583
79	0x3d7e8c32	0.06214542
80	0x3dae1fef	0.085021846
81	0xbd6b9b20	-0.057520986
82	0x3d290b2a	0.041270413
83	0x3cbe291c	0.023212962
84	0x3d5ad50e	0.05342584
85	0xbccc8338	-0.024964914
86	0xbc7cdf18	-0.015434049
87	0xbb968550	-0.004593529
88	0xbd358c71	-0.04432339
89	0xbd905fc2	-0.07049514
90	0x3d73c752	0.05951626
91	0x3c1339f8	0.008985989
92	0xbd6b8225	-0.057497162
93	0x3db978a3	0.09056213
94	0xbd4214ee	-0.04738324
95	0x3dae46f7	0.08509629
96	0xbc4d15b0	-0.012517378
97	0x3db37623	0.08762767
98	0xbd8ec948	-0.06971985
99	0xbdb77222	-0.08957316
100	0x3ccab4b8	0.024744377
101	0xbbe44bc0	-0.006967038
102	0x3b84b2f0	0.0040496513
103	0xbdaa4845	-0.083145656
104	0xbd3fed7f	-0.046857353
105	0x3b34eac0	0.0027605742
106	0x3d8299b1	0.063769706
107	0xbc9e2468	-0.01930447
108	0x3d9d11b9	0.07669396
109	0xbd719a3e	-0.058984987
110	0xbdb00710	-0.08595097
111	0x3cb30458	0.021852657
112	0xbd763469	-0.060108576
113	0x3da59a2f	0.08086049
114	0xbd298c6e	-0.04139369
115	0x3da2cd6f	0.079493396
116	0xbd8af302	-0.06784631
117	0xbd1dc412	-0.038517065
118	0x3da02775	0.07820026
119	0x3dbcdabf	0.0922141
120	0xbd6b6e68	-0.05747834
121	0x3d026202	0.03183175
122	0x3d631216	0.05543717
123	0xbd5cd93e	-0.053918116
124	0xbd92df14	-0.07171455
125	0xbbb94980	-0.005654514
126	0xbdc86652	-0.09785141
127	0x3b6470c0	0.0034857243
128	0xbc9e0d44	-0.019293435
129	0xbb9c0520	-0.004761353
130	0x3d7d907a	0.06190536
131	0x3d2a2daa	0.041547455
132	0x3cc321e8	0.023819879
133	0x3d919145	0.07107786
134	0xbd15a0a2	-0.036530145
135	0x3db7d637	0.08976405
136	0xbcc9f518	-0.024653003
137	0x3d871791	0.06596292
138	0xbc987524	-0.018610545
139	0xbca2642c	-0.019823156
140	0x3daab4f7	0.083352976
141	0x3dc1b6d1	0.094586976
142	0xbd4a616d	-0.04940932
143	0xbcfd2680	-0.030902147
144	0xbcce1dd4	-0.025160708
145	0x3d4798aa	0.048729576
146	0xbd93b0a6	-0.072114274
147	0x3d55f6ea	0.05223743
148	0x3d6a1726	0.057150982
149	0x3be5ec70	0.007016711
150	0x3d1f4ba6	0.038890503
151	0x3d2eea0e	0.04270368
152	0xbc022760	-0.007943958
153	0xbd559b8f	-0.052150305
154	0x3d8132df	0.06308531
155	0x3dbd6549	0.09247834
156	0xbd1274aa	-0.03575579
157	0xbdbd43bc	-0.09241435
158	0xbda2510a	-0.07925613
159	0xbdb9441a	-0.090461925
160	0xbd46bc49	-0.048519406
161	0xbbd09fe0	-0.006366715
162	0x3d82480f	0.063614
163	0x3d1e599a	0.03865967
164	0x3da15885	0.07878212
165	0x3d084c5a	0.03327594
166	0xbcd597b0	-0.026073307
167	0xbda23e62	-0.07922055
168	0xbda32451	-0.07965911
169	0x3dc3bb01	0.095571525
170	0x3d28a88e	0.04117637
171	0xbdbca2af	-0.09210717
172	0xbb958fc0	-0.0045642555
173	0x3d9adb25	0.0756133
174	0xbd4d8242	-0.05017305
175	0xbd37b1f9	-0.044847462
176	0xbd891eb4	-0.06695309
177	0x3bdada90	0.0066788867
178	0xbd91ab8a	-0.071127966
179	0x3cfcb574	0.030848242
180	0x3da17a89	0.078847
181	0x3d0ecfb2	0.034866042
182	0x3dbc5899	0.09196586
183	0x3d51b94a	0.051202096
184	0xbd89aa4e	-0.06721936
185	0x3c2d6728	0.010583676
186	0xbb2bdfc0	-0.0026225895
187	0xbdb0d327	-0.08634024
188	0x3d8d37d1	0.06895412
189	0x3d801cfb	0.062555276
190	0xbd9eb9d1	-0.077502854
191	0x3ce5eab4	0.028066017
192	0x3d93767f	0.07200336
193	0x3cc88754	0.024478592
194	0x3d8c4ac9	0.06850202
195	0x38d1a000	9.995699e-05
196	0x3d90ddfd	0.07073591
197	0xbd8ec553	-0.0697123
198	0xbdb1b26d	-0.0867661
199	0xbda655c6	-0.08121829
200	0xbcaf2b18	-0.021382853
201	0x3beeb1b0	0.0072843656
202	0x3d6a3d76	0.05718752
203	0x3bd89d30	0.006610535
204	0xbc19b8d0	-0.009382442
205	0x3d099c76	0.03359648
206	0xbdc5f5a0	-0.0966599
207	0xbd852d63	-0.065027975
208	0xbcfd96d0	-0.030955702
209	0x3dc7e553	0.09760537
210	0x3d31363a	0.043264605
211	0xbdc902ca	-0.09814985
212	0xbd49e2c4	-0.049288526
213	0xbdb3db55	-0.08782069
214	0x3bf12b40	0.007359892
215	0xbd953d86	-0.07287125
216	0xbd85d54d	-0.065348245
217	0xbd880964	-0.06642416
218	0xbbc47050	-0.005994834
219	0xbd8de986	-0.06929307
220	0x3d2ada7a	0.04171226
221	0xbdaa2884	-0.08308509
222	0x3d0c233e	0.034213297
223	0xbdc27b38	-0.09496158
224	0x3da40389	0.08008487
225	0x3dadec35	0.084923185
226	0x3da752af	0.081700675
227	0xbc9ec128	-0.019379213
228	0x3c49a908	0.012308367
229	0xbcf9536c	-0.030435286
230	0x3d19e5de	0.037572734
231	0xbc83f7f4	-0.016109444
232	0x3d983697	0.07432287
233	0x3a590100	0.0008278042
234	0x3ca40bc4	0.020025142
235	0xbdc03007	-0.093841605
236	0x3d12926a	0.035784163
237	0x3ce7bad4	0.028287329
238	0x3a539380	0.00080709904
239	0x3d7e7946	0.062127374
240	0x3cc63308	0.024194255
241	0xbd281556	-0.041035973
242	0x3dc4ae57	0.09603565
243	0x3d97cde1	0.07412315
244	0xbd89547a	-0.06705566
245	0xbd6a2773	-0.057166528
246	0x3d869c9b	0.06572839
247	0xbc9b3904	-0.018948086
248	0x3cd1fb58	0.025632545
249	0x3d9d3f1b	0.07678052
250	0x3ca80f04	0.020514973
251	0x39009c00	0.00012265146
252	0xbbdc5890	-0.0067244247
253	0xbd33d298	-0.04390201
254	0x3cb3675c	0.021899872
255	0x3da9b627	0.08286696

sensor_model.0.bias f4 [256]
0	0x3d221556	0.03957113
1	0xbd241077	-0.040054765
2	0xbd2b7662	-0.041860946
3	0xbb63bbe0	-0.0034749433
4	0xbaa9d0e0	-0.0012955926
5	0xbaaf6e80	-0.0013384372
6	0xbd060172	-0.032716222
7	0x3ce02fd8	0.027366564
8	0xbd564678	-0.052313298
9	0x3d29bec9	0.041441713
10	0xba81efc0	-0.000991337
11	0xbd0240c0	-0.03180003
12	0x3d5d9c4c	0.054104134
13	0xba18851f	-0.00058181764
14	0xbce21bc1	-0.027601125
15	0x3c2e4ae1	0.01063797
16	0xbc89fbfc	-0.016843788
17	0xbc3c3748	-0.011487789
18	0x3d63cc51	0.055614773
19	0xbb699a98	-0.0035645124
20	0xb84b2a23	-4.8438214e-05
21	0x3cd84962	0.02640218
22	0xbd4af3de	-0.049548976
23	0x3d6b209c	0.057404146
24	0x3d1cdc67	0.03829613
25	0xbcca27ad	-0.024677122
26	0xbd4c1d35	-0.04983254
27	0xbb4c78c7	-0.0031199919
28	0xbc9d2088	-0.019180551
29	0x3cfb9f7b	0.030715695
30	0xbd27d4b5	-0.040974338
31	0x3c9bcf41	0.019019725
32	0xbd097d87	-0.033566978
33	0xbbaf3970	-0.0053474233
34	0xbcb38be4	-0.021917291
35	0xbcf8625b	-0.030320337
36	0xbcf075e6	-0.029353093
37	0xbc18bfac	-0.009323042
38	0xb9b03b2f	-0.0003361343
39	0xb8e724ee	-0.00011021817
40	0xbcf47172	-0.029839251
41	0x3d22f7aa	0.039786972
42	0x3b39c61e	0.0028346847
43	0xb9f3f9f4	-0.000465348
44	0x3d6b8e1a	0.057508565
45	0xba0cb482	-0.0005367474
46	0x3d226eee	0.039656572
47	0x3cd692c7	0.026193036
48	0x3bb1dc9c	0.00542791
49	0xbd15d994	-0.03658445
50	0xbd444dfd	-0.047925938
51	0xbcb73bf0	-0.022367448
52	0x3d7a7e00	0.06115532
53	0xbba3c9a8	-0.0049984045
54	0xbd49663d	-0.049169768
55	0x3d739204	0.059465423
56	0x3d4a4966	0.049386404
57	0xba322ae6	-0.00067965535
58	0xbca2afd4	-0.019859232
59	0xbb127de0	-0.002235286
60	0xbd352d4c	-0.04423265
61	0xbc80053a	-0.015627492
62	0xbcaf47c2	-0.021396521
63	0xba89d129	-0.0010514605
64	0xbcd8b472	-0.02645323
65	0x3b2e34e3	0.0026581816
66	0x3a300a38	0.000671539
67	0x3c80cc6e	0.01572248
68	0xbabd11e0	-0.0014424883
69	0x3cfb4071	0.030670376
70	0xbd251340	-0.04030156
71	0xbd3c23af	-0.045932468
72	0xbbf2f9af	-0.0074150185
73	0xbce543a6	-0.027986359
74	0xbcec33c2	-0.028833274
75	0xb9d42e00	-0.00040470064
76	0xbd005243	-0.03132845
77	0xbcaab816	-0.020839732
78	0x3cbbdc47	0.022932185
79	0xbcc64493	-0.02420262
80	0x3c9b9a12	0.018994365
81	0xbc51e7ec	-0.012811642
82	0xbb2fdbc0	-0.0026833862
83	0x3a668163	0.0008793084
84	0xbcc074b9	-0.023493158
85	0x3caf36ee	0.021388497
86	0xbbd70ca0	-0.0065627843
87	0xbb163e10	-0.0022925176
88	0xbc2012e8	-0.009770133
89	0xbaa65fe0	-0.0012693368
90	0x3a58f62b	0.0008276428
91	0x3c935f85	0.017989883
92	0xbc8e46e8	-0.017367795
93	0x3d32edf3	0.043683957
94	0x3b2a2394	0.0025961148
95	0xbbf80d38	-0.007569935
96	0x3a39ff8a	0.0007095268
97	0x3d421eeb	0.047392767
98	0xbbc836d8	-0.0061100535
99	0x39d24298	0.00040103937
100	0xbd40e690	-0.04709488
101	0xbc079b21	-0.008276732
102	0xb9a9985f	-0.00032347717
103	0xba5dbf37	-0.0008458974
104	0x3d02a1e7	0.031892683
105	0xbaa6fc2e	-0.001273995
106	0xb8688a86	-5.544212e-05
107	0x3d730e13	0.059339594
108	0xb9e55b83	-0.00043746465
109	0x3c5edbf0	0.013602242
110	0xbd396f76	-0.045272313
111	0xbd495bfc	-0.04915999
112	0xbc81911a	-0.01581626
113	0x3b4b7447	0.0031044648
114	0xbd4e7cf5	-0.050412137
115	0x3cbcc5f7	0.023043616
116	0xbc9f8538	-0.019472703
117	0x3d5895fe	0.05287742
118	0x3d357e58	0.044309944
119	0xbd1c3b8e	-0.038142733
120	0x3d57566a	0.052572645
121	0xbbe09913	-0.0068541854
122	0x39c208e1	0.0003700918
123	0xbd3741d0	-0.044740498
124	0xbd471437	-0.048603263
125	0x39a72342	0.0003187899
126	0xbc02e7ef	-0.007989868
127	0xbd4c7a0a	-0.049921073
128	0xbb4ec17c	-0.003154843
129	0xbb0af5c7	-0.0021203624
130	0x3955e569	0.00020398725
131	0x3d5ce51c	0.053929433
132	0xbbccafd0	-0.0062465444
133	0x3d52022f	0.051271614
134	0xbc91ca9c	-0.017796807
135	0x3d21ca5f	0.039499637
136	0xbc0292f8	-0.00796961
137	0x3cafcb81	0.021459343
138	0xbcdf65fd	-0.027270311
139	0x3d62ef02	0.055403717
140	0xba14e40e	-0.0005679735
141	0x3c2833a7	0.010266221
142	0xbad1ea9e	-0.0016015356
143	0xbb08f370	-0.0020897053
144	0xbb9a434f	-0.004707731
145	0xbb4648d4	-0.0030255811
146	0xbd3107d0	-0.04322034
147	0xb8303800	-4.2013824e-05
148	0xbbff3115	-0.0077878335
149	0xbd4a4215	-0.049379427
150	0x3c925c5d	0.017866308
151	0xb9dece00	-0.00042496622
152	0xbcfcb998	-0.030850217
153	0xbb715720	-0.0036825612
154	0xbcdede1b	-0.027205518
155	0x3bac6db8	0.005262103
156	0x3d804e42	0.062649265
157	0xbcf472c3	-0.029839879
158	0xbceb3b66	-0.028714847
159	0x3d765546	0.060139917
160	0x3c09e9cf	0.008417561
161	0xba10698f	-0.00055088935
162	0xbd0679f6	-0.032831155
163	0x3d01e3ca	0.031711377
164	0xbc0b5c2d	-0.008505863
165	0xbcf1e1b5	-0.02952657
166	0x3d2d5a2c	0.042322323
167	0xbd4a88b6	-0.049446784
168	0x3cd91138	0.026497468
169	0xbc128c44	-0.008944575
170	0x3d41b6ae	0.047293358
171	0xbad6ee26	-0.0016397878
172	0x3c9b0791	0.018924506
173	0xbae35bc2	-0.0017346072
174	0xba91dcee	-0.0011128464
175	0x3ca5886f	0.020206658
176	0xbca6ee5c	-0.02037733
177	0x3ce54520	0.027987063
178	0xbca8097a	-0.020512331
179	0xbac02ea1	-0.0014662334
180	0xbbdae218	-0.0066797845
181	0x3d8676d9	0.06565637
182	0xbc56b294	-0.0131041
183	0x3c7e272f	0.015512272
184	0xbb52c270	-0.003215935
185	0xbd173ed8	-0.036925167
186	0x3cd6a072	0.026199553
187	0xb94821b5	-0.00019086043
188	0xb8de1988	-0.000105905405
189	0xb9ce2b8e	-0.00039323833
190	0xbc0c65e9	-0.008569219
191	0x3c19915d	0.009373036
192	0xbcc20f25	-0.023688862
193	0x3ccb92f7	0.024850352
194	0xb99db39b	-0.0003007919
195	0xbd427cb1	-0.047482196
196	0xbceecdab	-0.029150805
197	0xbcea4903	-0.028599268
198	0x3ca896e5	0.020579765
199	0x3994861a	0.00028328673
200	0x3bc419d4	0.0059845243
201	0xbc8ac214	-0.016938247
202	0x3c3868fa	0.011255497
203	0xbb7d305b	-0.0038633558
204	0xbcc777ec	-0.024349175
205	0xbc0e3e64	-0.008681867
206	0x3d5aa8fa	0.053383805
207	0xbcca7593	-0.024714267
208	0xbd26d7a2	-0.040732987
209	0x3d47c19b	0.04876862
210	0x3cab8363	0.020936674
211	0xbc04563c	-0.0080772005
212	0x3d3cadad	0.046064068
213	0xbd016e72	-0.03159947
214	0x3c8d4559	0.017244982
215	0x3d6e82ae	0.058230095
216	0x3c73d1ce	0.014881564
217	0xb925715a	-0.00015777853
218	0x3d86898b	0.06569203
219	0xbd0f7266	-0.03502121
220	0xbb9c23b8	-0.004765
221	0xbba6628c	-0.0050776657
222	0x3d80d236	0.062900946
223	0xbd44be05	-0.04803278
224	0xbbb1607a	-0.005413112
225	0x3d31d7ce	0.043418698
226	0xbba1b1b0	-0.004934512
227	0xbc9119a4	-0.017712422
228	0xbce647ab	-0.028110346
229	0xbc85e26a	-0.016343314
230	0xba2fa880	-0.00067008287
231	0xbcce6a73	-0.025197243
232	0x3cddc539	0.027071582
233	0x3d7dfe99	0.06201038
234	0xbd44b273	-0.048021745
235	0x3d554a38	0.052072734
236	0xbcb16bc8	-0.02165784
237	0xbc7cc79c	-0.01542845
238	0x3d284f4e	0.041091256
239	0x3d00da4d	0.031458188
240	0xbcf9eca0	-0.03050834
241	0x3c965461	0.018350782
242	0xb92d2263	-0.00016511376
243	0xbb31c5b0	-0.0027125888
244	0xbd0b08ae	-0.033943824
245	0x3d8d8fea	0.06912215
246	0xbd0da3f1	-0.034580175
247	0xbce20ed1	-0.027594956
248	0xbd1c7f7c	-0.038207516
249	0xbbb827f8	-0.005619999
250	0xb9fc4c11	-0.0004812186
251	0xbd390f2f	-0.045180496
252	0x3b98dd9d	0.0046650902
253	0xbce59948	-0.028027192
254	0xbb8effc0	-0.004363984
255	0x3d8aa856	0.06770389

sensor_model.2.weight f4 [128, 256]
0	0xbd648070	-0.05578655
1	0xbdbfe252	-0.09369339
2	0x3b563340	0.0032684356
3	0x3d597e28	0.053098828
4	0x3dd337f6	0.10313408
5	0xbb0d3a00	-0.0021549463
6	0x3d20d2a0	0.039263368
7	0xbd561934	-0.05227013
8	0x3da4fc1e	0.080559
9	0x3dc548e8	0.096330464
10	0xbd804f0e	-0.062650785
11	0x3df0d8f2	0.11760129
12	0xbdb43e3c	-0.08800933
13	0x3cbf26d8	0.023333952
14	0x3d482520	0.04886353
15	0x3cf97e18	0.030455634
16	0x3da11da4	0.078669816
17	0xbd80d04c	-0.062897295
18	0x3d110718	0.035407156
19	0x3ce0c530	0.027437776
20	0xbd7daf70	-0.06193489
21	0xbbd383a0	-0.0064549
22	0x3da93102	0.082613006
23	0xbbc3da40	-0.005976945
24	0x3def5f4e	0.116881
25	0xbd924d14	-0.07143608
26	0x3df1e060	0.11810374
27	0x3ca71580	0.020395994
28	0x3d4574ac	0.04820697
29	0xbd0cc88c	-0.034370944
30	0xbdd903ac	-0.105964035
31	0x3debce00	0.11513901
32	0xbdb9eb24	-0.09078053
33	0x3c165ec0	0.009177864
34	0x3c3bd810	0.0114650875
35	0xbde1458c	-0.10999593
36	0x3dcfabbe	0.10140179
37	0x3d8cb834	0.068710715
38	0x3d2edbc0	0.04269004
39	0x3d88edc4	0.06685975
40	0x3dccea92	0.10005678
41	0xbd7d483c	-0.061836466
42	0xbdf7592a	-0.120775536
43	0x3db2fb00	0.08739281
44	0x3de9a8aa	0.11409123
45	0xbba8c1c0	-0.00515005
46	0xbdefe560	-0.11713672
47	0xbda015f4	-0.07816687
48	0xbcbbdb98	-0.022931859
49	0xbda19b7a	-0.07890983
50	0x3d80730a	0.06271942
51	0x3cdb3790	0.026759893
52	0x3db20d7a	0.08693977
53	0xbd8f8f00	-0.07009697
54	0x3deea6c4	0.11652902
55	0x3dc1ded0	0.09466326
56	0x3caf5200	0.021401405
57	0x3d81700a	0.06320198
58	0x3d16ddf8	0.03683278
59	0xbcd91c40	-0.026502728
60	0xbd7a50e0	-0.061112285
61	0xbc9fc800	-0.019504547
62	0x3dfe62da	0.12421198
63	0x3b968b40	0.0045942366
64	0x3c5956c0	0.013265312
65	0x3ced7000	0.02898407
66	0x3a5d1800	0.0008434057
67	0xbdbc058c	-0.091807455
68	0xbc96e828	-0.018421248
69	0x3d8350fe	0.064119324
70	0xbdd109d6	-0.10206954
71	0x3d0a7000	0.033798218
72	0xbdf0bf70	-0.11755264
73	0x3db2da56	0.087330505
74	0x3dd25fb4	0.1027216
75	0xbc9cc3a8	-0.019136265
76	0xbb990ba0	-0.0046705753
77	0xbcfde648	-0.030993596
78	0xbd08aaec	-0.03336613
79	0xbd074fe4	-0.033035174
80	0x3db001e4	0.085941106
81	0xbdf7fe5e	-0.121090636
82	0x3cc2e600	0.023791313
83	0xbdaada62	-0.083424345
84	0x3d9c4dd0	0.07632029
85	0x3d8806e0	0.06641936
86	0xbd3b05a4	-0.045659676
87	0xbd743498	-0.05962047
88	0xbc2a24c0	-0.010384738
89	0x3d447c8c	0.04797034
90	0x3d857816	0.06517045
91	0x3d4621d8	0.04837212
92	0x3dc2c300	0.095098495
93	0x3dbe8b1c	0.09303877
94	0xbc2f67a0	-0.0107058585
95	0x3debb742	0.11509563
96	0xbd3b5414	-0.04573448
97	0x3daa719e	0.08322452
98	0xbd324ed4	-0.043532208
99	0xbcc30358	-0.023805305
100	0x3da62f02	0.08114435
101	0xbdabae64	-0.08382872
102	0xbda47a10	-0.08031094
103	0xbceb5620	-0.028727591
104	0xbdc61c2a	-0.096733406
105	0x3d756790	0.059913218
106	0x3b501fc0	0.0031757206
107	0xbd16ce64	-0.036817923
108	0xbae65d00	-0.0017575324
109	0x3de317e2	0.1108854
110	0xbd93e81e	-0.07222007
111	0xbdb190f4	-0.08670226
112	0x3db3fc34	0.08788338
113	0x3d94f5d0	0.072734475
114	0xbd9e781c	-0.07737753
115	0xbd251a58	-0.040308326
116	0x3dea9e9a	0.11456032
117	0xbdcee144	-0.1010156
118	0xbdf3e80a	-0.11909492
119	0xbbcc5300	-0.0062354803
120	0x3dda00ba	0.1064467
121	0xbdbfb080	-0.093598366
122	0xbd33b374	-0.04387231
123	0xbd2d16f8	-0.042258233
124	0x3db6140e	0.08890544
125	0xbdc514b2	-0.09623088
126	0xbcdfb570	-0.027308196
127	0x3dcb9678	0.09940809
128	0xbddc55ae	-0.107585296
129	0xbda84cce	-0.08217774
130	0x3da5eda2	0.081019655
131	0xbc377f70	-0.011199817
132	0x3dcd4072	0.100220576
133	0x3d8ceb4c	0.06880817
134	0xbc1cfec0	-0.0095822215
135	0xbcf3e4c0	-0.029772162
136	0xbd2fa9f8	-0.042886704
137	0xbdfadbf4	-0.12248984
138	0xbd6fce90	-0.058546603
139	0xbde4419a	-0.11145325
140	0x3df337b0	0.11875856
141	0xbda51a9a	-0.080617145
142	0xbddcd57a	-0.10782905
143	0x3d85a018	0.06524676
144	0xbb8f8260	-0.0043795556
145	0xbdd69300	-0.10477257
146	0x3de65ce6	0.11248188
147	0xbcab7350	-0.020929009
148	0x3c8c7778	0.01714681
149	0xbdead27a	-0.114659265
150	0xbdbd8134	-0.09253159
151	0x3da660b0	0.081239104
152	0x3d7f269c	0.06229268
153	0xbde5f1e0	-0.112277746
154	0xbd0352a8	-0.03206125
155	0x3d6bd480	0.057575703
156	0xbd77b918	-0.060479254
157	0xbdfd2ac8	-0.123616755
158	0xbd09bc98	-0.033627123
159	0x3d44dc98	0.048061937
160	0x3d55bcf8	0.052182168
161	0x3c6662d0	0.014061645
162	0x3d303acc	0.043024823
163	0xbd2d1ddc	-0.042264804
164	0xbd431f6c	-0.047637388
165	0xbd9da6a2	-0.07697798
166	0x3d6f44d8	0.058415264
167	0x3d9c03c8	0.07617909
168	0xbdc136ae	-0.094342574
169	0xbda69ffc	-0.08135983
170	0xbdbda2f8	-0.092595994
171	0xbdc786d6	-0.09742515
172	0xbc3e0a00	-0.011599064
173	0xbdc0ba6e	-0.09410559
174	0xbd8dbf58	-0.069212615
175	0x3d34d6c8	0.044150144
176	0x3dcf0a62	0.10109402
177	0xbd853eb6	-0.06506102
178	0x3da6c7ba	0.081435636
179	0x3c252060	0.01007852
180	0x3dec2cee	0.11532007
181	0x3dfaed64	0.1225231
182	0xbdf7e146	-0.121035144
183	0xbd9a8b48	-0.07546097
184	0x3c8f56b8	0.017497405
185	0xbc73b2a0	-0.0148741305
186	0x3cca1a38	0.024670705
187	0xbdf9cf0a	-0.12197693
188	0xbc6cb2b0	-0.014446899
189	0x3a8bb180	0.0010657758
190	0x3d568db0	0.052381217
191	0xbd135674	-0.03597112
192	0x3d5556f4	0.052084878
193	0x3dfc776c	0.123274654
194	0xbd75afd0	-0.05998212
195	0xbd913370	-0.07089889
196	0xbdd34f66	-0.103178784
197	0x3cb03838	0.021511182
198	0x3dde8ee2	0.108670965
199	0x3af88500	0.0018960536
200	0x3b7e85c0	0.0038837045
201	0x3dd5c7f4	0.10438529
202	0x3dca521a	0.09878941
203	0xbdc1607c	-0.09442231
204	0x3caeb068	0.021324351
205	0x3db49a04	0.08818439
206	0xbdd9e486	-0.106392905
207	0xbd53c8ac	-0.051705047
208	0xbc0534e0	-0.008130282
209	0xbd34ae3c	-0.044111475
210	0xbd7cc548	-0.06171158
211	0xbdc8833e	-0.097906575
212	0xbdd62966	-0.10457115
213	0xbd4f53b8	-0.05061695
214	0xbde08208	-0.109623015
215	0xbc22f2e0	-0.009945601
216	0x3d0aa1b4	0.03384562
217	0xbdfa601c	-0.12225363
218	0xbc70bff0	-0.014694199
219	0xbdde26a2	-0.108472124
220	0x3dc1e17e	0.09466837
221	0x3d65f4e0	0.056141734
222	0xbd3b47b0	-0.045722663
223	0xbb242200	-0.002504468
224	0xbbf76c40	-0.007550746
225	0xbc6f6f00	-0.014613867
226	0x3d4ec08c	0.050476596
227	0xbd877422	-0.066139475
228	0xbd6175b4	-0.05504389
229	0xbdcfbd92	-0.101435795
230	0x3da2bce2	0.07946183
231	0x3d9cb080	0.07650852
232	0x3de1c796	0.11024396
233	0x3bde5e00	0.006786108
234	0xbdb0e626	-0.08637647
235	0xbd71872c	-0.0589668
236	0xbd1a8f8c	-0.037734553
237	0x3bd37ea0	0.006454304
238	0xbc82a440	-0.015947461
239	0xbd810b0c	-0.06300935
240	0xbd32ea88	-0.043680698
241	0xbdc6e688	-0.09711939
242	0x3deb2ab8	0.11482757
243	0xbdf874a8	-0.121316254
244	0x3de6bb68	0.11266214
245	0x3d99c350	0.07507956
246	0xbdb0f8ba	-0.08641191
247	0x3d59ff2c	0.053221866
248	0x3cfe6258	0.031052753
249	0x3d1d6c10	0.038433135
250	0x3d569cb0	0.052395523
251	0x3d43e1b0	0.047822654
252	0x3d5acc40	0.053417444
253	0xbdcadddc	-0.099055976
254	0x3c816c28	0.015798643
255	0x3c43a610	0.011941448

sensor_model.2.bias f4 [128]
0	0xbd24105c	-0.040054664
1	0xbce0fae8	-0.027463391
2	0x3d419114	0.047257498
3	0x3c1f5ec2	0.009727182
4	0xbc9f6ca8	-0.019460991
5	0x3d2550f5	0.04036041
6	0xbb9b4490	-0.004738398
7	0x3c4636f7	0.012098066
8	0xbd6430f2	-0.05571074
9	0x3db4faab	0.088368736
10	0xbd87c0ef	-0.06628596
11	0x3af695cf	0.0018812957
12	0xbd435498	-0.047688097
13	0xbd610f7e	-0.054946415
14	0x3b8c58f0	0.004283063
15	0xbd1ed51f	-0.038777467
16	0xbc77e66e	-0.015130622
17	0x3da4d513	0.08048453
18	0x3c90f9ad	0.01769718
19	0x3d531569	0.05153409
20	0x3d5b672a	0.05356518
21	0x3dc830a2	0.09774901
22	0x3df0578d	0.11735449
23	0xbd6a88da	-0.057259418
24	0x3db077ae	0.08616577
25	0x3a584f21	0.0008251537
26	0x3d060a86	0.03272488
27	0xbd163dae	-0.036679916
28	0x3d2eeeb6	0.04270812
29	0xbd024014	-0.03179939
30	0x3c9a38ea	0.018825967
31	0x3ce74705	0.028232107
32	0xbc010242	-0.007874073
33	0xbd4c3b6a	-0.04986135
34	0xbb83d5e7	-0.004023302
35	0x3cb50c6f	0.022100655
36	0x3cb50007	0.02209474
37	0x3c8adf81	0.016952278
38	0xbceb2fe8	-0.028709367
39	0xbd34e146	-0.04416015
40	0xbd0164d2	-0.03159029
41	0xbcb39edb	-0.021926334
42	0xbc41dad0	-0.011831954
43	0xbb4b6b00	-0.0031039119
44	0xbd57ed32	-0.05271644
45	0x3b4d4a09	0.0031324646
46	0x3cd95689	0.026530521
47	0xbd600498	-0.05469188
48	0xbcb11880	-0.021618128
49	0x3bf22c37	0.0073905247
50	0x3d587de6	0.05285444
51	0x3de4928d	0.11160765
52	0xbd5ba4ce	-0.053623967
53	0x3c6d8991	0.01449813
54	0xbd29fadc	-0.041499004
55	0x3d1db840	0.038505793
56	0x3ce414d5	0.027841965
57	0xbcd62888	-0.026142374
58	0x3db922ad	0.09039817
59	0x3d2b9bbe	0.041896574
60	0x3da40c0c	0.0801011
61	0x3c434c08	0.011919983
62	0xbd4ef7ee	-0.050529413
63	0xbac87f00	-0.0015296638
64	0xbcd48f60	-0.025947273
65	0x3cf0ddc6	0.029402625
66	0x3d054810	0.032539427
67	0xbadde70b	-0.0016929818
68	0x3d08ef82	0.033431537
69	0x3d96aef3	0.07357588
70	0x3cabdadd	0.020978386
71	0xbd5bd2a6	-0.053667687
72	0xbd7bbc58	-0.061458915
73	0xbd4f1bd6	-0.050563656
74	0x3d20f37c	0.039294705
75	0x3cc8bd5d	0.024504358
76	0x3da77908	0.08177382
77	0x3c630c48	0.013857909
78	0xbc9bd74c	-0.01902356
79	0x3d29a7c1	0.04141975
80	0xbc882a10	-0.01662162
81	0x3c81c9a0	0.015843213
82	0x3dd5962e	0.10429035
83	0x3af3d673	0.001860334
84	0xbd58778e	-0.05284839
85	0xbd0878fa	-0.033318497
86	0xbc6e5888	-0.014547475
87	0xbcd52c11	-0.026021989
88	0xbd58e266	-0.052950285
89	0x3c83252a	0.016008932
90	0xbd6edb62	-0.05831469
91	0xbd4bd0fe	-0.049759857
92	0xbba39291	-0.0049918373
93	0xbcc71c3e	-0.02430546
94	0xbcd0f347	-0.025506629
95	0xbd65d2d8	-0.05610928
96	0x3d5dfae7	0.054194357
97	0x3dc35a0c	0.095386595
98	0xbd4af04c	-0.04954557
99	0x3cf8da9d	0.03037768
100	0x3d0a57d9	0.033775184
101	0xbd4cf2ee	-0.050036363
102	0x3d808e5c	0.06277153
103	0xbd5ac7f4	-0.053413346
104	0xbd616eed	-0.055037428
105	0x3dabd779	0.083907075
106	0xbd5bf298	-0.053698152
107	0x3af2f1d2	0.0018535203
108	0x3bc9b49d	0.006155564
109	0x3d2c0bd6	0.042003475
110	0xbcfa1a64	-0.030530162
111	0xbc5e2648	-0.013558932
112	0xbcbffcdc	-0.023436002
113	0x3db7b5fa	0.08970256
114	0xbd3f95c4	-0.046773687
115	0x3c5ffcd8	0.0136711225
116	0xbd62ee0a	-0.055402793
117	0x3d4e4c72	0.050365873
118	0x3dd38aca	0.10329206
119	0x3d9bef57	0.0761401
120	0xbb986589	-0.004650776
121	0xbcf8c028	-0.030365065
122	0x3d3b7516	0.04576596
123	0xbd07246e	-0.032993726
124	0xbd54b530	-0.051930606
125	0x3c5db969	0.013532975
126	0x3d9a8370	0.07544601
127	0xbae761e5	-0.0017653076

sensor_model.4.weight f4 [64, 128]
0	0xbd80e9a0	-0.062945604
1	0x3d16add8	0.036786884
2	0x3e03e63e	0.12880799
3	0xbba7a496	-0.0051160557
4	0x3dc2bb8a	0.095084265
5	0x3e040e57	0.12896095
6	0xbe0e4061	-0.13891746
7	0x3e10cd67	0.14140855
8	0xbd6e2e58	-0.058149666
9	0x3d4f2712	0.05057437
10	0x3d94f6fc	0.07273671
11	0x3d8983ff	0.067146294
12	0x3e182029	0.14856018
13	0xbd44b8f8	-0.048027962
14	0xbc88cdf4	-0.016699769
15	0xbe35764d	-0.1772091
16	0x3dd3585c	0.103195876
17	0x3e314f15	0.17315324
18	0x3ceaaf3a	0.028648008
19	0x3dbff5bd	0.09373043
20	0xbdb59b51	-0.08867515
21	0x3d87d004	0.06631473
22	0x3e0194cf	0.12654422
23	0x3e00131d	0.12507291
24	0x3d0d2e13	0.034467768
25	0xbca458ae	-0.020061817
26	0xbd98f352	-0.07468285
27	0xbd1e1074	-0.03858991
28	0xbdf0b70f	-0.11753666
29	0x3dcabf2a	0.09899743
30	0xbe1014b6	-0.140704
31	0xbd872501	-0.06598855
32	0x3dd9a6d6	0.106275246
33	0xbba24660	-0.004952237
34	0xbdbab6dd	-0.0911691
35	0x3d8ccaa3	0.068745874
36	0x3df3f583	0.11912062
37	0xbdc921c9	-0.09820897
38	0xbe26e5e9	-0.16298641
39	0x3e093685	0.13399704
40	0x3d7758b8	0.060387343
41	0x3c0b312a	0.008495608
42	0xbcfb1508	-0.030649677
43	0xbc709a10	-0.014685169
44	0xbe085bfd	-0.1331634
45	0x3dbc7a0c	0.09202966
46	0xbe2d8d4e	-0.16948435
47	0xbe10a09c	-0.14123768
48	0xbe1601da	-0.14649144
49	0xbd1be8f9	-0.038063977
50	0x3e033452	0.12812927
51	0x3ba416cd	0.005007601
52	0xbdebaae1	-0.11507202
53	0xbcad821b	-0.021180203
54	0x3ceb7580	0.028742552
55	0xbd1633b4	-0.0366704
56	0x3ce5ec63	0.02806682
57	0x3e08b4e1	0.1335025
58	0xbdb6096f	-0.08888518
59	0xbcdeab8c	-0.02718141
60	0xbd64bff9	-0.055847142
61	0xbdb07d65	-0.08617667
62	0xbdb6273d	-0.08894203
63	0xbd91a27b	-0.07111069
64	0x3d98c702	0.07459833
65	0xbd8d35e1	-0.06895042
66	0x3d29b9cc	0.041436955
67	0x3dfdfda9	0.124018975
68	0x3e16dac5	0.14731891
69	0xbbe0683e	-0.006848364
70	0x3e191ecc	0.14953154
71	0xbcb46138	-0.022019014
72	0xbd030734	-0.03198929
73	0x3d93850c	0.07203111
74	0x3d83cbbe	0.06435345
75	0xbdb1fac2	-0.086904064
76	0x3e2cce92	0.16875675
77	0x3ced5f78	0.028976187
78	0x3d3716d8	0.04469952
79	0xbd9f3d2f	-0.07775342
80	0x3c00a1a0	0.007851034
81	0x3d8eee9c	0.06979105
82	0x3de76584	0.112986594
83	0xbe45dcf5	-0.1932257
84	0xbd8eded8	-0.06976098
85	0x3dc37582	0.09543897
86	0x3d34dd48	0.044156343
87	0x3b49a105	0.003076614
88	0xbe08a81d	-0.1334538
89	0xbddae99a	-0.10689087
90	0x3d1a8370	0.037723005
91	0x3d74e1f0	0.059785783
92	0xbd8ee119	-0.06976528
93	0x3e2db7ca	0.16964641
94	0xbdcb49d1	-0.09926189
95	0xbe2c41ae	-0.1682193
96	0x3dca84eb	0.09888633
97	0x3e0e16cd	0.13875885
98	0xbdcf94d2	-0.10135807
99	0x3c06a76c	0.008218627
100	0xbd1cfebd	-0.038328875
101	0xbe2e2152	-0.17004898
102	0x3de22f90	0.11044228
103	0xbd35566c	-0.04427187
104	0x3c2801bb	0.010254319
105	0x3e362847	0.17788802
106	0xbd18583c	-0.03719352
107	0xbe0cf150	-0.13763928
108	0xbd96f16e	-0.07370268
109	0x3c92b5d8	0.017908975
110	0xbcd97598	-0.02654533
111	0x3d34b560	0.044118285
112	0x3d359254	0.044329002
113	0x3e035edf	0.12829159
114	0x3de7932e	0.11307369
115	0x3e1aad83	0.15105252
116	0x3e292d43	0.16521172
117	0x3dbc2091	0.09185899
118	0x3c1fbebf	0.009750067
119	0xbb9722b2	-0.0046122903
120	0x3cb0488b	0.021518966
121	0xbe195eb3	-0.14977531
122	0xbda7d4e0	-0.081948996
123	0xbdbb0a33	-0.09132805
124	0xbe277789	-0.16354193
125	0xbdad073b	-0.08448645
126	0x3e2f445b	0.1711592
127	0xbe07d83d	-0.13266082
128	0x3d8b6cc2	0.06807853
129	0x3e282c13	0.16423063
130	0xbe3277af	-0.17428468
131	0xbdc0fc37	-0.09423106
132	0x3d7e8e4c	0.062147424
133	0x3d88f4ee	0.06687342
134	0xbd8d8829	-0.06910736
135	0x3dcba2f2	0.09943189
136	0xbdd6a511	-0.10480703
137	0xbe08ac15	-0.13346894
138	0xbe0f13e5	-0.13972433
139	0x3dcf0526	0.10108404
140	0xbe005112	-0.12530926
141	0xbe17d9f5	-0.14829238
142	0x3da01827	0.07817107
143	0x3e033eb9	0.12816896
144	0xbe1b3f11	-0.15160777
145	0x3dd4f759	0.1039874
146	0xbe31d9aa	-0.17368189
147	0xbd0483f7	-0.032352414
148	0xbcdb2946	-0.02675308
149	0x3d12e56c	0.035863325
150	0x3d8584af	0.06519448
151	0x3dbf522a	0.093418434
152	0xbdf064b4	-0.117379576
153	0x3db3d551	0.08780921
154	0x3e1eeb54	0.15519458
155	0x3d7a66b8	0.061133116
156	0x3d8d3128	0.068941414
157	0xbd1ffac8	-0.039057523
158	0x3d559338	0.052142352
159	0x3e0acfd1	0.13555838
160	0xbcbe99ed	-0.023266757
161	0xbd105934	-0.03524132
162	0x3b8ec2cd	0.004356718
163	0x3d068308	0.032839805
164	0xbdc73b12	-0.09728064
165	0x3dcc0af2	0.09963025
166	0x3dd78365	0.105231084
167	0xbe14a8f0	-0.1451757
168	0xbe20616e	-0.15662166
169	0x3c653700	0.013990164
170	0x3e2c57e7	0.16830407
171	0x3d9e305a	0.07724066
172	0x3d51e9f8	0.05124852
173	0xbc5229a4	-0.012827311
174	0xbd68524f	-0.05671912
175	0x3d811b84	0.06304076
176	0x3e281069	0.1641251
177	0x3de9b855	0.11412112
178	0x3dfeb3f1	0.12436665
179	0x3ded0fd0	0.115752816
180	0xbd332e68	-0.04374543
181	0x3cbf60d0	0.023361593
182	0xbe2d78a9	-0.1694056
183	0x3e2acdb2	0.16680029
184	0x3dd2ce5a	0.10293265
185	0xbe1eeddd	-0.15520425
186	0xbe12cb7f	-0.1433544
187	0x3d504c6c	0.05085413
188	0x3e26b522	0.16280034
189	0x3df68b91	0.12038339
190	0x3c5bd5a0	0.013417631
191	0x3e07ab95	0.13249047
192	0x3e242c4f	0.16032527
193	0xbe07e64b	-0.13271444
194	0x3d9a260e	0.075267896
195	0x3e1f8067	0.15576325
196	0xbdc44a96	-0.09584539
197	0xbe2fffec	-0.1718747
198	0x3d381335	0.044940192
199	0xbd2077f0	-0.03917688
200	0xbd3c5dfc	-0.045988068
201	0xbe1a51d0	-0.15070271
202	0x3dde77d2	0.10862698
203	0x3c693b0c	0.014235269
204	0xbe2610e9	-0.16217388
205	0xbdf7f77e	-0.12107752
206	0xbe1f8a59	-0.15580119
207	0x3de3ae66	0.11117248
208	0x3e205ba9	0.15659966
209	0x3e1f433b	0.1555299
210	0x3c54e162	0.012993189
211	0x3ddb0b40	0.10695505
212	0x3d8430ea	0.06454642
213	0x3d9dd852	0.077072755
214	0x3d9a8392	0.07544626
215	0xbd05daac	-0.032679245
216	0xbe051bd1	-0.12998892
217	0x3db7bf75	0.089720644
218	0xbde8a39d	-0.11359332
219	0xbd824e26	-0.06362562
220	0xbdab1256	-0.08353107
221	0xbe1aebaa	-0.15128961
222	0xbe08d833	-0.13363723
223	0xbd14d854	-0.03633912
224	0xbdb69c4b	-0.08916529
225	0xbd871d4b	-0.06597384
226	0xbe28f7fe	-0.16500852
227	0x3cf591c8	0.02997674
228	0xbd699669	-0.057028208
229	0x3e123115	0.14276536
230	0x3d64439d	0.055728544
231	0xbdd90c8d	-0.10598097
232	0x3d378d30	0.04481238
233	0xbd4b1095	-0.04957636
234	0x3e190d67	0.14946519
235	0x3ae74e00	0.0017647147
236	0x3d4d89e8	0.050180346
237	0xbddd03e8	-0.10791761
238	0xbe06d209	-0.1316606
239	0x3e29a6d9	0.16567554
240	0x3df5e7ae	0.1200708
241	0x3db9464d	0.09046612
242	0x3dd26356	0.10272853
243	0x3c80d770	0.015727729
244	0x3d446048	0.047943383
245	0x3e04431e	0.12916228
246	0xbd8275ff	-0.06370162
247	0x3dd82ba9	0.105552025
248	0xbd93becf	-0.07214128
249	0xbd02db14	-0.03194721
250	0x3d88d665	0.066815175
251	0xbdb26edb	-0.0871255
252	0x3d2f67b4	0.04282351
253	0x3d9f4703	0.07777216
254	0xbe0428c7	-0.1290618
255	0x3dc0e816	0.09419267

sensor_model.4.bias f4 [64]
0	0x3deb37c2	0.11485244
1	0xbdbbd791	-0.091719754
2	0xbd7a2734	-0.061072543
3	0xbd400ba1	-0.04688609
4	0xbcee6e2a	-0.029105265
5	0x3c51e2a4	0.012810383
6	0xbd6860a9	-0.056732807
7	0xbb3df969	-0.0028987771
8	0x3d39f6d2	0.0454014
9	0x3df9a2ee	0.121892795
10	0xbd124e30	-0.035719097
11	0xbd12e7ae	-0.03586548
12	0xbd814d10	-0.06313527
13	0x3dcfd779	0.1014852
14	0x3d64537c	0.05574368
15	0xbda17c9b	-0.07885095
16	0x3c703d75	0.01466309
17	0xbd017d44	-0.031613603
18	0x3e00cb7d	0.12577625
19	0xbd8ef03d	-0.069794156
20	0xbcde20fe	-0.027115341
21	0xbbec6871	-0.007214599
22	0x3d4c0132	0.049805827
23	0x3e008c5b	0.12553541
24	0xbda75f66	-0.08172493
25	0xbd5884d5	-0.052861053
26	0xbc6c16b7	-0.0144097125
27	0xbcc82ed4	-0.024436392
28	0xbbf290c1	-0.00740251
29	0x3d36539e	0.044513337
30	0x3d24cf50	0.04023677
31	0xbd1f164a	-0.038839616
32	0x3cb5727e	0.02214932
33	0xbd378670	-0.044805944
34	0xbcd65a7f	-0.026166199
35	0x39bb8800	0.00035768747
36	0x3d10ed9d	0.035382856
37	0xbbf95340	-0.007608801
38	0x3d2367ac	0.03989379
39	0x3db5d65c	0.088787764
40	0x3e0e2dda	0.13884678
41	0xbce62f10	-0.028098613
42	0x3e2597b4	0.16171151
43	0x3d8a6243	0.06757023
44	0x3d0686a7	0.03284326
45	0xbd569fce	-0.052398495
46	0xbd7ef560	-0.062245727
47	0xbd7aa596	-0.06119307
48	0xbd2d8201	-0.04236031
49	0x3d2a4dbd	0.041578043
50	0x3d5530d2	0.05204851
51	0xbd441f9a	-0.0478817
52	0x3cb3a9fd	0.021931643
53	0xbdbc0ffa	-0.09182735
54	0xbcfc0529	-0.03076418
55	0x3c6787cb	0.014131497
56	0x3d931f06	0.071836516
57	0x3db3265e	0.08747552
58	0xbd5fd6f6	-0.054648362
59	0xbc57cfcb	-0.0131721
60	0xbd8c6a94	-0.06856266
61	0xbd96c29d	-0.07361338
62	0x3e1a4be4	0.15068012
63	0x3e0d627a	0.13807097

target_model.0.weight f4 [64, 66]
0	0xbe581436	-0.2110146
1	0xbe349b29	-0.17637314
2	0x3d80de56	0.06292407
3	0xbd9c42d9	-0.07629938
4	0x3dbc76f6	0.092023775
5	0x3d7057d3	0.058677506
6	0xbd0ed328	-0.034869343
7	0x3e324eb6	0.17412838
8	0x3e4aa8f8	0.19791019
9	0xbdd58091	-0.10424913
10	0x3e0ac6e9	0.1355244
11	0xbe2d5b69	-0.16929401
12	0xbd25068c	-0.040289447
13	0x3e4dfce9	0.20116009
14	0x3e075bcf	0.13218616
15	0xbd94f99e	-0.07274173
16	0xbd50652d	-0.05087774
17	0x3d8524d6	0.065011665
18	0x3e1fe1a5	0.1561342
19	0x3e162c33	0.14665298
20	0x3d482734	0.048865512
21	0x3e037c6e	0.12840435
22	0x3e43e832	0.19131544
23	0xbe3000ca	-0.17187801
24	0x3c486cfb	0.012233014
25	0x3e5badd5	0.2145303
26	0xbd8a2a65	-0.06746367
27	0xbe57c749	-0.21072115
28	0x3e115dfb	0.14196007
29	0xbc482965	-0.0122169005
30	0xbe4d0cab	-0.20024364
31	0xbe32f5c4	-0.17476565
32	0x3e08218e	0.1329405
33	0xbe5658c5	-0.209323
34	0xbe2ffd2f	-0.17186426
35	0xbe59ec2b	-0.21281497
36	0xbc83267a	-0.016009558
37	0x3c5c7800	0.013456345
38	0x3d33c9d1	0.04389364
39	0xbe38453a	-0.17995158
40	0xbd92d3cb	-0.071693026
41	0x3bd6e692	0.006558248
42	0xbe0ce935	-0.13760836
43	0xbca636f3	-0.020289874
44	0x3dbeacad	0.09310279
45	0x3d53eac4	0.05173756
46	0xbe1d50ca	-0.1536285
47	0x3d1506a4	0.036383286
48	0x3e4614d1	0.19343878
49	0xbe11bd23	-0.14232306
50	0xbdec51c6	-0.115390345
51	0x3db4f494	0.08835712
52	0x3e300323	0.17188697
53	0xbe133492	-0.14375523
54	0x3dc0a68a	0.09406765
55	0x3e00c5f7	0.12575518
56	0x3e1c729d	0.15278096
57	0xbe574c20	-0.21025133
58	0x3e34a779	0.17642011
59	0x3e46261c	0.19350475
60	0x3d7139ac	0.05889289
61	0x3e0e34c0	0.1388731
62	0xbe406d8a	-0.18791786
63	0xbdcb88b2	-0.09938182
64	0x3da7ce86	0.08193688
65	0x3dd10af3	0.102071665
66	0xbdbb732b	-0.09152826
67	0x3cc71962	0.024304096
68	0xbe046320	-0.12928438
69	0xbe17c6ac	-0.14821881
70	0xbdf9ab7f	-0.121909134
71	0xbb3384a8	-0.0027392302
72	0xbe597b89	-0.21238531
73	0xbe2c3067	-0.16815339
74	0x3e245f17	0.16051899
75	0xbe73a794	-0.23794395
76	0xbe05079a	-0.12991181
77	0xbe3d9d48	-0.1851703
78	0x3e11dac4	0.14243609
79	0x3d5fbb48	0.054621965
80	0xbc9a9d63	-0.018873876
81	0x3e41f547	0.18941222
82	0xbde9a8fc	-0.11409184
83	0x3d7e0ea4	0.06202568
84	0xbd72f7e0	-0.059318423
85	0x3d0f21d8	0.034944385
86	0xbe10b510	-0.1413157
87	0xbdacd856	-0.084397
88	0x3d7af9ec	0.0612735
89	0x3df8d197	0.12149351
90	0x3e0552dc	0.1301989
91	0x3e59107d	0.21197696
92	0xbe5d6d90	-0.21623826
93	0x3e0e7611	0.13912226
94	0x3cb2d49d	0.021829898
95	0x3c66338a	0.014050374
96	0xbd8cf092	-0.06881823
97	0x3e4ecd3d	0.2019548
98	0xb89e8026	-7.5578966e-05
99	0xbda34802	-0.07972719
100	0xbd71a406	-0.058994316
101	0x3d9c4376	0.07630055
102	0x3d07f912	0.033196516
103	0xbe2a6b71	-0.16642548
104	0xbd5dcdc3	-0.054151308
105	0x3c67c73b	0.014146621
106	0x3e1a563f	0.15071963
107	0xbdfd93f1	-0.12381733
108	0x3e19ef34	0.15032655
109	0xbe1c2db4	-0.1525181
110	0x3e01b7b3	0.12667732
111	0x3a006100	0.00048972666
112	0xbe3ee003	-0.18640141
113	0x3dfa3b46	0.12218337
114	0x3de2f16e	0.11081205
115	0x3df6d7f5	0.12052909
116	0xbb777500	-0.0037758946
117	0x3e40db19	0.18833579
118	0xbd9afbdb	-0.07567569
119	0x3d106bd3	0.03525908
120	0xbd81e6b0	-0.06342828
121	0x3d1c19da	0.03811059
122	0xbdd530f6	-0.10409729
123	0x3d9e3b03	0.07726099
124	0x3be70e00	0.0070512295
125	0xbdf633ec	-0.12021622
126	0xbe1532db	-0.14570181
127	0x3e51c46a	0.20485082
128	0xbe79c5a6	-0.24391803
129	0x3d276da0	0.04087603
130	0xbe060dc1	-0.13091184
131	0x3e09d697	0.13460766
132	0xbde3a695	-0.111157574
133	0xbdee530f	-0.11636936
134	0xbe32fd20	-0.17479372
135	0xbcdb7fe2	-0.026794378
136	0x3d59a284	0.053133503
137	0x3bb90c7a	0.0056472393
138	0x3e412ef9	0.18865575
139	0xbdacb256	-0.084324524
140	0xbd20f983	-0.039300453
141	0xbe1c4736	-0.1526154
142	0xbcce28d0	-0.025165945
143	0x3e0b9ff7	0.1363524
144	0xbc839c85	-0.016065845
145	0x3e50eacd	0.2040207
146	0xbc76ecd5	-0.015071114
147	0x3d72ec94	0.05930765
148	0x38f61a20	0.0001173506
149	0x3c835020	0.016029418
150	0x3e0cb88e	0.13742277
151	0x3e18a077	0.14904962
152	0xbd9f6f80	-0.07784939
153	0xbe48c0cd	-0.19604798
154	0xbe05ef0f	-0.13079475
155	0xbe1fea42	-0.15616706
156	0xbe193193	-0.14960317
157	0x3d28f202	0.04124642
158	0x3db773d4	0.08957639
159	0x3e307057	0.17230354
160	0x3e4bef55	0.19915517
161	0xbe439e6f	-0.19103406
162	0xbde3b671	-0.11118782
163	0xbe2c6434	-0.168351
164	0x3cad2683	0.021136528
165	0xbe47e214	-0.19519836
166	0x3df42956	0.11921947
167	0x3dae3f4e	0.08508168
168	0xbe238a84	-0.15970808
169	0x3d9d0806	0.07667546
170	0xbe49dd8d	-0.19713421
171	0x3e1911d0	0.14948201
172	0x3e5a5453	0.2132123
173	0xbe4a5041	-0.19757177
174	0xbda4a735	-0.08039705
175	0x3d9db6de	0.07700895
176	0xbcfc86fb	-0.030826082
177	0xbdeb720e	-0.114963636
178	0x3e70c737	0.23513494
179	0xbdcb5857	-0.09928959
180	0xbd2e1438	-0.04249975
181	0x3d13c3a4	0.03607525
182	0x3e58d2af	0.2117412
183	0x3da37628	0.07981521
184	0xbcc4aa9d	-0.024007136
185	0xbe0948e0	-0.13406706
186	0x3bb387a1	0.0054788147
187	0x3e50ad00	0.20378494
188	0xbe218626	-0.1577383
189	0xbe28402a	-0.16430727
190	0xbdf2b5e7	-0.11851101
191	0xbdf2215c	-0.11822769
192	0x3e0c79f9	0.13718404
193	0x3d7f7137	0.06236383
194	0x3e5a61a6	0.21326312
195	0x3da1ea35	0.079059996
196	0xbe11b112	-0.14227703
197	0x3e266fd9	0.16253604
198	0x3e07106b	0.13189857
199	0x3dba9552	0.09110512
200	0x3e410685	0.18850143
201	0x39241ddf	0.00015651387
202	0x3e4e23e7	0.20130883
203	0x3de87636	0.11350672
204	0xbd8da204	-0.06915668
205	0xbd0edfff	-0.034881588
206	0xbe3a17d8	-0.18173158
207	0x3dbddfb3	0.09271183
208	0xbca23a58	-0.019803211
209	0x3dd76542	0.1051736
210	0x3d924742	0.071424976
211	0x3c654997	0.013994596
212	0xbdf1a0b1	-0.117982276
213	0xbd616558	-0.05502829
214	0xbe6824f4	-0.22670346
215	0x3dbf70c6	0.09347682
216	0x3b473f6a	0.0030402788
217	0xbd2ddeb8	-0.04244873
218	0x3d9b356a	0.07578547
219	0x3e36a2c2	0.17835525
220	0xbd8f8d95	-0.070094265
221	0x3e114b8e	0.14188978
222	0xbcd681b7	-0.0261849
223	0xbc30516b	-0.010761599
224	0x3965e800	0.00021925569
225	0x3e0278f3	0.12741451
226	0xbe310bf6	-0.17289719
227	0xbcfdb506	-0.030970108
228	0xbd7456f3	-0.059653234
229	0x3e0e059d	0.13869329
230	0x3e21556d	0.15755244
231	0xba6e4200	-0.0009088814
232	0xbe01c3b0	-0.12672305
233	0x3998ca00	0.000291422
234	0x3dc9a9f9	0.09846873
235	0xbe310cc8	-0.17290032
236	0x3da9971b	0.08280774
237	0xbe134283	-0.14380841
238	0xbdf3b4f0	-0.118997455
239	0x3d09e3c8	0.033664495
240	0xbd8a28a4	-0.06746033
241	0x3cd180d3	0.025574123
242	0xbd5ee9d0	-0.0544222
243	0x3db3a391	0.08771432
244	0x3d5047f0	0.050849855
245	0x3e45cf71	0.19317414
246	0x3d15fe44	0.03661944
247	0xbe560278	-0.20899379
248	0x3dfb62e6	0.12274723
249	0x3db7dfb2	0.08978213
250	0xbdee9026	-0.11648588
251	0x3e4bb2d9	0.19892444
252	0xbe2b087b	-0.16702454
253	0xbe2ce0cc	-0.16882628
254	0x3d81672e	0.06318508
255	0xbdce7699	-0.100812145

target_model.0.bias f4 [64]
0	0xbdf72188	-0.120669425
1	0xbcf6c261	-0.030121984
2	0x3e0a93d4	0.13532954
3	0xbdd48f95	-0.103789486
4	0x3e4a4d1c	0.19755977
5	0x3d8be876	0.06831448
6	0x3c50d073	0.012745011
7	0x3d42ee2f	0.04759043
8	0xbd331f70	-0.043731153
9	0x3db26fba	0.087127164
10	0x3d8fdfe8	0.070251286
11	0xbd6aa24f	-0.057283696
12	0x3e6e6cc4	0.23283678
13	0xbcdd3f3a	-0.027007688
14	0x3dfb7ef6	0.12280075
15	0x3d4e2dbe	0.050336592
16	0x3de70bb1	0.11281527
17	0x3df1084b	0.1176916
18	0xbdca4522	-0.09876467
19	0xbd0f2806	-0.03495028
20	0x3daa419d	0.08313296
21	0x3e233598	0.15938413
22	0xbdae7f3b	-0.08520361
23	0x3e16dad8	0.1473192
24	0xbb9629c6	-0.0045826165
25	0xbd3ad0f9	-0.045609448
26	0xbe09417a	-0.13403884
27	0x3e1a8862	0.15091088
28	0x3d9b52f6	0.07584183
29	0x3e2041a2	0.15650037
30	0xbd83223a	-0.064030126
31	0xbdd71814	-0.105026394
32	0x3e27d002	0.16387942
33	0xbd0d5652	-0.03450615
34	0x3c7b70c9	0.015346714
35	0x3db76557	0.08954876
36	0xbdba8ddb	-0.09109088
37	0xbdc377b5	-0.09544317
38	0x3cffc0d4	0.031219877
39	0xbc38bb5f	-0.0112751415
40	0xbdcb2f35	-0.099211134
41	0x3e03470f	0.12820075
42	0xbe0ea985	-0.13931854
43	0xbe05d49e	-0.13069388
44	0xbd3a9e32	-0.045561023
45	0xbc412213	-0.011787909
46	0x3be22f80	0.006902635
47	0xbd17785a	-0.03698001
48	0x3e3bf0b8	0.18353546
49	0xbcd52eb8	-0.026023254
50	0xbd2c0e06	-0.04200556
51	0xbd440fc6	-0.047866605
52	0xbdeed222	-0.116611734
53	0xbd511d0e	-0.0510531
54	0xbd8269a7	-0.06367808
55	0xbcb4e904	-0.022083767
56	0x3dcc700c	0.09982309
57	0xbd760053	-0.060058903
58	0xbb99a368	-0.004688669
59	0x3cee4203	0.029084211
60	0x3d77e464	0.060520545
61	0xbdb1ea5e	-0.0868728
62	0xbd530294	-0.05151613
63	0xbd9efd7d	-0.07763193

target_model.2.weight f4 [16, 64]
0	0xbca925da	-0.020647932
1	0x3e791ac6	0.2432662
2	0x3daea077	0.085267
3	0x3e22f4e2	0.15913728
4	0x3d4f6d02	0.050641067
5	0x3d045afa	0.032313325
6	0xbe37bc81	-0.17943002
7	0xbd3c1587	-0.045918968
8	0x3db9f423	0.090797685
9	0x3e8aaf96	0.27087086
10	0x3e833010	0.25622606
11	0xbdbee2c6	-0.09320597
12	0x3d900b98	0.07033461
13	0x3dd1f663	0.10252073
14	0x3e82c612	0.2554174
15	0x3c21c124	0.0098727085
16	0xbd52213e	-0.051301233
17	0xbe3528b7	-0.17691313
18	0xbd71b2a6	-0.059008263
19	0xbe8dc767	-0.27691194
20	0x3dd1583e	0.10221909
21	0x3d1aae75	0.03776403
22	0xbe41da73	-0.18930988
23	0xbce646ca	-0.028109927
24	0x3e213cd5	0.15745862
25	0xbe6bdc01	-0.23033144
26	0xbe1dec69	-0.15422215
27	0xbb96ac90	-0.004598208
28	0x3dea00e8	0.11425954
29	0x3e91e7ba	0.28497106
30	0x3e657175	0.22406562
31	0x3e6e5ccc	0.23277587
32	0xbd70894b	-0.058724683
33	0xbe07b9ab	-0.1325442
34	0x3e488c6e	0.1958482
35	0x3c93e913	0.018055474
36	0xbe516221	-0.2044759
37	0xbdaa36fa	-0.08311267
38	0x3da7803e	0.08178757
39	0xbd4fe024	-0.050750867
40	0x3e0412da	0.12897816
41	0x3e072a57	0.13199745
42	0xbe6fe0b2	-0.23425558
43	0xbdb1bc37	-0.08678477
44	0xbc4ae9c8	-0.012384839
45	0xbaee265d	-0.0018169392
46	0x3d74d310	0.059771597
47	0xbde9f4f4	-0.11423674
48	0xbc0b6ee5	-0.008510326
49	0x3dc91719	0.09818859
50	0x3cab1918	0.02088599
51	0xbe86237d	-0.2619895
52	0xbe80324b	-0.2503837
53	0x3e935042	0.2877217
54	0xbd07b684	-0.033133045
55	0x3c946544	0.018114693
56	0x3dc31fad	0.09527526
57	0x3d06845c	0.03284107
58	0xbe525ea6	-0.20543918
59	0xbdef914b	-0.11697634
60	0x3e31611d	0.17322202
61	0xbe88b662	-0.26701647
62	0xbe2a49ed	-0.16629763
63	0xbe5f66d1	-0.21816565
64	0xbdb8cba4	-0.09023216
65	0x3e43c43c	0.19117826
66	0x3d1439a0	0.036187768
67	0x3e4f8b2d	0.20267935
68	0x3dc0c257	0.094120674
69	0xbe57e9fe	-0.21085355
70	0xbda6535b	-0.081213675
71	0xbe8a2927	-0.26984522
72	0x3d69ef4c	0.057112977
73	0xbe0d153f	-0.13777636
74	0x3e443132	0.19159392
75	0xbc950014	-0.018188514
76	0x3e77acb6	0.24186978
77	0x3e549485	0.2075978
78	0xbe63962a	-0.22225252
79	0xbe015385	-0.12629516
80	0xbcd2b0c4	-0.025719054
81	0xbe32c49e	-0.17457816
82	0xbbc1b772	-0.005911761
83	0x3e89cec3	0.2691556
84	0xbdea3af5	-0.114370264
85	0xbe5632d7	-0.20917831
86	0x3d69dfd2	0.057098217
87	0x3e0a5956	0.13510641
88	0x3e809ccc	0.25119627
89	0xbe258338	-0.16163337
90	0x3d353f7d	0.04425
91	0xbe30b4ef	-0.1725652
92	0x3d08189d	0.033226598
93	0x3e0d97dc	0.13827461
94	0x3d8b59b5	0.0680422
95	0xbe4623f7	-0.19349657
96	0x3e932d7a	0.28745633
97	0x3d609bb3	0.054835986
98	0xbce2c166	-0.02768011
99	0xbe4d550a	-0.20051971
100	0xbcf22f46	-0.029563557
101	0xbe1aa6e2	-0.15102723
102	0x3de0f310	0.109838605
103	0x3d0c6f10	0.034285605
104	0xbe298113	-0.16553144
105	0x3e8d4da1	0.2759829
106	0xb9fb667c	-0.00047950807
107	0xbc80da73	-0.015729165
108	0x3ce04d96	0.027380746
109	0xbe4098bd	-0.18808265
110	0x3e5d2488	0.21595967
111	0x3e85dd57	0.2614543
112	0x3ca2db02	0.019879822
113	0x3ded406e	0.115845546
114	0x3e87a5ec	0.26493776
115	0x3db09571	0.08622254
116	0xbe85f286	-0.26161593
117	0xbdb1a611	-0.08674253
118	0x3e5ec1f0	0.21753669
119	0xbc8563f5	-0.016283015
120	0x3e10de6a	0.14147344
121	0xbe20aa36	-0.1568993
122	0x3e922222	0.28541666
123	0xbde5959f	-0.112101786
124	0xbc80694b	-0.015675208
125	0xbd6a0ea4	-0.05714287
126	0xbe6b047b	-0.22950928
127	0x3e8a2bf6	0.26986665
128	0xbe18f44e	-0.14936945
129	0x3e4b4e56	0.19854102
130	0x3df86360	0.12128329
131	0x3e5eb87a	0.2175006
132	0x3e825a4c	0.25459516
133	0xbcc2ca20	-0.023778021
134	0x3d88218c	0.066470236
135	0xbda3f532	-0.08005752
136	0x3d909dc4	0.070613414
137	0xbe8b2db7	-0.27183315
138	0xbdeb1462	-0.11478497
139	0x3e88540e	0.2662663
140	0x3e10316e	0.14081356
141	0x3c872260	0.016495883
142	0x3ded4464	0.1158531
143	0x3c2cc720	0.010545522
144	0x3e83021c	0.25587547
145	0xbda8d2da	-0.08243342
146	0x3e83c4ee	0.25736183
147	0x39c89c00	0.00038263202
148	0x3e237242	0.15961555
149	0x3e050836	0.12991413
150	0x3e219b28	0.15781844
151	0x3d9d5b88	0.07683474
152	0xbd58b838	-0.05291006
153	0x3d681ce8	0.056668192
154	0x3e7ff724	0.2499662
155	0x3dc3d290	0.09561646
156	0x3d04b2c0	0.03239703
157	0xbe88d749	-0.2672675
158	0xbe433e9a	-0.1906685
159	0xbde8d0be	-0.113679394
160	0xbe81168b	-0.2521251
161	0xbd814c06	-0.063133284
162	0xbe0aac4a	-0.13542286
163	0xbb85fb00	-0.0040887594
164	0xbe18908e	-0.14898893
165	0x3e387b86	0.1801587
166	0x3d8ba480	0.06818485
167	0x3d8809bc	0.06642482
168	0xbe67adb6	-0.22624859
169	0x3d164c58	0.0366939
170	0xbe1c6950	-0.15274549
171	0x3d10c0a0	0.03533995
172	0xbe4aa32a	-0.19788805
173	0x3da116b4	0.078656584
174	0xbd93607c	-0.07196137
175	0x3e35f42c	0.17768925
176	0x3da39fcc	0.07989463
177	0x3e34b660	0.17647696
178	0xbe501c30	-0.20323253
179	0xbe8679e6	-0.26264876
180	0x3e09459a	0.13405457
181	0xbd131090	-0.035904467
182	0xbe79f803	-0.24411015
183	0xbe4a43f9	-0.19752492
184	0x3d940d98	0.07229155
185	0x3d754718	0.059882253
186	0xbe6d5968	-0.23178637
187	0xbe81d88d	-0.25360528
188	0xbc6b81a0	-0.014374167
189	0x3e6b0fc0	0.22955227
190	0xbe0effb9	-0.13964738
191	0xbcc83768	-0.024440482
192	0xbc4e1ea0	-0.012580544
193	0xbd0528e4	-0.0325097
194	0x3dd6de38	0.104916036
195	0xbd811934	-0.06303635
196	0x3e153da7	0.145743
197	0xbddeb6b6	-0.10874693
198	0xbe5726ee	-0.21010944
199	0x3daa0cfb	0.08303257
200	0xbb32e929	-0.0027299619
201	0xbe8a5b55	-0.27022806
202	0x3d106fb0	0.035262764
203	0x3e8396fa	0.25701123
204	0x3e191fd4	0.14953548
205	0x3e031c5b	0.12803786
206	0xbdd9a62f	-0.106274
207	0xbe6f4848	-0.23367417
208	0xbe5c3464	-0.2150436
209	0x3e5b92cc	0.21442717
210	0x3e289c50	0.16465878
211	0x3bd3d340	0.006464392
212	0x3e87bcc6	0.2651121
213	0x3d28f0a4	0.041245118
214	0xbd46008c	-0.048340365
215	0x3dadba12	0.08482756
216	0xbe899382	-0.26870352
217	0x3d9d56d8	0.0768258
218	0xbe8635c3	-0.26212892
219	0xbd0a6276	-0.033785306
220	0x3e1f1cf0	0.15538383
221	0xbd932c4e	-0.07186185
222	0x3e4b8784	0.19875914
223	0x3d3eb380	0.046557903
224	0xbe68ed01	-0.2274666
225	0x3d0f6b8e	0.03501468
226	0xbe6845d3	-0.22682886
227	0xbda7df94	-0.08196941
228	0x3e4ef96a	0.20212331
229	0xbdf65dea	-0.120296314
230	0xbe528ad6	-0.20560774
231	0x3daa5438	0.08316845
232	0x3e094ceb	0.13408248
233	0xbcbea575	-0.023272255
234	0x3d556122	0.052094586
235	0x3b046200	0.0020200014
236	0x3dbaa9ae	0.09114395
237	0xbb424d80	-0.0029648244
238	0xbe6e97ef	-0.23300146
239	0xbe62d82f	-0.2215278
240	0x3e4bd05b	0.199037
241	0x3dd5d394	0.10440746
242	0x3c81acbc	0.015829436
243	0x3e25014c	0.16113776
244	0xbe01412e	-0.1262252
245	0xbe7ae7ea	-0.2450253
246	0x3c904632	0.017611597
247	0xbd5448b0	-0.051827133
248	0xbe250eb3	-0.16118889
249	0xbe76a5bc	-0.2408666
250	0x3df9bae0	0.12193847
251	0x3e0bfd92	0.13670948
252	0x3c6303a1	0.013855846
253	0xbe357017	-0.1771854
254	0xbe8399eb	-0.25703368
255	0xbda29844	-0.079391986

target_model.2.bias f4 [16]
0	0x3d918d9f	0.0710709
1	0x3e0e08f0	0.13870597
2	0xbd1316ec	-0.035910532
3	0xbdea97cc	-0.11454734
4	0x3d83ec1b	0.06441518
5	0x3dba6938	0.091021
6	0xbd626389	-0.055270705
7	0xbbe9d810	-0.0071363524
8	0x3ce19b66	0.02753992
9	0xbc901f0f	-0.017592935
10	0x3d5c38c6	0.05376508
11	0xbd31e3c2	-0.043430097
12	0xbdd5c5b2	-0.10438098
13	0x3c75c80f	0.015001311
14	0xbde5f10a	-0.11227615
15	0x3dd13c0e	0.10216533
