Pytorch_DRL/DDPG/models/backup/3.25/best_ca_critic.model (torch_old, 224933 bytes, 9 tensors)

sensor_model.0.weight f4 [128, 360]
0	0x3ccd56d2	0.025065813
1	0xbd1952d1	-0.037432496
2	0x3d9ab1a3	0.07553413
3	0x3da9c359	0.08289213
4	0x3c68edde	0.014216868
5	0xbd1b6f7c	-0.037948117
6	0xbd31d152	-0.043412514
7	0x3cd883b3	0.026429987
8	0xbd7000c5	-0.058594484
9	0xbbccfc92	-0.0062556947
10	0x3aa75eff	0.00127694
11	0xbd66dde1	-0.056363944
12	0x3da7ee2d	0.08199725
13	0xbdb2d7db	-0.087325774
14	0xbcd81dde	-0.02638143
15	0xbba74333	-0.0051044463
16	0x3dc78b68	0.097433865
17	0x3dd135e1	0.10215355
18	0xbd83105e	-0.06399606
19	0x3d5fb502	0.054615982
20	0x3b277490	0.0025551654
21	0xbdc443b7	-0.09583228
22	0xbda1f168	-0.07907373
23	0x3dd4f217	0.103977375
24	0xbd3e40aa	-0.046448387
25	0x3b46bb37	0.003032399
26	0xbc731896	-0.014837405
27	0x3d8688dc	0.065690726
28	0x3d3b651c	0.045750722
29	0xbce1f84b	-0.027584216
30	0x3d2d5f92	0.04232747
31	0x3d789dc1	0.06069732
32	0xbd42f3fb	-0.04759596
33	0x3d1cfb7b	0.038325768
34	0x3db77a25	0.08958844
35	0x3c468ff6	0.012119284
36	0x3dd3fa75	0.10350505
37	0x3dd7862f	0.1052364
38	0xbdb430f1	-0.08798397
39	0xbd9a2477	-0.07526486
40	0x3d7c456b	0.06158964
41	0x3d7ed06a	0.062210478
42	0xbd724988	-0.059152156
43	0x3d25c7d8	0.04047379
44	0x3cf43578	0.029810652
45	0xbd893277	-0.066990785
46	0xbc7b3d67	-0.015334464
47	0x3dc983ca	0.0983959
48	0xbdb19cac	-0.08672461
49	0xbbf7aa61	-0.0075581525
50	0xbd201d56	-0.039090477
51	0x3dd912d4	0.10599294
52	0xbd673c8a	-0.05645422
53	0x3d94946b	0.07254871
54	0xbe006e1d	-0.12542005
55	0xbd2766d6	-0.040869556
56	0x3c08ef46	0.0083578285
57	0x3cdb0603	0.026736265
58	0x3d89848c	0.067147344
59	0xbda6ea36	-0.08150141
60	0x3d6c3834	0.057670787
61	0xbe009664	-0.1255737
62	0xbdac8abb	-0.08424898
63	0x3cc42e4b	0.023947855
64	0xbde1ee7c	-0.110318154
65	0x3c49f7ce	0.012327148
66	0x3d4f604e	0.050628953
67	0x3d337d55	0.043820698
68	0xbdc4e733	-0.0961441
69	0xbcc7f3a0	-0.024408162
70	0x3d9e2f7d	0.077239014
71	0xbd0016b2	-0.031271644
72	0x3dba97fa	0.091110185
73	0xbdef33a2	-0.1167977
74	0xbc948e48	-0.018134251
75	0x3db6e652	0.08930649
76	0xbd3a7b40	-0.045527697
77	0x3d30ef0b	0.04319672
78	0x3ba06ca3	0.004895763
79	0x3dcbfc2b	0.099602066
80	0x3bd2720e	0.006422288
81	0x3c892cef	0.016745059
82	0x3d29b76a	0.041434683
83	0x3c9d947b	0.01923584
84	0x3d8dcc3b	0.069237195
85	0x3d67b5dd	0.056569923
86	0xbbde6af2	-0.006787651
87	0x3c8790f0	0.016548604
88	0x3d13b1c6	0.03605821
89	0x3d7e48f0	0.062081277
90	0x3c8b7f87	0.017028583
91	0x3cb54495	0.022127429
92	0xbddfb9c2	-0.10924102
93	0xbde50128	-0.11181861
94	0x3cb30d70	0.021856993
95	0xbd31f333	-0.043444823
96	0x3d9026bc	0.07038638
97	0xbdc4075e	-0.09571718
98	0x3d83c272	0.06433572
99	0xbd870ec7	-0.065946154
100	0x3d5fe162	0.0546583
101	0x3d191cce	0.037380986
102	0x3d8a04f9	0.0673923
103	0xba931192	-0.0011220446
104	0xbdb3ee24	-0.08785656
105	0xbd28ecb3	-0.04124136
106	0xbd6395a5	-0.055562634
107	0x3d4d80cd	0.050171662
108	0x3d11064f	0.035406407
109	0x3d0bfa71	0.034174386
110	0x3c62e24c	0.013847899
111	0x3da5e952	0.08101143
112	0x3c3ee7fe	0.011651991
113	0x3d8193d4	0.06327024
114	0x3d8b598d	0.0680419
115	0xbc7fb966	-0.015608167
116	0xbbeb9a0e	-0.0071899956
117	0x3cf50703	0.02991057
118	0xbd8307ec	-0.06397995
119	0x3dfe4cb5	0.124169745
120	0x3dea6438	0.114448965
121	0x3d8d833b	0.06909796
122	0xbcd90c12	-0.026495013
123	0xbced7bc0	-0.028989673
124	0x3dda14fc	0.10648534
125	0xbbf5971f	-0.0074948217
126	0xbc23d450	-0.00999935
127	0x3d807d17	0.06273859
128	0xbd409c83	-0.04702426
129	0xbda57975	-0.08079807
130	0xbda28685	-0.07935814
131	0x3dc31bec	0.0952681
132	0x3d669227	0.056291725
133	0xbd4b9818	-0.049705595
134	0xbdab0b7d	-0.083518006
135	0x3b65b9d5	0.0035053391
136	0xbcf21a9f	-0.02955371
137	0xbd9f2113	-0.0776998
138	0x3d6dd617	0.0580655
139	0xbdac8434	-0.08423653
140	0x3c189337	0.0093124425
141	0x3c064139	0.008194261
142	0x3d876f4a	0.066130236
143	0xbc75354c	-0.01496632
144	0xbc23760d	-0.009976876
145	0xbc8caadb	-0.017171314
146	0xbd7ebde6	-0.06219282
147	0x3dbde1e2	0.09271599
148	0x3d23ba35	0.039972503
149	0xbd961377	-0.073279314
150	0xbcdbe734	-0.026843645
151	0x3c756910	0.014978662
152	0x3d1298d9	0.035790298
153	0xbc8d6895	-0.017261783
154	0xbd657c93	-0.056027006
155	0x3daff39e	0.08591388
156	0x3dd073e8	0.10178357
157	0x3de48305	0.111578025
158	0xbdd0d964	-0.10197714
159	0x3d90e970	0.07075775
160	0xbd99d1c3	-0.07510712
161	0xbd650a6d	-0.055918146
162	0x3d5402c6	0.051760457
163	0x3cff68d7	0.031177921
164	0x3d6acbf8	0.057323426
165	0x3d4f3b69	0.050593767
166	0x3cb19207	0.021676077
167	0xbced6b4e	-0.02898183
168	0x3bcbc5d9	0.0062186536
169	0xbdb49ea9	-0.088193245
170	0xbdac49a0	-0.0841248
171	0x3c9ce411	0.01915172
172	0xbd645500	-0.055745125
173	0xbd04914f	-0.03236514
174	0x3c3f7874	0.011686433
175	0x3d0ac613	0.033880305
176	0x3d87fc2e	0.06639896
177	0x3db3e60c	0.08784112
178	0x3dd0589d	0.10173152
179	0x3d3e5ae0	0.046473384
180	0x3c400bcf	0.011721565
181	0x3bafef9f	0.005369141
182	0xbd90d85b	-0.070725165
183	0xbc5c71fc	-0.01345491
184	0xbdd4de7b	-0.10393997
185	0x3d5ed9c1	0.054406885
186	0xbdd1b9e4	-0.10240534
187	0xbd27373e	-0.040824167
188	0xbd9280b1	-0.07153452
189	0xbd9c33aa	-0.07627042
190	0x3c2e64ea	0.010644177
191	0x3d4c9d18	0.049954504
192	0x3dd0797c	0.10179421
193	0xbc4cd0b1	-0.012500928
194	0x3d957383	0.07297423
195	0x3de10ef5	0.10989181
196	0x3cbc5c15	0.022993127
197	0xbdcdcec4	-0.10049203
198	0xbdbb5090	-0.091462255
199	0x3d8bb078	0.06820768
200	0xbd9c3499	-0.0762722
201	0xbb8c04f4	-0.0042730514
202	0xbdb3c957	-0.08778637
203	0xbd740df4	-0.05958362
204	0x3d690c40	0.056896448
205	0xbd37ae56	-0.044843994
206	0xbd2dbf00	-0.04241848
207	0xbd37411d	-0.04473983
208	0xbd4078f6	-0.046990357
209	0xbd7d7e4a	-0.061888017
210	0xbd797052	-0.060898133
211	0xbdc83eaa	-0.09777577
212	0x3d9725c7	0.07380252
213	0x3da76710	0.081739545
214	0x3d6a3ac5	0.057184953
215	0xbd9cb7b2	-0.076522246
216	0xbd90327d	-0.0704088
217	0xbc83248f	-0.016008643
218	0x3d2b2411	0.041782442
219	0x3d919cbb	0.07109972
220	0x3d2180d3	0.039429497
221	0x3d26e46a	0.040745176
222	0x3d9ad41f	0.0755999
223	0xbc3cfc72	-0.011534797
224	0xbd25d0a5	-0.040482182
225	0xbb32b05b	-0.002726576
226	0x3da1f610	0.07908261
227	0x3dcac03d	0.09899948
228	0x3da1554f	0.078775994
229	0x3de405c4	0.11133912
230	0xbd5ffd8c	-0.05468516
231	0xbdb51865	-0.088425435
232	0x3c4659be	0.012106357
233	0xbd077ea0	-0.033079743
234	0x3dcee8eb	0.10103019
235	0xbd24e724	-0.040259495
236	0x3850bf1f	4.976906e-05
237	0x3d447572	0.047963567
238	0x3d35b56f	0.04436248
239	0xbc2fef43	-0.010738197
240	0x3ca86b7a	0.020559061
241	0xbd54747a	-0.051868893
242	0xbba3727c	-0.004988013
243	0x3d4582e1	0.04822052
244	0x3da3751a	0.0798132
245	0xbd89765a	-0.06712027
246	0xbcf4f0aa	-0.029899914
247	0xbdad0d09	-0.08449752
248	0x3d997672	0.07493295
249	0x3dbec878	0.0931558
250	0x3da5f03e	0.08102463
251	0x3c81a4a9	0.015825586
252	0xbc236292	-0.009972231
253	0x3d6e9c97	0.058254804
254	0x3d9ff868	0.078110516
255	0x3d184a63	0.037180316

sensor_model.0.bias f4 [128]
0	0x3d15fb48	0.036616594
1	0xbce97127	-0.028496338
2	0x3e03daf6	0.12876496
3	0xbd158a6e	-0.03650897
4	0xbd759e20	-0.059965253
5	0x3dca8643	0.0988889
6	0xbc92e2cb	-0.017930409
7	0x3cff8b48	0.031194344
8	0xbb09db1f	-0.0021035147
9	0xbd5b2fd1	-0.0535124
10	0xbd03ca01	-0.032175068
11	0xbd152a97	-0.03641757
12	0x3c914a9a	0.017735768
13	0xbd64cbf8	-0.055858582
14	0xbca409de	-0.020024236
15	0xbcc6d18d	-0.024269843
16	0x3b6b8c21	0.0035941678
17	0xbd2bbc1e	-0.04192745
18	0x3ccdcccf	0.025122074
19	0x3c8df581	0.01732898
20	0x3d88ac87	0.06673532
21	0x3d46088e	0.048348002
22	0xbb77768c	-0.0037759868
23	0x3da55d4b	0.08074435
24	0x3d69078c	0.056891963
25	0xbc42f776	-0.01189982
26	0x3c2f406b	0.010696511
27	0xbb9cef37	-0.004789259
28	0x3d5daec2	0.05412174
29	0xbd104de9	-0.03523055
30	0xbaaa22d3	-0.0012980349
31	0x3c594301	0.013260604
32	0xbb6a3aa5	-0.0035740521
33	0x3c40dc2b	0.011771242
34	0x3d07d29c	0.033159837
35	0xbcf99b6d	-0.03046962
36	0xbcd8b99e	-0.026455697
37	0x3da94bb2	0.08266391
38	0xbd81e6f8	-0.06342882
39	0x3d6c9dfc	0.057767853
40	0x3ce70c36	0.028204065
41	0x3d3f98b2	0.04677648
42	0x3c75f26a	0.015011409
43	0x3c8f1dda	0.017470289
44	0x3b8f5297	0.004373859
45	0xbd802575	-0.06257144
46	0x3d630a61	0.05542982
47	0xbcae5169	-0.021279054
48	0xbc239aa5	-0.009985601
49	0xbd430207	-0.047609355
50	0xbd6ea59c	-0.058263406
51	0xbcd34a46	-0.025792252
52	0x3d15a53d	0.036534537
53	0x3bcd24a2	0.0062604705
54	0xbc6440bb	-0.013931449
55	0x3c406123	0.011741909
56	0xbca96b02	-0.020680908
57	0x3a984ad6	0.0011618983
58	0xbd818136	-0.06323473
59	0x3bd10f93	0.0063800304
60	0xbd167acd	-0.036738206
61	0x3ccb919c	0.024849705
62	0xbd6acbea	-0.057323374
63	0xbb3ca07a	-0.0028782175
64	0xbcfa0bc7	-0.030523194
65	0x3d935b6a	0.0719517
66	0xbc89a9a9	-0.016804533
67	0xbd233a84	-0.039850727
68	0x3d9f146b	0.07767566
69	0xbd5ac9ce	-0.053415112
70	0x3d6b8bc3	0.057506334
71	0x3da40a3b	0.08009764
72	0xbc3a5f4a	-0.011375258
73	0x3be3e2e2	0.006954537
74	0xbca01870	-0.019542903
75	0xbbaf01dd	-0.0053407983
76	0x3c2723bb	0.01020139
77	0xbbaf5086	-0.0053501753
78	0xbc858675	-0.016299466
79	0x3bfa8e19	0.007646334
80	0xbce6dbb8	-0.028180942
81	0xbd09e791	-0.033668105
82	0x3bd48fa4	0.00648685
83	0x3ca485d5	0.020083347
84	0x3d93a1ba	0.07208581
85	0x3c83c410	0.0160847
86	0xbd668a91	-0.05628449
87	0x3b9204a6	0.0044561205
88	0xbd29fa90	-0.04149872
89	0xbd1dc53f	-0.038518187
90	0x3d007ac6	0.031367086
91	0x3d52be8f	0.051451262
92	0xbc9a22a6	-0.01881535
93	0xbd200c4a	-0.03907422
94	0x3b1779bb	0.0023113328
95	0x3cf83f19	0.030303525
96	0xbd4c16a7	-0.04982629
97	0x3d105668	0.035238653
98	0xbb43805b	-0.0029831144
99	0xbbf0ecb6	-0.007352437
100	0xbbe14087	-0.0068741473
101	0xbc7e41d0	-0.015518621
102	0xbce46c2a	-0.027883608
103	0x3d814419	0.06311817
104	0xbb35b744	-0.0027727643
105	0x3d1d51f0	0.03840822
106	0xbb57f2fe	-0.003295123
107	0xbd2c9454	-0.042133644
108	0x3d8b894d	0.068132974
109	0xbd7b223a	-0.061311938
110	0xbcbf0145	-0.023316035
111	0x3d8de98b	0.069293104
112	0xbc70e3b1	-0.014702723
113	0xbd794f7a	-0.06086681
114	0x3d8d4315	0.068975605
115	0xbd471cc3	-0.048611414
116	0x3d70d9cc	0.058801457
117	0xbdb29d11	-0.08721364
118	0x3cd72ac6	0.026265513
119	0x3d2b5560	0.041829467
120	0xbb277a2c	-0.0025554998
121	0xbb4461dd	-0.0029965558
122	0x3dbe5a26	0.09294538
123	0xbd0315fc	-0.032003388
124	0xbc2f1e0e	-0.010688318
125	0x3d42b451	0.047535244
126	0xbd693a28	-0.056940228
127	0x3d8ae130	0.06781232

sensor_model.2.weight f4 [64, 128]
0	0xbdcb61df	-0.09930777
1	0x3db9b11c	0.09066984
2	0x3dffd7b6	0.124923155
3	0xbdef931b	-0.1169798
4	0xbcf53848	-0.029934064
5	0xbdf11759	-0.11772031
6	0x3d61d574	0.055135205
7	0xbd8e9809	-0.06962592
8	0xbb452884	-0.0030083964
9	0xbe2124e4	-0.15736729
10	0x3990a83e	0.0002759117
11	0x3c43bd99	0.011947059
12	0xbe070480	-0.1318531
13	0x3d4ddb74	0.050258115
14	0xbdcdcbd8	-0.10048646
15	0x3de077d1	0.10960353
16	0x3e1a90e5	0.15094335
17	0x3d2f4a79	0.042795632
18	0x3dd8e5ff	0.10590743
19	0x3deef842	0.11668445
20	0xbcb6bebb	-0.022307744
21	0xbcaf79dc	-0.021420412
22	0xbd1f67df	-0.03891742
23	0x3d912f26	0.07089071
24	0xbd1f9154	-0.038956955
25	0x3ce11c05	0.027479181
26	0xbc45c02e	-0.012069745
27	0x3d88d812	0.06681837
28	0x3d5383b1	0.051639263
29	0x3d9fea63	0.078083776
30	0x3e1d576e	0.15365383
31	0x3e0835c0	0.13301754
32	0xbe068450	-0.1313641
33	0x3e2d59a0	0.1692872
34	0x3e10347c	0.14082521
35	0x3bebbb05	0.0071939253
36	0x3e00aa5a	0.12564984
37	0x3e2dae37	0.16960989
38	0x3d361056	0.044449173
39	0xbc98a67c	-0.018634073
40	0xbdce84b5	-0.100839056
41	0xbd550e1b	-0.052015405
42	0xbb67ac24	-0.0035350407
43	0x3dca7414	0.098854214
44	0xbe023d99	-0.1271881
45	0xbdf469ff	-0.1193428
46	0x3d1b17fb	0.037864666
47	0x3d8c2360	0.06842685
48	0xbe2dd1e9	-0.16974606
49	0x3ba4f72d	0.0050343485
50	0x3dbfb5dd	0.093608595
51	0x3dd5ce72	0.10439767
52	0x3d9d295a	0.07673903
53	0x3d3f9fed	0.046783376
54	0x3e3ccb5d	0.18436952
55	0x3db2a023	0.0872195
56	0xbd1729c9	-0.036905084
57	0x3cab29f5	0.02089403
58	0xbdc105f1	-0.09424961
59	0x3db4f6e6	0.08836155
60	0x3e25b53e	0.1618242
61	0xbd8a1867	-0.06742936
62	0xbd5bc4bc	-0.053654417
63	0xbe1db7af	-0.15402101
64	0x3d380c6d	0.044933725
65	0x3e05507b	0.13018982
66	0xbd60b04b	-0.054855626
67	0xbd296a56	-0.041361175
68	0x3db4143b	0.08792921
69	0xbe1f389f	-0.15548943
70	0x3e250880	0.16116524
71	0x3e0504f4	0.1299017
72	0x3e0fc51e	0.14040038
73	0xbe037c91	-0.12840487
74	0xbe2e20f9	-0.17004766
75	0x3d843c1d	0.06456778
76	0xbd5f83d0	-0.054569066
77	0xbcb20246	-0.0217296
78	0x3dcb489c	0.099259585
79	0x3df0c72d	0.1175674
80	0x3de4ae58	0.11166066
81	0x3ddb6723	0.10713031
82	0xbd87ba1c	-0.066272944
83	0x3d02e5cc	0.031957433
84	0x3b8ebcb6	0.004355992
85	0x3d588cc0	0.052868605
86	0xbc54e65d	-0.012994376
87	0xbe0c1f4e	-0.13683817
88	0x3dd54d10	0.10415089
89	0xbe0f28d3	-0.13980417
90	0xbd786095	-0.060638983
91	0xbbedbfa0	-0.0072555095
92	0x3d449b4c	0.047999665
93	0x3dfe8722	0.12428118
94	0x3e2d340b	0.16914384
95	0xbbf89882	-0.0075865397
96	0xbdfedcc8	-0.124444544
97	0x3c12b75b	0.008954848
98	0xbe30c073	-0.17260914
99	0x3de46c5f	0.11153483
100	0x3e2c5aae	0.16831467
101	0xbb5f80d5	-0.003410389
102	0x3e21c7c5	0.15798862
103	0xbdcea986	-0.10090928
104	0x3de3cafd	0.11122701
105	0xbcb3baf4	-0.021939732
106	0xbd44f4ec	-0.04808514
107	0xbe2d3ff9	-0.16918935
108	0x3e1b8139	0.15186013
109	0xbe09e117	-0.13464771
110	0x3df288d2	0.11842503
111	0xbda3eadd	-0.08003781
112	0x3e2acb1d	0.16679044
113	0xbdb87d14	-0.09008232
114	0xbd194dab	-0.037427586
115	0x3dad71f4	0.084690005
116	0x3df33146	0.118746325
117	0x3d405319	0.046954248
118	0x3df31d1a	0.11870785
119	0xbbd63f65	-0.006538319
120	0xbcbd0bbd	-0.023076886
121	0x3db37198	0.08761901
122	0x3e1a2d31	0.15056302
123	0xbdbb38a3	-0.09141662
124	0x3caa2fa8	0.020774677
125	0x3e250749	0.1611606
126	0xbcb828fe	-0.022480484
127	0x3d1430b5	0.036179263
128	0x3d0e91c9	0.034807
129	0xbd945f78	-0.07244772
130	0x3d5ff622	0.05467809
131	0xbdda057b	-0.106455766
132	0x3d6eee76	0.058332883
133	0xbd98534a	-0.07437761
134	0xbe1c53c5	-0.1526633
135	0xbdecbf61	-0.1155994
136	0x3df01648	0.11723
137	0xbbf714b3	-0.0075403093
138	0x3de7d6b3	0.113202475
139	0x3e188324	0.14893776
140	0x3d9af7b4	0.07566777
141	0xbc044694	-0.008073468
142	0xbe2ec02c	-0.17065495
143	0xbdc301f3	-0.09521856
144	0x3c50fba0	0.012755305
145	0xbda8f20d	-0.082492925
146	0x3dfe3254	0.12411943
147	0x3e10e98a	0.14151588
148	0xbdf0762a	-0.11741288
149	0x3c0b1341	0.008488477
150	0xbc3ac7cb	-0.011400173
151	0xbe301914	-0.17197067
152	0xbe040a46	-0.12894544
153	0xbe0dacc2	-0.13835433
154	0xbd084efb	-0.033278447
155	0xbdb2bab9	-0.08727021
156	0x3db08988	0.08619982
157	0xbe2e9370	-0.1704843
158	0xbc931a7d	-0.017956967
159	0xbd12c9aa	-0.035836853
160	0x3d448977	0.04798266
161	0xbdadeb2d	-0.08492122
162	0x3b6bd937	0.0035987624
163	0x3d87e325	0.06635121
164	0x3de5f2b5	0.11227933
165	0xbd2dc367	-0.04242268
166	0xbdb53e43	-0.08849766
167	0x3e1c655b	0.15273039
168	0x3c27b5cd	0.010236216
169	0x3ca8cb88	0.020604864
170	0xbd4215eb	-0.047384184
171	0xbda5aa90	-0.08089173
172	0xbd3df388	-0.046374828
173	0x3c82f949	0.015988009
174	0x3e014626	0.12624416
175	0x3e017816	0.12643465
176	0xbd16fd55	-0.03686269
177	0x3e13037f	0.14356802
178	0x3e0a3c6c	0.13499612
179	0x3c38ca87	0.011278755
180	0xbd229e18	-0.03970155
181	0xbdc88b28	-0.09792167
182	0x3ca52423	0.020158833
183	0xbddf9c95	-0.109185375
184	0xbdb32f30	-0.08749235
185	0xbcbdf25d	-0.023186857
186	0x3dac2014	0.08404556
187	0xbda8608a	-0.08221538
188	0xbda43505	-0.08017925
189	0xbe28edab	-0.16496913
190	0x3dfccbff	0.12343597
191	0x3d714b06	0.05890944
192	0xbd82879b	-0.06373521
193	0x3a230adc	0.0006219575
194	0xbdfd4384	-0.12366393
195	0x3e1d6ff1	0.15374734
196	0xbcfce14e	-0.030869152
197	0x3bac870a	0.0052651213
198	0x3dda3dfb	0.10656353
199	0x3dd6530c	0.10465059
200	0x3d133b71	0.03594536
201	0x3e22287a	0.15835753
202	0x3da5c241	0.080936916
203	0xbe127b68	-0.14304888
204	0x3d8fd6d7	0.07023399
205	0xbcbd07cc	-0.023075007
206	0xbccf2e2e	-0.025290575
207	0x3cfc6414	0.03080944
208	0xbe28047a	-0.16407958
209	0xbcac5239	-0.0210353
210	0xbd928711	-0.07154668
211	0xbe08ca0e	-0.13358328
212	0xbe439de0	-0.19103193
213	0xbb8f6ae9	-0.0043767584
214	0x3deff089	0.117158
215	0x3dacccf0	0.08437526
216	0x3e1627b5	0.14663585
217	0xbd557524	-0.052113667
218	0xbe306987	-0.17227755
219	0xbd93fb84	-0.07225707
220	0xbdbcdfa2	-0.09222342
221	0x3d97bc99	0.07409019
222	0x3e1bbc15	0.15208466
223	0x3d53ec2d	0.051738907
224	0x3e0b5a6a	0.13608709
225	0x3d9c5eec	0.076352924
226	0xbe0614a2	-0.13093808
227	0xbe1cabb7	-0.15299879
228	0xbdb3f4d2	-0.0878693
229	0x3e25acf2	0.16179255
230	0x3d425091	0.047440115
231	0x3c0186a7	0.007905639
232	0x3dce6432	0.100777045
233	0x3e1f4c30	0.15556407
234	0xbe38402e	-0.17993233
235	0x3e1f5bc2	0.15562347
236	0x3dae3f7a	0.08508201
237	0xbe3b5064	-0.18292385
238	0x3ba36cca	0.004987334
239	0xbda1895e	-0.07887529
240	0xbd0f6ac4	-0.03501393
241	0xbe3106bf	-0.1728773
242	0x3d57283e	0.052528612
243	0xbd890441	-0.066902645
244	0x3df5b27f	0.11996936
245	0x3d8daf6a	0.06918223
246	0xbccbc787	-0.024875415
247	0xbdab5e89	-0.083676405
248	0xbd45e958	-0.048318237
249	0xbe0e6cae	-0.13908646
250	0x3dd984a6	0.10621004
251	0xbe154999	-0.14578857
252	0x3d954681	0.07288838
253	0x3e19c5f4	0.1501692
254	0x3d83d299	0.06436653
255	0xbdb1fa16	-0.08690278

sensor_model.2.bias f4 [64]
0	0xbda966de	-0.082715735
1	0x3ca354de	0.019937929
2	0xbb8ad445	-0.0042367303
3	0xbd1811e3	-0.037126433
4	0x3da3bc6d	0.07994924
5	0x3cce57d7	0.02518837
6	0x3d670068	0.05639687
7	0xbc2054c1	-0.009785832
8	0xbd2b8e51	-0.04188377
9	0xbc86c27a	-0.016450156
10	0x3c56ad4a	0.013102839
11	0xbd9270aa	-0.07150395
12	0x3cec346a	0.028833587
13	0x3c805bee	0.015668835
14	0xbdabafdf	-0.08383154
15	0x3d303de0	0.04302776
16	0x3d2a9dd0	0.041654408
17	0xbd324a9b	-0.04352818
18	0x3d82c1f6	0.06384651
19	0xbda562e9	-0.08075506
20	0xbb916175	-0.0044366666
21	0x3e060d4e	0.13091013
22	0xbd7efb0c	-0.062251136
23	0xbcae2c80	-0.021261454
24	0x3d8c5817	0.06852739
25	0xbb996968	-0.004681755
26	0x3d8b694d	0.06807194
27	0x3c7c7ff6	0.015411368
28	0x3d83bc6a	0.064324215
29	0xbd1dd0dd	-0.038529266
30	0x3d490ec9	0.049086366
31	0xbc1be33b	-0.009514625
32	0xbdb5419f	-0.08850407
33	0xbc06ed3a	-0.00823527
34	0x3d1793b8	0.03700611
35	0xbd0b1390	-0.033954203
36	0x3cd88f86	0.026435625
37	0xbc9ff3c4	-0.019525416
38	0x3d9e7657	0.07737415
39	0xbdb35b77	-0.0875768
40	0x3c9d4b02	0.019200806
41	0x3d347609	0.04405788
42	0x3ca367e5	0.019947002
43	0x3d0cc770	0.034369886
44	0xbd73d7ca	-0.059531964
45	0x3d9fd1e3	0.078037046
46	0xbd0c7fe9	-0.034301672
47	0x3ca0d931	0.019634815
48	0xbd34fb3d	-0.044184912
49	0x3c3a8ded	0.011386377
50	0xbb210545	-0.0024569791
51	0xbd8d1442	-0.068886295
52	0x3c503aeb	0.01270936
53	0x3d6018a6	0.054711007
54	0xbcfb1d47	-0.030653609
55	0x3c84aecf	0.016196636
56	0x3d44696d	0.047952104
57	0x3cd060fb	0.025436869
58	0x3d6fea75	0.058573205
59	0xbd96480a	-0.07337959
60	0xbc8a2c67	-0.016866876
61	0x3c4c517d	0.0124706
62	0x3cc36c85	0.023855457
63	0x3cd62e9a	0.026145268

sensor_model.4.weight f4 [16, 64]
0	0xbd4ab75e	-0.04949128
1	0xbd3990ff	-0.045304295
2	0xbe55a289	-0.20862783
3	0xbe8f12e4	-0.279441
4	0x3d1806b7	0.03711578
5	0xbe2b0129	-0.16699661
6	0xbd7a2348	-0.061068803
7	0xbe7cb27d	-0.24677463
8	0xbcee8be8	-0.029119447
9	0xbda92dbb	-0.082606755
10	0xbdac2270	-0.08405006
11	0x3cc517b4	0.024059154
12	0xbd64aa4d	-0.055826474
13	0xbda8c675	-0.08240978
14	0xbdc15448	-0.094399035
15	0x3e592142	0.21204093
16	0xbe65587f	-0.2239704
17	0x3e85c5cc	0.2612747
18	0x3e28d12e	0.16486046
19	0x3cd4a164	0.025955863
20	0x3d8601f2	0.0654334
21	0xbd5175ef	-0.05113786
22	0xbddba86a	-0.10725482
23	0x3e61f384	0.2206555
24	0xbdd460d0	-0.10370028
25	0xbc9142b8	-0.01773201
26	0xbc8c4334	-0.017121889
27	0xbd709767	-0.05873814
28	0x3d97871a	0.073988155
29	0x3da9c0c3	0.082887195
30	0x3dc37725	0.095442094
31	0xbe5c74ae	-0.21528885
32	0x3e50a98d	0.20377178
33	0x3e250f76	0.16119179
34	0x3e2e4014	0.17016631
35	0x3d20893b	0.039193373
36	0xbe8518df	-0.25995538
37	0x3df5aa6c	0.11995396
38	0x3e7c9a19	0.24668159
39	0x3e0dbd29	0.1384169
40	0xbe05c149	-0.13062014
41	0x3e4e5a4b	0.20151632
42	0xbdedd8ac	-0.116135925
43	0x3e8d318c	0.27576864
44	0xbe37c314	-0.1794551
45	0xbe3bcde4	-0.1834026
46	0xbd43e0ad	-0.04782169
47	0x3ba5c764	0.0050591696
48	0x3daf43d5	0.0855786
49	0x3dc3055b	0.09522506
50	0xbacce722	-0.0015632848
51	0x3dc4f429	0.09616882
52	0x3e7111d3	0.23541956
53	0xbdb60c66	-0.088890836
54	0x3e3a1190	0.18170762
55	0xbdb195ca	-0.08671148
56	0x3e06b417	0.13154636
57	0x3ba1aa37	0.0049336213
58	0x3dab5be0	0.08367133
59	0xbda62c71	-0.08113945
60	0x3c2e4461	0.01063642
61	0xbe0634f0	-0.13106132
62	0xbe4c28a4	-0.19937378
63	0xbe6bf556	-0.23042807
64	0xbe0ff99e	-0.14060065
65	0xbb52b8a0	-0.0032153502
66	0x3d1353b7	0.03596851
67	0xbe10951f	-0.14119385
68	0xbe97d151	-0.29651883
69	0xbc43f65a	-0.01196059
70	0x3e7489c1	0.23880674
71	0x3e6f8075	0.23388846
72	0x3dd3e443	0.10346272
73	0xbd5f5441	-0.05452371
74	0xbe7d70ae	-0.24750015
75	0xbe5979d2	-0.21237877
76	0x3e38a99d	0.18033452
77	0x3ce541ec	0.027985536
78	0x3d7e0e79	0.06202552
79	0x3e81c8fe	0.25348657
80	0x3e81517a	0.25257474
81	0x3d1725dd	0.036901344
82	0x3e520008	0.20507824
83	0xbe220513	-0.15822248
84	0x3e13ea34	0.1444481
85	0xbd1a5eac	-0.037687942
86	0x3e579281	0.2105198
87	0xbe03753d	-0.12837692
88	0x3e5e967b	0.21737091
89	0xbe1e33e0	-0.15449476
90	0xbe7019bf	-0.23447321
91	0x3e2dd118	0.16974294
92	0x3dce9a6c	0.100880474
93	0x3dd9e0b9	0.106385656
94	0x3e63c070	0.22241378
95	0x3d3a81a8	0.045533806
96	0xbcdbad9f	-0.026816187
97	0xbe4a58eb	-0.19760482
98	0x3e7e4da2	0.24834302
99	0xbe3af13c	-0.18256086
100	0xbde0a6eb	-0.10969337
101	0xbe361f49	-0.17785372
102	0x3dd0901e	0.10183738
103	0x3e22f3b4	0.15913278
104	0xbe1e499f	-0.15457772
105	0xbe59f93e	-0.21286485
106	0xbe119524	-0.14217049
107	0xbc059bb4	-0.008154798
108	0xbe40e61b	-0.18837778
109	0xbe999b25	-0.30001178
110	0xbe816952	-0.25275666
111	0xbd22f884	-0.039787784
112	0x3d2488a3	0.04016937
113	0xbd545cce	-0.051846318
114	0xbe5615f7	-0.20906816
115	0x3d260d33	0.04053993
116	0xbe588ae8	-0.21146739
117	0x3dc1ea93	0.094685696
118	0x3e0e528f	0.13898681
119	0xbe3f7e1b	-0.18700449
120	0x3e46a295	0.19397958
121	0x3e57dfdb	0.21081488
122	0x3e5b2aaf	0.21403001
123	0xbbe9b0c5	-0.0071316683
124	0xbe5b8c95	-0.21440347
125	0xbe1c2c5f	-0.15251301
126	0x3e0c2347	0.13685332
127	0x3e33817c	0.17529863
128	0x3e080d73	0.1328638
129	0x3b2caea8	0.002634922
130	0xbd389cc8	-0.045071393
131	0x3e41ad3a	0.18913737
132	0xbe816617	-0.252732
133	0x3d93c00c	0.072143644
134	0xbce5279f	-0.027972994
135	0xbe30abec	-0.17253083
136	0xbe5f9cfc	-0.21837229
137	0xbe3a062e	-0.1816642
138	0x3e150f2b	0.14556567
139	0x3e846bf5	0.25863615
140	0xbd4ab2fa	-0.04948709
141	0xbdf636ff	-0.120222084
142	0x3dd7cf41	0.105375774
143	0x3e8a8e24	0.2706157
144	0x3e4072af	0.18793748
145	0x3e72dd89	0.23717321
146	0xbe2192e6	-0.15778694
147	0x3c7ef05e	0.015560238
148	0x3e5e2d59	0.21696986
149	0xbd9c3651	-0.076275475
150	0xbe579156	-0.21051535
151	0xbdf75b5c	-0.12077972
152	0xbe23fe60	-0.16015005
153	0xbe250a89	-0.161173
154	0x3e277b49	0.16355623
155	0x3d7dee88	0.06199506
156	0x3dcad692	0.09904207
157	0x3df83eb9	0.121213384
158	0xbe259c94	-0.16173011
159	0xbe03b882	-0.12863353
160	0xbc7dd1c0	-0.015491903
161	0x3e636c9d	0.22209401
162	0x3e46e7fa	0.1942443
163	0x3e5fe21b	0.21863596
164	0xbd2dcf98	-0.042434305
165	0xbe3de91b	-0.18545954
166	0xbe57e95c	-0.21085113
167	0xbc3032b9	-0.010754281
168	0xbce5be8b	-0.02804496
169	0xbcffc430	-0.03122148
170	0xbde23782	-0.110457435
171	0xbd3d561c	-0.0462247
172	0xbd98a013	-0.07452407
173	0x3d0b94dc	0.03407751
174	0x3d464c32	0.04841251
175	0x3e58f8d7	0.21188675
176	0x3e708d72	0.23491457
177	0xbd1bfd16	-0.03808316
178	0x3e07a01a	0.13244668
179	0x3e181b49	0.14854158
180	0xbd912df6	-0.070888445
181	0x3c441958	0.011968933
182	0xbd94f38c	-0.072730154
183	0xbe596fad	-0.21234007
184	0xbe377ae2	-0.1791797
185	0x3ca9bd5a	0.020720173
186	0x3a9fd530	0.0012194272
187	0xbe5795c9	-0.21053232
188	0x3daea372	0.085272685
189	0x3c2d35d4	0.010571916
190	0xbb9c09d1	-0.0047619124
191	0xbe737483	-0.23774914
192	0x3d6a4b76	0.05720087
193	0xbe060668	-0.13088381
194	0x3d561c1a	0.052272893
195	0xbdb3105e	-0.08743356
196	0x3dae74d3	0.08518376
197	0x3dae7077	0.08517545
198	0xbe665a99	-0.22495498
199	0x3dc5d468	0.09659654
200	0x3e04f93e	0.12985703
201	0x3e59e594	0.21278983
202	0x3e3ac1a1	0.18237926
203	0x3c5d9087	0.013523228
204	0xbe0268a7	-0.12735234
205	0x3e5a5c09	0.21324171
206	0x3ac73f9f	0.0015201456
207	0x3df46a87	0.11934381
208	0xbe10634b	-0.14100377
209	0xbe760e05	-0.24028786
210	0x3e2f2f66	0.17107925
211	0x3e42d032	0.19024733
212	0x3d63156e	0.05544036
213	0xbcc72e70	-0.024314135
214	0x3db4477c	0.08802697
215	0x3e61069a	0.21975175
216	0x3dec2b24	0.11531666
217	0xbe85ea37	-0.26155254
218	0xbcf8a830	-0.030353636
219	0xbe11712d	-0.1420333
220	0xbe83f4d9	-0.2577274
221	0xbcb53b92	-0.022123132
222	0xbdddd995	-0.10832516
223	0x3e877a90	0.26460695
224	0xbe48ab4b	-0.19596593
225	0xbbc415b6	-0.0059840335
226	0x3de2404a	0.110474184
227	0xbe67ebf9	-0.2264861
228	0xbd6a4cbc	-0.057202086
229	0x3e63a596	0.22231135
230	0xbe2a96ed	-0.16659136
231	0xbe4c982e	-0.19979927
232	0x3dea8e43	0.114529155
233	0xbe6e6493	-0.23280554
234	0x3e48f1ba	0.19623461
235	0xbbef4f20	-0.0073031336
236	0xbdafeab2	-0.085896865
237	0xbe63ae44	-0.22234446
238	0x3c9ea924	0.019367762
239	0x3e75bd3b	0.23997967
240	0xbe5d5e45	-0.21617992
241	0xbdb83dcd	-0.089961626
242	0xbe3dbd0c	-0.18529147
243	0xbe360d2a	-0.17778459
244	0xbe8dbc4b	-0.2768272
245	0xbe330302	-0.17481616
246	0x3e023c70	0.12718368
247	0x3e4cb5cf	0.1999123
248	0x3e726be3	0.23673968
249	0x3d6a7155	0.057236988
250	0xbe0e4944	-0.13895136
251	0x3e6df61e	0.23238418
252	0x3e38e059	0.18054332
253	0x3e528214	0.20557433
254	0xbe84f772	-0.25970036
255	0xbe50c042	-0.2038584

sensor_model.4.bias f4 [16]
0	0x3da56b6d	0.080771305
1	0xbdb282d9	-0.087163635
2	0x3ca466e5	0.020068595
3	0xbd4ace90	-0.0495134
4	0x3d0f294b	0.03495149
5	0x3ce44a9a	0.027867604
6	0xbd824d48	-0.063623965
7	0xbb1286e6	-0.0022358238
8	0x3d0fc930	0.035103977
9	0x3d3c5271	0.04597706
10	0xbc168042	-0.0091858525
11	0xbd8c4f6d	-0.06851087
12	0xbdf09c06	-0.11748509
13	0x3da5c477	0.08094113
14	0x3cd82bcb	0.02638807
15	0x3d4ff0d1	0.05076677

state_model.0.weight f4 [16, 18]
0	0x3b870ec1	0.004121632
1	0x3ea5efa6	0.324094
2	0xbec2a612	-0.38017327
3	0xbc0b6af7	-0.008509389
4	0x3e771f7b	0.24133103
5	0x3c119809	0.008886346
6	0x3e95de03	0.29270944
7	0x3e95ea12	0.29280144
8	0xbc2029d1	-0.009775595
9	0x3d105147	0.035233762
10	0x3e639f7b	0.22228806
11	0xbe1279f3	-0.14304332
12	0xbd5efee0	-0.054442286
13	0x3e81905e	0.25305456
14	0x3ec97a95	0.39351335
15	0xbe8cd134	-0.2750336
16	0xbe85eb22	-0.26155955
17	0xbe40dda9	-0.18834557
18	0xbed03345	-0.40664116
19	0xbd9670f4	-0.07345763
20	0xbebfaecf	-0.37438056
21	0x3e97c4c1	0.296423
22	0xbecf3a9f	-0.40474412
23	0xbe58f452	-0.21186951
24	0x3e7c0e71	0.24614884
25	0xbd9dea8f	-0.07710754
26	0xbebe0c83	-0.3711892
27	0x3e9affe4	0.30273354
28	0x3e4c64b2	0.19960287
29	0xbe472efa	-0.19451514
30	0xbc87a469	-0.016557889
31	0x3e71d95b	0.23618071
32	0x3ec5efa5	0.38659397
33	0xbe96b37b	-0.29433808
34	0xbd17e2a9	-0.037081394
35	0xbcc9132e	-0.024545278
36	0xbd32725d	-0.043566097
37	0x3df879bc	0.12132594
38	0x3e943a97	0.2895095
39	0xbd72ee38	-0.059309214
40	0x3eb95e1f	0.3620462
41	0xbb00a4e2	-0.0019629528
42	0x3ea1223c	0.3147143
43	0x3d3737c2	0.04473091
44	0x3e7fbd1e	0.24974486
45	0x3e92eb9e	0.28695387
46	0x3d42bdae	0.047544174
47	0x3e2161e3	0.15759997
48	0xbe4b60b4	-0.19861108
49	0x3dfa6701	0.12226678
50	0xbebbf265	-0.3670837
51	0x3ec11c92	0.3771711
52	0x3e16be2a	0.1472098
53	0x3d2a7188	0.041612178
54	0x3ecd8133	0.40137634
55	0xbd2a7ffe	-0.04162597
56	0xbe392bf1	-0.18083169
57	0xbe54a4ec	-0.20766038
58	0xbdcb653a	-0.09931417
59	0x3e6e39f0	0.23264289
60	0xbcecd409	-0.0289097
61	0xbec56db8	-0.3856027
62	0x3ea012d1	0.31264356
63	0x3edc3775	0.4301106
64	0xbd7def01	-0.06199551
65	0x3e936f19	0.28795698
66	0x3e6f678d	0.23379345
67	0x3d00b070	0.031418264
68	0xbe271a52	-0.16318634
69	0x3db0af48	0.08627182
70	0xbe462a1b	-0.19352
71	0xbe093c79	-0.13401975
72	0xbd977e61	-0.07397152
73	0xbd2a137d	-0.04152249
74	0x3e9f2353	0.31081638
75	0xbde9a8cc	-0.114091486
76	0xbec01bd3	-0.37521228
77	0x3c352057	0.011055074
78	0xbe774849	-0.24148668
79	0x3e682fb2	0.22674444
80	0xbe72fc03	-0.23728947
81	0x3e82fafb	0.25582108
82	0xbbcbf76b	-0.006224563
83	0x3e97d530	0.29654837
84	0xbe2b2fac	-0.16717404
85	0xbc31e3a1	-0.010857494
86	0xbe9c24f3	-0.3049694
87	0x3e4ad288	0.19806874
88	0xbe3a8f60	-0.18218756
89	0xbe36fb36	-0.17869267
90	0x3e869ba5	0.26290622
91	0xbeb52014	-0.35376036
92	0xbe82ac66	-0.25522155
93	0x3ebc6ccc	0.36801755
94	0xbd42f578	-0.04759738
95	0xbe527556	-0.20552573
96	0xbd013d07	-0.03155234
97	0x3e8b12e2	0.27162844
98	0xb93ab085	-0.00017804101
99	0x3eb45f94	0.3522917
100	0x3e1cca08	0.15311444
101	0xbecc4918	-0.39899516
102	0xbe83e043	-0.25757036
103	0x3de587b1	0.11207522
104	0xbe86a198	-0.2629516
105	0xbe9642b6	-0.2934777
106	0x3e39cf51	0.18145491
107	0xbe5eb62a	-0.21749178
108	0x3ec73593	0.3890806
109	0x3eb9637b	0.3620871
110	0x3df9013c	0.121584386
111	0x3ea8994a	0.3292945
112	0xbd9b7d87	-0.07592302
113	0xbe056bfe	-0.13029477
114	0x3de7cb6d	0.11318097
115	0xbe93b126	-0.2884609
116	0x3e528742	0.2055941
117	0x3e9877bf	0.2977886
118	0xbea252f5	-0.31703916
119	0xbe14983d	-0.145112
120	0xbe78ebdb	-0.24308722
121	0xbe68ca08	-0.22733319
122	0x3d7a9ad1	0.0611828
123	0x3e7667d9	0.24063052
124	0x3e33ed17	0.17570911
125	0x3e3526fb	0.17690651
126	0xbc1ae2b0	-0.009453461
127	0xbe901c9e	-0.28146833
128	0xbd07791d	-0.033074487
129	0x3ec1464b	0.37748942
130	0x3daf2404	0.08551791
131	0xbe77b7d5	-0.2419122
132	0x3ed3e0a7	0.41382334
133	0xbe2b64fa	-0.16737738
134	0x3eb047bf	0.34429738
135	0x3ec96499	0.39334562
136	0xbdb699f9	-0.08916087
137	0x3e9b6dbf	0.30357167
138	0xbd9ca5c2	-0.07648803
139	0xbeb670ae	-0.35632843
140	0x3b7976c9	0.0038065186
141	0x3ec1e462	0.37869555
142	0x3b1dfc59	0.002410671
143	0xbad9b1df	-0.0016608796
144	0xbebce74b	-0.36895213
145	0x3e8f5fa5	0.28002658
146	0x3ddde6bd	0.108350255
147	0x3ea88ddd	0.32920733
148	0xbeb5c883	-0.3550454
149	0xbe690f23	-0.2275968
150	0xbe1d4be6	-0.15360984
151	0xbed7ffe1	-0.42187408
152	0xbd81fff2	-0.06347646
153	0x3e8c5ded	0.2741541
154	0x3d433066	0.04765358
155	0x3e70ac93	0.23503332
156	0xbe07872a	-0.13235155
157	0xbbfa7581	-0.007643402
158	0x3eb04020	0.34423923
159	0x3d1b8fc2	0.037978895
160	0x3e62ff86	0.22167787
161	0xbd431091	-0.04762322
162	0xbeb3b817	-0.35101387
163	0xbe8678a1	-0.26263908
164	0xbe2ffc48	-0.17186081
165	0xbe26160c	-0.16219348
166	0xbd1ea60a	-0.038732566
167	0x3e594961	0.21219398
168	0xbe0605ca	-0.13088146
169	0xbed3cfed	-0.41369572
170	0xbe05d4fa	-0.13069525
171	0xbd0872d9	-0.033312652
172	0x3da70c19	0.08156604
173	0xbc0eb96b	-0.008711199
174	0x3e4f603e	0.20251557
175	0xbea3c0b4	-0.31982958
176	0x3ec0e9b4	0.376783
177	0x3e81cac0	0.25349998
178	0x3db208c7	0.086930804
179	0xbed6ef87	-0.4197962
180	0xbe8873eb	-0.26650938
181	0x3e4417d5	0.19149716
182	0xbe85b157	-0.26111862
183	0x3e15c611	0.14626338
184	0x3e72e31e	0.23719451
185	0xbe6cace7	-0.23112832
186	0xbe7232df	-0.23652218
187	0xbebba0f2	-0.3664623
188	0x3e07eeb7	0.13274656
189	0xbebdd666	-0.37077636
190	0x3dbe398d	0.09288321
191	0xbdb97118	-0.09054774
192	0xbeb78ff7	-0.35852024
193	0x3dc4762a	0.095928505
194	0xbe8857cb	-0.2662948
195	0xbe0a9e70	-0.13537002
196	0xbe9b9471	-0.3038669
197	0x3e43e736	0.19131169
198	0xbecdcc59	-0.40194967
199	0xbd127a9f	-0.03576147
200	0xbe9750a9	-0.29553726
201	0x3d59a5f9	0.0531368
202	0x3e4e94d2	0.20173958
203	0x3d2ae716	0.041724287
204	0xbec0aa8e	-0.37630123
205	0x3ec0e6fb	0.37676224
206	0x3ec58470	0.38577604
207	0xbe75ca6a	-0.24002996
208	0x3e19b513	0.1501048
209	0x3e354552	0.17702225
210	0xbd987245	-0.0744367
211	0xbdb25ff5	-0.087097086
212	0xbe695617	-0.22786747
213	0xbdc06102	-0.09393503
214	0x3e7b4479	0.24537839
215	0xbde5c865	-0.11219863
216	0xbeb60fcd	-0.3555893
217	0xbebddbf4	-0.37081873
218	0x3e9bff0b	0.3046802
219	0xbec11731	-0.37713006
220	0x3c80bbe4	0.015714593
221	0xbd36da9d	-0.04464208
222	0xbe9cf61d	-0.3065652
223	0x3e750e31	0.23931195
224	0xbe9b804d	-0.30371323
225	0x3d05f5f9	0.03270528
226	0xbeb48f10	-0.35265398
227	0xbd4ad7fd	-0.04952239
228	0xbd81adc7	-0.063319735
229	0xbd406476	-0.046970807
230	0x3e6dc5fb	0.23220055
231	0xbe584441	-0.21119787
232	0x3d32481f	0.04352581
233	0x3e7d461e	0.24733779
234	0xbe8a28f5	-0.26984373
235	0xbe8ba0b8	-0.27271056
236	0x3e9388b1	0.28815225
237	0x3eb5ca3e	0.3550586
238	0x3ec60be1	0.38680938
239	0xbec260a8	-0.37964368
240	0xbe5846c5	-0.21120746
241	0xbdabbca5	-0.083855905
242	0xbe1c74e3	-0.15278964
243	0x3df0415b	0.117312156
244	0xbda7fcb2	-0.08202495
245	0xbe82a54b	-0.25516734
246	0x3ecf78b1	0.40521768
247	0xbe8ab86d	-0.2709383
248	0xbd347a37	-0.044061866
249	0x3ddc56d4	0.10758749
250	0xbda3053d	-0.079599835
251	0xbea6ae9b	-0.32555088
252	0x3e94ddbe	0.29075426
253	0xbe7f2d13	-0.24919538
254	0x3e02adf1	0.12761666
255	0xbe1a213b	-0.15051739

state_model.0.bias f4 [16]
0	0x3e212989	0.157385
1	0xbc8e1b26	-0.01734693
2	0xbe4a8408	-0.19776928
3	0xbdb59e85	-0.08868126
4	0x3d8680b3	0.06567516
5	0xbe0f9eb9	-0.14025392
6	0xbb567c91	-0.0032728056
7	0xbe26062f	-0.16213296
8	0xbe6dc898	-0.23221052
9	0xbe0b5ea7	-0.13610326
10	0x3dea2e9c	0.11434671
11	0x3dfd8f0a	0.12380798
12	0x3e1445ec	0.14479798
13	0x3da6e881	0.08149815
14	0x3e6f5d64	0.2337547
15	0xbdef8502	-0.11695291

state_model.2.weight f4 [1, 16]
0	0x3e9c12c5	0.3048307
1	0x3eab0a37	0.3340623
2	0xbef3a1e5	-0.47584453
3	0x3e98c6de	0.29839224
4	0x3eebb621	0.4603739
5	0x3e834ada	0.25643045
6	0xbea2cfa2	-0.31799036
7	0x3ece656e	0.4031176
8	0xbe27e4cc	-0.16395873
9	0x3e6d822f	0.23194192
10	0xbe8651fe	-0.2623443
11	0xbe15f381	-0.1464367
12	0xbedd5510	-0.4322896
13	0xbf0504ca	-0.5196043
14	0xbf0563a6	-0.52105176
15	0x3ef89631	0.48552087
