Pytorch_DRL/HNRN/models/backup/4.3_train_together_backup_1613/best_ca_critic.model (torch_old, 225090 bytes, 9 tensors)

sensor_model.0.weight f4 [128, 360]
0	0xbc1a5720	-0.009420186
1	0xbdd447a3	-0.10365226
2	0xbdb9f6fc	-0.09080312
3	0x3c03cbe0	0.008044213
4	0x3d0947c0	0.03351569
5	0xbc787a18	-0.015165828
6	0xbd1f635a	-0.03891311
7	0x37a25000	1.9349158e-05
8	0xbd32cce6	-0.043652438
9	0x3c09f040	0.0084190965
10	0xbd48b7c9	-0.049003396
11	0xbd75dd0b	-0.060025256
12	0xbd245dde	-0.04012858
13	0xbddf82bc	-0.109136075
14	0x3db0ed72	0.08639039
15	0x3d565684	0.0523286
16	0x3dddb13c	0.108248204
17	0x3d8025e0	0.06257224
18	0xbc9128b4	-0.017719604
19	0xbd7ce8bd	-0.061745394
20	0xbd6d7cd3	-0.05798037
21	0xbd82dcd4	-0.06389776
22	0x3d9428e2	0.0723436
23	0xbd4b2788	-0.049598247
24	0x3d0802d4	0.033205822
25	0xbdc7747a	-0.09739013
26	0xbd06d2a0	-0.03291571
27	0xbddbedb9	-0.107387014
28	0x3d5ee5f4	0.05441852
29	0xbc5121b8	-0.012764387
30	0x3dae93dc	0.08524296
31	0x3dc7ba2e	0.09752308
32	0x3daf8204	0.085697204
33	0xbbfcce70	-0.007715039
34	0xbd78ffc8	-0.060790807
35	0xbc336ad0	-0.010950759
36	0x3d973ae8	0.07384282
37	0x3d945998	0.07243651
38	0x3d9df4aa	0.077126816
39	0x3d108d44	0.03529097
40	0xbca0ade4	-0.019614168
41	0x3d6d06a0	0.057867646
42	0x3cdf8188	0.027283445
43	0x3c01f690	0.00793232
44	0x3d691cd4	0.05691226
45	0x3d0359ec	0.032068178
46	0x3d9f0ce6	0.07766132
47	0xbd317332	-0.04332275
48	0xbd8fd87b	-0.07023712
49	0xbd95ad6f	-0.073084705
50	0x3dc5c432	0.09656562
51	0xbd23bec8	-0.039976865
52	0xbdac5f7f	-0.08416652
53	0x3d8e2f14	0.06942573
54	0x3c9c67c0	0.01909244
55	0x3d7e6414	0.06210716
56	0xbd624d84	-0.055249706
57	0x3d890302	0.06690027
58	0xbc1ce3b8	-0.009575777
59	0x3da1b8b4	0.078965575
60	0xbdc01e9a	-0.09380837
61	0x3d7a5290	0.061113894
62	0xbdc50746	-0.09620528
63	0x3d8a68a2	0.067582384
64	0xbd55441c	-0.052066907
65	0x3ad15c00	0.0015972853
66	0x3da804aa	0.082040146
67	0xbdde9d71	-0.10869873
68	0xbdae00b6	-0.08496229
69	0xbd23ab28	-0.03995815
70	0x3daa0014	0.08300796
71	0xbcb580b0	-0.02215609
72	0x3d6688ec	0.056282923
73	0xbd88bf29	-0.06677086
74	0x3cf28d08	0.029608265
75	0x3c1e33b0	0.009655878
76	0x3dc18a52	0.09450211
77	0xbd98e3f2	-0.07465352
78	0xbdce7e36	-0.100826666
79	0xbc502d58	-0.012706123
80	0x3d53b294	0.051683977
81	0xbd026ce2	-0.03184212
82	0xbd7f152d	-0.062276054
83	0xbddc3ec0	-0.10754156
84	0xbdab35f8	-0.08359903
85	0xbd5231fa	-0.051317193
86	0x3dcefa04	0.101062804
87	0x3b866450	0.0041013137
88	0x3c2a3218	0.01038792
89	0xbd02adfc	-0.031904206
90	0x3d9d3636	0.076763555
91	0x3d86875c	0.065687865
92	0xbc426d18	-0.01186683
93	0xbd5401ea	-0.051759638
94	0x3cafe0b0	0.021469444
95	0xbdbc3ec9	-0.09191663
96	0x3ca92718	0.020648524
97	0x3dbb7880	0.09153843
98	0x3ddc6f6a	0.10763438
99	0xbd68da20	-0.056848645
100	0xbc7a5ba8	-0.015280642
101	0xbcf904b0	-0.030397743
102	0xbca48194	-0.020081319
103	0x3dc71ea2	0.097226396
104	0x3d3bd0d4	0.04585345
105	0x3d0c8060	0.034302115
106	0x3c97ee38	0.018546209
107	0xbd5c578e	-0.053794436
108	0xbdb9d449	-0.09073693
109	0x3dcdffd0	0.10058558
110	0x3d90f204	0.07077411
111	0xbd3276d8	-0.04357037
112	0x3ce93178	0.028465971
113	0x3dd3886a	0.10328753
114	0x3b932670	0.004490666
115	0x3d6bf3c8	0.057605535
116	0xbdac039c	-0.08399126
117	0x3d918c2c	0.07106814
118	0xbd988e50	-0.07449019
119	0x3c8fcb60	0.017553031
120	0x3c4f2f70	0.012645587
121	0xbdc252e6	-0.09488468
122	0xbd3811cc	-0.044938847
123	0x3da5f4ac	0.08103308
124	0xbd9b0084	-0.07568458
125	0xbd8d8faa	-0.06912167
126	0x3dcad08a	0.09903057
127	0x3dd0d1d2	0.1019627
128	0x3d9969ee	0.074909076
129	0x3d815742	0.06315471
130	0x3d39a6d4	0.045325115
131	0xbd588e8c	-0.05287032
132	0x3dc06d64	0.093958646
133	0xba4f6300	-0.00079111755
134	0xbce28a84	-0.02765394
135	0xbdd3ca70	-0.10341346
136	0x3ddfbe28	0.10924941
137	0x3af41780	0.0018622726
138	0x3dcc452e	0.099741325
139	0xbdaa6a17	-0.08321016
140	0xbcb1e010	-0.021713287
141	0x3dd0b408	0.10190588
142	0x3b5918a0	0.003312625
143	0xbd9267a6	-0.071486756
144	0x3d99d788	0.075118124
145	0xbd27b040	-0.04093957
146	0x398dbd00	0.00027034432
147	0xbd8b0e94	-0.0678989
148	0x3d68436c	0.056704924
149	0xbd18be58	-0.0372909
150	0xbdb6945d	-0.08915017
151	0x3c4c78e8	0.012479998
152	0xbd889d46	-0.066706225
153	0xbd95245c	-0.072823256
154	0x3da04ae6	0.07826786
155	0xbdd51409	-0.10404212
156	0x3dadad66	0.08480339
157	0xbdbedd6f	-0.09319579
158	0x3c3a0948	0.011354752
159	0x3dbc16c2	0.09184028
160	0xbb004ee0	-0.0019578263
161	0xbddf5560	-0.10904956
162	0xbdbc0182	-0.09179975
163	0xbd8362a6	-0.064153
164	0x3c996e80	0.018729448
165	0x3d4c7bb8	0.049922675
166	0x3ddb8ff6	0.10720818
167	0xba5f4d00	-0.0008518249
168	0xbdc49c27	-0.09600096
169	0xbd6715b1	-0.05641717
170	0x3cbcdbb0	0.023053974
171	0xbd3809a2	-0.04493106
172	0xbdc79098	-0.09744376
173	0x3d98883a	0.07447858
174	0x3c89d000	0.016822815
175	0xbdbda024	-0.0925906
176	0x3d83eb90	0.06441414
177	0xbd535c64	-0.051601782
178	0x3ca81c40	0.020521283
179	0x3dd52e50	0.10409224
180	0xbd95b714	-0.0731031
181	0xbce75e2c	-0.028243147
182	0x3d57e5f0	0.05270952
183	0x3d993444	0.07480672
184	0xbd83699d	-0.064166285
185	0xbd9d308c	-0.07675275
186	0x3caf6568	0.021410659
187	0x3cf0af78	0.029380545
188	0x3bf8c190	0.007591434
189	0xbd9f5374	-0.07779589
190	0x3dc25d8c	0.09490499
191	0x3d9ef996	0.077624485
192	0x3d82f548	0.0639444
193	0xbda4cf30	-0.080473304
194	0x3c9e6720	0.019336283
195	0x3c894fc0	0.01676166
196	0x3da47b6e	0.08031355
197	0xbd1200a2	-0.035645135
198	0x3cf52e10	0.02992919
199	0xbda423cf	-0.080146424
200	0x3d9d5e24	0.076839715
201	0xbd343c84	-0.044003025
202	0x3dafb266	0.08578949
203	0x3d4b021c	0.04956256
204	0xbd5b1d73	-0.05349488
205	0xbd716787	-0.058936622
206	0x3daa9594	0.08329311
207	0xbcd67de8	-0.026183084
208	0xbd2f4cf6	-0.042798005
209	0x3c038578	0.008027427
210	0x3d020bd0	0.031749547
211	0x3dd8d4b8	0.10587448
212	0x3d22226c	0.03958361
213	0x3dcd4bae	0.100242004
214	0xbd2177a8	-0.039420754
215	0xbda9a070	-0.08282554
216	0xbcabcdfc	-0.020972244
217	0xbd7750b5	-0.060379703
218	0xbd9cc306	-0.07654385
219	0x3d6d3224	0.057909146
220	0xbdbb6cd7	-0.09151619
221	0x3dcbbe3c	0.09948394
222	0xbd05a566	-0.03262844
223	0xbd9b6b0c	-0.07588777
224	0xbda0d842	-0.07853748
225	0x3d113154	0.035447434
226	0xbd9b6a0e	-0.07588588
227	0x3da2b52a	0.079447106
228	0xbd4dc58e	-0.05023723
229	0x3d890f7e	0.06692408
230	0x3d9336b0	0.07188165
231	0xbdb519cb	-0.0884281
232	0x3dbe13ce	0.09281121
233	0x3d2802a0	0.04101813
234	0x3d6893e8	0.05678168
235	0xbbe4b030	-0.006979011
236	0xbd6e50dc	-0.058182582
237	0x3da10b86	0.07863526
238	0x3db25c56	0.08709018
239	0xbd676587	-0.05649331
240	0x3cf67ac0	0.030087829
241	0x3c32fb18	0.010924123
242	0xbd0fa292	-0.03506715
243	0xbd9d19b2	-0.076709166
244	0xbd28c150	-0.041199982
245	0xbdb9d738	-0.09074253
246	0xbcbde2f8	-0.023179516
247	0xbdaca751	-0.084303506
248	0x3dd66b4c	0.10469684
249	0x3bad46d0	0.0052879825
250	0xbbe4db60	-0.0069841594
251	0xbcc6c2d4	-0.024262823
252	0x3dadd1c2	0.08487274
253	0xbd1bcae6	-0.038035296
254	0x3d1d8cc4	0.038464323
255	0xbd8d5f3a	-0.06902929

sensor_model.0.bias f4 [128]
0	0xbc1aac6c	-0.009440523
1	0xbd486e94	-0.04893358
2	0xbd5357a0	-0.051597238
3	0xbd41284d	-0.047157574
4	0xbbe97d07	-0.0071255
5	0xbbd319a0	-0.0064422637
6	0xbd2b3f8f	-0.04180866
7	0xbc44c48c	-0.012009751
8	0xbccefeef	-0.025268046
9	0xbbb20ce8	-0.0054336675
10	0xb9c830c6	-0.00038183312
11	0xbb8512f8	-0.004061099
12	0xbd268838	-0.040657252
13	0xbc1128b6	-0.008859804
14	0xbd4e0785	-0.05030014
15	0xbc202080	-0.009773374
16	0xb93bfe0b	-0.00017928348
17	0xbd45107b	-0.04811142
18	0xbb0fd247	-0.0021945403
19	0xba6a28bd	-0.0008932462
20	0xb9bac520	-0.00035623554
21	0xbaf10dc0	-0.0018390939
22	0xbc8e0e6e	-0.017340865
23	0xbbad46e8	-0.0052879937
24	0xbd2464d0	-0.040135205
25	0xbb7e5a08	-0.0038810987
26	0xbd2a50cd	-0.041580964
27	0xbbf13e76	-0.0073621823
28	0xbd506d38	-0.05088541
29	0xb9c51607	-0.0003759118
30	0xbae14323	-0.0017186146
31	0xbc32c258	-0.010910593
32	0xbbe29f08	-0.0069159307
33	0xbc9bde22	-0.01902682
34	0xbca639ba	-0.020291198
35	0xbd148356	-0.036258064
36	0xbcfd9128	-0.030953005
37	0xbadfe0cb	-0.0017080543
38	0xbc76defc	-0.015067812
39	0xbb40e719	-0.002943462
40	0xbcb1c7fa	-0.021701802
41	0xbd0ca96a	-0.034341253
42	0xbd57ca7f	-0.05268335
43	0xbb30e76f	-0.0026993414
44	0xbc4fcf88	-0.012683757
45	0xbb314075	-0.0027046476
46	0xbc05d241	-0.008167804
47	0xbbcb8053	-0.006210366
48	0xbd55afc0	-0.05216956
49	0xbd2ab7b6	-0.041679107
50	0xbc1e44a9	-0.009659925
51	0xb948d088	-0.0001915117
52	0xbc0889fb	-0.008333678
53	0xb92dad82	-0.00016563202
54	0xbbdebbe0	-0.006797299
55	0xbba7a2b2	-0.0051158303
56	0xbd337168	-0.043809325
57	0xbc0cfb58	-0.008604847
58	0xbc13b8f9	-0.009016269
59	0xbc808b08	-0.015691295
60	0xbb8bc923	-0.0042659207
61	0xba968087	-0.0011482396
62	0xbd3cecd1	-0.046124283
63	0xbd2a21e0	-0.041536212
64	0xbc2991f2	-0.0103497375
65	0xbc2b262c	-0.010446113
66	0xbba213e0	-0.004946217
67	0xbcfac15b	-0.030609777
68	0xbbf657e5	-0.007517802
69	0xb98e607a	-0.0002715623
70	0xba0306a2	-0.0004998242
71	0xb96e7ffb	-0.00022745125
72	0xba7bd0ee	-0.0009606023
73	0xbaa7ed0f	-0.0012811738
74	0xb9d3549e	-0.000403081
75	0xb9d0f937	-0.0003985853
76	0xbd4258c1	-0.047447924
77	0xbd229581	-0.03969336
78	0xbc8a5670	-0.01688692
79	0xbc0fa767	-0.008767939
80	0xb9b0ecc6	-0.00033745746
81	0xbb8958b2	-0.0041914815
82	0xbb26171d	-0.0025343366
83	0xbd08f8f0	-0.03344053
84	0xbd3fe03f	-0.046844717
85	0xb9b5a15f	-0.0003464324
86	0xbc9cf474	-0.019159533
87	0xba98cf7e	-0.0011658517
88	0xbcc7e6b1	-0.024401994
89	0xbc0428ce	-0.008066369
90	0xbd35fb3c	-0.04442905
91	0xbce090eb	-0.027412852
92	0x3e881711	0.26580098
93	0xbbd81bb0	-0.0065950975
94	0xbca4ede4	-0.020132966
95	0xbd4853b8	-0.048907965
96	0xbcac6564	-0.02104444
97	0xbc894f16	-0.016761344
98	0xba3cbc40	-0.00071996823
99	0xbd4ec32b	-0.050479095
100	0xbbf531d8	-0.0074827485
101	0xbc576fbc	-0.013149198
102	0xbccdfa82	-0.025143865
103	0xbcb7e293	-0.022446906
104	0xbabaed97	-0.0014261481
105	0xbd40f402	-0.047107704
106	0xbc831f28	-0.016006067
107	0xbd0cbbce	-0.034358792
108	0xbd10a90a	-0.03531746
109	0xbb92a290	-0.0044749454
110	0xbbc9d4b8	-0.0061593913
111	0xbc811e58	-0.01576154
112	0xbd4716dd	-0.04860579
113	0xba51e12a	-0.00080062693
114	0xbd347982	-0.04406119
115	0x3e904092	0.28174263
116	0x3e3d618a	0.1849424
117	0xbaa4482a	-0.0012533714
118	0xbc993022	-0.01869971
119	0xb9235868	-0.00015577825
120	0xba34d846	-0.00068986823
121	0xba541889	-0.0008090814
122	0xbcd13ac4	-0.025540717
123	0xbd22354e	-0.039601617
124	0xb9095ade	-0.00013099189
125	0xbc320da0	-0.010867506
126	0xbaa4818d	-0.0012550816
127	0xbc11e8c8	-0.008905597

sensor_model.2.weight f4 [64, 128]
0	0xbe28e380	-0.16493034
1	0xbc9ed728	-0.019389704
2	0x3e272081	0.16320993
3	0xbe280f20	-0.1641202
4	0xbcb76268	-0.022385791
5	0x3d16b030	0.03678912
6	0x3de967ea	0.11396773
7	0x3cb83a50	0.022488743
8	0x3dcadbc6	0.099052
9	0x3d89924a	0.067173555
10	0x3e26dae5	0.16294439
11	0x3de34db6	0.110988066
12	0xbd88eb78	-0.06685537
13	0x3a2bba00	0.00065508485
14	0xbca20b18	-0.01978068
15	0xbd412a8c	-0.047159716
16	0x3dd3e462	0.10346295
17	0x3d7c436c	0.061587736
18	0x3e343863	0.17599635
19	0x3dafafde	0.08578466
20	0x3cbc7dc0	0.023009181
21	0xbdd47fe6	-0.10375957
22	0xbe07a19b	-0.13245241
23	0x3ad5cd00	0.0016311705
24	0x3e244205	0.1604081
25	0xbcdb2928	-0.026753023
26	0x3d0e6dd8	0.034772724
27	0x3ce35978	0.027752623
28	0xbe2cc6be	-0.16872689
29	0x3d698a4c	0.057016656
30	0x3c4cccd0	0.012500003
31	0x3d0feff0	0.03514093
32	0xbe33a904	-0.17544943
33	0xbe328ede	-0.17437312
34	0x3d49ccf4	0.049267724
35	0xbde89e25	-0.11358289
36	0x3d2b1e70	0.041777074
37	0x3d4c0fc8	0.049819738
38	0xbe19de47	-0.15026198
39	0xbdc24f26	-0.094877526
40	0x3c6639b0	0.01405184
41	0x3ddc183e	0.10746811
42	0x3dc39d42	0.09551479
43	0x3d9ac212	0.07556547
44	0x3ce507f8	0.027957901
45	0xbdf14482	-0.11780645
46	0xbd789796	-0.06069144
47	0x3dc2768a	0.09495266
48	0xbe2c3c92	-0.1681998
49	0xbe07fe3f	-0.13280581
50	0xbe233771	-0.15939118
51	0xbe187347	-0.14887725
52	0xbe2c72ef	-0.16840719
53	0xbdd63bc7	-0.104606204
54	0x3e2a1b2f	0.16611932
55	0x3de45a1e	0.11150001
56	0xbe1a6348	-0.15076935
57	0xbda35a70	-0.07976234
58	0xbcc8fd60	-0.024534881
59	0x3d984632	0.07435264
60	0xbddadda9	-0.106868096
61	0xbded4298	-0.115849674
62	0x3d2c45ec	0.04205887
63	0xbe01e36c	-0.12684411
64	0x3e2ed5bb	0.17073719
65	0xbe132de6	-0.14372978
66	0x3b327580	0.002723068
67	0x3d8216d6	0.06352012
68	0xbb2dc040	-0.0026512295
69	0x3e150871	0.14554001
70	0x3e1cfc6f	0.15330671
71	0x3d1ec0a0	0.03875792
72	0x3bc25160	0.005930111
73	0xbd054b30	-0.032542408
74	0x3d7ec13c	0.062196
75	0xbcb02228	-0.021500662
76	0xbd928a72	-0.071553126
77	0x3d748f08	0.059706718
78	0x3dd6d356	0.10489528
79	0xbe2d304c	-0.16912955
80	0xbe32a76e	-0.17446682
81	0xbe1adc66	-0.15123138
82	0xbe23d6f6	-0.1599997
83	0x3d76efb4	0.060287192
84	0x3d7a6ac4	0.061136976
85	0x3cc8b160	0.024498641
86	0x3de5fe5e	0.11230157
87	0x3e2ee051	0.17077757
88	0xbd6e58b0	-0.058190048
89	0x3da4b8ea	0.08043082
90	0x3e0c8a91	0.13724734
91	0x3e33aed1	0.17547156
92	0x3cfa0d10	0.030523807
93	0x3db51272	0.08841409
94	0xbce41e70	-0.027846545
95	0x3dd13d1a	0.10216732
96	0xbd8106ea	-0.06300147
97	0xbd8e8a99	-0.06960029
98	0xbd949595	-0.07255093
99	0xbce86290	-0.02836731
100	0x3e1d3b63	0.15354685
101	0xbdd1f631	-0.102520354
102	0xbd049a78	-0.032373875
103	0x3e181ef5	0.14855559
104	0x3dd43252	0.1036116
105	0xbe04b6b8	-0.12960327
106	0xbe030965	-0.12796552
107	0xbd49bf40	-0.049254656
108	0x3dfccf42	0.12344219
109	0xbd467160	-0.048447967
110	0x3da0f13a	0.0785851
111	0x3cd9fda8	0.02661021
112	0xbd01b2a4	-0.031664506
113	0xbe1e51bf	-0.15460871
114	0x3d2c969c	0.04213582
115	0xbd8eae93	-0.06966891
116	0x3df1e112	0.11810507
117	0x3c8a8d18	0.016912982
118	0x3dc00b1a	0.093771175
119	0xbddbfd77	-0.10741704
120	0x3d0ce854	0.034401253
121	0x3d4a86e0	0.049445033
122	0xbddfd904	-0.10930064
123	0x3e0410a7	0.12896977
124	0xbdeb0c58	-0.11476964
125	0x3e30987b	0.17245667
126	0x3dfd9b8e	0.12383185
127	0x3d8b3ea4	0.06799057
128	0x396fa400	0.00022853911
129	0xbdcfa277	-0.101384096
130	0x3dca53c6	0.0987926
131	0x3dfb6dae	0.12276779
132	0xbdbc3dca	-0.09191473
133	0xbda2d26e	-0.079502925
134	0x3d455eb8	0.048186034
135	0xbc2ccec0	-0.01054734
136	0xbde58dc1	-0.11208678
137	0x3d8b6dd0	0.068080544
138	0x3dde19e6	0.108447835
139	0xbd8041a1	-0.06262518
140	0xbceb0d08	-0.028692737
141	0x3dcdb9de	0.10045217
142	0x3cc903d0	0.02453795
143	0xbe18c1d5	-0.14917691
144	0x3d7a6498	0.06113109
145	0x3d8a64ea	0.06757529
146	0x3e13504b	0.14386098
147	0xbda488bd	-0.08033893
148	0xbdc309f9	-0.095233865
149	0xbdbbfc8f	-0.09179031
150	0xbdef4465	-0.11682967
151	0x3de759ca	0.11296423
152	0x3d828ba2	0.06374289
153	0x3d89dcca	0.06731565
154	0xbdaf8ffc	-0.08572385
155	0x3dd6b006	0.104827926
156	0xbe183512	-0.14863995
157	0xbdce9f06	-0.10088925
158	0xbded85b6	-0.11597769
159	0x3d89f816	0.06736772
160	0xbd80137b	-0.062537156
161	0x3ddd7176	0.108126566
162	0x3dba2a1a	0.090900615
163	0xbcc01ae0	-0.023450315
164	0x3dddf946	0.10838561
165	0x3c6b8700	0.014375448
166	0xbe2a5f69	-0.16637959
167	0x3c53d5e0	0.01292941
168	0x3dcbd7ae	0.09953247
169	0xbde45f50	-0.11150992
170	0xbd522224	-0.05130209
171	0xbde10777	-0.10987752
172	0x3d2d142c	0.042255566
173	0x3d467464	0.048450842
174	0x3cf741a0	0.03018266
175	0x3b902700	0.0043991804
176	0xbdb0a9a2	-0.08626105
177	0x3c8a9108	0.01691486
178	0xbc234830	-0.009965941
179	0xbe0fc0c8	-0.14038384
180	0xbd336980	-0.043801785
181	0xbe2ce13d	-0.16882797
182	0x3e11933d	0.14216323
183	0xbc8d0f18	-0.017219111
184	0xbe02903f	-0.12750338
185	0xbdf2039d	-0.118170954
186	0xbde96ec9	-0.11398084
187	0xbd8deb69	-0.069296665
188	0xbd365080	-0.044510365
189	0xbb891000	-0.0041828156
190	0x3d9994fa	0.07499118
191	0x3df256fa	0.11832996
192	0x3e2e8bb3	0.17045479
193	0xbdc68062	-0.09692456
194	0xbd89561a	-0.06705876
195	0xbda9e4e4	-0.082956105
196	0x3dd9c37e	0.1063299
197	0xbae2aa00	-0.0017293096
198	0x3c3d6b40	0.011561215
199	0xbdf9e850	-0.12202513
200	0x3d8438de	0.06456159
201	0x3df95e68	0.1217621
202	0x3cf93948	0.030422822
203	0xbd88681a	-0.06660481
204	0x3dc7a81a	0.0974886
205	0x3d96f756	0.07371394
206	0x3e086bbb	0.13322346
207	0x3e169ac5	0.14707477
208	0xbe1bcf48	-0.1521579
209	0x3d7c76cc	0.06163673
210	0xbd3029b4	-0.04300852
211	0xbcaf0b90	-0.021367818
212	0xbdd1a340	-0.102362156
213	0x3e308955	0.17239888
214	0xb9c1d000	-0.000369668
215	0x3e246895	0.1605552
216	0x3e2534bf	0.16133402
217	0xbce84ce0	-0.02835697
218	0xbdaf2a50	-0.08552992
219	0x3d55c480	0.05218935
220	0x3e00e3d2	0.12586907
221	0xbd7cd62a	-0.06172768
222	0x3d50aa58	0.050943702
223	0xbdff242c	-0.12458071
224	0x3d7b6da8	0.061383873
225	0xbdf810dc	-0.12112591
226	0xbd2bea80	-0.041971684
227	0x3c8e3380	0.017358541
228	0x3d9be2ae	0.07611595
229	0x3e03e04f	0.12878536
230	0x3e059637	0.13045584
231	0x3d9b785a	0.075913146
232	0x3e149b0d	0.14512272
233	0x3da3409a	0.07971306
234	0xbd8b4dea	-0.0680197
235	0xbd355ec8	-0.044279844
236	0x3d643824	0.055717602
237	0xbd63840e	-0.05554586
238	0xbd9e5a8d	-0.07732115
239	0x3d4140d4	0.047180966
240	0xbd81c6ac	-0.06336722
241	0x3dc155fa	0.09440227
242	0x3daf59de	0.08562063
243	0x3debc9f3	0.11513128
244	0xbd5dca67	-0.054148104
245	0xbdf25b73	-0.11833849
246	0x3e2992f7	0.16559969
247	0x3d939354	0.07205835
248	0x3d4ca2b0	0.04995984
249	0xbe33b8e5	-0.17551
250	0xbdf9a47c	-0.12189576
251	0xbc748a00	-0.01492548
252	0xbe389eee	-0.18029377
253	0x3e30f23f	0.1727991
254	0x3d518048	0.05114773
255	0x3d8e1f8c	0.06939611

sensor_model.2.bias f4 [64]
0	0xbdabbda5	-0.08385781
1	0xbd93e4f2	-0.07221402
2	0xbd981bbd	-0.07427166
3	0xbd4ab303	-0.049487125
4	0x3ed09ec0	0.40746117
5	0x3d72793f	0.05919766
6	0xbdb2cdd1	-0.087306626
7	0xbd5809c2	-0.05274368
8	0xbd91b042	-0.07113697
9	0x3c89b6d9	0.016810821
10	0xbcb40cd4	-0.021978773
11	0xbd03ea59	-0.032205913
12	0x3efc1b0b	0.49239382
13	0xbd998574	-0.07496157
14	0x3d047242	0.032335527
15	0xbb4def0c	-0.0031423
16	0xbd622b8b	-0.055217307
17	0x3c07c448	0.008286543
18	0x3ee44a53	0.44587955
19	0x3e56f7e3	0.20992999
20	0xbd885cc9	-0.06658322
21	0xbd8a0189	-0.06738574
22	0x3c7d3c73	0.015456307
23	0x3f2173f1	0.6306754
24	0xbd0b6193	-0.0340286
25	0x3e073238	0.1320275
26	0xbcf045ff	-0.029330252
27	0xbd0329ce	-0.03202229
28	0x3c24447c	0.010026094
29	0xbcea71a8	-0.028618649
30	0x3cc84635	0.02444754
31	0xbdc8c05b	-0.09802314
32	0xbd5b411a	-0.053528883
33	0xbd39ce63	-0.04536284
34	0xbd8a8317	-0.06763285
35	0x3f0bce0d	0.54611284
36	0xbcead20c	-0.028664611
37	0xbbb8379d	-0.005621864
38	0xbd69b02d	-0.05705278
39	0xbd8f875a	-0.07008238
40	0x3d0b9ddc	0.034086093
41	0x3f0888c2	0.53333676
42	0xbd899870	-0.06718528
43	0xbdac4fe8	-0.084136784
44	0xbdb3b0b1	-0.087739356
45	0xbc8842cc	-0.016633414
46	0xbada9e00	-0.0016679168
47	0x3d4ca090	0.04995781
48	0x3f10959c	0.56478286
49	0xbd86839e	-0.06568073
50	0xbd8a17e1	-0.06742836
51	0xbd78ad83	-0.06071235
52	0x3ec57620	0.38566685
53	0x3f2d3471	0.67658144
54	0x3f240153	0.6406452
55	0x3f27081c	0.6524675
56	0xbbf957d4	-0.007609347
57	0xbddb95ae	-0.107219085
58	0x3cede20c	0.029038452
59	0xbd78c10e	-0.060730986
60	0x3c30f197	0.010799787
61	0x3d0e70b7	0.034775462
62	0x3f17f822	0.59362996
63	0xbd1ca9bf	-0.03824782

target_model.0.weight f4 [16, 66]
0	0x3dd72ee0	0.105069876
1	0xbe91a910	-0.28449297
2	0xbe3b430e	-0.18287298
3	0xbd860837	-0.065445356
4	0x3df509d2	0.11964764
5	0xbe03a216	-0.128548
6	0x3de5ba00	0.11217117
7	0xbe149231	-0.14508893
8	0xbe401bc2	-0.18760589
9	0xbe85909f	-0.260869
10	0x3e6df3d4	0.23237544
11	0x3e842888	0.25812173
12	0xbea2907c	-0.31750858
13	0xbe1a2d31	-0.15056302
14	0x3e8747ba	0.2642191
15	0xbdcedadf	-0.1010034
16	0x3e44c246	0.19214734
17	0x3d75b5ed	0.05998795
18	0xbd8ce988	-0.0688048
19	0xbeadffad	-0.33984128
20	0xbe400ea4	-0.18755585
21	0xbe7178a8	-0.23581183
22	0x3d9211d1	0.071323045
23	0xbe622b31	-0.22086789
24	0xbdf4ab52	-0.11946739
25	0xbea4a1c1	-0.32154658
26	0x3ca762d0	0.02043286
27	0x3d2ec530	0.04266852
28	0x3da8387e	0.082139
29	0xbd8671ce	-0.06564675
30	0x3e1c56cf	0.1526749
31	0x3e866060	0.26245403
32	0xbd0d7b6b	-0.03454153
33	0x3d961780	0.07328701
34	0x3e854908	0.2603228
35	0x3da06ca5	0.07833222
36	0x3e1e6472	0.15468004
37	0x3e66c987	0.22537814
38	0xbe09ec54	-0.13469058
39	0x3db80134	0.089846045
40	0x3e5ad2e8	0.21369517
41	0xbeb00047	-0.34375212
42	0x3d0c3e77	0.03423926
43	0xbe431f8f	-0.19055007
44	0x3d914800	0.07093811
45	0xbe86fc73	-0.26364478
46	0x3d9d0eb4	0.0766882
47	0xbe905f32	-0.28197628
48	0xbe6a1fe1	-0.22863723
49	0x3e50091a	0.20315972
50	0xbe29be79	-0.16576566
51	0xbe87412d	-0.26416913
52	0x3d705acb	0.058680337
53	0xbe2a5e58	-0.16637552
54	0xbe2f8873	-0.17141895
55	0xbeb74ef0	-0.35802412
56	0x3ce0b288	0.02742888
57	0xbe708481	-0.23488046
58	0x3e76c6f3	0.2409933
59	0xbe1882ce	-0.14893648
60	0x3dd97288	0.10617548
61	0xbcdb7432	-0.026788805
62	0xbcaa75e3	-0.020808166
63	0xbdb9180c	-0.0903779
64	0x3d866510	0.06562245
65	0x3c9730c7	0.018455876
66	0xbdc6c370	-0.097052455
67	0xbc47ac00	-0.012187004
68	0xbe191aba	-0.14951602
69	0xbe85d438	-0.26138473
70	0xbe835bee	-0.25656074
71	0x3d13ecf0	0.036114633
72	0x3dbc1de8	0.09185392
73	0x3e4d13ce	0.20027086
74	0xbdda5ae0	-0.10661864
75	0x3d21eac0	0.039530516
76	0x3e0200d6	0.12695631
77	0xbb889300	-0.0041679144
78	0xbdf2ef7d	-0.11862085
79	0xbe889bf3	-0.2668148
80	0xbe65da26	-0.22446498
81	0x3cf17ab3	0.029477453
82	0x3e48ff7c	0.1962871
83	0x3e2ca48b	0.16859643
84	0xbd8c437a	-0.06848808
85	0x3e6a29ae	0.22867462
86	0x3d04e0f8	0.03244111
87	0x3e753300	0.23945236
88	0xbcb63de2	-0.022246305
89	0xbe89ae0c	-0.268906
90	0xbdd348d2	-0.10316624
91	0xbd8070d4	-0.0627152
92	0xbd9ece42	-0.07754184
93	0xbe37d7cf	-0.17953418
94	0xbd0d51ed	-0.03450196
95	0xbe253e26	-0.16136989
96	0x3e1f90b9	0.15582551
97	0xbdf1a76c	-0.11799511
98	0xbe039f6e	-0.12853786
99	0xbd172458	-0.036899894
100	0x3e3b8d70	0.18315673
101	0x3e2cc59a	0.16872254
102	0x3e309e40	0.17247868
103	0xbe14dbfb	-0.14537041
104	0xbd8d5154	-0.06900278
105	0x3e4bae4a	0.19890705
106	0xbe637976	-0.22214302
107	0xbcfc85bf	-0.030825494
108	0x3de26e70	0.110562205
109	0x3e8913aa	0.26772815
110	0xbd6e0bcc	-0.05811672
111	0xbd62c45f	-0.055363055
112	0xbd4d5fd0	-0.050140202
113	0xbe62293d	-0.22086044
114	0xbe5171e2	-0.20453599
115	0xbd3b28ac	-0.045693085
116	0x3dfaa9f0	0.12239444
117	0xbe706473	-0.23475818
118	0x3ca90e60	0.020636737
119	0xbd5d11f8	-0.053972214
120	0x3c38d677	0.011281601
121	0xbe51d071	-0.2048967
122	0x3e0bca58	0.13651407
123	0x3ceb80a0	0.028747857
124	0x3d66fd2d	0.05639379
125	0x3e3aee22	0.18254903
126	0xbe2672ca	-0.16254726
127	0xbdd22cbf	-0.10262441
128	0xbe0f795b	-0.14011137
129	0x3e1ad396	0.15119776
130	0xbd45422a	-0.048158802
131	0x3d7b195a	0.061303474
132	0xbdd26d94	-0.102748066
133	0x3e5e6836	0.21719441
134	0x3e4371a6	0.19086322
135	0xbda7fd68	-0.0820263
136	0x3d306b18	0.043070883
137	0x3dab1593	0.08353724
138	0xbe2b36e9	-0.16720165
139	0xbac7e200	-0.0015249848
140	0x3dd6b5d4	0.104839
141	0x3e4673ce	0.19380113
142	0x3e498ec8	0.19683373
143	0x3e5cb6fe	0.21554181
144	0x3d198d6f	0.037488397
145	0x3e43b352	0.19111374
146	0x3dc68299	0.09692878
147	0xbe4a39f1	-0.19748665
148	0x3df5ba6d	0.119984485
149	0xbe74a995	-0.23892815
150	0xbe3a7e3a	-0.18212214
151	0xbe3b2cc7	-0.182788
152	0xbe6ef755	-0.23336537
153	0x3db80394	0.089850575
154	0x3c3b1cef	0.0114204725
155	0xbdcb2097	-0.099183254
156	0x3dd45342	0.10367443
157	0xbd829357	-0.06375759
158	0x3e0f4498	0.1399101
159	0x3df5350c	0.119730085
160	0x3db3610f	0.08758747
161	0x3d80cb74	0.062888056
162	0x3e1271f0	0.14301276
163	0xbd97ee8a	-0.074185446
164	0xbd885a09	-0.06657798
165	0x3e21840a	0.15773025
166	0x3c7c6600	0.015405178
167	0x3e1d66ee	0.15371296
168	0xbc8decb1	-0.017324777
169	0xbe6001b2	-0.21875647
170	0x3e277910	0.16354775
171	0x3a9e2600	0.0012065768
172	0x3e495781	0.19662286
173	0x3e895ecd	0.2683014
174	0x3dd74c96	0.105126545
175	0x3d2d9d68	0.042386442
176	0xbd8789c6	-0.06618075
177	0x3da57eae	0.08080803
178	0x3c7cdfe0	0.015434235
179	0x3d8fbb10	0.07018101
180	0xbe3326e0	-0.17495298
181	0x3e846a72	0.2586246
182	0x3d0aabd0	0.03385526
183	0xbe775e44	-0.24157053
184	0x3d06ec15	0.03293999
185	0x3d0e8b01	0.034800533
186	0xbe235e48	-0.15953934
187	0xbe09ff70	-0.13476348
188	0x3ba2ead1	0.00497184
189	0x3e1238c7	0.14279471
190	0x3e7e7651	0.24849822
191	0x3c7cdb00	0.015433073
192	0x3dd5ba15	0.10435883
193	0x3e7d2874	0.24722463
194	0x3e711a6c	0.23545235
195	0x3d0514b0	0.032490432
196	0xbf731a6c	-0.9496219
197	0xbcb66dc8	-0.022269145
198	0xbd905d38	-0.0704903
199	0xbdb52b24	-0.08846119
200	0xbde8f68b	-0.11375149
201	0x3e61b1d9	0.220405
202	0x3e17a578	0.14809215
203	0x3d8272c1	0.06369544
204	0x3e4a0736	0.19729313
205	0xbd1a07f0	-0.037605226
206	0x3d527cf0	0.05138868
207	0xbcc3e8f7	-0.023914797
208	0xbe0e6249	-0.1390468
209	0xbe61580e	-0.22006246
210	0xbe8e9ce8	-0.27854085
211	0x3de19114	0.110139996
212	0xbafc828e	-0.0019264983
213	0x3dc60e36	0.09670679
214	0xbd8116e9	-0.06303198
215	0x3df6f00d	0.12057505
216	0xbc85fac8	-0.016354933
217	0x3dfde6ee	0.12397562
218	0xbe3c53de	-0.18391368
219	0xbd4a86f8	-0.049445122
220	0x3e78dde0	0.24303389
221	0xbe22842b	-0.1587073
222	0xbe632b83	-0.22184567
223	0xbdf936bb	-0.12168642
224	0x3e53444a	0.20631519
225	0x3e4e2888	0.20132649
226	0x3e88fa75	0.26753584
227	0xbd96771c	-0.07346937
228	0xbe51136b	-0.20417564
229	0x3d8f3d1c	0.069940776
230	0x3ddc2c38	0.107506216
231	0xbe61d024	-0.22052056
232	0xbc957f10	-0.018249065
233	0xbda8f686	-0.082501456
234	0xbe63f9e3	-0.22263293
235	0xbd8492b0	-0.06473291
236	0xbe4d7eb2	-0.20067862
237	0x3e2af67e	0.16695592
238	0xbe150b5b	-0.14555113
239	0x3e30ad35	0.17253573
240	0x3d59a8a7	0.053139355
241	0xbccefea8	-0.025267914
242	0xbe3ba7a6	-0.18325672
243	0x3e36d99a	0.17856446
244	0xbd73e08c	-0.059540316
245	0x3e607c86	0.21922502
246	0x3d798e07	0.060926463
247	0xbcb5b868	-0.022182658
248	0xbd847440	-0.064674854
249	0xbe5d88ec	-0.21634263
250	0xbe2d3d8b	-0.16918008
251	0x3df5d12f	0.12002789
252	0xbd55bcfc	-0.052182183
253	0x3dea2732	0.11433257
254	0xbe60c778	-0.21951091
255	0xbd66ac14	-0.05631645

target_model.0.bias f4 [16]
0	0xbd857ccf	-0.06517946
1	0xbd82472a	-0.0636123
2	0x3eef58fd	0.4674758
3	0xbd29c6c0	-0.04144931
4	0x3d83ed11	0.06441701
5	0xbd2606cc	-0.040533826
6	0x3b8070db	0.0039197034
7	0x3d92b3c6	0.07163195
8	0x3f31b7ac	0.69420886
9	0xbe8629fb	-0.26203904
10	0x3cc64c7e	0.024206396
11	0xbea5a451	-0.32351926
12	0xbe9311b8	-0.28724456
13	0xbe1b0ec5	-0.15142353
14	0x3f5574f5	0.8338159
15	0x3abbcfcd	0.0014328897

state_model.0.weight f4 [16, 18]
0	0x3ed2da22	0.41182047
1	0x3cfc7d08	0.030821338
2	0x3eddc325	0.43312946
3	0xbe4cb24b	-0.19989888
4	0x3e0282c0	0.1274519
5	0x3e1aca54	0.15116245
6	0xbea408a2	-0.32037836
7	0x3f0e2de2	0.5553876
8	0x3dcd98ff	0.10038947
9	0xbd4d6c0c	-0.05015187
10	0x3d62b7ca	0.055351056
11	0xbda1006a	-0.07861407
12	0x3e7f551b	0.24934809
13	0x3eb8745c	0.36026275
14	0xbe18bc33	-0.14915542
15	0xbdcbf63c	-0.09959075
16	0xbcba18e6	-0.02271695
17	0xbc98277f	-0.01857352
18	0x3ea29ed1	0.31761792
19	0x3e683810	0.22677636
20	0xbe81862c	-0.25297678
21	0x3eb638d0	0.3559022
22	0xbe69eea7	-0.22844945
23	0x3eee671f	0.4656305
24	0x3ec432b4	0.38319933
25	0x3da00dbd	0.0781512
26	0x3edb24b2	0.42801434
27	0x3e5a2ec7	0.21306907
28	0xbe014ffa	-0.12628165
29	0x3e36f8b8	0.17868316
30	0x3eded35a	0.43520623
31	0xbca4469c	-0.0200532
32	0x3f0458fd	0.51698285
33	0x3dcdc3a0	0.10047078
34	0x3f1a2e4e	0.60226905
35	0x3e3d04b6	0.18458828
36	0x3ed94f94	0.42443526
37	0xbeb3069e	-0.34965986
38	0x3e43fc40	0.19139194
39	0xbd0bb520	-0.03410828
40	0xbe1e4436	-0.15455708
41	0x3e013d7d	0.12621112
42	0xbe509498	-0.20369184
43	0xbdad71c8	-0.08468968
44	0xbebe9b33	-0.37227783
45	0xbe23ce17	-0.15996586
46	0xbe5d2a23	-0.21598105
47	0x3d69df28	0.057097584
48	0x3d1dd099	0.038529012
49	0x3e592c32	0.21208265
50	0xbf0dc155	-0.55373126
51	0xbe4b958b	-0.19881265
52	0xbe44004a	-0.19140735
53	0xbb516910	-0.0031953491
54	0x3de9d2ae	0.11417137
55	0x3d430b4d	0.0476182
56	0x3ec6c293	0.38820323
57	0xbe962ffb	-0.2933348
58	0xbd9f2bd8	-0.077720344
59	0x3e87810b	0.2646564
60	0xbdd21d0a	-0.10259445
61	0x3e0a8434	0.13526994
62	0x3f1f3443	0.6218912
63	0xbe80bf7a	-0.25146085
64	0x3e9f60a0	0.31128407
65	0xbe714725	-0.23562296
66	0xbdc59b00	-0.096487045
67	0xbe668f00	-0.22515488
68	0x3f4d559a	0.8020874
69	0x3d3debe3	0.046367537
70	0x3ea25ca4	0.31711304
71	0x3df5e73e	0.120069966
72	0x3e0d41c4	0.13794619
73	0x3e423aa1	0.18967678
74	0xbe088308	-0.13331234
75	0xba5ebe0b	-0.00084969465
76	0x3d5222db	0.051302772
77	0x3e8d44fe	0.275917
78	0x3e5f30da	0.21795979
79	0xbec707b7	-0.38873073
80	0xbd23be85	-0.039976615
81	0xbe9ea361	-0.30984023
82	0xbdf27e18	-0.11840457
83	0xbe851495	-0.25992265
84	0xbe6852fa	-0.22687903
85	0xbeb156f5	-0.34636655
86	0xbddea5ca	-0.108714655
87	0xbe0755c6	-0.13216314
88	0xbe811579	-0.25211695
89	0xbd8b245a	-0.06794043
90	0xbeb69c7b	-0.3566626
91	0x3e9ee914	0.310372
92	0xbe4480b5	-0.19189723
93	0xbdc1df48	-0.09466416
94	0x3ecc45cd	0.39897004
95	0xbefece84	-0.49766934
96	0xbe97255f	-0.295207
97	0xbee3583c	-0.44403255
98	0x3e37e482	0.17958263
99	0x3e08581e	0.13314864
100	0xbe9a59f0	-0.30146742
101	0xbd535f0f	-0.051604327
102	0x3ec831fe	0.3910064
103	0x3e58b789	0.21163763
104	0x3e856f16	0.26061314
105	0x3e6a5e20	0.22887468
106	0xc03f768a	-2.99161
107	0xbe248bb9	-0.16068925
108	0xbe815f18	-0.25267863
109	0x3e8ac069	0.27099922
110	0xbe86f31f	-0.26357362
111	0x3b69c48d	0.0035670132
112	0x3eb51cd7	0.35373566
113	0xbf267d46	-0.650349
114	0xbe0682eb	-0.13135879
115	0xbe9df9c1	-0.3085461
116	0x3e5eca08	0.21756756
117	0xbe8fd56c	-0.28092515
118	0xbc60cca2	-0.013720663
119	0x3d4d7bfb	0.050167065
120	0xbcf779db	-0.030209472
121	0xbdb2839c	-0.08716509
122	0x3e576bda	0.21037236
123	0x3c66c510	0.014085069
124	0x3f1b7ab9	0.60734135
125	0x3f68a155	0.90871173
126	0x3e9e99a9	0.30976608
127	0xbe52ed72	-0.2059839
128	0xbe941267	-0.2892029
129	0x3ed61c8e	0.4181866
130	0x3d736925	0.059426446
131	0xbe5eb66b	-0.21749274
132	0xbd0353d2	-0.03206236
133	0x3e241a12	0.1602557
134	0xbe46cb8c	-0.19413584
135	0xbeafb741	-0.343195
136	0x3e083ae7	0.1330372
137	0x3ea0bb21	0.31392768
138	0x3e0b3831	0.13595654
139	0x3e0a52c8	0.13508141
140	0xbe2161f3	-0.15760021
141	0x3e16b13a	0.14716044
142	0x3d5c2f43	0.05375601
143	0xbeadbcd4	-0.33933127
144	0x3e1a2bae	0.15055725
145	0xbe0d491e	-0.13797423
146	0xbeb13ed2	-0.3461824
147	0x3e9d0fc4	0.3067609
148	0x3e13abcf	0.14421009
149	0x3e4571c5	0.19281681
150	0x3ea75599	0.32682493
151	0xbe1f3f75	-0.1555155
152	0xbe74829a	-0.23877946
153	0xbe3216c0	-0.17391491
154	0xbd9bfd1d	-0.07616637
155	0x3ed433c6	0.4144575
156	0xbe002cc6	-0.1251708
157	0xbea787d3	-0.32720813
158	0xbe30ee8b	-0.17278497
159	0x3e329284	0.17438704
160	0x3e8e40ed	0.2778391
161	0xbd7e2bc9	-0.062053476
162	0xbdf3b160	-0.11899066
163	0x3deebdc2	0.11657287
164	0xbd8e0832	-0.06935157
165	0xbd15dd22	-0.03658784
166	0x3dc83723	0.097761415
167	0x3ea815fd	0.32829276
168	0x3e057197	0.13031612
169	0x3ee031e7	0.43788072
170	0xbdf66398	-0.12030715
171	0x3ee51268	0.44740605
172	0x3eaaf4e2	0.33389956
173	0xbe8c75a4	-0.27433503
174	0x3e920f0b	0.28527102
175	0xbe3da7c7	-0.18521033
176	0xbdacb35e	-0.08432649
177	0xbd8ef478	-0.069802225
178	0x3e0c6a3c	0.137124
179	0x3e588e91	0.21148135
180	0xbec3165c	-0.38102996
181	0x3e3d2001	0.1846924
182	0x3d58a8f7	0.052895512
183	0x3dd6d68c	0.1049014
184	0xbaede85b	-0.0018150912
185	0xbe4fdd36	-0.20299229
186	0x3e3bed61	0.18352272
187	0xb9d0a43f	-0.00039795224
188	0xbe21edae	-0.15813324
189	0x3ee579b3	0.44819412
190	0xbddacd04	-0.10683635
191	0xbd82de39	-0.06390042
192	0xbcff6ff5	-0.031181315
193	0x3e85e4cf	0.2615113
194	0xbf0a245c	-0.5396173
195	0x3e8a3df8	0.27000403
196	0xbe8bf7a5	-0.27337375
197	0xbe1c5bea	-0.15269437
198	0x3e24c035	0.16088946
199	0x3dd60d1b	0.104517184
200	0x3e065c5e	0.13121173
201	0xbe4714b5	-0.19441493
202	0x3ea708f2	0.32624012
203	0xbec3c7eb	-0.38238463
204	0x3e7b1d73	0.24522953
205	0x3dbdd341	0.09268809
206	0xbe012d4e	-0.12614939
207	0x3d4fa921	0.050698403
208	0x3dd6e319	0.10492534
209	0xbe2179d7	-0.15769134
210	0xbc0368b2	-0.008020567
211	0xbeb8d8a2	-0.36102778
212	0xbe133471	-0.14375474
213	0x3e7c383d	0.24630828
214	0x3d6e5ad9	0.058192108
215	0x3e5ae113	0.21374922
216	0xbebdf16e	-0.3709826
217	0x3e07acac	0.13249463
218	0x3e490fc0	0.19634914
219	0xbed7e2fc	-0.42165363
220	0xbf0165ab	-0.5054576
221	0x3dfa44cc	0.12220153
222	0xbd97a31b	-0.07404157
223	0x3e4f14cb	0.20222776
224	0xbc9adde1	-0.018904628
225	0x3e3eb110	0.18622231
226	0xbef48962	-0.47761065
227	0x3e19b801	0.15011598
228	0xbe768840	-0.24075413
229	0x3e42a5a6	0.19008502
230	0xbccba75c	-0.024860077
231	0xbd245b58	-0.040126175
232	0x3f961bc6	1.1727226
233	0x3e817654	0.2528559
234	0x3e69a341	0.22816183
235	0x3dcdfa70	0.10057533
236	0x3e666ea9	0.22503151
237	0xbebafd05	-0.36521164
238	0x3e5c39f3	0.21506481
239	0x3d5bd290	0.053667605
240	0x3d2dca00	0.04242897
241	0x3e1e217f	0.15442465
242	0x3d9f7e49	0.07787759
243	0x3e5ae0f3	0.21374874
244	0xbe34d192	-0.1765807
245	0xbdc9cb39	-0.09853215
246	0xbe8c08c6	-0.27350444
247	0xbeb030a0	-0.34412098
248	0x3f2d8e24	0.67795014
249	0xbdf039f7	-0.11729806
250	0x3f465a37	0.77481407
251	0x3be41aa4	0.0069611836
252	0xbe8a29de	-0.26985067
253	0xbc17aca0	-0.009257466
254	0xbe4fa7b9	-0.20278825
255	0x3ea4eb30	0.32210684

state_model.0.bias f4 [16]
0	0xbeeec07c	-0.4663123
1	0x3f7162bb	0.94291276
2	0xbe30300b	-0.17205827
3	0x3f810f8a	1.0082867
4	0xbe079cb1	-0.13243367
5	0x3f34545a	0.7044121
6	0x3f1b56f2	0.60679543
7	0x3e9cda0f	0.30635116
8	0x3dd29c63	0.10283735
9	0xbdff6784	-0.12470916
10	0x3e06c944	0.13162714
11	0xbe918610	-0.28422594
12	0xbf507e24	-0.81442475
13	0x3f88ed02	1.0697329
14	0xbe921144	-0.28528798
15	0x3f2f2c1d	0.68426687

state_model.2.weight f4 [1, 16]
0	0xbe4694e3	-0.19392733
1	0x3f142551	0.5786944
2	0xbf0d8c00	-0.5529175
3	0x3f5d1d63	0.86372966
4	0xbea9bd56	-0.33152264
5	0x3f072c82	0.5280229
6	0x3eb7c0b6	0.35889214
7	0x3ed86725	0.42266193
8	0xbe748568	-0.23879015
9	0xbe86965b	-0.26286587
10	0xbe29c1e3	-0.16577868
11	0x3f01f986	0.5077137
12	0xbedb5c00	-0.42843628
13	0x3f0cd91c	0.5501878
14	0x3e9e2138	0.3088472
15	0x3ec513b2	0.3849159
