Pytorch_DRL/HNRN/models/backup/3.27/best_ca_actor.model (torch_old, 557663 bytes, 12 tensors)

sensor_model.0.weight f4 [256, 360]
0.01637696 -0.07695813 0.047608893 0.012759637 0.09902952 -0.065600835 -0.05627709 0.008029214
-0.031057388 0.10875567 0.025211507 -0.0063821687 0.0006375066 -0.009795485 0.03485381 -0.0067916135
-0.046248745 0.045924816 -0.02348369 0.08817292 0.02214875 0.036262453 -0.029678905 0.036969077
0.058070432 -0.051637303 -0.008110878 -0.07433878 0.051055904 -0.01574388 0.0410895 -0.05388979
0.054777488 0.0062844143 0.042326156 -0.0054565896 -0.05919625 0.10934121 0.09740641 0.031652138
0.09657161 -0.05159173 0.09454299 -0.045883916 0.09251693 0.012050403 -0.01730406 -0.024141032
0.0918745 -0.05180259 -0.029764155 0.038723502 0.06514677 0.07538265 -0.08952839 -0.056794867
0.075480886 0.038366035 -0.061169684 -0.073962145 0.059809282 0.06393167 0.08285852 -0.023213265
-0.051236656 0.063119255 -0.0011172768 -0.009050624 0.06701 -0.009728976 -0.053635504 0.08999358
0.034458447 -0.039063025 0.058472794 0.02259657 0.079624705 -0.061031554 -0.05968381 -0.05047211
-0.022664642 0.05991015 -0.036927305 9.42001e-05 0.05522659 -0.025181152 -0.052534048 0.035893526
0.10855745 -0.061274786 0.006327447 -0.068621345 0.043932647 0.1109917 0.03236135 -0.0051293117
0.018667642 -0.07464391 -0.020295598 0.081206866 0.011476658 0.03529222 0.024193551 0.044876073
0.10458596 -0.071755126 -0.034805782 -0.024802312 0.03243922 -0.06079081 0.036999214 -0.006146475
0.01646187 -0.05183474 0.062878765 0.1016254 0.03596636 0.1129626 -0.06712376 0.045325786
0.07514165 0.000668918 0.02109702 -0.0029422627 -0.008331996 -0.05565196 0.007872831 0.012066589
0.020522041 0.038439266 -0.02634242 0.007957307 -0.015114896 0.0037880894 -0.037676003 -0.024084209
0.0050815516 0.0694566 0.033962466 0.005968339 0.08389007 -0.058996655 0.011625698 -0.0057300134
-0.04969091 0.030852905 0.07993524 0.054364305 -0.0718647 0.020279989 0.076991834 -0.00023131499
-0.04913804 0.10329853 0.056701463 0.08344077 0.06673035 -0.028312584 -0.026993133 0.043600358
0.03444497 -0.0724371 0.05940865 -0.026526747 -0.052942738 0.08095739 0.01884273 0.012135579
0.05609022 0.010990328 -0.04609812 0.05539543 0.035425268 -0.018006617 0.0015124058 -0.019178504
0.017765246 -0.058938205 0.0047013806 0.081797406 -0.064350136 -0.018608697 -0.010573552 0.11116249
0.052377142 0.0707007 -0.07081346 -0.027795598 -0.0482856 0.054441765 -0.04902122 0.11100778
0.052938264 0.09369125 -0.067930035 0.08539372 0.032035623 0.06287063 0.11104093 0.073413946
0.057709437 -0.05967348 0.080982804 0.020186128 0.07007522 -0.07326368 -0.06598025 -0.037551813
-0.047549523 -0.052272405 0.09668407 -0.044620365 0.08925035 0.042664632 -0.058098078 0.034037035
0.06593444 0.051643334 -0.03367561 0.050317556 0.05930542 0.103734 -0.01044633 0.058261074
0.024556398 -0.050156157 0.10261949 -0.030196095 -0.019079434 -0.02912714 -0.06848015 -0.006179788
0.0098966705 0.07200893 0.03363817 -0.05459087 0.017986666 0.09663565 0.090595245 0.036544535
0.06539412 -0.043395218 -0.08081343 0.007833297 0.10074113 0.037099477 -0.05065659 -0.038162295
0.050059136 -0.0061246078 0.027200349 -0.0407674 -0.021657614 0.06934977 -0.01507988 0.02369058
00000000: f928 863c 399c 9dbd 8b01 433d cc0d 513c
00000010: fdcf ca3d bb59 86bd ce82 66bd f78c 033c
00000020: 106c febc 4bbb de3d 5d88 ce3c 8321 d1bb
00000030: 581e 273a 3e7d 20bc dec2 0e3d 2f8c debb
00000040: 536f 3dbd a91b 3c3d de60 c0bc 0194 b43d
00000050: 4c71 b53c f087 143d 2d21 f3bc e36c 173d
00000060: 43db 6d3d a381 53bd 7de3 04bc ee3e 98bd
00000070: ff1f 513d 4ff9 80bc 774d 283d 8abb 5cbd
00000080: 5c5e 603d 7ded cd3b 315e 2d3d 31cd b2bb
00000090: c477 72bd 49ee df3d 037d c73d aca5 013d
000000a0: 56c7 c53d da51 53bd c19f c13d c6f0 3bbd
000000b0: 8479 bd3d 0e6f 453c 3ec1 8dbc 6ac3 c5bc
000000c0: b328 bc3d f42e 54bd f5d3 f3bc 899c 1e3d
000000d0: ab6b 853d 3862 9a3d a95a b7bd bca1 68bd
000000e0: b995 9a3d b425 1d3d 108d 7abd 7779 97bd
000000f0: 94fa 743d 9bee 823d bab1 a93d bf29 bebc
00000100: 87dd 51bd ab44 813d 9771 92ba 1249 14bc
00000110: 8a3c 893d 4866 1fbc e7b0 5bbd 8e4e b83d
00000120: 4d24 0d3d 8d00 20bd 2b81 6f3d 711c b93c
00000130: 4712 a33d 39fc 79bd 0377 74bd d8bb 4ebd
00000140: 33ab b9bc 5864 753d 1641 17bd 4b8d c538
00000150: 4735 623d b448 cebc f12d 57bd 1705 133d
00000160: 5e53 de3d 45fb 7abd 7956 cf3b 5989 8cbd
00000170: b8f2 333d 9e4f e33d 568d 043d c913 a8bb
00000180: e2ec 983c e8de 98bd f442 a6bc c94f a63d
00000190: 9808 3c3c 938e 103d 8e31 c63c f9cf 373d
000001a0: 2a31 d63d 5af4 92bd 8290 0ebd 382e cbbc
000001b0: fdde 043d c9ff 78bd 7d8c 173d 5f68 c9bb
000001c0: 0bdb 863c aa50 54bd 95c6 803d fa20 d03d
000001d0: 7651 133d f058 e73d 2f78 89bd 88a7 393d
000001e0: dee3 993d 545a 2f3a a8d3 ac3c fad2 40bb
000001f0: ed82 08bc 4ff3 63bd 0cfd 003c f1b2 453c
00000200: d71d a83c 7e72 1d3d 0fcc d7bc 5d5f 023c
00000210: 78a4 77bc 9841 783b 2752 1abd 3f4c c5bc
00000220: 2583 a63b 433f 8e3d 3a1c 0b3d 0e92 c33b
00000230: 8fce ab3d 7aa6 71bd b679 3e3c d6c2 bbbb
00000240: b288 4bbd 3bbf fc3c 16b5 a33d 1bad 5e3d
00000250: cd2d 93bd 3822 a63c e5ad 9d3d 258d 72b9
00000260: f844 49bd 2e8e d33d cb3f 683d ffe2 aa3d
00000270: eca9 883d cbef e7bc b420 ddbc 4a96 323d
00000280: 2b16 0d3d e759 94bd 7c56 733d 9f4e d9bc
00000290: 7cda 58bd fdcc a53d 125c 9a3c 4fd4 463c
000002a0: dcbe 653d c710 343c 62d1 3cbd 52e6 623d
000002b0: 161a 113d 9d82 93bc eb3b c63a 3d1c 9dbc
000002c0: 6c88 913c 3069 71bd 0a0e 9a3b 6685 a73d
000002d0: 01ca 83bd 4471 98bc b13c 2dbc 29a9 e33d
000002e0: 6a89 563d 87cb 903d a606 91bd 98b3 e3bc
000002f0: 1fc7 45bd 54fe 5e3d 7aca 48bd 0c58 e33d
00000300: cbd5 583d 33e1 bf3d e71e 8bbd e7e2 ae3d
00000310: c937 033d 51c2 803d 6d69 e33d 0d5a 963d
00000320: bb60 6c3d 2e6c 74bd 50da a53d 615d a53c
00000330: 9983 8f3d 450b 96bd a720 87bd eecf 19bd
00000340: 4ac3 42bd 971b 56bd 4c02 c63d d8c3 36bd
00000350: e3c8 b63d 1cc1 2e3d 40f8 6dbd 6b6a 0b3d
00000360: a308 873d f687 533d 70ef 09bd c819 4e3d
00000370: 3dea 723d 7e72 d43d 1527 2bbc 2aa3 6e3d
00000380: 802a c93c 8b70 4dbd 2b2a d23d cd5d f7bc
00000390: 794c 9cbc 0a9c eebc 523f 8cbd d27f cabb
000003a0: a525 223c 6b79 933d 2ec8 093d ad9a 5fbd
000003b0: c658 933c e9e8 c53d 008a b93d b9af 153d
000003c0: 5aed 853d 2fbf 31bd 8381 a5bd 3b57 003c
000003d0: 5e51 ce3d 9ff5 173d 497d 4fbd 1150 1cbd
000003e0: cf0a 4d3d efb0 c8bb 44d3 de3c b8fb 26bd
000003f0: 4f6b b1bc 4107 8e3d 9a11 77bc bf12 c23c

sensor_model.0.bias f4 [256]
-0.06633642 0.116588965 0.057102505 0.026081003 0.044874746 0.07986962 -0.11485821 -0.037397068
0.041113675 0.00809115 0.0871722 -0.1026104 0.091802105 0.057883214 0.08064627 0.028865961
-0.012904098 -0.021732109 0.08327491 0.024239 0.104023315 0.009413373 -0.07338793 0.091209926
-0.027014693 -0.063673735 0.098598324 0.037963808 0.08535467 0.11829461 -0.031126074 0.10576088
0.061104465 0.017033624 -0.07856861 -0.04290946 0.0663415 0.014133096 0.09383692 -0.021754451
0.08067129 -0.035572663 0.03243284 0.038924076 0.14521569 0.035654847 0.1357721 -0.008622285
-0.023207808 -0.08245706 0.048064366 0.037183173 0.03348156 0.14430752 0.044698805 0.051322196
-0.014435205 0.09511785 0.001885101 0.01847806 0.052992642 -0.0021463253 0.016852891 0.069024526
-0.062465448 -0.023619164 0.018173467 0.031797312 0.00017922818 0.09449536 -0.010640656 0.03289938
0.070718 0.06708347 0.055097386 0.07206643 -0.068049416 0.016630683 0.032731567 -0.0025126215
0.050804514 0.13646327 0.083220884 -0.035105314 -0.03203185 0.01368635 -0.0073291245 0.16449094
0.0919432 0.11436845 0.06891885 -0.09477614 0.12831303 -0.021323219 -0.08919812 -0.0032588004
0.12069163 -0.00097266375 0.104383215 0.0020193802 0.061933033 0.014492957 -0.0030803916 0.034216918
0.013978292 -0.020479765 0.13821296 0.11188987 0.06425349 0.011721044 0.041803263 -0.06649407
0.041155618 0.005985669 0.04710115 0.11204994 -0.0674475 0.13746613 0.055453356 0.02215705
0.053065833 -0.04735361 -0.03990576 -0.03777494 0.08354914 0.05570555 0.03434603 0.010314319
-0.033463098 0.09782367 -0.00059039873 0.01732334 0.112314604 -0.02048431 0.05691122 0.07920833
0.052854944 0.16082793 0.09105873 0.017666696 -0.012999834 0.07353141 -0.0054340856 0.033768367
0.039736986 -0.0918675 0.023286836 -0.0057799662 0.07987075 -0.004248234 0.07884157 0.022785047
0.0028589196 -0.06722512 0.06273119 0.037492994 -0.003345828 0.057154 0.07770491 0.040837362
0.09925385 -0.09104799 0.090531185 0.020938443 -0.009210064 0.12709689 0.031636734 -0.01670529
0.06668675 0.06359579 0.032713514 -0.07801592 0.097221166 0.11975923 -0.095844686 0.04321107
-0.016752055 -0.0049156346 0.05281323 0.015985167 0.03843403 -0.073802054 -0.020534711 0.019686569
0.07966005 -0.029315576 -0.07179664 0.06913856 -0.014156189 0.09504385 0.06721477 -0.0742001
-0.021262811 -0.03698403 0.017450718 0.042021446 0.035154548 0.028416581 0.019632444 -0.010520636
0.09790097 -0.05692456 0.016545663 0.11241535 0.07884302 -0.064152256 0.11732582 0.098589994
-0.049904563 0.083597004 0.07030565 0.0637667 0.03448482 0.04577643 0.036682032 0.095012106
0.069981284 0.015999973 -0.05954958 0.095671 0.17182164 0.09183897 0.03260203 0.048111558
0.10580721 -0.00029767034 0.12273359 0.12436417 -0.01999361 0.022695385 -0.08517097 0.021605492
0.06021328 -0.071336955 0.04451946 0.14312425 0.02386915 -0.05924571 0.06106827 0.11030941
0.0788673 -0.0037640315 -0.08253302 -0.07687167 0.033403877 0.033725325 -0.009287274 -0.004099021
-0.08641181 0.10761286 -0.09200473 0.03118964 0.031749837 -0.070114024 0.060728107 -0.036701534
00000000: 64db 87bd 32c6 ee3d 51e4 693d d4a7 d53c
00000010: 95ce 373d af92 a33d c83a ebbd ab2d 19bd
00000020: d066 283d be90 043c 5787 b23d 6725 d2bd
00000030: be02 bc3d f316 6d3d df29 a53d 4f78 ec3c
00000040: b66b 53bc 8907 b2bc 098c aa3d de90 c63c
00000050: 2d0a d53d 8c3a 1a3c 694c 96bd 45cc ba3d
00000060: eb4d ddbc 6067 82bd ebed c93d f07f 1b3d
00000070: 6ece ae3d 7244 f23d 1cfc febc 2999 d83d
00000080: ad48 7a3d 198a 8b3c 94e8 a0bd d4c1 2fbd
00000090: 0dde 873d 808e 673c 922d c03d 6436 b2bc
000000a0: fd36 a53d a4b4 11bd 4cd8 043d da6e 1f3d
000000b0: 6cb3 143e d10a 123d d707 0b3e 7c44 0dbc
000000c0: 4d1e bebc 3fdf a8bd 24df 443d 624d 183d
000000d0: f623 093d 5ac5 133e 1816 373d 3937 523d
000000e0: a381 6cbc 26cd c23d 7e15 f73a 4d5f 973c
000000f0: d00e 593d 5da9 0cbb 130f 8a3c bb5c 8d3d
00000100: c5db 7fbd fa7c c1bc 86e0 943c e63d 023d
00000110: 33ef 3b39 c986 c13d 2556 2ebc 80c1 063d
00000120: 99d4 903d 0f63 893d ccad 613d 9097 933d
00000130: 7e5d 8bbd 123d 883c 8911 063d cbaa 24bb
00000140: 6518 503d 07bd 0b3e b66f aa3d 97ca 0fbd
00000150: d433 03bd b63c 603c 2729 f0bb 5070 283e
00000160: b74c bc3d 023a ea3d 5325 8d3d fe19 c2bd
00000170: 7e64 033e 08ae aebc 81ad b6bd 9991 55bb
00000180: 2c2d f73d 5cfa 7eba dec6 d53d 9457 043b
00000190: 7ead 7d3d de73 6d3c 65e0 49bb 0a27 0c3d
000001a0: 3505 653c 2ec5 a7bc b387 0d3e 8426 e53d
000001b0: 5597 833d 9f09 403c e639 2b3d 0b2e 88bd
000001c0: cb92 283d 6e23 c43b 23ed 403d 707a e53d
000001d0: ea21 8abd ecc3 0c3e 0f23 633d b482 b53c
000001e0: 8f5b 593d dcf5 41bd 3974 23bd e5b9 1abd
000001f0: d01b ab3d 812b 643d 6cae 0c3d 64fd 283c
00000200: 9a10 09bd c757 c83d fdc4 1aba ade9 8d3c
00000210: 3305 e63d b6ce a7bc bd1b 693d fa37 a23d
00000220: 6d7e 583d 14b0 243e 007d ba3d bfb9 903c
00000230: 41fd 54bc a397 963d 6a10 b2bb b350 0a3d
00000240: 40c3 223d 0725 bcbd 09c4 be3c df65 bdbb
00000250: 4793 a33d c534 8bbb b077 a13d b5a7 ba3c
00000260: b65c 3b3b 53ad 89bd 3679 803d 4192 193d
00000270: ae45 5bbb 501a 6a3d c023 9f3d 1445 273d
00000280: 9a45 cb3d 5e77 babd 6a68 b93d 1987 ab3c
00000290: cfe5 16bc b025 023e 8595 013d 88d9 88bc
000002a0: 1093 883d 823e 823d 9bfe 053d d0c6 9fbd
000002b0: e41b c73d 5444 f53d 384a c4bd 17fe 303d
000002c0: 9b3b 89bc 5513 a1bb af52 583d 53f3 823c
000002d0: 006d 1d3d 8825 97bd 6938 a8bc ba45 a13c
000002e0: cf24 a33d 3827 f0bc 1e0a 93bd 8498 8d3d
000002f0: 5cef 67bc 5aa6 c23d e6a7 893d 39f6 97bd
00000300: 592f aebc 917c 17bd cff4 8e3c ae1e 2c3d
00000310: 37fe 0f3d e4c9 e83c 38d4 a03c bf5e 2cbc
00000320: 4e80 c83d ba29 69bd c58a 873c 053a e63d
00000330: 7378 a13d 4262 83bd 8548 f03d 8de9 c93d
00000340: ba68 4cbd e834 ab3d 69fc 8f3d 1e98 823d
00000350: f43f 0d3d 1180 3b3d e63f 163d b595 c23d
00000360: 5952 8f3d 6012 833c 43ea 73bd 28ef c33d
00000370: 03f2 2f3e 1216 bc3d b589 053d a010 453d
00000380: 73b1 d83d a310 9cb9 c05b fb3d a4b2 fe3d
00000390: a4c9 a3bc aceb b93c 1e6e aebd 00fe b03c
000003a0: 33a2 763d 1c19 92bd 0a5a 363d 2a8f 123e
000003b0: 3c89 c33c a1ab 72bd b922 7a3d e6e9 e13d
000003c0: 2e85 a13d f8ad 76bb 1207 a9bd e56e 9dbd
000003d0: 81d2 083d 9123 0a3d a729 18bc 1551 86bb
000003e0: adf8 b0bd 2264 dc3d fa6c bcbd 6a81 ff3c
000003f0: 1e0c 023d f197 8fbd 09be 783d 5954 16bd

sensor_model.2.weight f4 [128, 256]
-0.0015156175 -0.0657252 -0.019313043 -0.0604217 -0.10088519 0.11441469 -0.009021183 -0.12689316
0.016069982 -0.01723547 0.04073883 -0.14643326 0.008319455 0.0016052851 -0.0029461365 -0.04581689
-0.0894585 -0.080113664 0.09548106 -0.030755049 0.0066215647 -0.014045723 0.013461046 -0.07884037
-0.08451227 0.078461125 0.013829959 0.021945413 -0.09809748 -0.0075580333 -0.12422062 0.08787573
0.03526396 -0.025986413 0.013359699 -0.00056300726 -0.007869066 0.031613577 0.010711935 -0.07280043
-0.027081057 0.05133417 0.12658389 0.035408948 0.09017713 0.052595876 0.11438475 0.068564326
0.08391272 -0.09610256 -0.06959262 0.09894698 -0.016540494 0.010636419 -0.0026191645 0.04920004
-0.07974606 0.0036572514 -0.10342617 0.014150044 0.052764527 0.08021801 -0.044736844 0.09071033
-0.0970608 -0.0016436299 0.08259627 -0.0064733024 0.0012684301 -0.038216516 -0.00010370779 -0.06048705
-0.016921097 0.07243919 0.040391892 0.11043277 -0.081593774 -0.022635829 0.019508941 -0.041547287
0.010519849 -0.018111533 -0.023125714 -0.14230219 -0.14883864 0.06612689 0.074944824 0.12108851
-0.04108984 -0.05570542 0.13223454 -0.060032282 0.04216842 0.051336665 -0.019283094 0.052234676
-0.015746439 -0.05174319 -0.08497096 0.029129159 -0.079121955 -0.044048604 0.024296597 0.12783907
0.03125628 -0.04327145 0.04067385 -0.012572259 0.13167943 0.003985427 0.0044356054 -0.127891
0.056382403 0.056245793 0.04671746 -0.05694003 -0.07656051 0.036557693 0.04643589 0.112563774
0.11237026 -0.06364445 0.046520676 -0.10363968 -0.04847066 0.09011462 0.07846487 -0.07663302
0.0043919412 -0.058782935 -0.093747 -0.09230836 -0.04196952 0.03613673 0.07601435 -0.03267468
-0.084351435 0.038938135 -0.038575713 -0.041395772 0.06154715 -0.09920389 -0.13196017 -0.052156243
0.0014482869 0.012979828 0.07317983 -0.07021239 0.10573855 0.033210855 -0.11548604 -0.029615294
-0.025772471 0.0080446405 0.0016330103 0.03620558 0.025255404 -0.032658197 -0.021705547 -0.01288864
0.06807911 -0.00012812632 0.09175594 -0.096961446 -0.014336329 -0.014399788 0.005106188 0.03724877
-0.0020806303 0.11583779 -0.07284545 0.020980697 -0.061419364 -0.07490205 0.006590524 -0.047185335
0.115172625 5.197004e-05 -0.010232459 -0.08340327 -0.092683546 0.09808689 0.067715324 -0.08309655
-0.10314206 -0.00066617504 -0.086861044 0.049761564 0.032832675 0.011747911 -0.043186203 -0.013293532
-0.07189069 0.00016911603 0.085684925 0.006304489 0.07318431 -0.07619493 0.034138583 -0.10445775
-0.049246605 0.09144704 -0.10672784 0.12352663 0.04463961 -0.057489693 0.06983027 0.08423812
-0.038563 0.028017243 0.09006107 0.007903967 -0.045099862 0.09908008 -0.09871623 -0.03349692
0.12463376 -0.05528463 -0.039130572 0.0729862 -0.06112574 0.050861776 -0.022629406 -0.086296156
0.07423354 0.08462682 -0.050207574 -0.095233686 0.053982172 0.041371044 -0.036619894 -0.12043553
-0.009360891 0.056915298 0.06277467 0.07538069 -0.04712889 -0.13417307 0.005790121 0.104772545
-0.0021913266 -0.022091845 -0.088896744 0.025419084 0.08275699 0.06793383 -0.11782066 0.07833137
-0.008475044 0.08549594 -0.06848515 0.060526744 -0.05296354 0.043705784 0.09651192 0.061571166
00000000: afa7 c6ba ef9a 86bd 6336 9ebc bf7c 77bd
00000010: e59c cebd 4052 ea3d 95cd 13bc 48f0 01be
00000020: 32a5 833c 6631 8dbc c2dd 263d 9af2 15be
00000030: 534e 083c 6e68 d23a f813 41bb 7eaa 3bbd
00000040: 0536 b7bd a212 a4bd 938b c33d 03f2 fbbc
00000050: b6f9 d83b 0820 66bc b88b 5c3c 0f77 a1bd
00000060: c514 adbd 3ab0 a03d 0d97 623c dec6 b33c
00000070: 55e7 c8bd 61a9 f7bb 6167 febd 31f8 b33d
00000080: f170 103d 75e1 d4bc a4e2 5a3c c796 13ba
00000090: 41ed 00bc 3d7d 013d 1d81 2f3c 6418 95bd
000000a0: 18d9 ddbc c743 523d 359f 013e f908 113d
000000b0: caae b83d c66e 573d 8d42 ea3d 746b 8c3d
000000c0: 6fda ab3d 6bd1 c4bd 9386 8ebd b7a4 ca3d
000000d0: ee7f 87bc 6044 2e3c 4aa6 2bbb fb85 493d
000000e0: e751 a3bd 7fae 6f3b 1ad1 d3bd 96d5 673c
000000f0: 9e1f 583d 5749 a43d fb3d 37bd 56c6 b93d
00000100: d0c7 c6bd 116f d7ba 3c28 a93d ff1d d4bb
00000110: 7441 a63a ec88 1cbd b27d d9b8 45c1 77bd
00000120: 1d9e 8abc ff5a 943d f871 253d 932a e23d
00000130: a31a a7bd c66e b9bc 37d1 9f3c 7d2d 2abd
00000140: 725b 2c3c a35e 94bc 2372 bdbc aab7 11be
00000150: 2869 18be 896d 873d ac7c 993d 41fd f73d
00000160: d24d 28bd 5e2b 64bd 7e68 073e 69e4 75bd
00000170: cbb8 2c3d 6546 523d 94f7 9dbc 07f4 553d
00000180: adfe 80bc abf0 53bd 4105 aebd 46a0 ee3c
00000190: b10a a2bd 4f6c 34bd a809 c73c 3fe8 023e
000001a0: 9606 003d 673d 31bd 9f99 263d e0fb 4dbc
000001b0: f9d6 063e 2f98 823b 8e58 913b dcf5 02be
000001c0: 3cf1 663d fd61 663d cf5a 3f3d f339 69bd
000001d0: c2cb 9cbd 85bd 153d 8f33 3e3d d687 e63d
000001e0: 6122 e63d 0558 82bd 778c 3e3d 0a41 d4bd
000001f0: 2c89 46bd 048e b83d 31b2 a03d c6f1 9cbd
00000200: 46ea 8f3b 60c6 70bd 6dfe bfbd 2a0c bdbd
00000210: 3be8 2bbd 1c04 143d 69ad 9b3d e3d5 05bd
00000220: 72c0 acbd 987d 1f3d 9101 1ebd 9d8e 29bd
00000230: dd18 7c3d 692b cbbd 9120 07be c9a1 55bd
00000240: 72d4 bd3a 58a9 543c 4fdf 953d 83cb 8fbd
00000250: 748d d83d 1b08 083d f283 ecbd c69b f2bc
00000260: ca20 d3bc abcd 033c bc0a d63a 4d4c 143d
00000270: 6ce4 ce3c 9ac4 05bd d5cf b1bc e02a 53bc
00000280: 0f6d 8b3d a659 06b9 8aea bb3d b993 c6bd
00000290: ece2 6abc 17ed 6bbc cf51 a73b 2b92 183d
000002a0: 2f5b 08bb 5d3c ed3d ff2f 95bd b6df ab3c
000002b0: df92 7bbd 3f66 99bd 53f5 d73b 6945 41bd
000002c0: a0df eb3d 68fa 5938 0ba6 27bc 55cf aabd
000002d0: dfd0 bdbd c8e1 c83d 55ae 8a3d 862e aabd
000002e0: 253c d3bd 40a2 2eba 34e4 b1bd c8d2 4b3d
000002f0: 8e7b 063d 4f7a 403c 04e4 30bd 1dcd 59bc
00000300: 6d3b 93bd bd54 3139 947b af3d e395 ce3b
00000310: a8e1 953d 160c 9cbd e6d4 0b3d f2ed d5bd
00000320: cfb6 49bd 9648 bb3d 2094 dabd 88fb fc3d
00000330: 06d8 363d 507a 6bbd 2c03 8f3d 0985 ac3d
00000340: 3cf4 1dbd 6b84 e53c f071 b83d a47f 013c
00000350: a2ba 38bd 7fea ca3d bc2b cabd 1134 09bd
00000360: fc3f ff3d 2372 62bd 6147 20bd ca79 953d
00000370: fc5e 7abd 7054 503d 4e61 b9bc 0abc b0bd
00000380: c107 983d d450 ad3d 75a6 4dbd e109 c3bd
00000390: 691c 5d3d af74 293d befe 15bd e7a6 f6bd
000003a0: 6c5e 19bc 0420 693d 0290 803d 3161 9a3d
000003b0: 390a 41bd aa64 09be 0ebb bd3b fd92 d63d
000003c0: 5c9c 0fbb f5f9 b4bc 7f0f b6bd af3b d03c
000003d0: 7f7c a93d e420 8b3d f54b f1bd 336c a03d
000003e0: e9da 0abc 7f18 af3d f141 8cbd e4ea 773d
000003f0: 4cf0 58bd d604 333d 0ba8 c53d 0c32 7c3d

sensor_model.2.bias f4 [128]
0.04506594 -0.05512065 0.012159875 -0.007037816 -0.02661127 0.01304306 0.07579278 0.01336928
0.1026614 0.0327512 0.006828661 0.10129373 -0.004606811 -0.0204557 -0.08863508 0.018147886
0.11420971 -0.040781185 -0.03583253 -0.012497205 -0.04582311 0.029312734 0.0130796125 0.03133329
0.026652785 -0.055967998 0.071535505 0.14042157 -0.04495432 -0.010767172 -0.067048155 0.12368698
0.09515674 0.15079717 -0.027211517 0.017737677 -0.084158964 0.110313915 0.058085974 0.11036134
-0.00025016573 -0.075044915 0.07801857 0.058206297 0.05575853 -0.04514299 0.072431356 0.026674021
-0.04485197 0.14494422 -0.030354777 -0.008738599 0.06176851 0.054354444 -0.005963824 0.023511099
-0.016788596 0.09880026 -0.0104424935 -0.046665907 0.16420476 -0.007606834 0.017441917 0.0003711512
0.015174772 0.014414984 0.14206351 0.09553578 0.017700281 -0.08671374 0.06442976 -0.057595093
-0.000971763 -0.03145464 -0.06747071 -0.10073603 -0.04646508 -0.0784605 0.046855364 -0.07192849
-0.04334298 0.1331124 0.09754831 0.048069533 0.053528413 0.03905219 0.033271432 0.05444243
-0.05292424 0.13139153 0.118188106 0.016484706 0.10314221 0.048321556 -0.083730936 0.031127155
0.01800838 0.0384689 0.12537946 0.06451947 0.06337683 0.0834738 0.13589032 -0.104263425
0.034633305 0.11064125 0.099320255 0.055168886 0.051585507 -0.053046275 0.13877565 0.05005243
0.037230574 0.13276072 -0.05680926 0.047417603 0.061035708 0.040655717 0.094177224 -0.033645783
0.101525374 -0.0076688216 -0.029162096 0.03354472 0.07898941 -0.105115265 -0.053126764 0.0057011107
00000000: 1097 383d 31c6 61bd 363a 473c 7b9d e6bb
00000010: e1ff d9bc 8fb2 553c 3f39 9b3d d30a 5b3c
00000020: 2440 d23d 1f26 063d f6c2 df3b 1673 cf3d
00000030: bbf4 96bb b692 a7bc 4f86 b5bd e0aa 943c
00000040: c8e6 e93d 2c0a 27bd 22c5 12bd 14c1 4cbc
00000050: 03b1 3bbd 4221 f03c df4b 563c 5657 003d
00000060: f156 da3c b33e 65bd 3581 923d acca 0f3e
00000070: 0522 38bd cb68 30bc 8b50 89bd 994f fd3d
00000080: 89e1 c23d 936a 1a3e b0ea debc 9b4e 913c
00000090: 895b acbd 43ec e13d 8feb 6d3d 2005 e23d
000000a0: ad28 83b9 26b1 99bd 33c8 9f3d ba69 6e3d
000000b0: 0e63 643d dbe7 38bd e456 943d 7a83 da3c
000000c0: b3b6 37bd 426c 143e 95aa f8bc 572c 0fbc
000000d0: fa00 7d3d c4a2 5e3d 2f6c c3bb 599a c03c
000000e0: 3d88 89bc ca57 ca3d fe16 2bbc c024 3fbd
000000f0: 4b25 283e c042 f9bb 5ae2 8e3c 1297 c239
00000100: 9b9f 783c d32c 6c3c 1979 113e 43a8 c33d
00000110: 2e00 913c f996 b1bd c0f3 833d d5e8 6bbd
00000120: e9bd 7eba 95d6 00bd 152e 8abd b14e cebd
00000130: 2b52 3ebd e6af a0bd 69eb 3f3d 3f4f 93bd
00000140: 6988 31bd 9e4e 083e 69c7 c73d 8fe4 443d
00000150: 9c40 5b3d 30f5 1f3d a047 083d 07ff 5e3d
00000160: 16c7 58bd 808b 063e 9b0c f23d ef0a 873c
00000170: 393c d33d d3ec 453d 207b abbd 60fe fe3c
00000180: 4f86 933c 9191 1d3d 7963 003e c922 843d
00000190: b6cb 813d 50f4 aa3d d526 0b3e 1088 d5bd
000001a0: a7db 0d3d e197 e23d 6b68 cb3d c5f8 613d
000001b0: 534b 533d 0d47 59bd 341b 0e3e c703 4d3d
000001c0: 167f 183d 6df2 073e d4b0 68bd f638 423d
000001d0: 9400 7a3d 9c86 263d fddf c03d 29d0 09bd
000001e0: 89ec cf3d bd4a fbbb 59e5 eebc 3066 093d
000001f0: 33c5 a13d ac46 d7bd 739b 59bd 62d0 ba3b

sensor_model.4.weight f4 [64, 128]
-0.09830909 0.015954755 -0.013170228 0.10051508 0.13142593 -0.15768534 -0.1933249 -0.0070340834
-0.08235963 0.07801289 -0.087138474 -0.032004047 0.11980577 -0.079603344 0.03741951 -0.08063419
0.0883252 -0.024378767 0.10056675 -0.1630049 0.10328393 -0.092600204 0.06786848 0.11429972
-0.02948774 0.082957886 -0.04750169 -0.044073954 -0.086989835 -0.07107685 -0.0810752 -0.13839483
-0.03308357 0.036573444 -0.07597156 0.07075977 0.05153749 0.14710824 -0.0913389 0.09932705
0.10923967 -0.1285046 0.027133476 0.046648398 0.110111594 -0.040500924 0.049472272 -0.16113728
0.17406313 -0.14750087 -0.053197835 -0.1851155 0.0035514126 -0.079254396 0.09213061 -0.059018265
0.10618997 -0.14213799 -0.08908935 0.05574913 -0.09345793 -0.07973865 0.0001379553 -0.14784227
0.12709205 -0.15583687 0.14487502 0.098742075 0.11234133 0.15154964 -0.094038464 0.07648731
-0.003626811 -0.08408509 -0.042525437 -0.006940747 0.08039056 0.15487845 0.086965024 -0.092309795
-0.053315777 -0.10751632 -0.0077503966 -0.1539593 -0.105688706 -0.20452107 0.035663918 0.08597386
-0.15456408 -0.058064897 -0.14677152 0.13438274 0.115159266 -0.11236987 0.11867441 0.15450855
-0.013421581 0.12654103 0.10393158 -0.1962214 -0.078785025 0.074358635 0.11029288 -0.034682915
-0.15074949 0.11264545 -0.14826742 -0.12606822 -0.10348321 -0.0047499365 0.0038181369 -0.1399298
-0.06000705 -0.07457286 0.11838682 -0.1812173 0.06866068 0.11695117 -0.058870934 0.02960635
-0.17028393 0.030164314 -0.012538859 0.11948171 0.16628028 0.10362318 0.0031225292 -0.07911729
0.17061241 -0.058034983 -0.08284432 0.059734236 -0.14113973 -0.13037165 0.121605136 -0.04068983
0.17934786 -0.11888474 -0.10355699 0.14281766 0.089897186 -0.04289274 -0.082035094 -0.14864905
-0.0042807367 0.16573589 0.13839087 0.17915311 -0.1466947 0.15158527 -0.1040229 0.16636014
0.08764416 0.13130395 0.105437316 -0.076582745 0.09093547 0.0030468581 0.03855189 -0.07969187
-0.012266276 0.051655773 -0.08226194 -0.060284767 0.048726432 -0.0043405937 -0.109557405 -0.07221034
0.06647892 -0.067986935 0.14772387 -0.09559756 0.14483336 -0.14375813 0.022019906 -0.03118204
0.05468366 0.17491916 0.02131672 0.066977546 0.039579686 0.07684074 -0.12295298 0.11150083
0.07182146 0.1436917 -0.13002564 -0.15199049 0.19064419 0.025929328 -0.10125397 0.088821344
0.024830379 0.18996055 0.16433573 0.017274486 -0.013200102 0.15880686 0.052383352 -0.015728137
0.16666675 0.18054567 0.0016008262 -0.14178419 0.17746429 -0.08411863 -0.04655677 -0.045145966
-0.035437424 -0.10007982 -0.13319293 -0.064764686 0.02888524 0.11774348 -0.016478568 -0.08290382
-0.14751019 0.14962827 -0.07041928 0.054080673 0.10342163 0.18508328 -0.105123624 -0.120433316
-0.09268174 0.046097465 0.17948903 0.028330432 -0.08684096 -0.06753187 0.20872746 0.011227375
-0.114675894 0.17661181 -0.085286826 0.061956383 0.19121574 0.17902794 0.025363564 -0.04987185
-0.018209843 0.08247201 0.123008855 0.16619721 -0.009659316 -0.12337321 0.107268594 0.10227487
-0.08827762 0.10047749 0.1796968 -0.14812472 0.109230645 -0.07575209 -0.0572615 0.00039686708
00000000: 4756 c9bd 8cb3 823c f1c7 57bc dada cd3d
00000010: 8594 063e 4478 21be f6f6 45be 2b7e e6bb
00000020: 2aac a8bd 39c5 9f3d a875 b2bd ad16 03bd
00000030: ba5c f53d 1407 a3bd 3345 193d 8a23 a5bd
00000040: d8e3 b43d fbb5 c7bc f1f5 cd3d c2ea 26be
00000050: 8686 d33d 2da5 bdbd a1fe 8a3d f915 ea3d
00000060: 4690 f1bc d3e5 a93d 2291 42bd e486 34bd
00000070: ba27 b2bd bd90 91bd c10a a6bd 60b7 0dbe
00000080: a382 07bd 09ce 153d fa96 9bbd 80ea 903d
00000090: fa18 533d 8ba3 163e e40f bbbd fb6b cb3d
000000a0: 0cb9 df3d b696 03be 0647 de3c 6412 3f3d
000000b0: 3082 e13d 4ce4 25bd 70a3 4a3d 2c01 25be
000000c0: 9b3d 323e 780a 17be f9e5 59bd eb8e 3dbe
000000d0: d1be 683b 2150 a2bd f9ae bc3d 23bd 71bd
000000e0: 217a d93d 9f8c 11be 7a74 b6bd 3359 643d
000000f0: df66 bfbd 044e a3bd 18a8 1039 f763 17be
00000100: 6b24 023e b393 1fbe 1e5a 143e 4939 ca3d
00000110: 3613 e63d d42f 1b3e 3d97 c0bd 61a5 9c3d
00000120: cbaf 6dbb ce34 acbd 272f 2ebd 356f e3bb
00000130: cea3 a43d 7598 1e3e b81a b23d eb0c bdbd
00000140: a561 5abd 8431 dcbd 0af7 fdbb 82a7 1dbe
00000150: 5273 d8bd f96d 51be 5414 123d 1013 b03d
00000160: 0c46 1ebe 75d5 6dbd 464b 16be a19b 093e
00000170: 9fd8 eb3d 2d22 e6bd 920b f33d 7d37 1e3e
00000180: 31e6 5bbc f993 013e 15da d43d 43ee 48be
00000190: 0b5a a1bd 5749 983d 3ce1 e13d ac0f 0ebd
000001a0: 135e 1abe a8b2 e63d 6ad3 17be 0718 01be
000001b0: 01ef d3bd 5ba5 9bbb b539 7a3b c249 0fbe
000001c0: f4c9 75bd a8b9 98bd ca74 f23d 0791 39be
000001d0: f89d 8c3d 1884 ef3d a622 71bd 0489 f23c
000001e0: e95e 2ebe 271b f73c c96f 4dbc d4b2 f43d
000001f0: 6145 2a3e 6438 d43d 59a3 4c3b 3f08 a2bd
00000200: 05b5 2e3e 17b6 6dbd 48aa a9bd e3ab 743d
00000210: ef86 10be 2580 05be 1d0c f93d 61aa 26bd
00000220: f7a6 373e d879 f3bd b015 d4bd cb3e 123e
00000230: 041c b83d 4cb0 2fbd 0402 a8bd 7537 18be
00000240: 6c45 8cbb abb6 293e 56b6 0d3e ea73 373e
00000250: 2337 16be 2b39 1b3e f509 d5bd 505a 2a3e
00000260: c87e b33d 8b74 063e 85ef d73d 6ad7 9cbd
00000270: 603c ba3d ccad 473b 96e8 1d3d 7e35 a3bd
00000280: 7ef8 48bc 0195 533d f378 a8bd 29ed 76bd
00000290: 5e95 473d 8a3b 8ebb a25f e0bd 04e3 93bd
000002a0: 1a26 883d bc3c 8bbd ed44 173e a7c8 c3bd
000002b0: 324f 143e 5535 13be 1763 b43c 7a71 ffbc
000002c0: f9fb 5f3d 021e 333e 67a0 ae3c 862b 893d
000002d0: 4f1e 223d ae5e 9d3d c6ce fbbd 8c5a e43d
000002e0: 2117 933d eb23 133e 7125 05be 65a3 1bbe
000002f0: 3b38 433e be69 d43c 3e5e cfbd f7e7 b53d
00000300: 1469 cb3c 0585 423e a047 283e 3983 8d3c
00000310: 3e45 58bc 449e 223e ed8f 563d 4bd8 80bc
00000320: b0aa 2a3e f7e0 383e d0d2 d13a e02f 11be
00000330: 33b9 353e 6346 acbd 50b2 3ebd faea 38bd
00000340: d526 11bd a6f6 ccbd ba63 08be 59a3 84bd
00000350: bda0 ec3c 7e23 f13d 10fe 86bc 7ac9 a9bd
00000360: e90c 17be 2738 193e fc37 90bd b283 5d3d
00000370: b8ce d33d 7986 3d3e 0e4b d7bd bea5 f6bd
00000380: edcf bdbd b2d0 3c3d f9cb 373e 3915 e83c
00000390: acd9 b1bd 264e 8abd a7bc 553e 06f3 373c
000003a0: 32db eabd bad9 343e dcaa aebd fac5 7d3d
000003b0: 0fce 433e 1a53 373e 40c7 cf3c 6d46 4cbd
000003c0: cf2c 95bc 16e7 a83d 11ec fb3d 9a2f 2a3e
000003d0: 1c42 1ebc 18ab fcbd a3af db3d 7d75 d13d
000003e0: e6ca b4bd 24c7 cd3d 7002 383e 02ae 17be
000003f0: 51b4 df3d e923 9bbd 098b 6abd 9912 d039

sensor_model.4.bias f4 [64]
0.0346785 0.14858986 0.012237735 -0.027638799 0.025139645 -0.042206146 -0.01525267 -0.057773005
-0.05884445 0.16190913 -0.024634127 -0.06005946 0.06541031 0.052740157 -0.055410214 -0.03196152
0.072683625 -0.036097918 0.050458923 -0.044255722 0.056061987 -0.043855105 0.05991931 -0.017979676
-0.04051247 -0.057787344 -0.027948607 0.19485462 0.09719244 -0.039492134 -0.046033345 0.015159264
0.038157564 -0.040377803 0.038007148 -0.043947343 0.15620625 0.06584651 0.037165362 -0.04823486
-0.09320967 -0.037709843 -0.03043545 -0.008787501 -0.026569298 0.08331659 0.0118646575 0.022717534
-0.006444487 -0.09246476 -0.036756307 0.019725258 -0.098022714 -0.020072116 0.10439974 -0.103275195
-0.02702328 0.11636579 0.007555433 -0.03730934 -0.07558904 -0.0036882493 0.02639538 0.0032757493
00000000: 0b0b 0e3d f127 183e c880 483c c36a e2bc
00000010: a8f1 cd3c 5ae0 2cbd 56e6 79bc 63a3 6cbd
00000020: e106 71bd 82cb 253e 82cd c9bc e900 76bd
00000030: d7f5 853d 1006 583d d2f5 62bd 15ea 02bd
00000040: 27db 943d 69db 13bd 04ae 4e3d 7d45 35bd
00000050: 41a1 653d 69a1 33bd f36d 753d 1d4a 93bc
00000060: 67f0 25bd 6cb2 6cbd 7af4 e4bc f887 473e
00000070: d40c c73d 81c2 21bd 768d 3cbd 905e 783c
00000080: 1b4b 1c3d 3263 25bd 62ad 1b3d 2102 34bd
00000090: 88f4 1f3e 89da 863d b53a 183d eb91 45bd
000000a0: b6e4 bebd a375 1abd c453 f9bc 73f9 0fbc
000000b0: dba7 d9bc e3a1 aa3d fb63 423c 1f1a ba3c
000000c0: 462c d3bb 2a5e bdbd c88d 16bd dd96 a13c
000000d0: 22c0 c8bd 476e a4bc 88cf d53d f281 d3bd
000000e0: ed5f ddbc 3051 ee3d 9193 f73b aed1 18bd
000000f0: 6dce 9abd 8eb6 71bb 203b d83c f4ad 563b

target_model.0.weight f4 [64, 66]
0.1188238 -0.015638899 0.121087976 0.20532528 0.051023915 0.044220857 0.054966256 -0.007735763
-0.21456778 -0.09010645 0.14349845 0.041697696 -0.21721202 0.053603575 0.0014342994 0.19163929
-0.07803191 -0.06889381 -0.035691515 0.14723945 0.09377444 -0.03001103 0.03216379 0.04706059
-0.08212549 0.033809774 0.049210873 -0.037529837 -0.004933003 0.08405578 0.07601338 0.14003432
-0.05871661 -0.12804909 0.17334677 -0.009670274 -0.18425708 0.120668136 -0.19135432 -0.15101852
-0.027136331 -0.08455172 0.014955241 0.11065259 -0.14031586 -0.15524405 -0.04434538 0.027034929
-0.015190917 0.07280856 0.068112716 0.12557013 -0.15991287 -0.029284826 -0.22425537 -0.15687034
0.19469732 -0.13765538 -0.07522052 -0.088501185 0.1627464 0.113362834 -0.079526015 0.04858666
-0.12330789 -0.18106169 0.14615217 -0.04750331 0.10535066 0.18759719 0.097302586 0.08595302
-0.063241385 0.031497233 -0.021715546 0.1936347 0.0011125472 -0.0801368 0.06992017 0.080510244
0.0134001 -0.10285662 -0.13518374 0.15211383 -0.06758451 -0.19087137 -0.108523354 -0.10336075
0.23220456 -0.00802294 0.13666967 -0.0995876 -0.0748934 0.16830671 -0.08408699 0.013594897
0.039680973 -0.07499931 0.1477161 -0.08797604 0.008054166 -0.12741657 -0.16463976 -0.077205785
-0.08682488 0.080779955 -0.22563238 -0.12654722 0.1349415 -0.035055436 -0.089112185 0.119722515
0.18597585 0.2727547 -0.058335323 -0.07977348 -0.034217317 0.17269303 -0.11316165 0.18232037
0.12469159 0.013207835 -0.021612966 0.018389994 -0.12170494 0.007586923 0.0043752706 -0.06959573
0.018512279 0.03508459 0.020775959 0.19962357 -0.17852806 0.068121254 0.13688163 -0.09228623
-0.11315416 -0.021265876 -0.03943569 0.13240458 0.106400214 -0.15019771 -0.111344 -0.20171694
0.043517124 -0.13984145 0.07840788 0.19050835 -0.130111 0.1381029 -0.003960073 -0.16300054
-0.20484266 0.0065845754 -0.12738378 -0.026170308 0.06240587 -0.065140635 0.13975427 -0.23149571
-0.17236245 0.15051214 0.20503815 -0.19536047 0.07627762 -0.099437945 0.16220768 0.028079713
-0.051596817 0.02400446 -0.1183772 0.18117824 0.06036237 0.00095055776 -0.20712164 0.09150977
-0.060118422 0.18810995 0.10178837 -0.1896271 0.10807967 0.16258925 -0.010317826 -0.17424753
-0.018324448 -0.11209102 0.07861327 0.15555662 0.00015089178 0.12653704 0.18771781 -0.0761264
-0.15370193 -0.13801628 -0.13018951 -0.11716921 0.157927 -0.11431289 -0.16692978 -0.028502058
-0.18941474 -0.23794726 0.07330497 0.020231746 0.076960355 0.18489094 0.08885258 -0.059084795
-0.13946176 -0.17716104 0.19806935 -0.120686546 -0.04372771 -0.089112975 0.18711038 -0.056246605
0.029874979 0.09420611 -0.15987645 -0.092752844 -0.21031371 0.10689793 0.14578146 0.09802831
0.0042093247 0.25820187 0.025299609 0.121470094 -0.01766065 -0.07751488 -0.15938078 0.06035812
-0.052730236 0.15176784 -0.1376774 0.0138584785 -0.06658884 -0.031087186 -0.096060045 0.11970381
0.12544446 -0.2580028 0.015822576 -0.027046004 -0.009770349 0.17558633 -0.053180687 -0.20241715
-0.18060327 0.032910332 -0.20020796 -0.035156004 -0.18687478 -0.010979684 -0.1761859 0.077633165
00000000: e459 f33d 261d 80bc f9fc f73d ca40 523e
00000010: 74fe 503d ee20 353d 4c24 613d 497c fdbb
00000020: a8b7 5bbe bb89 b8bd 42f1 123e 34cb 2a3d
00000030: d46c 5ebe 6c8f 5b3d 1aff bb3a 173d 443e
00000040: 32cf 9fbd 3318 8dbd 4431 12bd f0c5 163e
00000050: d00c c03d b1d9 f5bc 2ebe 033d 9bc2 403d
00000060: 6931 a8bd 1e7c 0a3d 5791 493d e3b8 19bd
00000070: 07a5 a1bb 7025 ac3d e7ac 9b3d 2865 0f3e
00000080: d480 70bd 4d1f 03be d181 313e 1270 1ebc
00000090: e3ad 3cbe db20 f73d 63f2 43be 99a4 1abe
000000a0: 034d debc 7429 adbd d406 753c d39d e23d
000000b0: f6ae 0fbe 4cf8 1ebe 80a3 35bd 5b78 dd3c
000000c0: 53e3 78bc a81c 953d ae7e 8b3d 7595 003e
000000d0: 33c0 23be bbe6 efbc 33a3 65be 9ea2 20be
000000e0: bc5e 473e 88f5 0cbe 370d 9abd 1c40 b5bd
000000f0: fea6 263e c62a e83d 89de a2bd ce02 473d
00000100: d988 fcbd 3c68 39be eaa8 153e d592 42bd
00000110: 16c2 d73d 7a19 403e 9446 c73d 2308 b03d
00000120: b384 81bd 3e03 013d cde4 b1bc 2d48 463e
00000130: e4d2 913a c31e a4bd 4e32 8f3d 8ee2 a43d
00000140: 188c 5b3c 7ea6 d2bd 9b6d 0abe bac3 1b3e
00000150: bf69 8abd c973 43be 7e41 debd cdae d3bd
00000160: 08c7 6d3e a672 03bc 22f3 0b3e 95f4 cbbd
00000170: b661 99bd 9858 2c3e cd35 acbd 22bd 5e3c
00000180: 8488 223d 3d99 99bd e442 173e c82c b4bd
00000190: 9ff5 033c 7d79 02be 5397 28be 111e 9ebd
000001a0: 3ed1 b1bd f66f a53d 2d0c 67be 9895 01be
000001b0: 1b2e 0a3e 4a96 0fbd 7380 b6bd 1431 f53d
000001c0: 7470 3e3e 81a6 8b3e 05f1 6ebd 4760 a3bd
000001d0: 7527 0cbd 71d6 303e 4cc1 e7bd 31b2 3a3e
000001e0: 4e5e ff3d ad65 583c ad0d b1bc 9da6 963c
000001f0: 7140 f9bd b99b f83b 6e5e 8f3b 3588 8ebd
00000200: 10a7 973c dcb4 0f3d 5832 aa3c 1f6a 4c3e
00000210: 0fd0 36be 2883 8b3d b32a 0c3e 9000 bdbd
00000220: 5ebd e7bd c635 aebc 5187 21bd 1195 073e
00000230: 5be8 d93d 6ecd 19be 5308 e4bd e38e 4ebe
00000240: 033f 323d 9932 0fbe 5094 a03d 9f14 433e
00000250: d13b 05be d96a 0d3e 80c3 81bb 9de9 26be
00000260: 46c2 51be 6cc3 d73b e570 02be 1d63 d6bc
00000270: 4c9d 7f3d 7468 85bd be1b 0f3e 360d 6dbe
00000280: c87f 30be db1f 1a3e 85f5 513e 930c 48be
00000290: 7137 9c3d 1fa6 cbbd c519 263e 6d07 e63c
000002a0: 2f57 53bd 00a5 c43c bf6f f2bd ca86 393e
000002b0: 883e 773d da2e 793a b217 54be 7969 bb3d
000002c0: bc3e 76bd e59f 403e 6c76 d03d 9b2d 42be
000002d0: e058 dd3d cc7d 263e 190c 29bc f26d 32be
000002e0: 271d 96bc fa8f e5bd feff a03d 3c4a 1f3e
000002f0: b438 1e39 ed92 013e 1939 403e 28e8 9bbd
00000300: 0a64 1dbe 2454 0dbe 6650 05be 69f6 efbd
00000310: 9eb7 213e e01c eabd a4ef 2abe 267d e9bc
00000320: f0f5 41be 72a8 73be eb20 963d 0cbd a53c
00000330: 649d 9d3d 0d54 3d3e 57f8 b53d e602 72bd
00000340: 10cf 0ebe b469 35be b1d2 4a3e 822a f7bd
00000350: d41b 33bd dd80 b6bd dd99 3f3e d762 66bd
00000360: 5fbc f43c 22ef c03d a7b6 23be 34f5 bdbd
00000370: 7a5c 57be 4ded da3d bc47 153e 11c3 c83d
00000380: 60ee 893b 0933 843e 2041 cf3c 50c5 f83d
00000390: 11ad 90bc 1fc0 9ebd b734 23be 133a 773d
000003a0: a9fb 57bd 0769 1b3e 4efb 0cbe ac0e 633c
000003b0: bb5f 88bd 8eaa febc 21bb c4bd 4527 f53d
000003c0: 8374 003e f118 84be 599e 813c 958f ddbc
000003d0: d013 20bc e7cc 333e fed3 59bd 7146 4fbe
000003e0: 10f0 38be fccc 063d 5103 4dbe beff 0fbd
000003f0: 1a5c 3fbe 22e4 33bc 146a 34be 23fe 9e3d

target_model.0.bias f4 [64]
-0.028473523 0.104910485 -0.10213314 -0.033721372 0.19722115 -0.11621288 -0.11818027 -0.09423632
0.047380295 0.10657785 0.11639709 -0.05614542 -0.0035897463 0.11469893 -0.09457979 0.082007945
0.09600097 0.10858814 -0.08261712 0.044430915 0.04850468 -0.041049857 0.13095798 -0.021824028
0.068122275 -0.15657212 0.017480224 0.020289492 -0.10085904 -0.050544288 -0.046161328 -0.08192688
0.18576916 0.015219949 -0.022685148 -0.066790216 -0.0973795 0.05415132 0.21108678 -0.0032423746
0.027430072 -0.07913525 0.07183115 0.027849017 0.0040097595 0.01579163 0.2498091 0.0952364
-0.08716551 -0.049674194 -0.074514195 -0.042755865 0.086239226 0.050169952 0.06064334 0.062489133
0.016520847 0.18856783 0.1528477 -0.08484653 0.016139677 0.09171617 0.008079143 -0.09698961
00000000: 4e41 e9bc 4fdb d63d 2e2b d1bd 6c1f 0abd
00000010: 57f4 493e 0501 eebd 7f08 f2bd f9fe c0bd
00000020: d711 423d 7d45 da3d 9961 ee3d bdf8 65bd
00000030: f341 6bbb 46e7 ea3d 0db3 c1bd c8f3 a73d
00000040: 289c c43d 7563 de3d 2a33 a9bd 31fd 353d
00000050: d8ac 463d e523 28bd d919 063e 4ec8 b2bc
00000060: b183 8b3d 7154 20be b032 8f3c 2636 a63c
00000070: 2f8f cebd 8707 4fbd a913 3dbd 48c9 a7bd
00000080: 453a 3e3e 185d 793c 34d6 b9bc 4fc9 88bd
00000090: e76e c7bd c6cd 5d3d 2227 583e 057e 54bb
000000a0: 08b5 e03c a911 a2bd 361c 933d 9f23 e43c
000000b0: 4d64 833b 735d 813c f5cd 7f3e 4d0b c33d
000000c0: d583 b2bd 2b77 4bbd e69a 98bd c620 2fbd
000000d0: 319e b03d 027f 4d3d 2765 783d 9bf4 7f3d
000000e0: ba56 873c ed17 413e 1c84 1c3e 04c4 adbd
000000f0: 5b37 843c b0d5 bb3d 625e 043c 7da2 c6bd

target_model.2.weight f4 [16, 64]
-0.23146555 -0.322318 2.0512962e-05 0.0015185082 0.22410606 0.092574395 -0.034216627 -0.16999619
0.17402478 0.025996964 -0.15909024 0.019851528 0.20257476 0.022429774 -0.14262462 -0.14238214
0.22198494 -0.09572307 0.1671104 0.1275964 0.12766987 0.10156071 0.19342963 -0.10450074
0.20406091 0.0033216053 0.26549694 -0.21505512 -0.21507183 -0.2508263 -0.08149742 0.0060261176
0.13257623 -0.2089976 -0.061804168 0.15509371 0.22870204 0.10663655 -0.1988686 0.24425009
0.15597159 -0.18404104 0.20597875 0.096468136 0.04314767 -0.23011898 0.15289965 0.015689416
-0.14250897 0.22689143 -0.25207195 0.25310245 -0.16630395 0.04826124 -0.29737788 0.23582102
-0.24417993 0.14896587 -0.20380907 -0.17057095 0.08982789 -0.12835284 0.2587702 0.017396342
0.082353204 0.15640172 0.06559805 -0.076998286 0.1291808 -0.04409418 0.0053769434 -0.010907285
0.25116584 0.16800967 0.0045325696 0.31361306 0.07710049 -0.25916937 0.23245664 0.07345072
-0.17778215 0.12936175 0.090185314 0.24266277 0.3536767 0.040521592 0.095715836 0.11804336
0.094041124 -0.24328399 0.24450874 -0.15273422 0.19875303 0.11428249 0.084641606 -0.081015855
0.07196779 -0.1138518 -0.2435352 0.11419372 0.13293722 -0.1670616 0.033548355 0.04971541
-0.15511838 0.039352596 -0.01213723 -0.2271045 -0.017292572 0.002962751 -0.24284174 0.031534653
0.241409 -0.2286242 0.010743703 -0.14725442 0.12739764 -0.061146777 0.014909408 -0.093678616
-0.11428657 0.2177235 -0.0074804174 -0.04139688 0.16208182 0.26635483 -0.148966 0.17870677
-0.0040957485 -0.057547633 0.26228005 -0.2248293 -0.23874252 0.24801597 0.26606807 -0.105950184
-0.16497308 -0.1605401 -0.14293648 -0.08714004 0.03960956 0.22673985 -0.19424102 -0.16751136
0.06669819 -0.115303226 -0.26515195 -0.13228273 0.18673222 -0.22578262 0.19890897 -0.06405887
-0.090027615 0.0063297087 -0.17814152 0.1579153 -0.03132759 -0.11378474 -0.0536357 0.12035672
0.16613634 0.23946193 0.21524318 0.114091106 0.2719203 -0.16588476 0.08331508 -0.13220052
-0.21244776 -0.019984322 0.23524673 -0.12665427 0.12400838 0.011856143 -0.36138585 -0.13569872
-0.13251229 0.018549697 -0.08018209 -0.17455263 0.13346235 0.2765282 0.21667126 -0.19624346
0.09599851 0.10834387 -0.13413109 0.13750315 0.14314611 0.29458734 -0.12847061 -0.10524989
0.06866464 -0.048605233 0.26859885 -0.15072903 -0.017079707 0.19044285 0.2032012 -0.22820716
0.23476622 -0.24151574 -0.11540237 -0.04841401 -0.0073058773 -0.21965133 0.018113676 0.18540572
0.097117424 -0.13431418 -0.20426399 0.07369061 -0.18968982 0.13223635 -0.22953485 -0.2230728
-0.27551636 0.026576128 -0.13264848 0.12762897 0.19744764 -0.21735045 -0.0338339 -0.2259264
-0.06670816 0.21977553 0.14139897 0.14133912 -0.22639659 -0.11723917 0.09968903 -0.089371614
-0.01648106 -0.079230286 0.17188087 0.12742336 0.11363266 0.030042801 -0.3730397 -0.024250267
-0.27703816 -0.19665316 0.13708611 -0.15906064 -0.07946589 0.0027975384 -0.041822203 0.07627911
-0.19120322 -0.20757172 -0.07801601 -0.15690675 -0.106787786 -0.07454961 -0.06916775 0.23108505
00000000: 4e05 6dbe dd06 a5be 4013 ac37 ae08 c73a
00000010: 0f7c 653e a597 bd3d bc26 0cbd 7b13 2ebe
00000020: 8d33 323e 96f7 d43c 8de8 22be ac9f a23c
00000030: c26f 4f3e a5be b73c 300c 12be a0cc 11be
00000040: 0550 633e 750a c4bd fd1e 2b3e a1a8 023e
00000050: e4bb 023e 10ff cf3d 6b12 463e 7c04 d6bd
00000060: 58f5 503e 4aaf 593b 37ef 873e 6937 5cbe
00000070: ca3b 5cbe 4e6c 80be 1fe8 a6bd bd76 c53b
00000080: 10c2 073e 7803 56be 5e26 7dbd e3d0 1e3e
00000090: de30 6a3e 4364 da3d 36a4 4bbe b21c 7a3e
000000a0: 04b7 1f3e 4175 3cbe 18ec 523e 1691 c53d
000000b0: 9cbb 303d 4fa4 6bbe ba91 1c3e 1787 803c
000000c0: dfed 11be 3a56 683e 930f 81be a596 813e
000000d0: 954b 2abe 94ad 453d ea41 98be 117b 713e
000000e0: 4e0a 7abe 828a 183e 53b3 50be 27aa 2ebe
000000f0: aff7 b73d ed6e 03be 877d 843e c682 8e3c
00000100: cca8 a83d c627 203e 4558 863d 47b1 9dbd
00000110: f947 043e 199c 34bd 1231 b03b 78b4 32bc
00000120: cf98 803e ba0a 2c3e f385 943b e491 a03e
00000130: dde6 9d3d d9b1 84be 1d09 6e3e 556d 963d
00000140: 860c 36be 6877 043e 14b3 b83d 977c 783e
00000150: 1d15 b53e f8f9 253d aa06 c43d b8c0 f13d
00000160: a298 c03d 701f 79be 8060 7a3e 5c66 1cbe
00000170: ea85 4b3e f00c ea3d 9458 ad3d a4eb a5bd
00000180: d963 933d 222b e9bd 4b61 79be 66de e93d
00000190: b220 083e 3212 2bbe 006a 093d 63a2 4b3d
000001a0: 5ad7 1ebe 3030 213d 3bdb 46bc 158e 68be
000001b0: 27a9 8dbc b72a 423b 81ab 78be 7b2a 013d
000001c0: ec33 773e 761c 6abe 5b06 303c ddc9 16be
000001d0: 8774 023e 0b75 7abd 9746 743c 93da bfbd
000001e0: 140f eabd e9f2 5e3e 4a1e f5bb c68f 29bd
000001f0: c7f8 253e a95f 883e 8b8a 18be e8fe 363e
00000200: a135 86bb 11b7 6bbd 9249 863e a739 66be
00000210: eb78 74be e6f7 7d3e 133a 883e 69fc d8bd
00000220: b4ee 28be a064 24be f15d 12be 7a76 b2bd
00000230: a23d 223d 7e2e 683e 1ee7 46be 1988 2bbe
00000240: 1099 883d 1924 ecbd ffc1 87be 2075 07be
00000250: bb36 3f3e 8f33 67be cbae 4b3e 4c31 83bd
00000260: 6660 b8bd 7269 cf3b bb6a 36be 8cb4 213e
00000270: 5c51 00bd f907 e9bd 1cb1 5bbd 967d f63d
00000280: a51f 2a3e 8235 753e b568 5c3e 99a8 e93d
00000290: 2339 8b3e b2dd 29be 19a1 aa3d 935f 07be
000002a0: e88b 59be 29b6 a3bc 85e4 703e a8b1 01be
000002b0: 1bf8 fd3d 4540 423c 9107 b9be 9bf4 0abe
000002c0: 4db1 07be 89f5 973c 8236 a4bd edbd 32be
000002d0: 5baa 083e 1b95 8d3e 12df 5d3e 0cf4 48be
000002e0: de9a c43d 64e3 dd3d a959 09be a0cd 0c3e
000002f0: e594 123e 27d4 963e cd8d 03be 418d d7bd
00000300: 0ca0 8c3d 4816 47bd ca85 893e b658 1abe
00000310: beea 8bbc 7303 433e fa13 503e 23af 69be
00000320: 8e66 703e e74f 77be 1458 ecbd c54d 46bd
00000330: 2466 efbb 47ec 60be 2263 943c ffda 3d3e
00000340: 80e5 c63d a889 09be 942a 51be 1aeb 963d
00000350: 0c3e 42be f768 073e 2f0b 6bbe 326d 64be
00000360: 7b10 8dbe 2eb6 d93c 01d5 07be 2bb1 023e
00000370: b72f 4a3e 1e91 5ebe 6a95 0abd 4059 67be
00000380: 4a9e 88bd d60c 613e e4ca 103e 34bb 103e
00000390: 82d4 67be 171b f0bd c329 cc3d 7708 b7bd
000003a0: 4a03 87bc 7d43 a2bd 8a01 303e 457b 023e
000003b0: 3db8 e83d 521c f63c 0fff bebe 7fa8 c6bc
000003c0: f2d7 8dbe 725f 49be 4d60 0c3e cbe0 22be
000003d0: 03bf a2bd e856 373b c24d 2bbd 3938 9c3d
000003e0: c7ca 43be ae8d 54be dcc6 9fbd 2aac 20be
000003f0: 8eb3 dabd 77ad 98bd d2a7 8dbd 8fa1 6c3e

target_model.2.bias f4 [16]
0.12206245 -0.00037464354 0.08895901 0.09798644 -0.020851867 0.12190351 0.111986525 -0.08625744
-0.023509912 -0.15906361 -0.028756369 -0.070898764 0.097171545 -0.15104873 0.088754 -0.10983469
00000000: e1fb f93d ce6b c4b9 2430 b63d 1dad c83d
00000010: 89d1 aabc 8ca8 f93d 3159 e53d bea7 b0bd
00000020: dc97 c0bc 92e1 22be 7a92 ebbc 5f33 91bd
00000030: e001 c73d 85ac 1abe a8c4 b53d 03f1 e0bd

target_model.4.weight f4 [2, 16]
0.51128167 -0.26877797 0.26728162 0.040549163 0.39394417 0.15385775 0.5129827 -0.41832066
-0.5538848 -0.33237916 0.39466754 0.3319763 -0.5402198 0.44774124 0.054988813 -0.40201858
-0.47037494 0.18788972 0.3405669 0.45395157 0.49198127 -0.15326987 -0.25387472 0.20596713
0.03770426 -0.013438045 0.1026642 0.32621032 0.23125602 -0.26590958 -0.41939571 0.48086867
00000000: 5be3 023f 449d 89be 23d9 883e e116 263d
00000010: 0db3 c93e e38c 1d3e d652 033f 202e d6be
00000020: 65cb 0dbf 9a2d aabe dd11 ca3e ccf8 a93e
00000030: d84b 0abf 573e e53e f33b 613d 61d5 cdbe
00000040: fcd4 f0be 2a66 403e c95e ae3e 576c e83e
00000050: f8e4 fb3e c7f2 1cbe defb 81be 0ce9 523e
00000060: c86f 1a3d 3f2b 5cbc 9c41 d23d 0a05 a73e
00000070: 61ce 6c3e 4d25 88be 09bb d6be 6b34 f63e

target_model.4.bias f4 [2]
-0.06572377 -0.004004826
00000000: 2f9a 86bd ea3a 83bb
