Pytorch_DRL/DDPG/models/backup/3.18/best_ca_actor.model (torch_old, 223530 bytes, 8 tensors)

sensor_model.0.weight f4 [128, 360]
000000 65 68 c9 bc e0 61 62 3d 9a 5f 04 be 4e 3c 43 bd
       -0.024585912 0.055269122 -0.12927094 -0.047664933
000010 dc ba 16 3d ae b6 69 bd 55 62 41 3b f8 95 44 bd
       0.036799297 -0.057058983 0.0029508073 -0.047994584
000020 b5 3d 05 bd d8 fd 9b bc a3 50 24 bd 9e ac 1a 3e
       -0.03252955 -0.01904194 -0.040115964 0.1510491
000030 a7 2a a6 3d 7b de 95 3d 17 0b 57 3d c6 c2 12 be
       0.08113604 0.073178254 0.05250081 -0.14332113
000040 5a 07 f0 bd b3 a1 0e bd 26 06 a1 bd 68 8f f3 ba
       -0.11720152 -0.034822177 -0.07862501 -0.0018582167
000050 f0 0c e1 3d f0 c9 ff bc 41 4c 24 3e dd 00 a3 3d
       0.10988796 -0.031224221 0.16044714 0.07959149
000060 54 f7 86 3d 48 69 0e 3e 22 99 a9 bc c7 2a d7 bd
       0.06590143 0.13907349 -0.020702902 -0.10506206
000070 1e b5 68 bd c1 44 b8 3c 74 52 70 bd ed 75 13 bd
       -0.05681335 0.022493722 -0.058672383 -0.036001135
000080 62 fb 35 bc ae d5 a6 bd 97 85 b7 3c 0a e0 f9 bd
       -0.011107298 -0.08146225 0.022402568 -0.12200935
000090 53 9e 01 bd a1 02 2e 3d a9 98 a8 bd 93 07 ec 3c
       -0.03164513 0.042482976 -0.082322426 0.028812205
0000a0 0a d6 1e 3e bd 03 1e bd 8f fc 1a 3d 4a 13 15 3d
       0.15511337 -0.038577784 0.037838515 0.03639535
0000b0 26 8f 81 3d 39 f0 75 3d 41 31 81 3d 67 d1 30 3d
       0.063261315 0.060043547 0.063082226 0.04316845
0000c0 02 c0 7d bc f9 09 e1 3d 02 e5 c3 3d 3e 0e 64 3d
       -0.015487673 0.1098823 0.09565164 0.055677645
0000d0 46 60 8d bb 17 48 d3 3d e8 04 e3 bc c9 dc 9d 3c
       -0.004314455 0.103164844 -0.0277123 0.019270318
0000e0 dd 29 8f bc aa 96 90 3d 58 ac 44 3c c3 82 8d 3d
       -0.017476017 0.07059987 0.012003981 0.069097064
0000f0 02 b0 d6 bc 67 dd 4c 3d 3b 9c 12 3e 18 f4 be 3d
       -0.026206974 0.050015833 0.1431741 0.09323901
000100 9b 6c 17 3d af f2 3a bc 5d 24 66 bc 1b fc 9b bd
       0.03696881 -0.011410399 -0.014046756 -0.07616445
000110 4b c8 e0 bd 52 44 85 3d 51 dc 43 3d de a7 b9 3d
       -0.10975703 0.06507172 0.047817532 0.09065221
000120 4b 07 a7 3c 08 5d b2 ba e5 20 e5 bd 45 e0 0a bd
       0.02038922 -0.0013608048 -0.11187915 -0.033905286
000130 a4 fe 40 3d f5 0b 8e 3b 19 85 50 3c db f7 b0 bd
       0.047117844 0.0043349215 0.012727045 -0.08641025
000140 ee d6 cf 3c e9 32 51 3c da 06 d3 bd c2 c3 5e bd
       0.025371041 0.012768486 -0.10304041 -0.054385908
000150 c1 88 79 bd f8 e8 9a bd a8 a1 a3 3c b4 62 a5 bd
       -0.060921434 -0.075639665 0.019974545 -0.08075467
000160 e0 3f 40 3d 5f a6 d7 bd b9 77 86 3c cd eb 49 bd
       0.046935916 -0.1052978 0.01641451 -0.049297143
000170 35 46 8d 3b 59 8d 8d 3b 89 f7 23 be 9b 82 39 bd
       0.004311348 0.0043198285 -0.16012396 -0.04529057
000180 5c f3 6d bb 35 b5 7d bd c2 4d 00 bd 25 c1 d2 bd
       -0.0036308384 -0.06194039 -0.031324156 -0.10290746
000190 65 ed 0c be 77 2c 00 be f2 c7 1d bd 32 86 f7 bd
       -0.13762434 -0.12516962 -0.03852076 -0.120861426
0001a0 d2 46 8f 3d 1e 22 23 3d 04 b7 02 3e 7a ac 1d bc
       0.0699593 0.03982746 0.12765127 -0.009623641
0001b0 d8 f5 18 3d 1e c5 41 3d 3f 15 8c bd 58 bd 54 bd
       0.03734383 0.047307126 -0.0683999 -0.051938385
0001c0 89 ed da 3c b0 03 7e 3c cd e2 80 3c 14 b5 0c bd
       0.026724594 0.015503809 0.015733147 -0.034352377
0001d0 c3 8b bc bc b2 43 af 3c fe 99 c6 3c b0 d5 93 bd
       -0.023015862 0.021394584 0.024243351 -0.07218492
0001e0 6e bf b1 bc ef ce 21 3d 6f 97 17 be c8 39 eb bc
       -0.021697726 0.039503988 -0.14803861 -0.028714076
0001f0 a3 d2 b5 3c 6b 02 eb bc 51 8b c2 3d f8 b1 88 3d
       0.022195166 -0.028687676 0.09499229 0.0667457
000200 27 ca c8 3d f0 99 0e bc 6d cf 0c 3c 17 a1 06 3d
       0.098041825 -0.008703694 0.008594376 0.03286847
000210 28 f0 df 3d 96 f2 af bb 18 1a e4 3c bd fa d6 3d
       0.10934478 -0.0053694947 0.027844474 0.10497043
000220 00 33 ca 3d 94 54 6f 3d 85 f3 c4 bc eb 8e 7e 3d
       0.09873009 0.05843027 -0.0240419 0.062148016
000230 7a 04 8a bd 36 6e 5e 3d 84 93 97 3d 42 3a 0c bd
       -0.06739135 0.054304324 0.07401183 -0.034235246
000240 c3 48 ab 3c bf 56 30 3d 5d 59 1c bd 0b bd ca bc
       0.020908719 0.043051478 -0.03817116 -0.024748346
000250 67 c7 44 3d 5e d4 49 bd b2 81 88 bd 20 ad 05 bd
       0.048041727 -0.049274795 -0.066653624 -0.032635808
000260 48 e8 e5 3c 02 b3 91 3c 1f 7b 7a bd f6 bc 8a bd
       0.028064862 0.017785553 -0.061152574 -0.06774323
000270 d5 d4 22 bd 78 f5 2a 3d 3f e8 00 3d d4 72 a2 3c
       -0.039753754 0.041738003 0.031471487 0.019830145
000280 cb 7a 3e 3c 2d b8 59 bd b4 9b ec bd 48 98 d6 bd
       0.011625956 -0.05315416 -0.115531355 -0.10478264
000290 96 0c 20 3d d5 6e 63 bd 6a 07 6e bc bc f2 42 bd
       0.039074503 -0.05552562 -0.014528135 -0.04759477
0002a0 71 a6 93 3d 6e 60 34 3c 45 90 c6 bd c9 49 ac 3c
       0.072094806 0.011009319 -0.09695486 0.021031277
0002b0 b6 9e 49 bd 70 5f 23 3d 98 1c 9f bd ff b7 85 bc
       -0.049223624 0.03988594 -0.07769126 -0.016323088
0002c0 fa 4b f6 bd 03 63 97 3b 1b f2 6c 3d 75 55 0f bc
       -0.1202621 0.0046199574 0.057848077 -0.008748402
0002d0 95 36 bd bd 0b dd 37 3d 9a b8 b9 bd 9b a0 13 bd
       -0.09238926 0.044888537 -0.09068413 -0.036041837
0002e0 69 83 97 bd 7b da 54 3c 83 3c 9d bd 01 30 e9 3b
       -0.073981114 0.012991543 -0.07677557 0.007116318
0002f0 7b e8 54 bd 97 03 76 3c 24 70 97 bc c7 82 a4 3d
       -0.051979523 0.015015504 -0.01848609 0.08032756
000300 01 0a a9 bd 60 c6 0a 3e 64 f5 90 3d 61 9e d7 bc
       -0.08253861 0.13552237 0.070780545 -0.026320638
000310 36 e1 07 bd 9b fa c3 bd 38 2e 0c 3d 98 83 f6 bc
       -0.033173762 -0.095692836 0.034223765 -0.030092046
000320 47 91 ad bd d2 1a ec 3d c6 86 a1 bd 9a b3 b7 3d
       -0.08474975 0.11528553 -0.07887034 0.08969803
000330 68 9c 9f bd fc d3 a5 bd e6 17 86 3d 30 3e 87 bd
       -0.07793504 -0.080970734 0.06547527 -0.06603658
000340 2a 2c 02 bd b3 44 af 3b b2 6d 22 3b 2b 1d cd 3c
       -0.0317804 0.0053487658 0.0024784622 0.025038322
000350 94 1f 8d bc 5d b3 75 bd 08 a3 44 3d 0b 89 e9 bd
       -0.017226972 -0.059985507 0.04800704 -0.11403092
000360 30 d8 a4 3c c9 e1 05 be 89 3b 23 3d ee 4b de 3d
       0.020122617 -0.13074411 0.0398517 0.10854326
000370 20 6e 67 3d e1 cb b8 3c b7 e2 5d 3c 77 16 d4 3d
       0.056501508 0.022558155 0.013542823 0.10355847
000380 65 fa 83 bd c1 be 86 bd bb 19 3c 3d ea 1b 9d 3d
       -0.06444243 -0.06579352 0.045922976 0.0767134
000390 8b da aa 3c 3a 57 e6 3d 7c e3 e1 bd 34 e4 89 bd
       0.020856163 0.11247106 -0.11029717 -0.067329794
0003a0 7c f1 fc bc 05 bd 0f 3e b7 ec 1a 3e a3 05 15 3e
       -0.030876867 0.14036949 0.15129362 0.14552931
0003b0 7f 79 87 bc c4 c0 b8 3d 27 10 d3 3c 7a 46 cd 3d
       -0.016537426 0.09021142 0.025764538 0.10023208
0003c0 11 47 75 bd 41 fb dc 3d a7 86 3c 3d 4f b7 4b 3d
       -0.059882227 0.107901104 0.046026852 0.049735364
0003d0 c0 be 34 3c c6 dc 03 3d 19 15 f7 bd ca 48 0d be
       0.0110318065 0.032192968 -0.12064571 -0.13797298
0003e0 e2 99 58 3b e5 16 a5 3d fc f0 df bc 4b 04 bb bd
       0.0033050706 0.080610074 -0.02733659 -0.09131678
0003f0 93 7e d9 3a 35 7a a3 3c 7e 91 b6 3d 3c ed 51 3e
       0.0016593508 0.019955734 0.08914469 0.20500654

sensor_model.0.bias f4 [128]
000000 14 7e 6e 3d 86 96 ce bd d7 6f 96 3b f0 85 38 3e
       0.058225706 -0.10087304 0.004590969 0.18019843
000010 6b c6 f7 3c aa 2e dd 3b 14 bd a4 3d f7 66 fe 3c
       0.03024598 0.0067499476 0.08043876 0.031054957
000020 c8 b7 31 3e b5 bb cd bc b0 80 ef 3d 3f dc 80 be
       0.17355263 -0.02511392 0.11694467 -0.25168034
000030 41 01 95 3e 30 4c 70 3c f5 0e 46 bd 5d 8b b4 3c
       0.2910252 0.014666602 -0.048354108 0.02203911
000040 8c ab 28 bb c7 26 6c 3e a0 8c c7 b9 8d c3 15 3b
       -0.0025737016 0.23061667 -0.00038061012 0.0022852153
000050 26 d4 60 3d 68 22 c4 3d fc 90 48 3d 30 ae f7 3d
       0.05488982 0.09576875 0.048966393 0.120937705
000060 67 22 27 bd b2 99 ff bd e7 3a 03 3e 87 eb 1a 3e
       -0.040804293 -0.12480487 0.12815438 0.15128909
000070 01 25 23 be e2 88 e4 3d ef 36 39 3e 53 f1 0d 3e
       -0.15932085 0.11158921 0.18087362 0.13861589
000080 99 70 a0 3e 7e 46 75 3d e1 5a 4c 3e de f6 b2 3d
       0.31335905 0.05988168 0.19956543 0.087384924
000090 5d 8c 3a bd a3 e3 c5 bc 95 45 8f 3d 5d d4 4d 3e
       -0.045544017 -0.024156397 0.069956936 0.20100541
0000a0 e7 2f da bb b0 eb 89 3e f0 dd 92 3d f1 02 19 3d
       -0.0066585424 0.26937628 0.071712375 0.03735632
0000b0 be fd 5a 3c c6 29 3e 3d 72 b5 dd 3c a7 41 43 3c
       0.013366161 0.046426557 0.027064059 0.011917508
0000c0 ba 49 49 3d 93 00 8b 3e 86 a1 6e bc fa bb 7f 3e
       0.049142577 0.27148876 -0.014564877 0.24974051
0000d0 1e 19 01 3d 14 04 17 3e 8d cf 03 bd c6 b6 de 3c
       0.031518094 0.1474765 -0.032180358 0.027186763
0000e0 ef 6e 0d 3c 65 a7 5d 3e 90 dc e1 bc 98 ab fc bd
       0.008632406 0.21645887 -0.027570993 -0.123374164
0000f0 a3 e5 40 be be f5 96 3d 56 6b 9d bc 56 21 52 3e
       -0.188376 0.0737109 -0.01921622 0.20520529
000100 de 4a 98 bd 20 7c d3 bc d6 bf 57 3e ae 62 6e bd
       -0.07436155 -0.025816023 0.21069273 -0.058199577
000110 24 ab 81 3e 69 d1 dd bb 30 ab 94 bd 12 0e f2 bc
       0.25325882 -0.0067693484 -0.07259214 -0.029547725
000120 83 90 b2 3c 14 66 de 3c 01 a9 ce bd 90 55 b3 3d
       0.021797424 0.027148284 -0.10090829 0.08756554
000130 b6 38 4e 3d bd 2c 86 3c 34 c5 31 3e d6 65 34 3e
       0.050347053 0.016378755 0.17360383 0.17616972
000140 dc 87 49 3e a4 b4 58 3e 99 7a 29 3d 3d 69 dc bd
       0.19680732 0.21162659 0.041376684 -0.1076226
000150 67 21 81 3a f8 c5 2d bd d6 e3 31 bc 0e 33 80 bd
       0.0009851874 -0.042425126 -0.010857543 -0.06259738
000160 03 3f 57 bc 99 5e 68 3e f0 dd 33 3e 14 01 76 3d
       -0.013137582 0.22692336 0.17565131 0.060059622
000170 95 a8 74 be 34 9a ef 3d d7 e8 91 3c 5a 7b 4c 3e
       -0.23892434 0.11699334 0.017811222 0.1996893
000180 be 7c e5 3d e5 36 89 3d da d6 be bc 66 fb 83 bd
       0.11205433 0.066999234 -0.023295809 -0.06444435
000190 30 ef 84 bd cd d2 ba bd 8a 88 6d 3d 86 bc 8d 3d
       -0.06490934 -0.09122238 0.057991542 0.069207236
0001a0 95 6f 13 3c a5 03 87 3e db fa 91 bc 40 14 6a bd
       0.008998771 0.26369968 -0.017819813 -0.05714822
0001b0 64 28 93 3c 09 80 94 3c bf b6 3d 3e 43 98 91 3d
       0.017963596 0.018127458 0.18526743 0.0710912
0001c0 21 22 e8 3d 62 12 3e 3e 39 19 a2 3d 28 e7 57 3d
       0.113346346 0.185617 0.07914967 0.052710682
0001d0 30 2e ba 3d 08 55 8e 3c 77 90 87 3d f8 b5 73 3e
       0.09090841 0.01737453 0.06619351 0.23799884
0001e0 bc 82 a4 3c 70 3b 8a 3d 25 38 00 3e 67 98 1d be
       0.02008187 0.06749618 0.12521417 -0.15390168
0001f0 8e ee f3 bd cd f8 31 bd ae d3 fa 3d a4 f1 f4 b9
       -0.11910735 -0.043450166 0.12247406 -0.00046719343

sensor_model.2.weight f4 [64, 128]
000000 01 68 26 3e d5 5c e4 3d b5 d1 8a 3d fb 98 5a 3d
       0.16250612 0.11150519 0.0677828 0.05336855
000010 7d e4 78 bc a3 82 ce bc 81 05 38 be e0 e9 ad 3d
       -0.015191195 -0.025208777 -0.1797085 0.08491874
000020 62 6d 01 bc e8 6e 1b 3d 85 e0 ac 3d d6 d4 8e 3e
       -0.007899614 0.037947565 0.08441261 0.27896756
000030 67 90 37 be 6e 9a 0f be 6a 91 1a 3e b7 53 8b bb
       -0.17926179 -0.14023754 0.15094534 -0.004251923
000040 aa 9f 3b be 94 6d 67 be 9b 2c 41 be b5 7a 0b be
       -0.18322626 -0.22600394 -0.18864672 -0.13621028
000050 63 67 fd bd db 4a 67 3d 9a 6b 87 3d de 7d 39 be
       -0.12373235 0.056467872 0.0661232 -0.18114421
000060 5c 73 25 bd 2b fb 89 3d 7b d9 80 3d 48 30 3d be
       -0.04039322 0.067373596 0.06291481 -0.18475449
000070 4a fe 7c 3e 0b 41 9e 3d 61 d5 81 3e 42 a0 18 3e
       0.24706379 0.0772725 0.25358108 0.14904884
000080 41 b4 8f 3c 87 f5 4f 3e a2 9f 24 be 73 d6 3f be
       0.017542006 0.20308505 -0.1607652 -0.1873415
000090 a8 e0 4b 3d 17 d8 09 be e9 dd e7 3d 8a a8 61 be
       0.049774796 -0.13461338 0.11321623 -0.22036949
0000a0 f1 b7 1c 3e 8c 36 e8 bd 20 3a 9d bd 15 32 07 bc
       0.15304543 -0.11338529 -0.07677102 -0.008251687
0000b0 5c 4e 30 3c 8d 4f ab 3d 1f 6a 73 3e 71 6a 08 be
       0.01076087 0.083647825 0.2377095 -0.13321854
0000c0 54 d6 8a bd aa 24 e0 3d 57 7f db bd dc 2d 4a be
       -0.06779161 0.10944493 -0.107176475 -0.19744056
0000d0 a0 a3 18 3e 1e 16 d6 3d 94 ee 98 bd 77 e9 88 3d
       0.14906168 0.10453437 -0.0746738 0.06685155
0000e0 cf 92 85 bd 7c b4 c0 bc aa 76 ba bd 9d 6a 6c 3e
       -0.06522142 -0.023523562 -0.091046646 0.23087545
0000f0 0d 9b 3f 3e ba a8 08 3e 8f 57 47 3b b5 a0 bb bd
       0.18711491 0.13345614 0.003041718 -0.09161512
000100 c1 be 00 3d 8e 78 1b be b0 45 80 3e b1 04 3b be
       0.031431917 -0.15182707 0.25053167 -0.18263508
000110 e6 a5 04 be e6 f2 84 3e 19 66 19 3b 60 17 29 3e
       -0.1295391 0.25966567 0.0023406802 0.16512823
000120 db 55 02 be c4 16 e4 3d 4f 6d 70 3d 08 7b 2d bc
       -0.12728064 0.11137155 0.058697995 -0.010588415
000130 90 5b c1 3d 84 89 11 be c1 15 20 3e 9b bc 4e be
       0.09441292 -0.14212614 0.15633298 -0.20189135
000140 51 01 4d be 84 23 52 be ee c1 33 3e d6 0a 6e 3c
       -0.20020033 -0.2052136 0.17554447 0.014528951
000150 36 ca e7 3d 55 5c d4 bc 05 70 09 be 21 d0 b0 3d
       0.113178656 -0.025922934 -0.13421638 0.086334474
000160 6d 85 93 bd 9e 52 0f be 97 d9 54 be bb cf 5a 3e
       -0.07203183 -0.1399636 -0.20786129 0.21368305
000170 de a7 c1 3d 16 cc 19 be a4 3c 75 bd 33 12 08 3c
       0.09455846 -0.15019259 -0.059872285 0.00830512
000180 51 47 06 3e ec 2e 71 3e 6d 6d 3f bd 72 b0 c7 bd
       0.13113143 0.23553056 -0.046735216 -0.09750451
000190 6e 5d 17 3d 49 fc 3d 3e 7c 04 6d 3d 5d ee 38 bb
       0.036954336 0.1855327 0.057865605 -0.0028218247
0001a0 e0 bc b1 3d d6 a4 f5 bc 1b 04 60 be e7 a2 78 3d
       0.08678603 -0.029985826 -0.21876566 0.06070223
0001b0 9d 02 4e 3d e5 e0 19 3e 07 c6 98 3d e1 ca 2d 3d
       0.05029546 0.15027197 0.07459646 0.04242981
0001c0 98 d4 fb bd 5a be a7 3d ef cb aa 3d 21 d0 4a bd
       -0.122964084 0.081906036 0.083396785 -0.049514893
0001d0 11 04 ca 3c ea fa d1 3c dd 5a b1 bd 99 d6 c8 3d
       0.024660142 0.02563234 -0.08659909 0.09806556
0001e0 d7 e8 a2 bd 82 be f0 3d 8c a5 53 3e 39 e8 11 be
       -0.07954567 0.117550865 0.2066862 -0.14248742
0001f0 ba f4 04 be ee 6b 2b be e5 57 81 38 2f dc 17 3e
       -0.12983981 -0.1674039 6.167571e-05 0.14830087
000200 6e b0 b4 bd 92 19 28 3e d5 21 88 be 37 f8 24 3d
       -0.08822714 0.16416004 -0.26588312 0.04027578
000210 99 90 bb 3d 1a e8 30 be ee ea 75 be 89 71 8b bc
       0.09158439 -0.1727604 -0.240154 -0.017021911
000220 19 8e b4 bd 21 f2 5e bc 5b 88 ea bd 7e 18 24 3d
       -0.088161655 -0.013607533 -0.11451789 0.04006242
000230 1c a3 81 be 44 1a 8d bc db 9b ae bd 00 4f 92 bd
       -0.25319755 -0.017224438 -0.08525821 -0.07143974
000240 47 72 eb 3d 0a 79 50 bd 82 08 ad 3d 57 9f 17 be
       0.11496406 -0.05089668 0.08448888 -0.14806877
000250 ac 00 c4 3d 81 6a 81 be 15 12 ac 3c 78 c0 d6 bd
       0.09570441 -0.2527657 0.021004716 -0.10485929
000260 ca d9 cf bb 87 2a 8a 3d ec 12 66 bd bd 3d 31 bd
       -0.006343101 0.06746393 -0.05617039 -0.04327177
000270 e2 59 e1 3c 79 33 78 be 72 88 0c 3e 14 c7 65 bd
       0.02750868 -0.24238385 0.13723925 -0.05609806
000280 f2 94 54 3d 94 41 5e 3e a3 00 48 bd 44 a2 4a be
       0.051899858 0.21704704 -0.048828732 -0.19788462
000290 ca b9 19 be 3f f1 20 be db 09 ed 3d 03 28 f6 bd
       -0.15012279 -0.15717028 0.115741454 -0.120193504
0002a0 d3 bd b3 bc 37 80 f3 3c 87 93 72 be aa 72 0a 3b
       -0.021941101 0.029724224 -0.2368909 0.0021125474
0002b0 32 fa c6 bd 6f ad 99 3d 7b f8 15 3e 8e 18 5b be
       -0.0971569 0.07503783 0.14645569 -0.21396086
0002c0 ac 8b ef bc 79 01 27 bd c7 cd 02 3e 39 ed 0d be
       -0.029241405 -0.04077289 0.1277381 -0.13860025
0002d0 bd 6f 68 3d 0f 58 55 be 94 ef f9 3c 99 ff 0d be
       0.056747187 -0.20834373 0.030509748 -0.13867034
0002e0 83 c4 17 be 6c 0e 28 be 80 e0 f7 bd a2 71 5b 3e
       -0.14821057 -0.16411752 -0.12103367 0.21430066
0002f0 da 23 c8 bc 3e 91 4a 3e 9d 01 f0 3a 61 25 6b be
       -0.024431158 0.19781968 0.0018311028 -0.22963478
000300 3c 30 07 bd 14 01 7a be db 80 1a 3d 35 66 3d bd
       -0.033004984 -0.24414474 0.037720542 -0.04624005
000310 3c 1e 17 be 27 be 30 3d cb c9 a2 39 dc 7c a5 bd
       -0.14757627 0.043150093 0.00031049395 -0.08080456
000320 d3 7e 56 be 19 ae a0 be 70 ed c8 3d 86 8f c9 bc
       -0.20946817 -0.31382826 0.098109126 -0.02460457
000330 ce f2 00 bd aa 7d 34 be e4 dd 27 3e 5d d0 a3 be
       -0.031481557 -0.17626062 0.16393238 -0.31994906
000340 62 81 9e be 23 56 78 bd 2d 90 1b bd 0f 5a aa 3d
       -0.30958086 -0.06062902 -0.037979294 0.083179586
000350 41 ec 4e bd 74 4e 6a be f9 87 34 be 34 48 11 be
       -0.050518278 -0.2288149 -0.17629994 -0.141877
000360 2e 05 8c 3d 87 7c bf bd 9d 0e 21 be ee 1b 2d 3e
       0.068369254 -0.093499236 -0.15728231 0.16905186
000370 f5 70 55 bd 18 47 f3 bd 81 8b 40 be b1 39 58 be
       -0.052109677 -0.118787944 -0.18803217 -0.21115758
000380 eb 12 21 ba 04 51 2e 3e a0 2a 8f 3d 40 25 0c be
       -0.00061444816 0.17023093 0.06990552 -0.13686085
000390 72 f9 a5 bd 5b 2d 4c bd f4 e5 40 be 90 fc 87 be
       -0.081042185 -0.04984794 -0.1883772 -0.26559877
0003a0 9c 7d 90 be a0 9b af 3d 48 5a 3d 3d c5 16 08 bc
       -0.28220832 0.08574605 0.046228677 -0.00830621
0003b0 b3 e5 85 3d 06 59 e0 3d 09 45 0c be 14 70 0e be
       0.06537952 0.1095448 -0.1369821 -0.13909942
0003c0 3c b6 0f be 32 08 a6 bd c4 57 30 be 9b a4 62 be
       -0.1403436 -0.08107032 -0.1722098 -0.22133105
0003d0 2c 07 00 3b 2b d6 74 be d0 d4 8f be 00 05 5d 3e
       0.0019535525 -0.23909824 -0.2809205 0.21583939
0003e0 5a 82 5b be c5 68 66 be be f1 a4 3d 87 04 e4 bd
       -0.21436444 -0.22500904 0.08053921 -0.11133676
0003f0 22 32 04 3e 55 1f 9d bc da 53 da bd 1b c4 02 be
       0.12909749 -0.01917998 -0.10660525 -0.12770121

sensor_model.2.bias f4 [64]
000000 97 62 af bd 17 05 95 bd 5c 78 21 3d 2e 7c 07 3e
       -0.085637264 -0.072763614 0.039421424 0.13230965
000010 ee 3d 25 3e 2b 6e 40 3e 40 33 08 3e 8e 66 0c 3e
       0.16136906 0.18792026 0.133008 0.13710997
000020 3a 78 a1 3c 02 66 86 be 55 b6 91 3d ad 08 7d bd
       0.019710649 -0.262497 0.07114855 -0.061775852
000030 07 87 d1 3d d8 fc a9 3d 41 e2 81 bb 42 c2 ec bc
       0.102308325 0.08300179 -0.003963739 -0.028901223
000040 3f 74 37 3e 76 a6 d6 bd 9d 39 94 bc a6 e4 97 3d
       0.17915438 -0.10480969 -0.018093878 0.07416658
000050 f5 b4 98 3d 1d 41 12 3e d1 de aa 3d e1 80 0c 3e
       0.0745639 0.14282651 0.0834328 0.13721038
000060 2e 7b 05 3e e4 88 ad 3c a7 03 bb ba c0 aa d3 bd
       0.1303527 0.021183439 -0.0014268056 -0.10335302
000070 49 87 ff bd 1f 43 1c 3e 0a 9e 3a 3e 19 4c 0a 3d
       -0.124769755 0.1525998 0.1822435 0.03376398
000080 a3 84 a1 bd 78 05 9e 3d 7e 03 0b 3d 46 8c a5 bd
       -0.078866266 0.07715887 0.033938877 -0.08083396
000090 3a ec 84 3b 46 08 33 3d f6 7d 0b 3e 2e 6c 97 3d
       0.0040564807 0.043709062 0.13622269 0.073936805
0000a0 71 2b fa bd 84 f1 b8 3c 70 4e d9 3d 23 4b 70 3e
       -0.12215317 0.022576101 0.10610664 0.23466162
0000b0 d1 78 32 3e 24 67 21 3e 1f 90 4e 3d 63 f6 ad bd
       0.174289 0.15762001 0.050430413 -0.0849426
0000c0 7b 01 d6 3d 41 b2 29 3e 7b 3c 98 bd 46 48 e7 bc
       0.10449501 0.16571905 -0.07433411 -0.028232705
0000d0 2b 31 b2 3c 23 90 9b be a1 a0 04 be c2 81 68 be
       0.02175196 -0.30383405 -0.129519 -0.22705749
0000e0 7f 08 8e 3d a4 41 09 3e f5 1b ea 3d 1a f3 29 3e
       0.06935214 0.13403946 0.11431114 0.16596642
0000f0 9a 68 45 3d ca d2 9e bc 7b bc 06 3e 4f 61 13 bd
       0.04819546 -0.019387621 0.13157837 -0.035981473

sensor_model.4.weight f4 [16, 64]
000000 9c 55 86 3d e0 6b d0 3e e6 8d 7b 3d 59 2b 18 3e
       0.065592974 0.40707302 0.06141462 0.14860286
000010 5e 89 10 be 5b e7 4c 3e 02 87 ac 3e 60 dc f4 3d
       -0.14114901 0.2001013 0.33696753 0.11956096
000020 5a 59 c7 bd 6f cd 72 3e af de 0c 3e 42 4f b2 bc
       -0.09733839 0.23711179 0.13756822 -0.021766309
000030 4e 58 8a 3d 93 b8 8c 3e 20 1e 98 bd 20 78 86 3d
       0.06755124 0.2748457 -0.07427621 0.06565881
000040 21 26 87 3e 63 1e 45 be 60 af a5 3d 7e d1 27 3e
       0.26396278 -0.19249873 0.08090091 0.16388509
000050 0d 7b 98 3d 50 ad 88 3e 22 d4 ce bd 14 11 ed bd
       0.07445345 0.26694727 -0.10099055 -0.11575523
000060 12 50 34 3e 48 2a b4 bd 92 4c 69 be a1 c4 9e 3e
       0.1760867 -0.08797127 -0.22783116 0.3100939
000070 f2 82 dd 3d 74 21 8f bc 83 87 b2 bd 68 9c a1 3e
       0.108159915 -0.017472006 -0.08717253 0.3156464
000080 3e 77 b9 3a 79 f7 96 3e 40 e7 17 be 51 fd 5f 3d
       0.0014149917 0.29485682 -0.14834309 0.05468494
000090 64 5b cf bd 62 e8 6c bd 50 67 28 3e bf ac eb bd
       -0.10124853 -0.057838805 0.1644566 -0.11507558
0000a0 4a 62 51 3e 52 65 72 bd b8 3a 92 3e 47 56 64 be
       0.2044765 -0.059178658 0.28560424 -0.22298537
0000b0 2b e9 c2 3b 9b 1a 96 3e 42 ef 10 3e 1e df 3f 3d
       0.005948206 0.29317173 0.1415377 0.04684364
0000c0 66 45 cf 3c a3 e5 92 3e 27 71 1e 3e a3 8c 2c 3b
       0.025301646 0.28690824 0.15472852 0.0026328943
0000d0 fd 16 c6 3e 05 c0 c8 3d 7d 51 9a be 24 6b 04 3f
       0.38689414 0.0980225 -0.30140296 0.51725984
0000e0 f4 ec 4c 3e 3b 30 6f bc 06 fa eb 3d fd cc 89 bd
       0.20012265 -0.014598901 0.115222976 -0.067285515
0000f0 a9 d1 63 3e 7d 14 89 be 49 af 76 bd f5 6d 92 be
       0.22247948 -0.26773444 -0.06022576 -0.28599516
000100 6a ef 05 3d 69 2b 9b 3e d0 74 10 be 2d a5 19 be
       0.032699026 0.30306557 -0.1410706 -0.15004416
000110 aa ed 15 3e 72 c7 e8 3e 00 92 e8 3e b0 b5 a7 3e
       0.14641443 0.45464665 0.4542389 0.32755804
000120 0c 17 7d 3e 3f be ce 3e 07 22 4d 3d fd de 54 bd
       0.24715823 0.4037952 0.05008128 -0.05197047
000130 d5 20 35 3e f5 f9 85 3e b9 5e 79 be c8 06 11 3e
       0.17688306 0.26167265 -0.2435254 0.14162743
000140 a7 bd 57 3e 28 b8 0b 3c ed ff ad bb c3 79 6f be
       0.2106844 0.008527793 -0.0053100497 -0.23386292
000150 4d 1e 7c 3d 19 8b a3 3e f6 9b 79 be be 0c 6e 3d
       0.061552335 0.3194206 -0.243759 0.05811762
000160 0b 01 38 bc 85 ab 1c be 84 06 8f 3d f8 00 84 3d
       -0.011230717 -0.15299805 0.06983665 0.06445497
000170 04 85 88 be 57 94 04 3e cc ea 36 3e 3e ef 9c 3e
       -0.26663983 0.12947212 0.17863005 0.30651277
000180 0e 90 a2 bc ab f7 09 3e 12 d4 9a 3e 3b 3b 9b be
       -0.019844081 0.13473384 0.30239922 -0.30318627
000190 be 39 8f be 8b f2 9d 3d 96 88 9f bd 45 eb 67 3e
       -0.2797374 0.07712277 -0.077897236 0.22648342
0001a0 3c 2b b2 3e d2 2b 33 bd 56 63 f5 bc cf 8d 30 3e
       0.3479861 -0.043742962 -0.029954594 0.17241596
0001b0 e8 87 8b 3b bc b8 49 3c d1 71 93 bd 52 bf bd 3d
       0.0042581446 0.0123121105 -0.07199443 0.09265007
0001c0 8f c6 1c be d0 93 ab 3e de 0d 60 3e 54 89 a9 3d
       -0.15310119 0.3351121 0.2188029 0.082781464
0001d0 4c e1 10 3e 04 62 7c 3e b4 90 45 be af a7 f9 3c
       0.14148444 0.24646765 -0.19293481 0.030475466
0001e0 ea f4 bb 3e 2c 3c 88 3d cd 07 a1 be 81 d9 49 be
       0.36710292 0.06652102 -0.31451264 -0.19711877
0001f0 10 f0 1a bb 28 e0 98 be 7d 7b b0 bd 96 fe e8 3d
       -0.0023641624 -0.29858518 -0.086173035 0.113766834
000200 4e 84 24 3e 25 a4 5d 3e 1e 3d 18 be ca 85 4b 3e
       0.16066095 0.21644647 -0.14867064 0.19875255
000210 e5 91 a0 3d da 60 9a 3e ab 62 3a 3e 61 17 e2 3e
       0.07840327 0.30152017 0.18201701 0.44158462
000220 94 e5 80 3e 91 6b 3b bd b9 4a 29 3d e5 33 97 3e
       0.25175154 -0.04575688 0.041331027 0.2953178
000230 37 7d 5b 3d 2f 8a 2e be 3b 50 81 be 31 3a b2 3c
       0.05358621 -0.170449 -0.25256523 0.021756263
000240 d3 95 65 3e ae f2 92 3e 61 3c db bd e7 91 4d 3e
       0.22420435 0.28700775 -0.10704876 0.20075189
000250 c5 8c 18 be 3d 72 b6 3d da d4 8e be 86 d8 7a be
       -0.1489745 0.08908508 -0.27896768 -0.2449666
000260 70 b8 02 3d 95 76 8e bd 31 89 97 3d ac 8f 45 3e
       0.031914175 -0.069562115 0.07399214 0.19293088
000270 eb b8 89 be b7 31 a8 3e c9 15 6a 3e a9 9e 65 3e
       -0.26898894 0.3285043 0.22859873 0.22423805
000280 ad 15 90 be 25 07 90 3e c4 42 53 be 65 3a e6 3c
       -0.28141537 0.2813045 -0.20630938 0.028104017
000290 30 9a 71 be 78 0a a8 3d 10 86 4a 3e 15 a5 fb 3d
       -0.23593974 0.08205122 0.19777703 0.12287346
0002a0 37 66 76 3e 6d ff 76 bd db 94 df 3e 10 3e cc 3c
       0.2406243 -0.060302187 0.43668255 0.024931937
0002b0 f4 d2 04 3e 43 66 2f be 25 27 61 be 38 a7 5d be
       0.12971097 -0.17128853 -0.21987589 -0.2164582
0002c0 85 8a f5 bc 44 7c 17 3d a5 9f 64 3d c4 b0 48 bd
       -0.029973278 0.036983743 0.05581631 -0.0489967
0002d0 d3 f1 76 3e ad 19 92 bd 42 68 2e be 5a 0f d0 bd
       0.24115686 -0.071338035 -0.17031959 -0.10159178
0002e0 8f cd bf 3e 88 03 77 3b 99 9e b1 be 01 89 9c 3e
       0.37461516 0.0037691314 -0.34691313 0.30573276
0002f0 6c d6 0f 3c 29 6c 76 bc 6e 01 6a 3e 11 72 d5 bd
       0.0087791495 -0.015040436 0.22852108 -0.10422147
000300 d5 16 63 3e 06 f6 94 3d 19 37 95 3e 16 9b 68 3e
       0.22176678 0.07273488 0.291436 0.2271541
000310 83 db 23 3e 66 84 a8 3d 46 02 2d be 94 0e 45 be
       0.16001706 0.08228378 -0.16895398 -0.19243842
000320 91 4d 58 bd 49 bc 38 3d 35 6c 24 be 7e 63 a8 bd
       -0.052808348 0.045101438 -0.16056903 -0.08222102
000330 97 18 c3 bd d1 c3 3a be 13 ba 87 3e c5 8f 04 3d
       -0.095261745 -0.1823876 0.2650915 0.03236367
000340 ab 56 ec be 8b 6b 2b be 9c 6b e5 bd 3e 6c 7a 3e
       -0.46159872 -0.16740243 -0.112021655 0.24455354
000350 92 99 8e bc 53 c8 2d 3e 48 97 50 bd d5 0c 4e 3d
       -0.017407212 0.16970949 -0.050925523 0.050305206
000360 7c af 85 3e e0 03 11 bd 3b 5c a7 3e 63 5a 61 3e
       0.26110446 -0.035404086 0.32687554 0.22007136
000370 76 b0 19 be e4 93 4e 3e 3f f3 15 3e ba 88 10 3e
       -0.15008721 0.20173603 0.14643572 0.14114657
000380 a9 2b f9 bd 41 5b 5e be 49 96 d9 bb db 96 1a bd
       -0.12166531 -0.21714498 -0.00664023 -0.037741523
000390 c4 c7 1e be ba 30 8d be 8d cc 3e 3e 87 94 da 3d
       -0.15505892 -0.27576238 0.18632717 0.106728606
0003a0 6e a5 2f 3e e0 23 34 be f4 36 97 be aa 4e 39 be
       0.1715295 -0.1759181 -0.29534113 -0.18096414
0003b0 1c 8d 82 3e 86 40 51 3e a4 49 98 3e d2 10 80 3e
       0.25498283 0.2043477 0.29743683 0.25012833
0003c0 2b 2a a6 3e 08 1c 04 3e f9 88 ef bc 07 a2 81 be
       0.32454047 0.12901318 -0.029240118 -0.2531893
0003d0 32 a5 da 3d cb b7 57 3e 8c b6 e0 3d ec 55 7b 3e
       0.1067604 0.21066205 0.10972318 0.24544495
0003e0 04 5d 18 3d 6b ef cd 3b 7d 56 b6 3e 4f 93 6e bd
       0.03719808 0.0062846444 0.3561286 -0.058245953
0003f0 0a 77 89 3c da db b5 bd dd 4b 68 be 3e 7d 48 bd
       0.016780395 -0.08879824 -0.2268519 -0.048947565

sensor_model.4.bias f4 [16]
000000 2b 66 58 bd 11 73 08 bc 1e fb df 3c 2e 13 60 3d
       -0.05283181 -0.008328215 0.027341422 0.05470579
000010 ad 06 23 3d cd 71 0b bc 70 50 8e 3d f1 73 ba bd
       0.03980129 -0.008511019 0.06948936 -0.09104145
000020 3a 9c 7c 3d 8a 61 ee 3d 0d 96 42 3d 99 c1 1d 3d
       0.061672427 0.11639698 0.04750638 0.038514707
000030 11 c6 41 be 5f d4 81 bd 99 b6 b1 3c 89 78 e1 bd
       -0.18923213 -0.06339335 0.021693515 -0.110093184

sensor_model.6.weight f4 [2, 16]
000000 77 9a 6d be de b7 82 be 32 dc f7 ba ef a5 f1 bd
       -0.23203455 -0.25530905 -0.0018910228 -0.117992274
000010 8e e9 cb be 25 ae e4 3e 79 61 05 bc 41 fa 66 be
       -0.39826626 0.44664112 -0.008140915 -0.22556402
000020 01 cd 85 bb c7 6d 3a 3e e1 70 94 bc ad 1a 5e bf
       -0.0040832763 0.18205939 -0.018120231 -0.86759454
000030 b8 a5 c8 be f0 4c 2b bf 8b 7c 0b 3f 67 4c 9f 3e
       -0.39188933 -0.6691427 0.5448691 0.31112978
000040 d1 8c e5 bd c7 17 38 be ca 26 02 bf 31 d7 c7 3e
       -0.11208499 -0.1797782 -0.5084044 0.39031366
000050 f8 9b d1 bd 19 7c a2 be da e2 e6 be 10 c2 0a 3e
       -0.10234827 -0.31735304 -0.4509495 0.13550591
000060 35 06 d0 3e a0 dd 0c 3f 00 ca 32 3f dd 49 26 3e
       0.40629736 0.5502567 0.6983948 0.16239114
000070 9c 9f 83 3e a2 e1 b3 3e 26 63 7c be 65 27 0f be
       0.2570771 0.35133082 -0.24647197 -0.13979872

sensor_model.6.bias f4 [2]
000000 7f e9 15 be 24 34 58 be
       -0.14639853 -0.2111364
