Pytorch_DRL/HNRN/models/backup/3.25/best_ca_actor.model (torch_old, 223530 bytes, 8 tensors)

sensor_model.0.weight f4 [128, 360]
0.059158307 -0.10524898 -0.10834509 0.051031664 0.012473674 -0.119080745 0.01900554 -0.0901304
-0.029290216 0.07523461 0.054087617 -0.1412008 0.035055857 0.020475755 -0.022302467 -0.042443037
0.03998191 -0.09490845 0.024110978 0.009801928 0.03893294 0.06196743 -0.0054866946 0.04354123
-0.045681894 -0.019015515 0.056729104 -0.081174195 -0.1504582 0.05794789 -0.11846031 0.054568704
-0.0801904 -0.004846862 0.017971322 0.03172804 0.013893688 0.015415835 -0.0057832897 -0.020364005
-0.09193703 -0.064210355 -0.031864863 -0.020295946 -0.08382638 -0.016510604 5.7956477e-06 -0.07381784
-0.12245622 -0.04458576 0.03260486 -0.01461721 0.03397905 0.012197408 0.012994826 0.0065677795
-0.001392933 -0.05785786 -0.03370457 -0.006167547 -0.086679034 0.05745398 0.023845403 -0.07924626
0.046190076 -0.0006168094 -0.068516225 0.0039057387 -0.015765747 -0.12204294 -0.12987548 0.052235372
-0.029417679 -0.10531314 -0.02410549 0.09351223 0.007910044 0.0929617 0.046772484 -0.08973498
0.055435643 -0.06922496 0.041682344 -0.04065471 -0.0059197927 -0.09115398 0.009084119 0.09301221
0.024482362 -0.09463806 -0.015058006 -0.066566676 -0.07718609 0.08694096 -0.03753525 -0.086166196
0.106291816 0.06755932 -0.0075991363 -0.055159718 -0.046841417 -0.018696144 0.07671488 -0.016388021
0.042795032 -0.032280523 0.048926 -0.094862364 0.10018576 0.08497076 0.021279177 -0.06655559
0.051984273 -0.026633795 -0.05905186 -0.02816212 -0.014159876 -0.0614936 0.04662318 -0.08611427
-0.018432468 0.07793213 0.070816845 0.07753394 0.07181058 0.024521943 0.009898188 0.087074704
-0.030333074 -0.02126199 0.098926365 -0.018481908 -0.046849895 0.018441333 0.04879898 0.06520368
-0.085490756 0.031311817 0.07722974 -0.0042926096 0.09920391 0.081977986 0.029377444 -0.084071934
0.030729394 -0.101515025 0.05315868 -0.058391027 -0.057880674 0.10258119 -0.021564333 -0.045978308
-0.09087356 0.096451916 0.016843855 -0.050903924 0.083461024 -0.073720396 0.07781035 -0.029715415
0.011612392 0.04692418 0.059376694 0.0846847 -0.056799065 0.016966004 -0.021587031 -0.07645226
-0.10822366 -0.04641162 -0.06504396 0.0074667945 0.097301155 -0.080409676 0.0049482035 0.061189245
-0.082822576 -0.087650016 0.0437617 -0.043111008 0.1194087 0.02172167 -0.02874917 -0.027761402
-0.011009576 0.10401267 -0.016375968 0.030402616 -0.028925493 -0.048183 0.035769828 -0.00758863
-0.094168074 0.03957693 0.013442275 -0.012668887 0.07852839 0.06369543 0.049052432 0.06357919
0.083639525 0.03535648 -0.04713409 0.030536683 0.0137191815 0.07109875 -0.021139018 0.041525103
0.064688355 -0.020383501 -0.10969367 -0.0912118 0.038452897 0.012175113 -0.06785162 0.053802967
0.039322123 0.022520514 0.031580474 -0.07741703 0.09341853 -0.1079618 0.029779619 0.033294093
-0.033912506 -0.043543726 -0.030886024 0.09330869 0.06617214 -0.04100522 -0.060630232 -0.061188824
0.07691308 0.016443007 -0.016478283 -0.052940395 -0.047297087 0.063638344 -0.10816626 -0.019650003
0.0074600466 0.08297297 -0.03434074 0.019743659 -0.07306298 -0.029516542 0.048657145 0.02337531
0.07914967 0.058541488 -0.048055112 0.062138263 -0.0176303 0.070747 0.049075294 0.00935805
00000000: fb4f 723d c78c d7bd 08e4 ddbd 9406 513d
00000010: 615e 4c3c 9be0 f3bd 82b1 9b3c 4a96 b8bd
00000020: 09f2 efbc 9a14 9a3d fa8a 5d3d f196 10be
00000030: bb96 0f3d c5bc a73c aab3 b6bc c0d8 2dbd
00000040: 12c4 233d 5d5f c2bd 6384 c53c 4498 203c
00000050: 2678 1f3d 8fd1 7d3d bbc9 b3bb 4a58 323d
00000060: f01c 3bbd 6dc6 9bbc c75c 683d a83e a6bd
00000070: b711 1abe c45a 6d3d 529b f2bd 6f83 5f3d
00000080: dd3a a4bd 6dd2 9ebb 9838 933c 43f5 013d
00000090: 5aa2 633c b392 7c3c c081 bdbb 6ad2 a6bc
000000a0: 7b49 bcbd b880 83bd bb84 02bd af43 a6bc
000000b0: 2aad abbd 3f41 87bc 3c78 c236 cf2d 97bd
000000c0: 54ca fabd 8f9f 36bd ac8c 053d 067d 6fbc
000000d0: 9e2d 0b3d a3d7 473c 40e8 543c 8736 d73b
000000e0: 1393 b6ba 5dfc 6cbd ce0d 0abd 2219 cabb
000000f0: c784 b1bd dd54 6b3d 6f57 c33c dd4b a2bd
00000100: ce31 3d3d 61b1 21ba 3c52 8cbd 6cf7 7f3b
00000110: 2b27 81bc a6f1 f9bd 14fe 04be c2f4 553d
00000120: 58fd f0bc 6aae d7bd e078 c5bc 5783 bf3d
00000130: 2199 013c b462 be3d 8194 3f3d f9c6 b7bd
00000140: 7c10 633d d1c5 8dbd 1bbb 2a3d 8e85 26bd
00000150: d2fa c1bb f0ae babd 8fd5 143c 307d be3d
00000160: 3c8f c83c 99d1 c1bd dbb5 76bc 1c54 88bd
00000170: be13 9ebd 1a0e b23d 90be 19bd e777 b0bd
00000180: 86af d93d 8a5c 8a3d 2d02 f9bb 28ef 61bd
00000190: c9dc 3fbd a828 99bc b11c 9d3d 2c40 86bc
000001a0: d849 2f3d 9538 04bd a166 483d 3347 c2bd
000001b0: 312e cd3d 2605 ae3d ab51 ae3c 4c4e 88bd
000001c0: 76ed 543d 1e2f dabc 5de0 71bd 3fb4 e6bc
000001d0: d3fe 67bc b7e0 7bbd f3f7 3e3d ae5c b0bd
000001e0: b0ff 96bc e19a 9f3d 6c08 913d 1dca 9e3d
000001f0: 6d11 933d 3ee2 c83c 022c 223c 3954 b23d
00000200: 117d f8bc a02d aebc e899 ca3d 5f67 97bc
00000210: ade5 3fbd 4712 973c 70e1 473d 8289 853d
00000220: c715 afbd d240 003d a02a 9e3d 05a9 8cbb
00000230: 6b2b cb3d 13e4 a73d f7a8 f03c e82d acbd
00000240: 36bc fb3c 1ce7 cfbd ebbc 593d 6e2b 6fbd
00000250: 4914 6dbd 1616 d23d afa7 b0bc c053 3cbd
00000260: eb1b babd 9588 c53d 20fc 893c a280 50bd
00000270: 9ded aa3d b8fa 96bd 085b 9f3d be6d f3bc
00000280: e741 3e3c 9233 403d fa34 733d 2c6f ad3d
00000290: 23a6 68bd 4afc 8a3c 49d7 b0bc 0193 9cbd
000002a0: 5ea4 ddbd 1c1a 3ebd c535 85bd 03ac f43b
000002b0: d445 c73d d4ad a4bd 8a24 a23b 93a1 7a3d
000002c0: e29e a9bd da81 b3bd 783f 333d 2b95 30bd
000002d0: 8c8c f43d a5f1 b13c 6183 ebbc e16b e3bc
000002e0: 8261 34bc 9804 d53d e526 86bc e80e f93c
000002f0: 28f5 ecbc 8a5b 45bd 6283 123d 0baa f8bb
00000300: 31db c0bd 6b1b 223d fd3c 5c3c 2a91 4fbc
00000310: 7ed3 a03d c072 823d 34eb 483d ce35 823d
00000320: 334b ab3d f5d1 103d ad0f 41bd 1128 fa3c
00000330: 6bc6 603c 399c 913d bc2b adbc 3a16 2a3d
00000340: 547b 843d 4dfb a6bc 13a7 e0bd 41cd babd
00000350: c980 1d3d 207a 473c caf5 8abd 8060 5c3d
00000360: 3c10 213d f17c b83c 875a 013d d28c 9ebd
00000370: 3752 bf3d 141b ddbd 63f4 f33c 635f 083d
00000380: d7e7 0abd e85a 32bd b004 fdbc a018 bf3d
00000390: 4285 873d 17f5 27bd 6857 78bd 22a1 7abd
000003a0: 9b84 9d3d 7cb3 863c 77fd 86bc 07d8 58bd
000003b0: 97ba 41bd d254 823d 4686 ddbd 0bf9 a0bc
000003c0: 6873 f43b bced a93d e0a8 0cbd 74bd a13c
000003d0: 0ba2 95bd adcc f1bc b74c 473d 947d bf3c
000003e0: 3919 a23d 33c9 6f3d 70d5 44bd b184 7e3d
000003f0: 6b6d 90bc cee3 903d 2d03 493d 8252 193c

sensor_model.0.bias f4 [128]
-0.038521953 0.1288494 0.023100922 0.051276106 -0.14841622 0.18271206 0.11917176 0.071258426
0.06793275 0.021719588 0.008915286 0.09663484 0.21743444 0.18407662 0.07227323 -0.022139853
0.033349823 0.09737555 0.0244192 -0.030858995 -0.0342173 0.0044820164 -0.017821107 -0.062909
-0.097297736 0.15423779 -0.027238801 0.10549432 -0.032463353 -0.049681466 0.05325778 0.075318255
0.008490522 0.06836056 0.016270759 0.0062602027 0.067417376 0.018186148 0.013159167 -0.018173
0.015532352 0.08617811 0.03308158 0.020668836 -0.05760444 0.11365332 -0.04878134 -0.021547604
0.09568704 0.1983699 -0.006965973 0.037994664 0.015988806 -0.14088522 -0.040170703 0.094347544
-0.021510566 -0.029886985 -0.027227683 0.16023143 0.17694955 -0.02460006 -0.041350964 -0.07208467
-0.06747511 0.1331457 0.24049696 0.107597336 -0.15613917 0.012000761 0.032535482 0.0656575
-0.007180593 0.084622175 -0.03101991 0.024142459 0.17468376 0.15954669 -0.04150077 -0.13027672
0.11279919 -0.013174044 0.09089751 -0.01001055 -0.120948225 -0.016517237 0.012344761 0.051003803
-0.0043709255 0.02111988 -0.036198467 0.117542356 -0.039031677 0.0143407015 0.019225812 0.1331097
0.09577726 -0.023209777 0.06331701 0.033750866 0.031251904 -0.016894756 0.18871568 0.016918175
0.17470108 0.023760296 -0.012408709 0.1834498 0.049659315 -0.02752683 -0.017649092 -0.031685486
0.009522981 -0.052100696 0.10885688 0.03487016 0.06582318 0.23352209 0.010682367 -0.0056288433
0.107197836 0.021290217 -0.1574551 -0.020787057 -0.03686715 0.15937582 0.17449619 -0.026130322
00000000: 32c9 1dbd 19f1 033e 253e bd3c e506 523d
00000010: 6cfa 17be df18 3b3e 5310 f43d f0ef 913d
00000020: 5320 8b3d 47ed b13c 6b11 123c 7de8 c53d
00000030: 22a7 5e3e 957e 3c3e fd03 943d a35e b5bc
00000040: d399 083d d56c c73d c60a c83c 01cc fcbc
00000050: 7127 0cbd e1dd 923b 92fd 91bc 6fd6 80bd
00000060: 0944 c7bd 83f0 1d3e e823 dfbc 680d d83d
00000070: 4bf8 04bd cb7e 4bbd d424 5a3d 7540 9a3d
00000080: d51b 0b3c 9f00 8c3d 414a 853c 6322 cd3b
00000090: 1f12 8a3d 1efb 943c 8c99 573c 8bdf 94bc
000000a0: 687b 7e3c 267e b03d 8d80 073d b151 a93c
000000b0: a2f2 6bbd 12c3 e83d f1ce 47bd 9a84 b0bc
000000c0: 91f7 c33d 7b21 4b3e d142 e4bb 4ba0 1b3d
000000d0: f5fa 823c 3744 10be 098a 24bd 4939 c13d
000000e0: ed36 b0bc 8dd5 f4bc 970c dfbc b513 243e
000000f0: 4332 353e 1186 c9bc a15f 29bd 21a1 93bd
00000100: 6430 8abd 5957 083e d644 763e fe5b dc3d
00000110: f2e2 1fbe d79e 443c ed43 053d 7077 863d
00000120: 2e4b ebbb 644e ad3d 771d febc 68c6 c53c
00000130: 4de0 323e 3560 233e b6fc 29bd 4367 05be
00000140: 4303 e73d f2d7 57bc 7928 ba3d 4a03 24bc
00000150: b4b3 f7bd 284f 87bc ae41 4a3c 5de9 503d
00000160: fb39 8fbb 9903 ad3c d844 14bd 0cba f03d
00000170: aedf 1fbd 43f5 6a3c 737f 9d3c e94d 083e
00000180: de26 c43d 6e22 bebc 59ac 813d 593e 0a3d
00000190: ff01 003d df66 8abc af3e 413e fc97 8a3c
000001a0: d7e4 323e f4a4 c23c e64d 4bbc 44da 3b3e
000001b0: 9167 4b3d f27f e1bc d494 90bc a4c8 01bd
000001c0: 4706 1c3c 8a67 55bd 5bf0 de3d 03d4 0e3d
000001d0: 4ece 863d 6a20 6f3e 1805 2f3c 2972 b8bb
000001e0: 8a8a db3d d268 ae3c e93b 21be 9e49 aabc
000001f0: 0202 17bd 6a33 233e 21af 323e 420f d6bc

sensor_model.2.weight f4 [64, 128]
-0.13548455 -0.037682615 -0.02447288 -0.038787644 0.041194487 0.06677566 -0.0076799514 -0.146036
0.04594064 0.12402375 -0.07325349 -0.12015247 0.1590002 0.07526409 -0.041882448 0.011679028
-0.13240425 -0.09779388 0.040127095 0.09967098 -0.16634056 0.13130063 -0.012652642 0.12847105
0.0050094994 -0.13043743 0.110458516 0.06740878 0.038507238 -0.13303767 -0.18852687 0.14485916
-0.025193641 0.07992274 -0.12722343 -0.09280931 0.17567854 -0.08907352 0.13717845 0.18414976
0.16383699 -0.06362664 0.0522872 0.053149693 0.14618777 -0.046188723 0.1218026 0.0044475975
0.052762274 0.04804981 -0.10903742 0.14618997 0.058170516 0.094210364 0.16172655 0.020527346
-0.038966063 0.061398525 0.14118242 -0.05179781 -0.040525805 0.025852617 0.09919625 0.004402285
0.093882255 0.0025978494 -0.030832332 0.04276617 -0.024104927 -0.035795636 0.096307255 0.039035007
-0.07414559 -0.08318749 0.0014342491 0.15229389 0.06074351 -0.14781444 0.13512303 -0.1462507
0.11349445 -0.034463767 0.099801764 -0.09818024 -0.1362277 -0.025645424 -0.1689894 -0.121483155
0.089650966 0.09253038 0.06020252 -0.14009334 -0.16766281 0.027286692 -0.13930328 -0.069745556
0.14606017 0.097561106 -0.019810244 -0.016969936 0.16385208 0.13028248 0.15017115 0.07907884
0.013197003 -0.0565217 0.03412375 -0.057603247 0.1504725 0.020868458 -0.0517718 -0.03817167
-0.07314166 -0.01964559 0.09828296 0.13024552 0.12992187 0.16786234 0.053911015 0.13049562
-0.09621785 0.021714263 0.053881094 0.11148687 -0.057722475 -0.08191119 0.051086497 -0.07713723
0.07104702 0.05281267 -0.048078198 0.13526301 0.034611996 0.14453898 -0.12362772 -0.07468385
-0.13100496 0.15543929 -0.05726541 -0.12579393 0.14153393 0.099150635 -0.022897782 -0.0057978104
0.046507362 0.15974239 -0.040380847 -0.0030582077 0.081275515 0.14347802 0.07576993 -0.039396062
0.10452204 -0.14793062 0.1263034 -0.14535312 -0.06383254 0.091673486 -0.11210494 -0.014613279
0.0076034763 -0.0011978175 -0.11370122 0.15538484 0.0056319884 0.081580274 -0.09415865 0.12147631
-0.07336274 0.026096124 -0.07780886 -0.050510198 0.0812662 -0.16528074 -0.0019333104 0.15002051
-0.073132716 0.0548018 0.044043545 0.06244396 -0.15993482 -0.053243794 -0.030600442 -0.15896752
-0.14405537 -0.13553554 0.042979926 -0.14661145 0.15974969 0.0264788 -0.16964622 0.08979497
-0.058694083 -0.12178654 -0.003936623 0.00905364 -0.16608845 -0.13468751 -0.040182013 -0.0061646192
-0.14283648 0.06956585 0.1274973 0.022562318 0.13826048 -0.08511542 -0.13214003 -0.096821465
0.16510077 -0.14369455 -0.12021812 -0.055437583 -0.03146053 0.007640639 -0.1111022 -0.077945866
0.13990188 0.02336009 0.018335318 0.092301086 0.07565568 -0.07533598 -0.14841945 -0.052251007
0.1373836 0.08220481 -0.049952567 0.0012953009 0.025128342 0.1700379 -0.17483425 -0.13029198
-0.08573731 -0.14836876 -0.12182587 0.16015752 0.1326946 -0.13800699 0.009247359 -0.11319172
0.0958014 0.044883315 0.082897395 0.085311405 0.15488726 -0.046877936 -0.035935674 -0.08676879
-0.14722176 -0.14163253 0.002283467 0.08358284 -0.14531256 -0.17612338 -0.047668427 -0.02586945
00000000: 76bc 0abe 1659 1abd 597b c8bc cbdf 1ebd
00000010: 8dbb 283d adc1 883d 1aa8 fbbb 768a 15be
00000020: 412c 3c3d 2a00 fe3d ed05 96bd 8012 f6bd
00000030: f3d0 223e 0f24 9a3d ee8c 2bbd 6559 3f3c
00000040: fb94 07be 2848 c8bd 4f5c 243d 4c20 cc3d
00000050: 2e55 2abe ac73 063e 074d 4fbc ea8d 033e
00000060: ba26 a43b 6491 05be 1338 e23d 9d0d 8a3d
00000070: c4b9 1d3d 073b 08be 300d 41be f655 143e
00000080: e562 cebc 89ae a33d dc46 02be cf12 bebd
00000090: 13e5 333e 2d6c b6bd 8278 0c3e c191 3c3e
000000a0: e2c4 273e af4e 82bd 1a2b 563d 7eb3 593d
000000b0: 3fb2 153e 6330 3dbd a473 f93d 27bd 913b
000000c0: 411d 583d e1cf 443d 034f dfbd d3b2 153e
000000d0: 3544 6e3d 5df1 c03d a59b 253e f728 a83c
000000e0: e19a 1fbd 057d 7b3d 2092 103e f129 54bd
000000f0: 63fe 25bd dec8 d33c 6727 cb3d 0b41 903b
00000100: 5745 c03d ae40 2a3b 1694 fcbc 942b 2f3d
00000110: b277 c5bc 729e 12bd bd3c c53d 2ce3 1f3d
00000120: a5d9 97bd 345e aabd 6afd bb3a eef2 1b3e
00000130: 30ce 783d ab5c 17be b15d 0a3e bec2 15be
00000140: c76f e83d e129 0dbd de64 cc3d b912 c9bd
00000150: 467f 0bbe 5a16 d2bc 8f0b 2dbe 29cc f8bd
00000160: ed9a b73d 9180 bd3d eb96 763d a174 0fbe
00000170: cdaf 2bbe 5788 df3c 85a5 0ebe c2d6 8ebd
00000180: cc90 153e 1ece c73d 1849 a2bc 8904 8bbc
00000190: d7c8 273e c568 053e 77c6 193e 16f4 a13d
000001a0: 3e38 583c 4c83 67bd 58c5 0b3d 62f1 6bbd
000001b0: 7715 1a3e 54f4 aa3c ab0e 54bd e659 1cbd
000001c0: 4bcb 95bd caef a0bc 9448 c93d 155f 053e
000001d0: 3d0a 053e 1be4 2b3e ccd1 5c3d a5a0 053e
000001e0: dd0d c5bd 1ce2 b13c 6cb2 5c3d 3a53 e43d
000001f0: 676e 6cbd 0ec1 a7bd 1340 513d 20fa 9dbd
00000200: 1a81 913d 1952 583d a5ed 44bd 6382 0a3e
00000210: 4fc5 0d3d 0702 143e 8830 fdbd d9f3 98bd
00000220: 2a26 06be 7a2b 1f3e 228f 6abd 20d0 00be
00000230: 45ee 103e 7d0f cb3d 2194 bbbc 8ffb bdbb
00000240: 817e 3e3d 8293 233e 6366 25bd 366c 48bb
00000250: c773 a63d e7eb 123e 442d 9b3d c45d 21bd
00000260: a70f d63d 207b 17be ae55 013e 73d7 14be
00000270: a2ba 82bd 4fbf bb3d 4697 e5bd 896c 6fbc
00000280: 9526 f93b 1600 9dba 2fdc e8bd 341d 1f3e
00000290: 8b8c b83b 8f13 a73d 40d6 c0bd 92c8 f83d
000002a0: 343f 96bd 8ac7 d53c 405a 9fbd c8e3 4ebd
000002b0: e56e a63d 5b3f 29be 2267 fdba fa9e 193e
000002c0: 9bc6 95bd da77 603d 0167 343d 3dc5 7f3d
000002d0: f4c5 23be 2a16 5abd c7ad fabc 62c8 22be
000002e0: 4083 13be d4c9 0abe b80b 303d 5021 16be
000002f0: 6c95 233e 12ea d83c bdb7 2dbe 6de6 b73d
00000300: 3569 70bd 396b f9bd cafe 80bb b855 143c
00000310: 1713 2abe 86eb 09be e595 24bd 9300 cabb
00000320: ba43 12be 8a78 8e3d a78e 023e 9cd4 b83c
00000330: 2894 0d3e fe50 aebd b74f 07be 554a c6bd
00000340: 2d10 293e aa24 13be eb34 f6bd 8512 63bd
00000350: c2dc 00bd 535e fa3b 8d89 e3bd 15a2 9fbd
00000360: 7042 0f3e a95d bf3c f333 963c 5a08 bd3d
00000370: 5df1 9a3d c049 9abd 45fb 17be 2705 56bd
00000380: 49ae 0c3e ff5a a83d 109b 4cbd 16c7 a93a
00000390: f4d9 cd3c 6a1e 2e3e c007 33be 436b 05be
000003a0: 0b97 afbd fbed 17be d77f f9bd 5500 243e
000003b0: 18e1 073e b451 0dbe 3c82 173c 0fd1 e7bd
000003c0: 8633 c43d 91d7 373d 1cc6 a93d bfb7 ae3d
000003d0: c49a 1e3e 1403 40bd 4931 13bd d6b3 b1bd
000003e0: 4dc1 16be 1e08 11be 38a6 153b 7b2d ab3d
000003f0: d1cc 14be b059 34be f83f 43bd 2bec d3bc

sensor_model.2.bias f4 [64]
-0.060971048 -0.009852801 0.00013930567 0.20742834 0.0008350004 -0.0030371102 0.036774106 -0.089916736
0.081516735 -0.060895424 0.03867434 0.02007384 -0.056802783 0.15126063 0.14151223 -0.060459007
0.03376686 0.020614835 0.23570801 -0.10326254 0.051123746 0.05357317 0.04396214 0.07981605
0.072841205 0.014852378 0.046743218 0.050179277 0.048267882 0.034747366 -0.07647363 -0.11304656
-0.084235676 0.0656022 0.015229946 -0.019352172 -0.032455854 0.13621715 -0.00705867 -0.06384033
0.10446081 -0.163638 -0.048906576 0.026729085 0.06744341 0.059258718 -0.076210596 0.07799712
-0.027913412 0.09542813 0.07815233 -0.08178147 -0.010357532 0.10870128 0.038390886 0.13934335
0.06581703 -0.010364795 0.008002668 0.24338202 0.15846683 0.015893674 0.044619393 0.1980789
00000000: c7bc 79bd a56d 21bc 9512 1239 1868 543e
00000010: eee3 5a3a 410a 47bb 72a0 163d 4426 b8bd
00000020: 3ff2 a63d 7b6d 79bd fc68 1e3d e571 a43c
00000030: 09aa 68bd 11e4 1a3e 95e8 103e dda3 77bd
00000040: 1e4f 0a3d 71e0 a83c 715d 713e 507b d3bd
00000050: 2267 513d 8a6f 5b3d a511 343d 9976 a33d
00000060: c52d 953d 6357 733c d175 3f3d c988 4d3d
00000070: 8bb4 453d 4153 0e3d 359e 9cbd f484 e7bd
00000080: c183 acbd 725a 863d 0687 793c 7288 9ebc
00000090: 6ef0 04bd 827c 0b3e 6a4c e7bb b8be 82bd
000000a0: 8def d53d b890 27be 4352 48bd f4f6 da3c
000000b0: c51f 8a3d 45b9 723d 4d14 9cbd f4bc 9f3d
000000c0: abaa e4bc d36f c33d 540e a03d 0b7d a7bd
000000d0: a3b2 29bc c79e de3d c33f 1d3d 06b0 0e3e
000000e0: 14cb 863d 1ad1 29bc 9f1d 033c 2339 793e
000000f0: 2145 223e 7333 823c d3c2 363d 32d5 4a3e

sensor_model.4.weight f4 [16, 64]
-0.14223427 0.2263005 0.233266 0.08994001 -0.16893268 -0.18911481 0.23929785 -0.22744246
0.12165546 -0.24453591 0.17401992 0.008941747 -0.011960512 0.1895453 0.06335766 -0.25744462
0.11169154 -0.20597425 -0.0026126292 0.06616331 0.00622403 -0.05271857 0.23827636 0.16101502
0.07617627 0.05465735 -0.17741664 0.030082133 0.050760172 0.11292145 -0.09074298 -0.084036484
-0.13819933 0.2135446 0.061131056 -0.1693275 -0.22933468 0.04829492 -0.13852778 -0.2633007
0.040850475 -0.16871703 0.19914064 -0.112030916 0.047618724 0.25059813 0.18339051 -0.24307755
-0.020614466 0.25832397 0.051249236 -0.008409308 0.11323468 0.12395384 0.18297613 0.22608663
-0.11986442 -0.22342074 -0.13506602 -0.12108175 0.24720927 0.04930466 -0.16831535 -0.09728877
0.002108395 -0.14579232 -0.12684517 0.31520274 0.13037644 -0.20787132 0.010273247 0.04338654
-0.056805626 -0.050883852 0.20279598 -0.0121996645 0.0330946 0.2431271 0.06268933 0.04289622
0.14032891 -0.1920405 0.092930034 0.12686741 -0.048318394 0.06319666 0.17574275 -0.14901583
0.16854209 0.15706232 0.24742197 -0.09168333 0.24341106 -0.052729994 -0.023180734 -0.0672491
0.05840821 0.079179674 -0.24302462 -0.118667625 0.24511959 0.0018931294 0.18089144 0.14265919
0.2057238 0.1141116 0.033988483 -0.01623744 -0.0058918833 0.07616879 0.16414864 -0.12584004
0.16602427 -0.13733019 0.07537517 -0.15784772 -0.00095258025 0.040405706 -0.214985 -0.19307886
0.17185272 0.20831408 -0.13327439 0.18800066 0.13351877 0.088209525 0.01926492 0.25674108
0.13056351 -0.07743427 -0.14952508 0.2369857 0.0332735 -0.09543117 0.19211198 0.071164906
0.10104322 0.080297895 -0.10796503 -0.03500421 0.09124558 -0.16842645 0.2743636 -0.41332453
0.18313575 -0.10835526 0.16006711 -0.28804109 -0.11667462 -0.119618505 0.026993424 0.0067473664
0.19827804 -0.17240146 -0.024832657 -0.030330243 0.012556635 0.09488486 0.15814541 -0.17004894
0.16209088 0.20500138 -0.029459173 0.17583449 -0.2520722 0.2889715 -0.36054966 -0.058329962
0.059990272 -0.1167082 -0.20249149 -0.16338445 -0.09576608 0.10827788 0.24471535 -0.017353391
-0.009149518 0.23739552 0.2535799 -0.058759667 -0.065563425 0.011420816 0.1920943 -0.19757986
0.054833353 -0.22642736 -0.2746943 0.12633319 -0.0031561647 -0.03539417 -0.26115763 0.19640675
-0.20926939 0.1473156 -0.2312056 0.21148674 0.22607133 0.25154573 0.23364462 0.15993994
0.23316643 0.22542514 0.13933237 -0.27948222 0.026940202 -0.03411232 -0.22114165 -0.28826627
0.18129186 -0.24763413 -0.2638691 -0.16643351 -0.2268663 0.21835546 -0.031019624 -0.2764246
0.11576203 -0.18912336 0.18590507 0.13305958 -0.14392893 0.18846379 0.23243545 0.027227674
0.25115845 -0.23370768 -0.17859009 -0.1222071 -0.19718197 -0.24260616 -0.13147448 -0.022385871
-0.1437149 0.23154081 -0.16577198 0.025138479 -0.13975939 -0.24214774 0.05674678 0.17693673
-0.10392276 0.049595434 0.19021322 -0.12524581 -0.13683178 0.17172253 -0.03356533 -0.16829683
0.120599836 -0.04712603 -0.009006868 0.03256907 -0.14937535 0.009172999 0.108536825 -0.10968322
00000000: dca5 11be 51bb 673e 48dd 6e3e 7832 b83d
00000010: b0fc 2cbe 50a7 41be 7f0a 753e ade6 68be
00000020: 7f26 f93d 9f67 7abe 4732 323e 6880 123c
00000030: 06f6 43bc 2a18 423e a9c1 813d c8cf 83be
00000040: 89be e43d eaea 52be a538 2bbb a180 873d
00000050: f3f2 cb3b 6def 57bd b8fe 733e 1fe1 243e
00000060: 4e02 9c3d 63e0 5f3d b5ac 35be ce6e f63c
00000070: e6e9 4f3d 5c43 e73d 75d7 b9bd 521b acbd
00000080: 2084 0dbe 70ab 5a3e 8f64 7a3d 3064 2dbe
00000090: b6d6 6abe e5d0 453d 3ada 0dbe 59cf 86be
000000a0: d452 273d 28c4 2cbe 86eb 4b3e 7770 e5bd
000000b0: da0b 433d 664e 803e b9ca 3b3e 52e9 78be
000000c0: abdf a8bc 0a43 843e b8ea 513d 32c7 09bc
000000d0: 95e7 e73d 83db fd3d 185e 3b3e 4183 673e
000000e0: 7a7b f5bd 68c8 64be bf4e 0abe b5f9 f7bd
000000f0: 6d24 7d3e aff3 493d dc5a 2cbe 563f c7bd
00000100: 002d 0a3b 954a 15be b3e3 01be 4162 a13e
00000110: 6781 053e 38dc 54be 1f51 283c 16b6 313d
00000120: 04ad 68bd 966b 50bd c0a9 4f3e 1ae1 47bc
00000130: 348e 073d 4ff6 783e 4363 803d f2b3 2f3d
00000140: 62b2 0f3e 44a6 44be 1a52 be3d 88e9 013e
00000150: 82e9 45bd 406d 813d e8f5 333e 9b97 18be
00000160: 4c96 2c3e f2d4 203e 2f5c 7d3e 78c4 bbbd
00000170: c040 793e 68fb 57bd 86e5 bdbc e5b9 89bd
00000180: 723d 6f3d f428 a23d 72db 78be 0308 f3bd
00000190: a100 7b3e e222 f83a 9b3b 393e 4015 123e
000001a0: 43a9 523e 58b3 e93d 8237 0b3d 6104 85bc
000001b0: b310 c1bb 62fe 9b3d 9516 283e 36dc 00be
000001c0: 4402 2a3e 49a0 0cbe 4c5e 9a3d d5a2 21be
000001d0: 94b6 79ba 7480 253d 0725 5cbe 77b6 45be
000001e0: 29fa 2f3e 4950 553e 1579 08be 3f83 403e
000001f0: 25b9 083e 32a7 b43d 77d1 9d3c 9173 833e
00000200: 71b2 053e dc95 9ebd 1a1d 19be 61ac 723e
00000210: cb49 083d 6b71 c3bd 01b9 443e e8be 913d
00000220: bfef ce3d 3973 a43d c51c ddbd 9360 0fbd
00000230: f6de ba3d fc77 2cbe 6379 8c3e 469f d3be
00000240: f087 3b3e 5de9 ddbd a2e8 233e 1f7a 93be
00000250: 1af3 eebd 8cfa f4bd 5021 dd3c 0319 dd3b
00000260: 6609 4b3e 028a 30be db6d cbbc 2177 f8bc
00000270: 58ba 4d3c fe52 c23d dff0 213e 4f21 2ebe
00000280: 27fb 253e e2eb 513e 5d54 f1bc f50d 343e
00000290: 9b0f 81be 13f4 933e f799 b8be 66eb 6ebd
000002a0: 5cb8 753d b504 efbd ee59 4fbe 414e 27be
000002b0: 0221 c4bd cbc0 dd3d a996 7a3e b328 8ebc
000002c0: dce7 15bc d017 733e 3ad5 813e faad 70bd
000002d0: 1e46 86bd 601e 3b3c 5eb4 443e 6052 4abe
000002e0: f098 603d 93dc 67be bba4 8cbe 7d5d 013e
000002f0: a8d7 4ebb 7af9 10bd 74b6 85be da1e 493e
00000300: b74a 56be e7d9 163e 29c1 6cbe fb8f 583e
00000310: 3e7f 673e 9aca 803e 8940 6f3e 4cc7 233e
00000320: 2ec3 6e3e d9d5 663e 25ad 0e3e 4b18 8fbe
00000330: b3b1 dc3c 5cb9 0bbd f572 62be a397 93be
00000340: 93a4 393e cd93 7dbe da19 87be 8c6d 2abe
00000350: a44f 68be 9398 5f3e de1c febc 8687 8dbe
00000360: a514 ed3d 8ea9 41be e65d 3e3e c540 083e
00000370: 1b62 13be a7fc 403e 8f03 6e3e 920c df3c
00000380: d797 803e 1151 6fbe 52e0 36be b747 fabd
00000390: 12ea 49be c06d 78be 3fa1 06be 9362 b7bc
000003a0: 002a 13be 0919 6d3e 21c0 29be 36ef cd3c
000003b0: 161d 0fbe 94f5 77be 506f 683d e72e 353e
000003c0: 75d5 d4bd 9524 4b3d 41c7 423e 7040 00be
000003d0: a11d 0cbe 08d8 2f3e cd7b 09bd 0156 2cbe
000003e0: 0cfd f63d 3907 41bd 8b91 13bc 2567 053d
000003f0: daf5 18be 594a 163c 8e48 de3d 99a1 e0bd

sensor_model.4.bias f4 [16]
0.14992847 -0.07218906 -0.018440722 0.069222726 -0.13879265 -0.16951488 0.029934887 0.038141977
0.084502585 -0.10780702 0.07130737 0.0061053922 -0.034200802 0.22021322 0.07651741 -0.1320154
00000000: d986 193e dcd7 93bd ff10 97bc a5c4 8d3d
00000010: a91f 0ebe 4f95 2dbe 023a f53c c33a 1c3d
00000020: b10f ad3d edc9 dcbd 9909 923d be0f c83b
00000030: 2416 0cbd 937f 613e 29b5 9c3d 0c2f 07be

sensor_model.6.weight f4 [2, 16]
0.5917165 -0.50655764 0.5662901 0.45596853 -0.50540185 -0.21552107 0.32875028 -0.13978165
0.16933127 0.16814037 -0.092419155 -0.12920266 0.46951568 0.35636523 0.26326478 -0.5380165
0.5662597 0.03433927 0.58125997 -0.09523855 0.30716914 0.5448006 0.45251286 -0.15928572
-0.36819008 0.031317685 0.20411415 0.4271443 -0.16070427 -0.27248704 0.5216789 0.4666126
00000000: bc7a 173f c3ad 01bf 63f8 103f b574 e93e
00000010: 0462 01bf 8eb1 5cbe f551 a83e ec22 0fbe
00000020: 2d65 2d3e fd2c 2c3e 4146 bdbd b44d 04be
00000030: 5c64 f03e 8175 b63e a4ca 863e 73bb 09bf
00000040: 65f6 103f 56a7 0c3d 74cd 143f 6e0c c3bd
00000050: 4645 9d3e 0d78 0b3f c4af e73e cc1b 23be
00000060: 6983 bcbe f946 003d 4d03 513e a8b2 da3e
00000070: a98f 24be 6c83 8bbe c08c 053f d9e7 ee3e

sensor_model.6.bias f4 [2]
-0.0817943 -0.059012473
00000000: c583 a7bd 10b7 71bd
