Pytorch_DRL/HNRN/models/backup/3.30/best_ca_critic.model (torch_old, 559066 bytes, 13 tensors)

sensor_model.0.weight f4 [256, 360]
0	0x3b9870b0	0.0046521053
1	0xbd9a6331	-0.075384505
2	0x3c4a8000	0.012359619
3	0xbdc8cb24	-0.09804371
4	0xbd802b0f	-0.06258213
5	0xbd2abd54	-0.041684464
6	0x3cc8ad34	0.024496652
7	0x3c481530	0.012212083
8	0xbdbf1ef5	-0.093320765
9	0xbd56d65a	-0.052450515
10	0x3d68c176	0.056825124
11	0xbdc90db5	-0.098170675
12	0x3d9d7d61	0.0768993
13	0xbce08288	-0.027405992
14	0xbdc8974b	-0.09794482
15	0x3a7c4780	0.00096236914
16	0x3c6c57f0	0.014425263
17	0x3d50078a	0.05078844
18	0x3c7304e8	0.014832713
19	0x3d219a62	0.03945387
20	0xbd09e72c	-0.03366773
21	0xbcc1ce10	-0.023657829
22	0xbda29b65	-0.079397954
23	0x3c41ebe0	0.011836022
24	0xbd1a1073	-0.037613343
25	0xbd640f9c	-0.05567895
26	0x3cc0b940	0.023525834
27	0x3d3f344e	0.04668074
28	0xbdbd400a	-0.0924073
29	0xbd0c95d8	-0.03432259
30	0xbd659b2f	-0.056056198
31	0xbd906cda	-0.07052012
32	0x3d858f59	0.06521482
33	0xbdad824a	-0.08472116
34	0xbd15185c	-0.036400184
35	0x3d9daf39	0.07699437
36	0xbd8e9880	-0.06962681
37	0x3bfff380	0.00781101
38	0xbda670e2	-0.081269994
39	0x3ce5c8c4	0.028049834
40	0xbce63d10	-0.028105289
41	0x3d7d1f1a	0.06179724
42	0x3c383c90	0.011244908
43	0xbd4955af	-0.04915398
44	0xbc82e4dc	-0.01597827
45	0x3c8dbac4	0.01730097
46	0xbdc0bef4	-0.094114214
47	0x3dc110a7	0.09427004
48	0xbdbd81a5	-0.09253243
49	0xbcb1c088	-0.021698251
50	0x3ce63e44	0.028105862
51	0x3d5f7f1e	0.054564588
52	0xbd0cd8c4	-0.03438641
53	0x3d159a62	0.036524184
54	0x3cc4787c	0.023983233
55	0x3d5daa4a	0.05411748
56	0xbcb1fc20	-0.021726668
57	0x3d0a8d12	0.03382594
58	0x3d13001e	0.035888784
59	0xbc156cf8	-0.009120218
60	0x3c9a98d4	0.018871702
61	0xbcc8e3d4	-0.0245227
62	0x3d4130e6	0.047165774
63	0x3cc5a59c	0.02412682
64	0x3d981ac7	0.074269824
65	0xbc9ab2a8	-0.018884018
66	0x3d4c83f2	0.04993052
67	0x3c407a70	0.011747941
68	0xbc9d4318	-0.019197032
69	0x3db97389	0.0905524
70	0x3d3d929a	0.04628239
71	0xbd115902	-0.035485275
72	0x3d0b18ae	0.033959083
73	0xbd90cf43	-0.07070782
74	0xbdad35c7	-0.08457523
75	0xbd5f1c46	-0.054470323
76	0x3d948cd7	0.072534256
77	0xbb8481d0	-0.004043795
78	0x3d7b78d2	0.06139452
79	0x3db2485b	0.08705207
80	0xbcbe6f34	-0.023246385
81	0xbdaf2e5a	-0.08553763
82	0x3dc96923	0.09834506
83	0x3d9f547f	0.07779788
84	0x3da26fe7	0.079315
85	0xbc8077d4	-0.015682139
86	0xbd075fe0	-0.033050418
87	0xbbd64050	-0.0065384284
88	0xbd65afdc	-0.056075916
89	0xbdbcea50	-0.09224379
90	0xbd4aee1a	-0.049543478
91	0xbda38f9c	-0.07986376
92	0x3c79f5d0	0.01525636
93	0x3d60fcd6	0.054928623
94	0x3c789a08	0.015173443
95	0xbbf5b330	-0.0074981675
96	0xbd37bb9f	-0.044856664
97	0x3d9c5b6f	0.07634627
98	0x3c2add78	0.010428779
99	0xbd0c4a12	-0.034250326
100	0xbd832508	-0.064035475
101	0x3d91b743	0.071150325
102	0xbc4a3430	-0.012341544
103	0x3d9afcdf	0.075677626
104	0xbc2f09c8	-0.010683484
105	0xbd16539f	-0.03670084
106	0x3bcc5310	0.0062354878
107	0xbd1d6cc7	-0.038433816
108	0x3bcd56a0	0.00626643
109	0xbb606320	-0.003423877
110	0xbd4e323a	-0.05034087
111	0xbcddc934	-0.02707348
112	0xbc9bdc24	-0.01902587
113	0x3d3ba3ea	0.045810618
114	0xbd4ec5c5	-0.050481576
115	0xbdbd78be	-0.09251545
116	0xbd7b4645	-0.06134631
117	0xbd87444d	-0.06604824
118	0xbd9418bf	-0.072312824
119	0x3c771a58	0.015081964
120	0x3d3e0802	0.046394356
121	0xbd86e530	-0.06586683
122	0x3bf7ac60	0.0075583905
123	0xbd7276df	-0.059195396
124	0xbda0f315	-0.07858864
125	0xbd5265bb	-0.05136655
126	0x3ce5f0a4	0.028068848
127	0xbcf5f3b0	-0.030023426
128	0xbdc261cb	-0.09491309
129	0xbd0e97ec	-0.034812853
130	0x3db6852d	0.0891212
131	0xbb6b08e0	-0.0035863444
132	0x3cc0b050	0.023521572
133	0xbd3dbb9d	-0.0463215
134	0xbd03d7ec	-0.03218834
135	0xbd86e532	-0.06586684
136	0x3d891875	0.06694118
137	0x3ba5ab50	0.0050558224
138	0xbd9fc978	-0.07802099
139	0x3d0f7586	0.03502419
140	0xbd80cd0d	-0.0628911
141	0x3d384a76	0.044992886
142	0xbd0a158a	-0.033711948
143	0xbcc9c50c	-0.024630092
144	0xbc9716ec	-0.018443547
145	0x3c924874	0.017856814
146	0xbdc727f3	-0.097244166
147	0x3d1c36e6	0.038138293
148	0xbd6ca3fb	-0.05777357
149	0x3d465d52	0.04842884
150	0x3da5a80f	0.08088695
151	0xbda4da80	-0.08049488
152	0xbc4a3310	-0.012341276
153	0xbd41bf5a	-0.047301628
154	0xbd8bdb1a	-0.068289
155	0xbd9ad2d4	-0.075597435
156	0xbdc71c9c	-0.09722254
157	0xbcab7f6c	-0.020934783
158	0xbd32db38	-0.043666095
159	0x3ccb8f1c	0.024848513
160	0xbdbf6f0c	-0.093473524
161	0xbbfaa7b0	-0.0076493844
162	0xbbce3dc0	-0.0062939823
163	0x3ce96034	0.028488256
164	0xbb84c3d0	-0.004051663
165	0xbda41151	-0.08011115
166	0x3dc98303	0.098394416
167	0xbdb3fa3c	-0.08787963
168	0x3c2c3868	0.010511495
169	0x3b1d8c00	0.0024039745
170	0x3d05299a	0.032510377
171	0xbd4c6219	-0.04989824
172	0x3d9a64d1	0.075387605
173	0xbdad6dfc	-0.084682435
174	0x3cd3fcd4	0.025877394
175	0x3dad0f6d	0.08450208
176	0x3cbe3624	0.023219176
177	0xbb8b0b70	-0.004243307
178	0x3d883bdb	0.066520415
179	0x3c392678	0.011300676
180	0xbd5cfebb	-0.053953867
181	0xbb22d2e0	-0.002484493
182	0xbcd280dc	-0.02569621
183	0xbdbe8a19	-0.09303684
184	0xbcbe36f0	-0.023219556
185	0x3d9c0d17	0.07619684
186	0xbd0f5f80	-0.035003185
187	0x3dae73ff	0.08518218
188	0x3d746b9a	0.05967293
189	0x3c0a4c58	0.008441053
190	0x3db0bded	0.086299755
191	0xbcac10f8	-0.021004185
192	0x3d130002	0.03588868
193	0x3d9d7a97	0.07689398
194	0xbd782774	-0.0605845
195	0x3dbdb2a3	0.09262588
196	0x3d1fe17e	0.039033405
197	0x3d248f7a	0.040175892
198	0x3c17c5d8	0.009263478
199	0x3d886ee9	0.066617794
200	0xbd24b249	-0.04020909
201	0xbd96d234	-0.07364312
202	0xbda61d3f	-0.08111047
203	0xbd197bb5	-0.03747149
204	0xbc284060	-0.010269254
205	0xbd4d5344	-0.050128236
206	0xbca80640	-0.020510793
207	0x3db90581	0.09034253
208	0x3cf8cc44	0.030370839
209	0x3d5e6f52	0.054305382
210	0xbbfe0000	-0.007751465
211	0x3c438280	0.011932969
212	0xbd8445ba	-0.06458612
213	0xbd7bd424	-0.06148161
214	0xbc62ee80	-0.013850808
215	0x3cd1f4f8	0.025629506
216	0x3d8ff88f	0.07029831
217	0xbdade087	-0.08490091
218	0x3cbc7cc8	0.02300872
219	0x3c598e80	0.013278604
220	0x3d95aea5	0.073087014
221	0x3d8bca33	0.06825676
222	0x3da63a09	0.08116538
223	0x3d1c6b76	0.03818842
224	0x3dc65281	0.09683705
225	0x3cff2564	0.031145759
226	0xbd95be40	-0.07311678
227	0xbd7dbaa9	-0.06194559
228	0x3d3d351a	0.04619322
229	0xbd8944b4	-0.06702557
230	0xbd404f11	-0.046950404
231	0x3cb069f4	0.021534897
232	0xbc6ee158	-0.014580093
233	0x3d0abb1e	0.033869855
234	0x3dc9a3c7	0.09845691
235	0xbcc03f18	-0.023467585
236	0xbdc08ba2	-0.09401633
237	0x3cff9fac	0.031204067
238	0x3d4b9966	0.04970684
239	0xbd80cfd6	-0.062896416
240	0xbc6cbab8	-0.014448814
241	0x3d9f9dd5	0.07793776
242	0xbdb35bf0	-0.0875777
243	0xbda305d7	-0.07960098
244	0x3d5ec08a	0.05438284
245	0xbda7639a	-0.08173294
246	0x3c819110	0.015816242
247	0xbd136904	-0.035988823
248	0xbda49332	-0.08035888
249	0xbda7f65c	-0.08201286
250	0x3cfc5a34	0.030804731
251	0x3da8d869	0.08244402
252	0xbdc68d70	-0.09694946
253	0x3d7917e6	0.060813807
254	0xbcdbb160	-0.026817977
255	0x3d3512fe	0.044207565

sensor_model.0.bias f4 [256]
0	0xbb8a709a	-0.004224849
1	0xbcb377d0	-0.021907717
2	0xbb2fdd2a	-0.0026834705
3	0xba61a501	-0.00086076563
4	0xbcb78a7e	-0.022404905
5	0x3d2266dc	0.039648876
6	0xbb807993	-0.003920743
7	0xbbedfe85	-0.007263007
8	0xbac01722	-0.0014655332
9	0xbb70bb80	-0.0036732852
10	0xba5ab0a7	-0.0008342363
11	0xbbf8ce75	-0.007592971
12	0xb974e800	-0.0002335608
13	0xbcfc2f0c	-0.030784152
14	0xbaab09ca	-0.0013049182
15	0xbd210529	-0.03931156
16	0xb9b65603	-0.0003477783
17	0xbb0e1416	-0.0021679453
18	0xba0cccf2	-0.00053711154
19	0xbbb0f200	-0.0053999424
20	0xbb445772	-0.0029959348
21	0xb8de3d3b	-0.0001059719
22	0xbafa31fc	-0.0019088383
23	0xbc669b30	-0.0140750855
24	0xbd31ff5c	-0.04345642
25	0xbc909604	-0.017649658
26	0xbace7294	-0.00157507
27	0xbbfc9950	-0.007708706
28	0xbcb3440e	-0.021883037
29	0xbc00a38c	-0.007851493
30	0xbd43f9a2	-0.04784549
31	0xbca47dee	-0.02007958
32	0xbae5c5c1	-0.0017530249
33	0xbcfd4349	-0.030915873
34	0xbd35d26c	-0.044390127
35	0xbc3605ac	-0.011109751
36	0xbb372640	-0.0027946383
37	0xbd4bb101	-0.04972935
38	0xbc0d466c	-0.008622747
39	0xbc8e6410	-0.017381698
40	0xbcdfb35c	-0.027307205
41	0xbbbfa030	-0.0058479533
42	0xbaf05f8a	-0.001833902
43	0xb986d1ae	-0.00025714695
44	0xbb446e76	-0.0029973066
45	0xbb5e9d0a	-0.0033968114
46	0xbb5de1c5	-0.0033856493
47	0xba1fc52f	-0.00060947513
48	0xba82c6eb	-0.0009977495
49	0xbc1564d8	-0.009118281
50	0xb9bc4cc4	-0.0003591535
51	0xbb9fc400	-0.00487566
52	0xbcdabb1c	-0.026700549
53	0xbc6717bc	-0.01410478
54	0xbb5afd30	-0.0033415072
55	0xbb2083c9	-0.0024492613
56	0xbbe901d8	-0.0071108155
57	0xbcf02eaf	-0.029319135
58	0xbba86808	-0.0051393546
59	0xbd54988d	-0.051903296
60	0xbae10b40	-0.001716949
61	0xbd1d2b92	-0.03837163
62	0xbd26a7e6	-0.040687464
63	0xbcf0db5b	-0.029401472
64	0xbd2bb9f0	-0.04192537
65	0xba62a910	-0.0008646408
66	0xbb6c2ceb	-0.0036037515
67	0xbb05d2d6	-0.0020419857
68	0xba807096	-0.0009799178
69	0xbca15800	-0.019695282
70	0xbd1a323a	-0.037645556
71	0xbb5feaaa	-0.003416697
72	0xbcdfbe4c	-0.02731242
73	0xbd1e9a08	-0.038721114
74	0xbc33a624	-0.010964904
75	0xbbdab72e	-0.0066746688
76	0xb9ed9c7d	-0.00045320755
77	0xba58d671	-0.00082717004
78	0xbcd2d9b2	-0.02573857
79	0xbd4cabe9	-0.049968634
80	0xbc3bd768	-0.011464931
81	0xbd003d3a	-0.03130839
82	0xb85ed087	-5.312313e-05
83	0xbd393ad6	-0.045222126
84	0xbce3202b	-0.0277253
85	0xbd31a0ae	-0.043366127
86	0xbaa157b3	-0.0012309462
87	0xbd3a0928	-0.04541889
88	0xb9946299	-0.0002830222
89	0xbcaef0d0	-0.021355063
90	0xbd41790e	-0.047234587
91	0xbb1c8b6e	-0.0023886818
92	0xbcf71c7c	-0.03016495
93	0xbd164dd0	-0.0366953
94	0xbcaf426c	-0.021393977
95	0xbd29c494	-0.041447237
96	0xbd38c7ad	-0.0451123
97	0xbd1575ca	-0.036489286
98	0xbb3e436a	-0.002903188
99	0xba1ac161	-0.00059034495
100	0xb9d6aeb4	-0.00040947425
101	0xbaa614e0	-0.0012671016
102	0xbb21a960	-0.0024667606
103	0xbaa02503	-0.0012218062
104	0xba438cc0	-0.0007459633
105	0xbbab66f5	-0.0052307793
106	0xbd0a6b89	-0.03379396
107	0xbbcdebc0	-0.006284207
108	0xbbe9ec0d	-0.007138735
109	0xbc1f5bfd	-0.009726522
110	0xb906fd30	-0.00012873556
111	0xbbd275d8	-0.0064227395
112	0xbd1b10fb	-0.03785799
113	0xbc743778	-0.014905803
114	0xb944743f	-0.00018735322
115	0xbcdb7ba1	-0.02679235
116	0xba9f631c	-0.0012160274
117	0xbcaf8920	-0.021427691
118	0xbcaf2b1a	-0.021382857
119	0xbad50a8f	-0.0016253757
120	0xbcc00210	-0.023438483
121	0xbccf1ec1	-0.02528322
122	0xbba01758	-0.0048855953
123	0xbd028918	-0.031869024
124	0xbab677e0	-0.0013921224
125	0xbb01ed14	-0.0019825147
126	0xbd4bc375	-0.04974695
127	0xbb8f7c20	-0.0043788105
128	0xba995660	-0.0011698715
129	0xbcebe203	-0.028794294
130	0xba8ed18f	-0.0010896194
131	0xbd2dc420	-0.042423368
132	0xb96af650	-0.00022407738
133	0xbb62b422	-0.003459223
134	0xbb9b38d7	-0.0047370004
135	0xb979f4bc	-0.00023837661
136	0xbb8ded60	-0.004331276
137	0xbd2a694d	-0.04160433
138	0xbb097509	-0.00209743
139	0xbccc8e66	-0.024970245
140	0xbd28e803	-0.04123689
141	0xbd2f8652	-0.042852707
142	0xbb80979d	-0.0039243237
143	0xb9bcb0bc	-0.00035989832
144	0xbd05f063	-0.032699954
145	0xbd2b5c00	-0.041835785
146	0xbb1513f0	-0.002274748
147	0xbb881b68	-0.0041536577
148	0xbac2c739	-0.0014860398
149	0xbcc8e5e7	-0.024523688
150	0xbb0463fe	-0.0020201202
151	0xbb5d6b8f	-0.0033786034
152	0xbaaa3479	-0.0012985609
153	0xbd14c8a0	-0.036324143
154	0xbce03f44	-0.027373917
155	0xbb0ec5af	-0.002178531
156	0xbcceff76	-0.025268298
157	0xbc4f5894	-0.012655396
158	0xbc40cb20	-0.011767179
159	0xbaf4ea0a	-0.0018685472
160	0xbd454cfe	-0.04816913
161	0xbb081d3a	-0.0020769374
162	0xbc81ca1e	-0.015843447
163	0xbc217cc4	-0.009856407
164	0xbd57bcc1	-0.052670244
165	0xbd365804	-0.044517532
166	0xbd562c11	-0.05228812
167	0xbcb61759	-0.02222793
168	0xbd09c0e4	-0.03363122
169	0xbb26994b	-0.002542096
170	0xbb3cf69a	-0.002883351
171	0xbb39f06c	-0.0028372062
172	0xba1f74c4	-0.0006082768
173	0xba8c84a9	-0.0010720688
174	0xbc9c251a	-0.01906066
175	0xbc2a2660	-0.010385126
176	0xb8ad4800	-8.262694e-05
177	0xbb0f3a79	-0.002185492
178	0xbcc956b7	-0.024577482
179	0xb99de0e9	-0.00030112945
180	0xbd328b00	-0.043589592
181	0xbd40089e	-0.046883218
182	0xbb06d54f	-0.002057392
183	0xbb5f6ef0	-0.0034093224
184	0xbcafb202	-0.021447185
185	0xbcd9dc06	-0.026594173
186	0xb985a3b0	-0.00025489694
187	0xbd3de83f	-0.046364065
188	0xbbe7370c	-0.0070561226
189	0xb96e90bc	-0.00022751366
190	0xb9c8c7d1	-0.00038295847
191	0xba296a80	-0.0006462708
192	0xb99b69b2	-0.00029642653
193	0xbc93a78c	-0.018024229
194	0xba92abcc	-0.0011190115
195	0xbb284c5a	-0.0025680275
196	0xbd2b4f2c	-0.04182355
197	0xbd28cf75	-0.04121347
198	0xba26fd57	-0.0006370148
199	0xbb1d50a5	-0.0024004367
200	0xbcd767fc	-0.0262947
201	0xbd46d12b	-0.048539322
202	0xbbe825b0	-0.007084571
203	0xbd0ca80c	-0.03433995
204	0xbce188e1	-0.02753109
205	0xbd440e25	-0.04786505
206	0xbd340c62	-0.04395712
207	0xbc165730	-0.009176061
208	0xbd57cb7d	-0.052684296
209	0xb9ad5d21	-0.00033066518
210	0xba63fc43	-0.0008696953
211	0xbb9f2675	-0.0048568794
212	0xba563f75	-0.0008172908
213	0xbcb27433	-0.021783924
214	0xbc18e560	-0.009332031
215	0xba879fe0	-0.0010347329
216	0xba95b832	-0.0011422692
217	0xba2ebcd9	-0.0006665714
218	0xbd4ee7fd	-0.05051421
219	0xb968373c	-0.0002214582
220	0xbc3ce99a	-0.011530304
221	0xbb386cf1	-0.0028141106
222	0xb9ef0ad9	-0.00045593714
223	0xbabf1826	-0.001457934
224	0xbc1246e0	-0.008928031
225	0xbacd4e1c	-0.0015663537
226	0xbb04759c	-0.0020211702
227	0xbbeaf07f	-0.0071697826
228	0xbb5cc530	-0.003368687
229	0xb9d2b9d1	-0.00040192765
230	0xbd0058e8	-0.031334788
231	0xbd0f40f6	-0.03497406
232	0xbcd55446	-0.026041161
233	0xbca6b520	-0.020350039
234	0xbd234ddf	-0.039869186
235	0xbccafb90	-0.024778157
236	0xbc32ee58	-0.010921083
237	0xb9b80080	-0.00035095587
238	0xba8ffcf3	-0.0010985419
239	0xbca70338	-0.020387277
240	0xb98cb0c7	-0.0002683459
241	0xbd25e5cc	-0.040502355
242	0xb9b7eb3c	-0.00035079743
243	0xbb9af2f4	-0.0047286693
244	0xbb2cee3d	-0.0026387118
245	0xbd0ce668	-0.03439942
246	0xba07b738	-0.0005177143
247	0xbd015576	-0.031575643
248	0xbc7a9d78	-0.015296333
249	0xbabad9fc	-0.0014255638
250	0xbc763278	-0.015026681
251	0xbbee5bce	-0.0072741276
252	0xbaa8ac56	-0.0012868743
253	0xb9b6649c	-0.00034788705
254	0xbcd8fd6a	-0.026488025
255	0xbc4df9c0	-0.012571752

sensor_model.2.weight f4 [128, 256]
0	0x3db19681	0.086712845
1	0x3dd9b088	0.10629374
2	0xbdb35df4	-0.087581545
3	0x3d8d66aa	0.06904347
4	0xbdf27812	-0.11839308
5	0xbe0c3f00	-0.13695908
6	0xbcae68da	-0.021290231
7	0xbd604ef8	-0.05476281
8	0xbdbd6eb2	-0.09249629
9	0x3b92fd20	0.0044857413
10	0x3cbc2230	0.02296552
11	0xbdb3fd24	-0.08788517
12	0x3cc61a98	0.024182603
13	0xbdb67d00	-0.089105606
14	0xbde58435	-0.11206857
15	0x3db338b0	0.08751047
16	0x3dc4c6c2	0.096082225
17	0xbd747b3e	-0.059687845
18	0x3c396813	0.011316317
19	0xbd5b56e0	-0.053549647
20	0x3d4b352a	0.049611248
21	0x3d91361b	0.07090398
22	0xbd36d54e	-0.044637017
23	0xbd8befa8	-0.0683282
24	0x3cd60210	0.02612403
25	0xbd81c9f6	-0.06337349
26	0xbd3460f0	-0.04403776
27	0xbc6377a0	-0.013883501
28	0x3d90b3f6	0.07065575
29	0xbdb4f61e	-0.08836006
30	0x3d61acf4	0.05509658
31	0x3cdd9278	0.02704738
32	0xbd835426	-0.064125344
33	0xbcf63328	-0.03005369
34	0xbcddecf0	-0.02709052
35	0x3ccc79b8	0.024960384
36	0x3dad296a	0.08455165
37	0xbd9471fc	-0.07248303
38	0xbd8313fe	-0.064002976
39	0x3dbe4298	0.092900455
40	0x3be8a5a0	0.007099822
41	0x3d4c4adf	0.04987609
42	0x3dc49762	0.095991865
43	0x3c703c8e	0.014662875
44	0xbdce42cc	-0.10071334
45	0x3d239f7d	0.03994702
46	0x3d8734a4	0.06601837
47	0xbdb61ddc	-0.08892414
48	0x3dc1e064	0.09466627
49	0x3d9f30c2	0.07772972
50	0x3de05530	0.10953748
51	0x3d03217a	0.032014348
52	0x3d9fb214	0.077976376
53	0x3db4aff8	0.08822626
54	0x3d604488	0.054752856
55	0xbd1ec889	-0.038765464
56	0x3df62020	0.12017846
57	0xbdd10546	-0.10206084
58	0xbdec6adc	-0.11543819
59	0xbd88fec6	-0.06689219
60	0xbdcfb1a4	-0.10141304
61	0x3d96ee54	0.07369676
62	0x3ccdd568	0.025126174
63	0xbd5be9bc	-0.053689703
64	0xbd31988c	-0.04335837
65	0xbcd602c1	-0.02612436
66	0xbd84765e	-0.06467889
67	0xbdce15eb	-0.10062774
68	0x3c62b5de	0.013837306
69	0x3d58f764	0.052970305
70	0xbd71fb34	-0.059077457
71	0xbd7e6835	-0.0621111
72	0xbb319380	-0.0027095973
73	0x3d800410	0.06250775
74	0x3df78a86	0.12086968
75	0xbd8cc674	-0.068737894
76	0xbc451da4	-0.012030993
77	0x3d213ccb	0.039364617
78	0xbdbc6a2e	-0.0919994
79	0xbb7cf880	-0.0038600266
80	0x3d08ea74	0.033426717
81	0x3dc7bd42	0.09752895
82	0x3dd17adc	0.10228512
83	0xbd89981c	-0.06718466
84	0xbc39e210	-0.011345401
85	0x3c112310	0.008858457
86	0x3ca07ffa	0.019592274
87	0xbdbaa100	-0.091127396
88	0xbdf7289a	-0.12068291
89	0xbd26d674	-0.040731862
90	0x3cac0498	0.020998284
91	0xbd621c3f	-0.05520272
92	0xbd130d48	-0.035901338
93	0x3da82dfa	0.08211894
94	0xbd81a58c	-0.06330404
95	0xbd7f0674	-0.062262014
96	0xbd820cee	-0.063501224
97	0x3c9cfbc8	0.019163027
98	0x3c81ca12	0.015843425
99	0x3db4b218	0.08823031
100	0x3dcfd8cf	0.10148775
101	0xbd4f167c	-0.050558552
102	0xbb915fe0	-0.004436478
103	0xbde8e831	-0.11372412
104	0x3d81daba	0.06340547
105	0x3dac59d1	0.084155686
106	0x3db53df4	0.08849707
107	0xbc0771a0	-0.008266836
108	0x3dc19fcf	0.09454309
109	0xbd102d0f	-0.03519922
110	0xbcf1deff	-0.029525278
111	0x3ba02560	0.004887268
112	0xbdbf6844	-0.09346059
113	0x3dd0bf68	0.10192758
114	0xbdbbe802	-0.09175111
115	0xbdcbc386	-0.099494025
116	0x3dcb41c0	0.0992465
117	0xbdf4dae0	-0.119558096
118	0xbd079e5c	-0.033110008
119	0xbcef4616	-0.029208224
120	0xbd879f2e	-0.06622158
121	0xbdb65d22	-0.089044824
122	0x3da2089c	0.07911798
123	0xbd5a26ac	-0.053259537
124	0x3cbe63f8	0.023241028
125	0xbda40667	-0.08009034
126	0xbd812040	-0.06304979
127	0x3d829092	0.06375231
128	0xbcc2eaff	-0.023793695
129	0x3d360544	0.044438615
130	0xbd67b723	-0.056571137
131	0x3d3be6d4	0.04587443
132	0x3c65c37b	0.014023657
133	0x3ccea4fe	0.025225159
134	0xbd9b6a1c	-0.07588598
135	0x3db5b647	0.08872657
136	0x3c353a91	0.011061327
137	0xbdb6fe84	-0.08935264
138	0xbdc752e7	-0.09732609
139	0xbd94db4a	-0.072683886
140	0xbccf28a0	-0.025287926
141	0xbc863b38	-0.01638566
142	0x3bbabfa0	0.005699113
143	0x3da9dd90	0.08294213
144	0x3d78a594	0.060704783
145	0x3c00cb70	0.007861003
146	0x3d94d5a7	0.072673135
147	0xbd187710	-0.03722292
148	0xb8ffa94f	-0.00012190884
149	0x3ce9f130	0.02855739
150	0xbdeac54c	-0.11463413
151	0xbe000be4	-0.12504536
152	0xbd1bd650	-0.03804618
153	0x3d0b3618	0.033987135
154	0x3d2aa568	0.04166165
155	0x3d006e6e	0.031355314
156	0x3dc3d84a	0.09562738
157	0x38727000	5.7801604e-05
158	0xbd482750	-0.048865616
159	0x3d3acf43	0.045607816
160	0xbdc8112c	-0.097689
161	0x3d80dd27	0.062921815
162	0xbd2a1c78	-0.041531056
163	0xbc35c260	-0.011093706
164	0xbdf15138	-0.11783069
165	0x3dbe8498	0.09302634
166	0xbde0b108	-0.10971266
167	0x3bfe0740	0.007752329
168	0x3df99f54	0.121885926
169	0x3c87bc30	0.016569227
170	0xbddf22bc	-0.10895297
171	0xbcb9da5f	-0.022687135
172	0xbdf6ee76	-0.120572016
173	0x3a8ea628	0.0010883259
174	0xbde30344	-0.11084607
175	0xbc0dc1b0	-0.008652136
176	0xbd589900	-0.052880287
177	0xbdb16f28	-0.086637795
178	0x3d0c4eac	0.034254715
179	0x3de63404	0.1124039
180	0x3df9646c	0.12177357
181	0x3dc535ce	0.09629403
182	0xbdf37cfb	-0.118890725
183	0xbc220ae0	-0.009890288
184	0x3d39e5e0	0.04538524
185	0xbd116898	-0.03550014
186	0x3d6ddbe0	0.058071017
187	0x3da2d8f6	0.07951538
188	0x3d5e7f8c	0.054320857
189	0xbd7b18f7	-0.061303105
190	0xbde4dfb4	-0.111754805
191	0xbc903820	-0.017604887
192	0x3d88acd7	0.066735916
193	0x3da7a712	0.08186163
194	0x3c7547d2	0.014970737
195	0x3b9c3a42	0.004767687
196	0xbdfeeb4e	-0.124472246
197	0x3d904aa0	0.070454836
198	0xbd22e8e0	-0.03977287
199	0x3cdf407a	0.027252425
200	0x3c9fcde8	0.019507363
201	0xbd820ad4	-0.063497216
202	0xbc645032	-0.013935136
203	0x3d1b7304	0.037951484
204	0x3cd106d0	0.025515944
205	0xbd83954c	-0.064249605
206	0x3d389e6c	0.045072958
207	0xbc198bb0	-0.009371683
208	0xbda5c0c4	-0.08093408
209	0x3d526dfb	0.051374417
210	0x3c2023ed	0.00977419
211	0xbcc99dc3	-0.02461136
212	0xbdc65240	-0.09683657
213	0xbdb3ac20	-0.087730646
214	0x3ddb4940	0.10707331
215	0xbd2d8904	-0.042366996
216	0xbdddf27f	-0.10837268
217	0x3d92acf2	0.07161893
218	0x3da7afca	0.08187826
219	0xbdd61e24	-0.104549676
220	0xbdead1b4	-0.11465779
221	0x3d330fd5	0.04371627
222	0x39415643	0.0001843805
223	0xbd4de4d6	-0.050267063
224	0x3ba60460	0.0050664395
225	0xbe007a28	-0.12546599
226	0xbd80320d	-0.062595464
227	0xbd33e8ce	-0.04392319
228	0xbdbcf9fc	-0.09227368
229	0x3daa7b55	0.08324305
230	0xbc112260	-0.008858293
231	0xbda95772	-0.08268632
232	0x3ddcbe5a	0.10778494
233	0xbde3039c	-0.11084673
234	0xbdc5a388	-0.09650332
235	0xbd2b1c00	-0.04177475
236	0x3c8aa1cc	0.016922854
237	0x3cdd01f8	0.026978478
238	0x3d98a6e4	0.07453707
239	0x3c41d590	0.011830702
240	0xbd16710a	-0.036728896
241	0x3d4c76ac	0.04991786
242	0x3dee8cef	0.11647975
243	0xbd3685cd	-0.044561196
244	0x3d9fe1c3	0.078067325
245	0x3debdf2c	0.11517176
246	0x3d2772db	0.04088102
247	0xbd95da18	-0.07316989
248	0xbd21cb94	-0.039500788
249	0x3c3924a7	0.0113002425
250	0x3ca334f0	0.019922704
251	0x3d9992c1	0.07498694
252	0x3b86efb9	0.0041179326
253	0xbdcc01fc	-0.09961316
254	0xbdf73964	-0.12071493
255	0xbd9f18a8	-0.07768375

sensor_model.2.bias f4 [128]
0	0xbc2aac88	-0.010417111
1	0xbd888b98	-0.066672504
2	0xbb13aa03	-0.0022531755
3	0xbcae2ae0	-0.021260679
4	0x3a315590	0.0006764764
5	0x3ae32348	0.001732924
6	0xbc43c278	-0.01194822
7	0xbd7b05d8	-0.06128487
8	0xb8fb9d9d	-0.000119979704
9	0xbbedccef	-0.007257096
10	0xbd5e793c	-0.054314837
11	0xbd19942a	-0.037494816
12	0xbd6f0762	-0.05835665
13	0xbca400ba	-0.020019878
14	0xbd30ed32	-0.043194957
15	0xbd541bb6	-0.05178424
16	0xbc9a0527	-0.018801285
17	0xbc3294cd	-0.010899735
18	0xbd30acce	-0.04313355
19	0xbced181c	-0.02894216
20	0xbc83e13b	-0.01609861
21	0xbb450620	-0.0030063465
22	0xbd7fffec	-0.062499925
23	0xbc5975ed	-0.013272745
24	0xbb67089a	-0.003525293
25	0xbb928c96	-0.0044723256
26	0xbd07b27b	-0.033129197
27	0xbd6f2c4e	-0.05839186
28	0x3a6c423c	0.0009012555
29	0xba91af00	-0.0011114776
30	0xbd3dc576	-0.04633089
31	0xbc24f706	-0.010068661
32	0xbd3aa00b	-0.045562785
33	0xbb780e7a	-0.0037850426
34	0xbd467ce0	-0.048458934
35	0xbcb44dfa	-0.022009838
36	0xbc673187	-0.014110929
37	0xbcfb0aab	-0.030644735
38	0xbce8edfd	-0.028433794
39	0xbcc1fea2	-0.023680989
40	0xbcad25f8	-0.021136269
41	0xbc1771c2	-0.009243431
42	0x3a7ccda5	0.00096436805
43	0xbd0dd87c	-0.034630284
44	0xbca9aeb3	-0.020713186
45	0xbd2ece8a	-0.04267744
46	0x3b39f45a	0.0028374405
47	0xbc38ce68	-0.01127968
48	0xbc8cac84	-0.017172106
49	0xbbd49a3c	-0.0064881127
50	0xbd208bca	-0.039195813
51	0xbca1aa3c	-0.019734494
52	0xbc62b287	-0.01383651
53	0xbc7dbb62	-0.01548657
54	0xbcbc2f4c	-0.022971772
55	0xbc5234e7	-0.012829996
56	0xbc01f67a	-0.0079323
57	0xbc201b31	-0.009772108
58	0xbc2d305d	-0.010570613
59	0x3b8a1ceb	0.004214873
60	0xbca545fa	-0.020174969
61	0xbcb26b32	-0.02177963
62	0xbc2cf42b	-0.010556261
63	0xbc072e2e	-0.008250756
64	0xbc58e5c1	-0.013238371
65	0xbc950282	-0.018189672
66	0xbc997f18	-0.01873736
67	0xbd2902d8	-0.041262478
68	0xbd031520	-0.03200257
69	0xbb491531	-0.0030682797
70	0xbcb52e38	-0.022116765
71	0xbafbe91d	-0.0019219253
72	0xbcebd9a0	-0.028790295
73	0xbc8248be	-0.015903827
74	0xbc7c8ce8	-0.015414454
75	0xbcaf7c54	-0.021421589
76	0xbafb6080	-0.001917854
77	0xbd1002e0	-0.03515899
78	0x3d386640	0.04501939
79	0xbb9cf625	-0.004790085
80	0xbb93ae09	-0.0045068306
81	0xbc7600bc	-0.0150148235
82	0xbd32d244	-0.043657556
83	0xbd79dbf0	-0.061000764
84	0xbd16a05a	-0.036774017
85	0xbc8946d5	-0.016757408
86	0xba54b0e0	-0.00081135146
87	0xbb9616ed	-0.0045803697
88	0xbd1c1c00	-0.03811264
89	0xbd204db8	-0.03913662
90	0x39724850	0.00023105857
91	0xbd1c1634	-0.038107112
92	0xbcf33889	-0.029690044
93	0xbbe3d7b4	-0.006953204
94	0xbd51f982	-0.05126334
95	0xbcee9831	-0.029125305
96	0xbd372b5c	-0.044719085
97	0x3afa6cde	0.0019105931
98	0xbc54e9ca	-0.012995193
99	0xbcf4df58	-0.029891655
100	0xbbd3cba1	-0.0064634834
101	0xbc7954d0	-0.015217975
102	0xbc1004c7	-0.0087902015
103	0xbd6fd08c	-0.058548495
104	0xbd11d4b7	-0.03560325
105	0xbb6f8f14	-0.0036553787
106	0xbd22f040	-0.0397799
107	0xbcac2583	-0.02101398
108	0xbcaceb38	-0.021108255
109	0xbd5cd7de	-0.053916804
110	0xbc491943	-0.012274089
111	0xbbbbbfe6	-0.005729663
112	0xbd7f275e	-0.062293403
113	0xbd32b8d8	-0.043633312
114	0x3b92b187	0.0044767293
115	0xbc0f2771	-0.008737431
116	0xbc4dfef8	-0.012572996
117	0xbb572589	-0.003282877
118	0x3a8ce7df	0.0010750255
119	0xbd2c30b8	-0.04203865
120	0xbd0659c8	-0.032800466
121	0xbb73ea7a	-0.0037218616
122	0xbd26e76c	-0.040748045
123	0xbcf37ec0	-0.029723525
124	0xbd56f646	-0.05248096
125	0xbc1f22a8	-0.009712853
126	0xbcd7a02b	-0.026321491
127	0xbcdb8c23	-0.02680022

sensor_model.4.weight f4 [64, 128]
0	0x3e2d466b	0.16921394
1	0x3e327657	0.17427956
2	0x3d8b4bd7	0.06801575
3	0xbda9687e	-0.082718834
4	0x3d702c14	0.058635786
5	0x3c0fcfc0	0.008777559
6	0xbcea1d40	-0.0285784
7	0xbe01f3f1	-0.12690713
8	0x3cd921df	0.026505409
9	0x3daf5c4e	0.085625276
10	0xbd247ea4	-0.040159836
11	0x3ddcc8f2	0.10780515
12	0x3d55acfc	0.052166924
13	0xbdc3ec63	-0.095665716
14	0x3d9b39ea	0.075794056
15	0xbdb7d4f6	-0.08976166
16	0xbdeade3d	-0.1146817
17	0xbd5494e2	-0.0518998
18	0xbc520c60	-0.012820333
19	0xbe0a6c83	-0.13517956
20	0x3d124776	0.03571268
21	0x3aa02580	0.0012218207
22	0xbe09d682	-0.13460734
23	0x3dc0a4f2	0.09406461
24	0xbde174b2	-0.11008586
25	0x3e0e3de6	0.138908
26	0x3cebf9df	0.028805671
27	0xbc1f4ec0	-0.009723365
28	0xbde7d641	-0.113201626
29	0xbd4f764c	-0.050649926
30	0xbde3472a	-0.11097558
31	0x3d48c372	0.049014516
32	0xbddc4bcc	-0.107566446
33	0xbdedd13a	-0.116121724
34	0xbdb20601	-0.086925514
35	0xbe15145c	-0.14558548
36	0xbd1a6274	-0.03769155
37	0x3dad1ee2	0.08453156
38	0x3dd32692	0.10310091
39	0x3e24bfdb	0.16088812
40	0x3d8d5400	0.06900787
41	0x3ddc6d0b	0.10762986
42	0xbd1878e8	-0.03722468
43	0xbd88eceb	-0.066858135
44	0x3d86a204	0.06573871
45	0x3ce5f670	0.028071612
46	0xbdf43b32	-0.11925353
47	0x3dd6deb2	0.104916945
48	0xbd7f3286	-0.062304042
49	0xbd8fe537	-0.07026141
50	0xbd93215e	-0.07184099
51	0x3c96e738	0.0184208
52	0x3dd37486	0.103249595
53	0xbe31f8af	-0.17380022
54	0x3da13d5a	0.0787303
55	0xbcdaccc0	-0.02670896
56	0x3d572a9a	0.052530862
57	0xbe1a3f36	-0.15063176
58	0x3de3dd0e	0.11126147
59	0xbe0fed24	-0.14055306
60	0x3cdf448d	0.027254367
61	0xbe049b00	-0.12949753
62	0xbccfe703	-0.02537871
63	0x3dc0a432	0.09406318
64	0x3e1871af	0.14887117
65	0xbbd7f8e0	-0.0065909475
66	0xbe1b8899	-0.15188827
67	0x3e0ca6f5	0.13735564
68	0x3e27685f	0.16348408
69	0xbe06d354	-0.13166553
70	0x3d949396	0.07254712
71	0x3d9f20dd	0.0776994
72	0xbd9e2974	-0.0772275
73	0xbe0734c0	-0.13203716
74	0xbdbd03ff	-0.09229278
75	0xbd96b7e6	-0.073592946
76	0xbb61fb80	-0.003448218
77	0xbd996360	-0.074896574
78	0xbe038650	-0.12844205
79	0x3dde10a2	0.10843016
80	0xbe191183	-0.14948086
81	0x3da4ed76	0.080531046
82	0x3d8e1c34	0.06938973
83	0x3c2bfc40	0.010497153
84	0x3e1c650f	0.15272926
85	0x3e2a7653	0.166467
86	0xbe09ea29	-0.13468231
87	0x3c29b240	0.0103574395
88	0xbe2a25c0	-0.16615963
89	0xbcfe0528	-0.031008318
90	0x3d49eecc	0.0493
91	0x3c505fe0	0.012718171
92	0xbde3136d	-0.110876895
93	0xbda34b17	-0.079733066
94	0x3db6d26e	0.08926855
95	0x3df6d2e6	0.120519444
96	0x3da44256	0.08020465
97	0x3dcae802	0.09907533
98	0x3dbcfc39	0.09227795
99	0x3d8b76e8	0.06809789
100	0x3d1c784c	0.03820066
101	0xbd2d89e4	-0.04236783
102	0x3dacc255	0.084355034
103	0xbd5865d6	-0.052831493
104	0x3cf30b98	0.029668614
105	0xbd8779b5	-0.06615011
106	0x3d125688	0.035727054
107	0x3dfcdfe5	0.12347392
108	0xbdc9b7a7	-0.09849482
109	0xbe31bda4	-0.17357498
110	0x3d953e31	0.07287253
111	0x3e253d0f	0.16136573
112	0xbdec4f12	-0.11538519
113	0xbd9e1d30	-0.07720411
114	0xbe171c36	-0.14756855
115	0x3cd9f868	0.026607707
116	0x3d68db54	0.056849793
117	0xbc809e8a	-0.015700597
118	0x3d7c30ea	0.061570086
119	0x3cc87968	0.024471954
120	0xbd6a5604	-0.057210937
121	0x3d83c768	0.06434518
122	0x3da475f6	0.08030312
123	0x3d414a4c	0.047189996
124	0x3e04793f	0.12936877
125	0x3c679f70	0.014137134
126	0x3dcf083b	0.10108992
127	0xbd9475f6	-0.07249062
128	0xbe25cd35	-0.16191562
129	0xbb554840	-0.0032544285
130	0xbe264023	-0.16235404
131	0x3d44ec3c	0.048076853
132	0xbe07e2c5	-0.132701
133	0x3dced8b2	0.10099925
134	0x3c232b90	0.009959117
135	0x3df13f5a	0.117796615
136	0x3db82fae	0.08993469
137	0x3ce4d3e8	0.027933076
138	0x3bba7820	0.0056905895
139	0x3df6a60a	0.12043388
140	0xbdd0528e	-0.10171996
141	0xbd0bd1b8	-0.03413555
142	0xbe2455e2	-0.16048387
143	0xbd4c7fa4	-0.049926415
144	0x3e188347	0.14893828
145	0x3d39cee0	0.045363307
146	0x3d2d61b4	0.042329505
147	0xbd8e17af	-0.06938111
148	0x3c8d9b98	0.017286107
149	0xbd2d3490	-0.042286456
150	0xbd350b28	-0.044200093
151	0xbdef624b	-0.1168867
152	0x3cb77500	0.022394657
153	0x3dd3d7ce	0.10343896
154	0x3ddc289a	0.10749932
155	0xbccaa920	-0.024738848
156	0xbaf2a780	-0.0018513054
157	0x3d12498c	0.03571467
158	0x3e331d3f	0.17491625
159	0xbe1ea542	-0.15492728
160	0xbe0b77ec	-0.13619965
161	0xbcb5fd10	-0.022215396
162	0x3d6f460c	0.05841641
163	0xbdb0fe60	-0.08642268
164	0x3d7742c8	0.060366422
165	0xbe2eeda8	-0.17082846
166	0xbcf38940	-0.029728532
167	0x3d6145d0	0.05499822
168	0x3dc20c26	0.094749734
169	0xbd64db9e	-0.055873506
170	0x3d5d2f94	0.054000452
171	0x3c4105b0	0.011781141
172	0x3e18e24f	0.1493008
173	0x3bfd6c80	0.0077338815
174	0x3da2ef4e	0.079558
175	0xbd773bd8	-0.060359806
176	0x3e144055	0.14477666
177	0x3c119bd0	0.008887246
178	0xbdf17ad2	-0.11791004
179	0x3da6803a	0.08129926
180	0xbc54bad0	-0.012983993
181	0x3dd1569e	0.10221599
182	0x3e13a2f3	0.14417629
183	0x3dc9c08a	0.09851177
184	0x3e26c49b	0.16285937
185	0xbe0f3ae2	-0.13987306
186	0x3aa0ec00	0.0012277365
187	0xbe0a4280	-0.1350193
188	0x3ca99ca8	0.020704582
189	0xbcd33778	-0.025783285
190	0xbe0e4dc5	-0.13896854
191	0xbde1dad7	-0.110280685
192	0xbdb46070	-0.088074565
193	0xbdc4bc63	-0.096062444
194	0x3dd4231a	0.103582576
195	0xbdf595a3	-0.119914316
196	0xbdee5282	-0.11636831
197	0xbe2b131f	-0.16706513
198	0xbe072315	-0.13196976
199	0xbd87d14a	-0.066317156
200	0xbdc6fc1b	-0.09716054
201	0x3da07afa	0.07835956
202	0x3dd22eba	0.10262819
203	0x3d8da250	0.06915724
204	0xbbe926c0	-0.007115215
205	0xbc996710	-0.018725902
206	0xbda0c6ee	-0.07850443
207	0xbe091e6e	-0.13390514
208	0x3e22365d	0.1584105
209	0xbe05d228	-0.1306845
210	0xbdcdfce0	-0.10057998
211	0x3e05a17f	0.13049887
212	0xbda81597	-0.08207243
213	0xbe31288d	-0.17300625
214	0x3d9f65da	0.077830985
215	0x3ca80d28	0.020514086
216	0xbe34587f	-0.17611884
217	0xbe128454	-0.14308292
218	0x3baea380	0.0053295493
219	0x3e0171f1	0.12641121
220	0x3def702a	0.116913155
221	0xbda56457	-0.08075779
222	0x3de82416	0.11335008
223	0xbc798590	-0.015229598
224	0x3d77b970	0.06047958
225	0x3e0141a1	0.12622692
226	0x3e1c12e9	0.15241589
227	0x3bd90c20	0.00662376
228	0x3e05f09b	0.13080065
229	0x3d0b9510	0.034077704
230	0x3e00e621	0.12587787
231	0xbd220d18	-0.03956327
232	0x3ca36998	0.019947812
233	0x3ddbff82	0.107420936
234	0x3c98a260	0.018632114
235	0xbd98ba60	-0.07457423
236	0xbe16f3b9	-0.1474141
237	0x3adc3700	0.0016801059
238	0xbd989951	-0.07451118
239	0x3d241034	0.040054515
240	0x3e26a445	0.16273601
241	0x3dc9be1a	0.09850712
242	0x3df8b212	0.12143339
243	0xbd599316	-0.053118788
244	0xbde0c344	-0.10974744
245	0xbd134a00	-0.035959244
246	0x3d42f298	0.047594637
247	0x3e2bd475	0.16780265
248	0x3dae846a	0.0852135
249	0x3db3fed6	0.087888405
250	0x3c0c2970	0.008554801
251	0xbd41627c	-0.047213063
252	0xbd44a5b0	-0.048009574
253	0xbdd62dad	-0.10457931
254	0xbd9c6efb	-0.07638355
255	0xbe19984a	-0.149995

sensor_model.4.bias f4 [64]
0	0xbd8c3e77	-0.06847852
1	0xbd9fa824	-0.07795742
2	0x3d140a3f	0.036142584
3	0xbd43f8c4	-0.047844663
4	0xbbdeb783	-0.0067967786
5	0xbd40d232	-0.047075458
6	0x3b6639a9	0.0035129583
7	0xbc074219	-0.008255505
8	0xbd631016	-0.055435263
9	0xbd83ac41	-0.06429339
10	0xbd33ab19	-0.043864343
11	0xbc47c9dc	-0.012194123
12	0xbcc63f42	-0.024200086
13	0xbda2775a	-0.07932921
14	0xbd9ace1a	-0.07558842
15	0xbcc57449	-0.0241033
16	0xbc958bf7	-0.018255217
17	0x3b29a7f2	0.0025887457
18	0xbda04399	-0.07825393
19	0xbc1e7adb	-0.009672846
20	0xbd843daf	-0.06457078
21	0x3a94854f	0.0011331233
22	0xbd2ae030	-0.041717708
23	0xbccaa8bd	-0.024738664
24	0xbcb9b71e	-0.022670325
25	0xbb2d4a50	-0.0026441999
26	0x3a36fe69	0.0006980659
27	0xbc970c78	-0.018438563
28	0xbb8ced85	-0.0043007755
29	0xbd88e1e3	-0.066837095
30	0xbd2a94d9	-0.04164586
31	0xbdbeb743	-0.09312298
32	0xbd17f9fc	-0.037103638
33	0xbd4c4c69	-0.049877558
34	0xbcc3daa0	-0.02390796
35	0xbd383bb0	-0.044978797
36	0xbae92b9c	-0.0017789486
37	0xbc22f689	-0.009946474
38	0x3cc9507d	0.024574513
39	0xbd40244b	-0.04690961
40	0xbda50bf3	-0.0805892
41	0xbc51cfbe	-0.012805877
42	0xbcc42e15	-0.023947755
43	0xbc2eaeff	-0.0106618395
44	0xbdb4fe59	-0.088375755
45	0xbc6016b0	-0.013677284
46	0xbd4cd75c	-0.05001007
47	0xbb2925e3	-0.0025809936
48	0xbdb541ec	-0.08850464
49	0xbd0edb06	-0.034876846
50	0xbb238345	-0.002495007
51	0xbdb2e6cb	-0.087354265
52	0xbd442cb9	-0.047894213
53	0xbda96dd3	-0.082729004
54	0x39d18348	0.000399614
55	0xbc945470	-0.01810667
56	0xbc26dbfa	-0.010184282
57	0xbbff6ce5	-0.0077949637
58	0xbd054af3	-0.03254218
59	0xba8b5f83	-0.0010633323
60	0xbc678d1c	-0.014132764
61	0xbc330bf2	-0.010928141
62	0xbcbb2cee	-0.022848573
63	0xbd618753	-0.055060696

target_model.0.weight f4 [64, 66]
0	0xbc3a57f9	-0.011373513
1	0xbc7941b0	-0.015213415
2	0x3e1614a5	0.14656313
3	0x3d5d4c72	0.054027982
4	0xbe142625	-0.14467676
5	0xbd399c8c	-0.04531531
6	0xbdd965da	-0.1061513
7	0xbe082afe	-0.1329765
8	0xbcdce190	-0.026963025
9	0xbddbabee	-0.10726152
10	0xbe3d7479	-0.18501462
11	0xbe2844c0	-0.16432476
12	0xbe0e831a	-0.13917199
13	0x3dfe4382	0.1241522
14	0x3d1780a8	0.03698793
15	0xbca2c6c9	-0.019870179
16	0xbdbaabf2	-0.09114827
17	0x3d61909a	0.055069543
18	0xbd18ccc4	-0.037304655
19	0x3da28c27	0.07936888
20	0x3de9f44e	0.114235505
21	0xbbd466ec	-0.006481996
22	0xbe0f494a	-0.13992801
23	0xbccb6d9b	-0.024832537
24	0x3db837df	0.089950316
25	0x3b82e9ae	0.003995142
26	0x3cc5435e	0.024079975
27	0xbd4adc02	-0.049526222
28	0x3e491e25	0.19640405
29	0xbe4f5024	-0.20245415
30	0x3e009f33	0.1256073
31	0xbe40b02f	-0.18817209
32	0xbe2dea44	-0.16983896
33	0xbddef0a1	-0.1088574
34	0xbcfcea38	-0.030873403
35	0x3de495fc	0.1116142
36	0x3e19fa2b	0.15036838
37	0xbe344e62	-0.17608026
38	0x3e25a921	0.16177799
39	0xbd8430d2	-0.06454624
40	0x3d0f98a4	0.03505768
41	0x3e4a6223	0.19763999
42	0x3e3636ef	0.17794393
43	0xbcbc1853	-0.022960817
44	0x3d1a3f9c	0.03765832
45	0xbd532d91	-0.051557127
46	0x3c881638	0.016612157
47	0x3d6915ff	0.056905743
48	0x3de6b142	0.11264278
49	0x3e152488	0.14564717
50	0x3e0af053	0.13568239
51	0x3d2670bc	0.040634856
52	0x3e01059f	0.125998
53	0x3e53d143	0.20685296
54	0xbc5f5f44	-0.013633553
55	0xbe2d2a7f	-0.16910742
56	0x3dfc6e7b	0.1232576
57	0xbd81b971	-0.06334198
58	0xbe5be873	-0.21475391
59	0xbb781a00	-0.0037857294
60	0x3e2d3bae	0.16917297
61	0xbda81e25	-0.082088746
62	0xbdc56665	-0.09638671
63	0x3e4ea6af	0.20180772
64	0x3dd7bfb2	0.1053461
65	0xbdfce5f8	-0.123485506
66	0x3d63d4e1	0.05562294
67	0x3e005dff	0.12535857
68	0x3e6b8445	0.22999676
69	0xbd1ba9a3	-0.038003575
70	0xbe59d01c	-0.21270794
71	0x3dddf026	0.1083682
72	0x3d98bf35	0.07458345
73	0xbc696703	-0.014245751
74	0x3bad5840	0.0052900612
75	0x3de6959a	0.11259003
76	0xbc8739a0	-0.01650697
77	0xbdb0c104	-0.08630565
78	0xbda7405d	-0.08166573
79	0xbde8e92c	-0.11372599
80	0x3e66a230	0.22522807
81	0x3e27990c	0.16366976
82	0xbe020764	-0.12698132
83	0x3dcd5201	0.10025407
84	0xbddd6b77	-0.10811513
85	0xbe160893	-0.14651708
86	0xbdc21538	-0.094767034
87	0x3e1b90c5	0.15191944
88	0xbe16997d	-0.14706989
89	0xbe0351b6	-0.12824139
90	0x3e03073f	0.12795733
91	0x3caa84a1	0.020815196
92	0x3dda11b9	0.106479116
93	0xbc89005b	-0.016723802
94	0x3dc0f6c1	0.094220646
95	0x3df57daa	0.11986859
96	0xbe0f9f7a	-0.14025679
97	0x3e0cf740	0.13766193
98	0xbd433312	-0.047656126
99	0x3e45d443	0.19319253
100	0xbcdf3948	-0.027248994
101	0x3dc9f4fd	0.09861181
102	0xbe209ae8	-0.15684092
103	0x3e2eece3	0.17082553
104	0xbe032f28	-0.12810957
105	0x3d6f35cc	0.058400914
106	0x3e3372f9	0.17524327
107	0x3d310917	0.04322156
108	0x3ce8756d	0.028376305
109	0x3e00b686	0.12569627
110	0x3e027521	0.12739994
111	0xbddba536	-0.10724871
112	0xbd7c3d1a	-0.06158171
113	0xbda9be60	-0.08288264
114	0x3df2199b	0.1182129
115	0xbd302e46	-0.04301288
116	0xbd8711eb	-0.065952145
117	0x3e5a2995	0.21304925
118	0xbe372bfb	-0.17887871
119	0xbdc9f197	-0.09860533
120	0x3d45eb30	0.048319995
121	0xbe4d2cdd	-0.20036645
122	0x3d1de6b1	0.038550083
123	0xbe34c562	-0.1765342
124	0xbe1c8dde	-0.15288493
125	0x3dc31946	0.09526305
126	0x3d43b9ff	0.0477848
127	0xbe54aa38	-0.20768058
128	0x3d79729f	0.060900327
129	0xbdf6b9a4	-0.12047127
130	0x3e9ceb45	0.30648246
131	0xbde6e71d	-0.1127455
132	0x3e3226ef	0.17397664
133	0xbe50a019	-0.20373572
134	0x3c48ece0	0.012263507
135	0x3d3db9d9	0.046319816
136	0xbd301ccb	-0.04299621
137	0x3d6d9114	0.057999685
138	0xbddd048f	-0.10791885
139	0xbd99e894	-0.07515064
140	0x3e105b49	0.14097323
141	0xbe47655e	-0.19472262
142	0x3e057265	0.1303192
143	0x3e5fed71	0.2186792
144	0xbde1e0b4	-0.11029187
145	0x3ca26490	0.019823343
146	0x3e89c15f	0.26905343
147	0x3e2f4872	0.1711748
148	0x3d745398	0.059650034
149	0x3b317428	0.002707729
150	0xbbb846b7	-0.0056236642
151	0x3dac7b15	0.084219135
152	0x3e2d2123	0.16907172
153	0xbe3ed605	-0.1863633
154	0x3e3807eb	0.1797177
155	0x3e5b4330	0.21412349
156	0xbc1f9e94	-0.009742398
157	0x3dd34c55	0.103172936
158	0x3d53a950	0.05167514
159	0xbe5f2136	-0.21790013
160	0x3dcb9476	0.09940426
161	0xbdd4865c	-0.103771895
162	0x3dfe505e	0.124176726
163	0xbd9a19cc	-0.075244516
164	0xbde0d8f5	-0.10978881
165	0x3e258455	0.16163762
166	0xbd26da60	-0.040735602
167	0xbdc52648	-0.09626442
168	0xbdaf8eec	-0.08572182
169	0xbe00bf75	-0.12573035
170	0x3ae27446	0.0017277084
171	0xbd6d39d0	-0.057916462
172	0x3cf8ee80	0.030387163
173	0xbe38b41c	-0.18037456
174	0xbe18396d	-0.14865656
175	0x3e2ca258	0.16858804
176	0xbe270371	-0.16309907
177	0xbd7646e4	-0.0601262
178	0x3e044428	0.12916625
179	0xbdb12a6e	-0.08650671
180	0x3e333aa6	0.17502841
181	0x3e1248a3	0.14285521
182	0xbe0e4fa2	-0.13897565
183	0xbe3fc8f6	-0.18729004
184	0x3e0db09b	0.13836901
185	0xbd478d38	-0.04871866
186	0xbe6ab54d	-0.22920723
187	0xbe125b76	-0.14292702
188	0xbd327849	-0.043571744
189	0xbe02a8ce	-0.12759706
190	0x3d98b13d	0.074556805
191	0x3c7f9e94	0.015601773
192	0x3e493b41	0.1965151
193	0xbd8fde77	-0.07024854
194	0x3a67bdec	0.0008840251
195	0x3d4987a4	0.049201623
196	0xbe880564	-0.26566613
197	0xbd6017c1	-0.054710153
198	0xbde3d5f3	-0.11124792
199	0xbd74bdd0	-0.05975133
200	0x3cfc713d	0.030815715
201	0xbe4637e0	-0.19357252
202	0x3e038f26	0.12847576
203	0xbe08df5c	-0.13366455
204	0xbd9d77e6	-0.076888844
205	0x3a8d6acc	0.0010789274
206	0x3d24124c	0.04005651
207	0x3d359c84	0.044338718
208	0x3e1f62cd	0.15565033
209	0xbe090879	-0.13382138
210	0xbddd57ca	-0.1080776
211	0x3cf8ac80	0.030355692
212	0x3de6d19e	0.1127045
213	0x3e1942f4	0.14966947
214	0x3d569c1a	0.052394964
215	0x3de87923	0.1135123
216	0xbe1c222b	-0.15247409
217	0x3e2dee96	0.16985545
218	0x3e342ae9	0.17594494
219	0x3d89f7e3	0.06736734
220	0x3e2b5167	0.16730271
221	0x3d292ad0	0.041300595
222	0x3e2d514e	0.16925547
223	0x3de5db88	0.11223513
224	0xbcd7a173	-0.026322102
225	0xbc8a9a1f	-0.016919194
226	0x3c412ff1	0.011791215
227	0x3cf760c8	0.030197516
228	0xbd4c83b4	-0.04993029
229	0xbdacad58	-0.084315
230	0x3c4a2e42	0.01234013
231	0x3d2596f4	0.040427163
232	0x3dcc60f2	0.09979428
233	0xbe5e0e34	-0.21685106
234	0xbd1def82	-0.03855849
235	0xbd35f0ad	-0.04441898
236	0xbdd71c14	-0.10503402
237	0xbe175b75	-0.14780982
238	0xbe552003	-0.20812993
239	0x3e397023	0.18109183
240	0xbe4d527c	-0.20050997
241	0x3dca173d	0.098677136
242	0xbc27b8d0	-0.010236934
243	0xbd0b9b8c	-0.034083888
244	0x3e0face1	0.14030792
245	0xbcaedceb	-0.021345576
246	0xbe317a98	-0.17331922
247	0x3dc50372	0.09619798
248	0x3d8bfe99	0.0683567
249	0xbd780580	-0.06055212
250	0xbe02a1f7	-0.12757097
251	0x3ca422c8	0.020036116
252	0x3e006d74	0.12541753
253	0x3db601b2	0.08887042
254	0x3de4b139	0.11166615
255	0x3d2863ff	0.04111099

target_model.0.bias f4 [64]
0	0xbbac419b	-0.005256844
1	0xbd3c7322	-0.046008237
2	0xbd6c260e	-0.05765348
3	0xbdbc8792	-0.092055455
4	0x3c0e547d	0.008687136
5	0x3bf91b95	0.007602165
6	0xbdb735ba	-0.089457944
7	0xbdb66458	-0.08905858
8	0xbb510575	-0.0031894122
9	0xbdfbe9f9	-0.12300486
10	0xbd5e0b5d	-0.054210056
11	0xbdf1135b	-0.1177127
12	0xbc8f032d	-0.017457569
13	0xbd1643cf	-0.03668576
14	0x3c1b4f72	0.00947939
15	0x3d376111	0.044770304
16	0xbe0fc320	-0.14039278
17	0x3d208ed4	0.03919871
18	0xbd5c8866	-0.053841017
19	0xbd2f13bb	-0.042743426
20	0xbe2d270f	-0.16909431
21	0xbe3676fe	-0.1781883
22	0xbde9f0bf	-0.11422872
23	0xbde2f0a3	-0.11081054
24	0xbdf70e68	-0.12063295
25	0x3e2c0802	0.1679993
26	0xbd15765f	-0.03648984
27	0x3c88536e	0.016641345
28	0x3bf9c7cf	0.007622696
29	0xbe67fca3	-0.22654967
30	0x3e0133a0	0.1261735
31	0xbd7017ff	-0.058616634
32	0xbe3c96b3	-0.18416862
33	0xbdb626b0	-0.08894098
34	0xbd9cd9a8	-0.07658702
35	0xbd1795b2	-0.037007995
36	0xbc45c20b	-0.012070189
37	0x3e214f30	0.15752864
38	0xbdeec447	-0.11658531
39	0xbd7c374f	-0.061576184
40	0xbc699060	-0.014255613
41	0xbd71d497	-0.059040632
42	0xbdb10bab	-0.086448036
43	0xbda5c8a4	-0.0809491
44	0xbd6e1823	-0.058128487
45	0x3e36761f	0.17818497
46	0xbd8d23db	-0.068916045
47	0xbddfb6af	-0.10923516
48	0xbd2a04d1	-0.0415085
49	0x3e919c31	0.28439477
50	0xbcb9ee46	-0.022696625
51	0xbd6f59cd	-0.05843525
52	0x3d8d2c2a	0.06893189
53	0x3e3271a7	0.17426167
54	0xbdec12a7	-0.11526995
55	0xbe3ad4bb	-0.18245213
56	0xbc5a5908	-0.013326891
57	0xbd712166	-0.05886974
58	0xbe38b6e8	-0.18038523
59	0xbd478654	-0.04871209
60	0xbd8ff3dc	-0.07028934
61	0xbe063d6c	-0.13109368
62	0xbcd09a11	-0.02546409
63	0x3e08ac87	0.13347064

target_model.2.weight f4 [16, 64]
0	0xbe4400c4	-0.19140917
1	0xbe157730	-0.14596248
2	0x3de5b707	0.1121655
3	0xbe24991d	-0.16074033
4	0x3f0da4fd	0.5532988
5	0xbe9efcb0	-0.3105216
6	0xbe13dde1	-0.14440109
7	0xbdde3ca4	-0.1085141
8	0x3edd883b	0.43267998
9	0x3d1760ab	0.036957424
10	0xbd1dd606	-0.038534187
11	0x3e4d1b42	0.2002993
12	0x3e7a7099	0.24457015
13	0x3e9b1f0c	0.30297124
14	0x3f76238d	0.96147996
15	0xbe41b857	-0.18917976
16	0xbd20320b	-0.039110225
17	0xbddc928e	-0.107701406
18	0x3da484ce	0.08033143
19	0xbcb4a965	-0.02205343
20	0x3dcf6d0b	0.1012822
21	0x3bc75b4a	0.0060838806
22	0xbe22c62d	-0.1589591
23	0xbe0a85ec	-0.1352765
24	0xbc08304f	-0.008312299
25	0x3eaa92e7	0.33315203
26	0xbe13022a	-0.14356294
27	0x3c813ad2	0.015775118
28	0x3de7267c	0.11286637
29	0xbd87a70b	-0.06623658
30	0x3e78438f	0.24244522
31	0x3e4f2e15	0.20232423
32	0xbd470307	-0.04858687
33	0x3dcbb9bf	0.09947538
34	0x3e01ca5b	0.12674849
35	0x3e078a5b	0.13236372
36	0xbe43a61d	-0.19106336
37	0x3e8bbca9	0.27292374
38	0xbe11e65b	-0.1424803
39	0xbe5e637a	-0.21717635
40	0xbe10d036	-0.14141926
41	0x3df648dc	0.120256156
42	0xbda6b59c	-0.08140108
43	0xbd53ab19	-0.051676843
44	0xbe087179	-0.13324536
45	0x3ee9974c	0.45623243
46	0x3e3b2120	0.18274355
47	0xbd75a844	-0.059974924
48	0x3e2565ca	0.1615211
49	0x3f760abd	0.96110135
50	0x3dc43d8f	0.09582054
51	0x3d86365f	0.06553339
52	0x3ef6d360	0.4820814
53	0x3ec7963c	0.38981807
54	0xbdc82f56	-0.097746536
55	0x3dab5b21	0.08366991
56	0xbde7f8db	-0.11326762
57	0xbe133b7a	-0.14378157
58	0x3e2a01cf	0.16602252
59	0xbe161c94	-0.14659339
60	0xba149600	-0.00056681037
61	0xbd9c0914	-0.07618919
62	0x3c7b9078	0.015354268
63	0x3e2cfcf2	0.16893366
64	0xbebde77b	-0.37090668
65	0xbd487705	-0.04894163
66	0xbe9a30b7	-0.3011529
67	0x3bd26ca9	0.0064216447
68	0xbe9b2d45	-0.30307975
69	0x3d878c2f	0.06618535
70	0x3cc1385a	0.02358644
71	0xbdaaa042	-0.08331348
72	0x3e53ff81	0.20702936
73	0xbc3c4bd8	-0.011492692
74	0xbe846a3c	-0.258623
75	0xbdad81c5	-0.08472017
76	0xbe2f9e65	-0.17150266
77	0xbeb3674b	-0.35039744
78	0x3e2070d3	0.15668039
79	0xbe87c957	-0.26520798
80	0x3d8564e3	0.06513383
81	0xbe8b0d0b	-0.27158388
82	0xbe5a0546	-0.21291074
83	0xbdb8fbb7	-0.09032386
84	0xbd47c394	-0.048770502
85	0x3dff8a81	0.124775894
86	0x3e0ca187	0.13733493
87	0xbe2991a1	-0.1655946
88	0x3c124287	0.008926994
89	0xbe23e9d1	-0.16007163
90	0xbe8d4b32	-0.27596432
91	0x3da56061	0.080750234
92	0x3e0b6764	0.13613659
93	0x3e2af9f8	0.16696918
94	0xbe315aec	-0.1731984
95	0x3d3d5000	0.046218872
96	0xbded06f4	-0.11573592
97	0x3e2b8f78	0.16753948
98	0xbe0767e4	-0.13223225
99	0x3ba7042a	0.005096932
100	0x3e56ca1c	0.20975536
101	0xbe00d45f	-0.12581013
102	0xbc6f29e5	-0.014597391
103	0x3e1e6102	0.15466693
104	0xbce290f3	-0.027657008
105	0x3e79c812	0.24392727
106	0xbe90a9f7	-0.28254673
107	0x3dde1b01	0.10844994
108	0x3c92229c	0.017838769
109	0x3d7aa29d	0.061190236
110	0xbe37460e	-0.17897817
111	0x3db749ce	0.08949624
112	0x3e651779	0.22372235
113	0x3e267167	0.16254197
114	0xbe52ba6f	-0.20578931
115	0x3daafcc0	0.083489895
116	0xbe1a57bb	-0.15072529
117	0xbe14a81e	-0.14517257
118	0x3e020ff7	0.12701403
119	0xbe9be64e	-0.30449146
120	0xbe5a57cc	-0.21322554
121	0x3e34b28c	0.17646235
122	0xbdc66bb1	-0.09688509
123	0xbe9f1820	-0.31073093
124	0xbdc6c4e6	-0.09705524
125	0x3da75701	0.081708916
126	0x3dcb4e9e	0.099271044
127	0xbe61bf4d	-0.22045632
128	0xbd81343a	-0.063087896
129	0x3dd620e3	0.104554914
130	0x3da2d06d	0.0794991
131	0xbd815f69	-0.06317026
132	0x3e0e1b2d	0.13877554
133	0x3d14111a	0.03614912
134	0x3e18bace	0.1491501
135	0x3de5daa0	0.1122334
136	0xbe55a785	-0.20864685
137	0x3d4edb6a	0.05050222
138	0x3df81a6c	0.121144146
139	0xbdbf6e7b	-0.09347244
140	0x3e1ed380	0.15510368
141	0xbe5ba5a4	-0.21449906
142	0xbcf748dc	-0.03018611
143	0xbe7e8663	-0.24855952
144	0xbe6ae84c	-0.22940177
145	0xbd556c4c	-0.052105233
146	0xbeaa51c4	-0.33265507
147	0xbe326009	-0.17419447
148	0xbdacf438	-0.084450185
149	0x3cb2741b	0.021783879
150	0xbe06e577	-0.13173471
151	0x3ccb9207	0.024849905
152	0x3e5099a3	0.20371108
153	0xbc692fe1	-0.014232607
154	0xbd751ea9	-0.059843693
155	0xbdc09608	-0.09403616
156	0x3e24a2f5	0.16077788
157	0x3e0ca9ff	0.13736723
158	0xbe40228b	-0.18763177
159	0x3d59bc5a	0.05315814
160	0xbe94427e	-0.2895698
161	0xbe6d70e1	-0.23187591
162	0x3e3eb6f5	0.1862448
163	0x3c869b0e	0.016431358
164	0xbd43e6f6	-0.047827683
165	0xbd89cae4	-0.067281514
166	0x3e840c21	0.25790504
167	0x3b8da234	0.0043223146
168	0xbe92d7e9	-0.2868035
169	0xbd6dcb42	-0.05805517
170	0xbe2ceadb	-0.16886465
171	0xbd0bee6a	-0.034162916
172	0xbdd93837	-0.10606425
173	0xbe50edcd	-0.20403214
174	0xbdcab533	-0.09897842
175	0x3e01a50d	0.12660618
176	0x3e344038	0.17602623
177	0xbe828e11	-0.25499013
178	0xbd461452	-0.048359223
179	0xbccb4582	-0.024813417
180	0xbe12ac81	-0.14323618
181	0x3d643535	0.055714805
182	0x3e2366fd	0.15957256
183	0x3e2f03f1	0.17091347
184	0xbc2e1d4c	-0.010627102
185	0x3e89536e	0.26821464
186	0x3c839603	0.016062742
187	0x3d426251	0.047457043
188	0xbdf37756	-0.11887996
189	0xbddf5567	-0.10904961
190	0xbe0d8264	-0.13819271
191	0x3ddeaefd	0.1087322
192	0x3cf906af	0.030398695
193	0xbea38ea3	-0.3194476
194	0xbea6a257	-0.3254573
195	0x3e398e94	0.18120795
196	0x3e26c6c1	0.16286756
197	0xbe8736cd	-0.26408997
198	0xbea8f379	-0.32998255
199	0xbd62ef78	-0.055404156
200	0xbe0cbb13	-0.13743238
201	0x3c1fe00e	0.009758009
202	0xbc47432a	-0.012162009
203	0xbd418ba4	-0.047252312
204	0xbe8c4362	-0.2739516
205	0xbd0d2834	-0.03446217
206	0x3f1e848d	0.61921006
207	0x3d9b6790	0.07588112
208	0xbd84998b	-0.064745985
209	0xbdbc4d56	-0.09194438
210	0xbdb76e0a	-0.08956535
211	0x3e55ada5	0.20867021
212	0xbdb394de	-0.087686285
213	0x3df97bc4	0.121818095
214	0xbe6c78bb	-0.2309293
215	0xbd86ae37	-0.065761976
216	0xbe8bd520	-0.2731104
217	0x3e494d28	0.19658339
218	0xbe1d3d8b	-0.15355508
219	0xbe43d9f8	-0.19126117
220	0x3d8b03e7	0.06787854
221	0xbd3c0df8	-0.04591176
222	0x3e123c95	0.14280923
223	0x3d6b32da	0.057421543
224	0x3e292b7b	0.16520493
225	0xbe299f83	-0.16564755
226	0xbe75438c	-0.23951548
227	0xbe3e058f	-0.18556808
228	0x3ddaf8df	0.10692
229	0x3e4cc004	0.19995123
230	0xbcde127c	-0.027108423
231	0x3db39180	0.08767986
232	0x3c0ad635	0.0084739225
233	0x3e57c624	0.21071678
234	0x3dc07490	0.093972325
235	0xbe2852b8	-0.16437805
236	0x3e42e6ca	0.19033352
237	0x3e5daf98	0.21649015
238	0x3da7dfb7	0.08196967
239	0x3d9cf35c	0.076636046
240	0xbcee81f1	-0.029114695
241	0x3f3b2f7b	0.73119324
242	0xbd81675b	-0.063185416
243	0xbe6039f8	-0.21897113
244	0x3f01f7db	0.5076882
245	0x3ef77183	0.4832879
246	0xbd1d9424	-0.038471356
247	0xbd9af935	-0.07567064
248	0x3e250007	0.16113292
249	0xbd3ba410	-0.04581076
250	0xbe2bd7ea	-0.16781583
251	0xbe4efb53	-0.2021306
252	0x3db27470	0.08713615
253	0xbdeddf05	-0.11614803
254	0xbd448e1f	-0.0479871
255	0x3e540b2c	0.20707387

target_model.2.bias f4 [16]
0	0x3d0bfaf6	0.034174882
1	0xbc412e88	-0.011790879
2	0x3cbb92c0	0.022897124
3	0x3c12b011	0.00895311
4	0x3c4cf699	0.012509965
5	0x3be02e01	0.0068414216
6	0xbd3521c0	-0.04422164
7	0x3d79d7a4	0.060996667
8	0x3cf8fded	0.030394519
9	0xbe162738	-0.14663398
10	0x3d986baf	0.07442414
11	0xbdef4abc	-0.11684176
12	0x3df584d8	0.119882286
13	0xbe0a00cf	-0.13476871
14	0x3b5a53e0	0.0033314154
15	0xbc26f539	-0.010190302
