Pytorch_DRL/HNRN/models/best_ca_critic.model (torch_old, 225090 bytes, 9 tensors)

sensor_model.0.weight f4 [128, 360]
-0.009446289 -0.082406595 -0.07619334 0.0025504632 0.031137839 -0.0027992406 -0.0133974 0.028285855
-0.022958372 0.02726136 -0.036330394 -0.020267606 -0.015624567 -0.09333131 0.0804447 0.06665067
0.08909553 0.045120176 -0.036555916 -0.047022715 -0.044304363 -0.046967626 0.079010576 -0.025040152
0.033383735 -0.08690603 -0.022114128 -0.09976138 0.062169913 -0.02976541 0.051452126 0.088266134
0.078445256 -0.038767982 -0.08359901 -0.026019298 0.028548226 0.0022738504 0.005229707 0.019867556
-0.029943697 0.058497697 -0.0333122 -0.04299983 0.03686689 0.005849671 -0.004718723 -0.07060326
-0.061629403 -0.058850106 0.097937375 -0.05983508 -0.038374282 0.08978235 -0.0003738402 0.05212455
-0.056783076 0.05419498 -0.0002672423 0.06725077 -0.07547748 0.045305975 -0.0907771 0.07215561
-0.050587304 -0.023607671 0.08392817 -0.07111907 -0.07409873 -0.01727668 0.06811156 -0.003162836
0.057169907 -0.067601375 0.04564157 0.0044192555 0.10421027 -0.04680029 -0.05329686 0.010528654
0.04341629 -0.0292528 -0.037295148 -0.0891181 -0.0614471 -0.0167296 0.06999449 0.06137522
0.08458463 0.031150911 0.023045298 0.03967859 -0.025046285 -0.02850922 0.027855825 -0.038481615
0.045043733 0.075466394 0.04270583 -0.10197644 0.018318098 -0.037397113 -0.041512106 0.055105902
0.028922645 0.029335754 0.015522257 -0.07868295 -0.13226677 0.071088545 0.051926762 -0.033517443
0.017680384 0.015686564 -0.02937174 0.01518774 -0.0141165275 0.103299774 -0.050759494 0.038422246
0.03813571 -0.09484289 -0.023331117 0.07631782 -0.06346962 -0.04408578 0.04447052 -0.00030244736
0.07203262 0.036880568 0.027426545 -0.07770727 0.04900595 -0.026506988 -0.044779655 -0.11442072
0.11438232 -0.0068025114 0.06401263 -0.111126535 -0.033735506 0.096856795 0.024846323 -0.028240163
0.052367043 -0.035838135 0.015599125 -0.07193808 0.053076778 -0.043878555 -0.07250069 0.016696842
-0.01724583 -0.034666605 0.10102935 -0.0700506 0.08451212 -0.083426595 -0.010188915 0.06445418
0.0036042607 -0.078609005 -0.01777552 -0.024860654 0.024783125 0.06368949 0.09233709 0.04792027
-0.06006484 -0.026802842 0.035614654 -0.023339787 -0.06349951 0.06996201 0.014481096 -0.10533156
0.06775459 -0.036852695 0.023151547 0.096739076 -0.047812376 0.006066037 0.02180216 0.026144084
-0.046962775 -0.07939027 0.03442658 -0.004427224 -0.027152931 -0.087180726 0.010899512 0.055382345
0.03487742 -0.06971832 0.04425923 0.017774548 0.061718 -0.043080367 0.025315711 -0.057474136
0.0826488 -0.06725559 0.05703394 0.00013265396 -0.067037866 -0.09035599 0.04498082 -0.07013036
-0.028494598 0.041120227 0.06860774 0.094103485 -0.008277194 0.09027903 -0.029096095 -0.109279275
0.006083241 -0.032596886 -0.053224526 0.080620155 -0.05468549 0.041158084 0.0072001726 -0.039545234
-0.02458711 0.09583594 -0.068470925 0.07834505 -0.018061787 0.034129806 0.057339553 -0.099158086
0.06363647 0.00012144856 -0.006568454 -0.017849956 -0.038946606 0.062406518 0.07411625 -0.046182048
0.027529402 0.025328608 -0.06175007 -0.052750748 -0.038415175 -0.07107387 0.0037834488 -0.053587556
0.10165256 0.014906141 0.027809732 0.009492958 0.09020074 -0.052302253 0.021666532 -0.07366436
00000000: 9cc4 1abc cac4 a8bd 410b 9cbd ac25 273b
00000010: c814 ff3c 7773 37bb c580 5bbc bdb7 e73c
00000020: 3213 bcbc 3753 df3c 2ecf 14bd 4008 a6bc
00000030: 2ffe 7fbc 7c24 bfbd 31c0 a43d 2580 883d
00000040: b877 b63d efcf 383d a8bb 15bd e49a 40bd
00000050: 7e78 35bd 2061 40bd 4cd0 a13d 0121 cdbc
00000060: 62bd 083d cafb b1bd b028 b5bc b24f ccbd
00000070: e1a5 7e3d 97d6 f3bc 77bf 523d e0c4 b43d
00000080: e8a7 a03d 2dcb 1ebd f535 abbd 6c26 d5bc
00000090: f8dd e93c e104 153b f65d ab3b 49c1 a23c
000000a0: 7c4c f5bc 489b 6f3d 6072 08bd 9720 30bd
000000b0: bc01 173d 99ae bf3b 849f 9abb 7198 90bd
000000c0: 1d6f 7cbd cf0c 71bd 6493 c83d a115 75bd
000000d0: 5a2e 1dbd cfdf b73d fbff c3b9 8d80 553d
000000e0: 5f95 68bd 8efb 5d3d a81c 8cb9 c6ba 893d
000000f0: f093 9abd c292 393d 58e9 b9bd 52c6 933d
00000100: a234 4fbd e064 c1bc 88e2 ab3d e0a6 91bd
00000110: 13c1 97bd d387 8dbc 137e 8b3d 9547 4fbb
00000120: fe2a 6a3d 9772 8abd a8f2 3a3d 67cf 903b
00000130: 326c d53d a9b1 3fbd cf4d 5abd 6080 2c3c
00000140: 48d5 313d 91a3 efbc ccc2 18bd 8d83 b6bd
00000150: f4af 7bbd 840c 89bc 4559 8f3d 9564 7b3d
00000160: b53a ad3d 3230 ff3c 7ec9 bc3c 0486 223d
00000170: de2d cdbc 2b8c e9bc e631 e43c e69e 1dbd
00000180: c77f 383d 208e 9a3d 4fec 2e3d 06d9 d0bd
00000190: d60f 963c b72d 19bd 9908 2abd bab6 613d
000001a0: 2fef ec3c 8951 f03c 1151 7e3c 8724 a1bd
000001b0: f170 07be df96 913d 28b1 543d 9649 09bd
000001c0: 74d6 903c 1c81 803c 019d f0bc 00d6 783c
000001d0: 0249 67bc d58e d33d 30e9 4fbd a560 1d3d
000001e0: 3134 1c3d fd3c c2bd e620 bfbc 844c 9c3d
000001f0: 5cfc 81bd 4a93 34bd b826 363d cc91 9eb9
00000200: d785 933d 1410 173d a2ad e03c fd24 9fbd
00000210: 77ba 483d 2f25 d9bc df6a 37bd 6955 eabd
00000220: 4741 ea3d 9ae7 debb 0e19 833d 4f96 e3bd
00000230: 3e2e 0abd db5c c63d 848a cb3c ea57 e7bc
00000240: d37e 563d 02cb 12bd 7993 7f3c 4654 93bd
00000250: 0967 593d 00ba 33bd 3e7b 94bd d1c7 883c
00000260: 2047 8dbc 92fe 0dbd 7ae8 ce3d b076 8fbd
00000270: b114 ad3d 90db aabd 68ef 26bc 8e00 843d
00000280: 7635 6c3b c2fd a0bd f89d 91bc 92a8 cbbc
00000290: fb05 cb3c a36f 823d 3a1b bd3d 0c48 443d
000002a0: 8d06 76bd a291 dbbc ace0 113d 1533 bfbc
000002b0: 080c 82bd 3e48 8f3d 1e42 6d3c 13b8 d7bd
000002c0: ebc2 8a3d daf2 16bd 50a8 bd3c 231f c63d
000002d0: e9d6 43bd 9bc5 c63b 729a b23c 1e2c d63c
000002e0: 0a5c 40bd 5e97 a2bd e302 0d3d 3f12 91bb
000002f0: d36f debc cf8b b2bd de93 323c 99d8 623d
00000300: a0db 0e3d 7bc8 8ebd 2b49 353d ee9b 913c
00000310: 03cc 7c3d 0a75 30bd e562 cf3c 006a 6bbd
00000320: c643 a93d 4cbd 89bd 6c9c 693d 0719 0b39
00000330: 264b 89bd 900c b9bd cf3d 383d 82a0 8fbd
00000340: 816d e9bc af6d 283d 3782 8c3d 54b9 c03d
00000350: 119d 07bc 36e4 b83d ef5a eebc d0cd dfbd
00000360: ed55 c73b 5084 05bd f601 5abd 2e1c a53d
00000370: e4fd 5fbd 6195 283d 6def eb3b 2ffa 21bd
00000380: e86a c9bc a245 c43d 7c3a 8cbd 5f73 a03d
00000390: 50f6 93bc b2cb 0b3d e1dc 6a3d 6513 cbbd
000003a0: d653 823d 33b2 fe38 303c d7bb 123a 92bc
000003b0: 7a86 1fbd fa9d 7f3d 43ca 973d 6329 3dbd
000003c0: 5785 e13c f17d cf3c a4ed 7cbd 2b11 58bd
000003d0: 3b59 1dbd 2d8f 91bd bdf3 773b a07e 5bbd
000003e0: 382f d03d e338 743c 3cd1 e33c 5a88 1b3c
000003f0: 2abb b83d e33a 56bd 037e b13c 57dd 96bd

sensor_model.0.bias f4 [128]
0.27879715 -0.10250489 -0.028291512 -0.058839373 -0.02043316 0.06713063 -0.040147446 -0.014571441
-0.08431451 0.026374668 -0.037260395 -0.021965064 -0.018491633 -0.058223665 -0.05579482 -0.042346958
-0.08121918 -0.051843714 0.22522035 -0.027916867 -0.06152796 -0.028953549 -0.08040468 0.042560056
-0.080365166 -0.041591 -0.09077812 0.004534574 -0.073720306 -0.0686728 0.06796308 0.12625547
-0.00080814085 -0.024214283 0.038655203 -0.03380887 -0.057576977 0.048600677 -0.04509268 -0.009314167
0.0103782555 -0.0516871 -0.054933656 -0.042079046 -0.1160313 0.054788176 -0.10719012 -0.040969893
-0.057644386 -0.058171846 -0.0053052343 -0.02545964 -0.038020764 -0.024238495 0.0047140913 0.09047842
-0.047703363 -0.012850789 0.01940352 -0.015946396 -0.047176734 -0.018006466 -0.087087676 -0.0068766065
0.009257035 0.0041014454 -0.043347877 -0.0714771 0.17072394 0.1097396 -0.04982885 -0.058094542
-0.053629965 -0.04391842 0.3098868 0.026372839 0.0015280643 -0.02103053 0.027905019 0.004177133
0.036156073 0.19750813 -0.07567947 -0.087071754 -0.058368295 -0.0009832814 -0.03519026 0.118713
-0.029313978 -0.000586233 -0.07201712 -0.05283635 0.14767012 -0.060046334 -0.06670789 -0.06207909
-0.007774383 0.043502543 -0.042039607 -0.08967831 0.20959882 -0.0668783 -0.04692342 -0.06558079
0.04646681 -0.1151408 0.07935029 -0.03503551 0.023646105 0.020908872 -0.062826894 0.045751337
-0.09056519 0.21470651 0.008688392 0.18557245 0.085452 -0.020267257 -0.026123933 0.09533741
-0.054390214 -0.057753313 -0.022210497 -0.06755608 -0.07277605 -0.028106946 0.34009966 -0.0021609864
00000000: 80be 8e3e 15ee d1bd 9ac3 e7bc 8e01 71bd
00000010: 7163 a7bc c97b 893d a671 24bd 0ebd 6ebc
00000020: 16ad acbd b00f d83c 5b9e 18bd 14f0 b3bc
00000030: c47b 97bc f07b 6ebd 1c89 64bd 0174 2dbd
00000040: 3e56 a6bd 135a 54bd 2aa0 663e eab1 e4bc
00000050: be04 7cbd fe2f edbc 35ab a4bd 7453 2e3d
00000060: 7e96 a4bd 535b 2abd e1e9 b9bd c496 943b
00000070: acfa 96bd 53a4 8cbd 3a30 8b3d 1d49 013e
00000080: 6ad9 53ba 085d c6bc eb54 1e3d 2b7b 0abd
00000090: d6d5 6bbd 8111 473d 1ab3 38bd 739a 18bc
000000a0: 8f09 2a3c dab5 53bd 1d02 61bd 145b 2cbd
000000b0: d1a1 edbd 9169 603d 7e86 dbbd 0cd0 27bd
000000c0: 851c 6cbd 9a45 6ebd 88d7 adbb bc90 d0bc
000000d0: a9bb 1bbd cf8f c6bc aa78 9a3b c04c b93d
000000e0: 9a64 43bd 1e8c 52bc 21f4 9e3c 04a2 82bc
000000f0: 643c 41bd 4c82 93bc 065b b2bd 2855 e1bb
00000100: d2aa 173c 6b65 863b 8b8d 31bd 9662 92bd
00000110: 42d2 2e3e 28bf e03d 5619 4cbd 8bf4 6dbd
00000120: 18ab 5bbd cde3 33bd 7ca9 9e3e da0b d83c
00000130: 5449 c83a 3848 acbc 1199 e43c 55e0 883b
00000140: 6418 143d 923f 4a3e d7fd 9abd ad52 b2bd
00000150: 9813 6fbd 73e1 80ba a923 10bd cd1f f33d
00000160: de23 f0bc 6ead 19ba b67d 93bd ee6a 58bd
00000170: d636 173e 25f3 75bd 259e 88bd a546 7ebd
00000180: 40c0 febb b92f 323d b931 2cbd 43a9 b7bd
00000190: 13a1 563e 7df7 88bd c632 40bd 394f 86bd
000001a0: fb53 3e3d f1ce ebbd 6882 a23d 6581 0fbd
000001b0: 7ab5 c13c 1549 ab3c 63ab 80bd c165 3b3d
000001c0: 3e7a b9bd 06dc 5b3e c259 0e3c b406 3e3e
000001d0: 7501 af3d 8507 a6bc dc01 d6bc 4340 c33d
000001e0: 46c8 5ebd bd8e 6cbd caf2 b5bc d85a 8abd
000001f0: 9c0b 95bd 8a40 e6bc 8b21 ae3e 569f 0dbb

sensor_model.2.weight f4 [64, 128]
-0.17646606 -0.017606841 0.18688214 -0.16146353 -0.077923596 0.0040188907 0.107701264 0.044262145
0.08729641 0.05912072 0.1727046 0.076133616 -0.067097165 -0.039272998 -0.04739545 -0.035814065
0.09464902 0.008075502 0.14002049 0.080145076 -0.006269896 -0.084917866 -0.11873149 -0.04380965
0.13658763 -0.056364734 0.03577867 0.011529235 -0.15630978 0.063919626 -0.044632446 0.035214633
-0.17186321 -0.17877153 0.017250547 -0.11978814 0.0495574 0.0662112 -0.15027486 -0.10105125
0.005598542 0.13933615 0.10295442 0.066547506 0.011450541 -0.11265229 -0.077695444 0.05620682
-0.15375625 -0.10301291 -0.17236444 -0.17239873 -0.16120607 -0.09234202 0.14470147 0.11522019
-0.13740063 -0.100500464 -0.029697102 0.045906425 -0.08394041 -0.11330322 0.09543594 -0.12015506
0.12633757 -0.1509062 -0.014083022 0.0378977 0.017906351 0.1319392 0.15236188 0.043841265
-0.012740975 -0.055610582 0.027270531 0.013728774 -0.039057232 0.052381426 0.094287045 -0.13717523
-0.182386 -0.12709114 -0.16553912 0.042729724 0.05449778 0.007762996 0.084972925 0.15110373
-0.08653503 0.0485852 0.09779172 0.17847535 0.11488309 0.058971673 -0.023776675 0.045317177
-0.084195115 -0.08270565 -0.07601995 -0.03747948 0.12641296 -0.096799284 -0.05344982 0.13016246
0.106146276 -0.12721312 -0.1271713 -0.0392432 0.14001074 -0.03157564 0.023066113 0.00976191
-0.05859459 -0.15190321 0.044475105 -0.021531425 0.13701285 0.014065486 0.07626953 -0.098782
0.010834138 0.014215278 -0.108393736 0.116372064 -0.09512886 0.2094729 0.07387134 0.07435725
0.085752204 -0.05073592 0.14299476 0.15691742 -0.055471763 -0.07007137 0.07044596 0.028974805
-0.059385978 0.032309096 0.14147565 -0.08145397 -0.0031446198 0.08586404 0.03168415 -0.057461932
0.08598875 0.07425332 0.18803602 -0.07647049 -0.039322786 -0.027999492 -0.06526183 0.08998253
0.06345588 0.09441224 -0.036050297 0.096527435 -0.084066376 -0.05876697 -0.097269826 0.13167125
-0.03492969 0.0988468 0.09804444 -0.013600661 0.07407981 0.07040724 -0.111827515 0.06021148
0.10222455 -0.04080624 -0.039914764 -0.059309818 0.054922365 0.084890306 0.02565809 -0.010626496
-0.010789844 0.10293625 0.029065266 -0.10736459 -0.024821484 -0.12688875 0.14136246 0.0050685387
-0.063311785 -0.109615535 -0.03798878 -0.027529748 -0.012674565 0.0032250658 0.09545424 0.07514328
0.1409357 -0.12712458 -0.02624252 -0.006298335 0.14553477 -0.0035568008 0.052849952 -0.0370049
0.07877901 0.12641321 0.13819785 0.00089849764 0.15984975 0.09169446 0.120530635 0.17829296
-0.084684506 0.119400196 -0.005902541 0.013579265 -0.0738001 0.13115259 0.002155105 0.15709995
0.15796685 -0.038238913 -0.0860474 0.08667994 0.3766902 -0.0861694 0.08356893 -0.15104243
0.09877042 -0.12115583 -0.031801462 0.0225578 0.11811947 0.1644958 0.14161097 0.044890933
0.13789494 0.07550758 -0.030363437 -0.017955368 0.06829578 0.0031112402 -0.059367355 0.056746677
-0.0005384708 0.15773018 0.13525039 0.3472975 0.13566516 -0.08360899 0.1606475 0.11274816
0.061204113 -0.15383048 -0.08114308 0.031730164 -0.07877942 0.24659555 0.17991294 0.14814605
00000000: 85b3 34be 393c 90bc 085e 3f3e b256 25be
00000010: 6896 9fbd e6b0 833b 7b92 dc3d 394c 353d
00000020: 76c8 b23d 9128 723d 7ad9 303e f1eb 9b3d
00000030: 3d6a 89bd b9dc 20bd bb21 42bd c5b1 12bd
00000040: 58d7 c13d 1c4f 043c 8861 0f3e 1a23 a43d
00000050: b373 cdbb 6be9 adbd 7f29 f3bd bf71 33bd
00000060: a1dd 0b3e b5de 66bd a88c 123d 1ee5 3c3c
00000070: ac0f 20be 4be8 823d 83d0 36bd 383d 103d
00000080: e9fc 2fbe e20f 37be 0551 8d3c 7c53 f5bd
00000090: b3fc 4a3d bd99 873d a7e1 19be f5f3 cebd
000000a0: f973 b73b 23ae 0e3e c4d9 d23d 0f4a 883d
000000b0: 0d9b 3b3c 3eb6 e6bd ca1e 9fbd 1f39 663d
000000c0: 4772 1dbe 6ff8 d2bd 4e80 30be 4b89 30be
000000d0: 3413 25be d01d bdbd 9f2c 143e 90f8 eb3d
000000e0: c0b2 0cbe 30d3 cdbd 5647 f3bc 6008 3c3d
000000f0: f3e8 abbd 850b e8bd eb73 c33d db13 f6bd
00000100: a35e 013e 2887 1abe 7abc 66bc 9e3a 1b3d
00000110: 57b0 923c 121b 073e c104 1c3e e692 333d
00000120: 86bf 50bc ecc7 63bd 7366 df3c a7ee 603c
00000130: 7afa 1fbd e88d 563d 9119 c13d aa77 0cbe
00000140: 65c3 3abe 2e24 02be 1683 29be 5d05 2f3d
00000150: 1039 5f3d bb60 fe3b 4906 ae3d f0ba 1a3e
00000160: 4739 b1bd 4601 473d 0647 c83d 3ec2 363e
00000170: d347 eb3d 488c 713d 4dc7 c2bc 819e 393d
00000180: 7d6e acbd 9461 a9bd 59b0 9bbd 1584 19bd
00000190: 6672 013e b43e c6bd 33ee 5abd 4f49 053e
000001a0: 3863 d93d 2844 02be 3139 02be 7abd 20bd
000001b0: fa5e 0f3e 7555 01bd 25f5 bc3c 6bf0 1f3c
000001c0: e100 70bd 848c 1bbe 872b 363d ac62 b0bc
000001d0: 194d 0c3e ed72 663c 3333 9c3d 384e cabd
000001e0: ab81 313c 33e7 683c 89fd ddbd 7a54 ee3d
000001f0: ebd2 c2bd 1080 563e db49 973d 9d48 983d
00000200: da9e af3d 78d0 4fbd 386d 123e f6ae 203e
00000210: 5c36 63bd 9481 8fbd f945 903d 925c ed3c
00000220: b63e 73bd 8b56 043d fede 103e 57d1 a6bd
00000230: f715 4ebb 7cd9 af3d 3dc7 013d 345d 6bbd
00000240: df1a b03d 2012 983d 848c 403e 8f9c 9cbd
00000250: ee10 21bd 315f e5bc ffa7 85bd c348 b83d
00000260: 28f5 813d 345b c13d 7aa9 13bd 2db0 c53d
00000270: fe2a acbd a2b5 70bd 6735 c7bd d4d4 063e
00000280: 6f12 0fbd 3170 ca3d 86cb c83d 4fd5 5ebc
00000290: 28b7 973d ac31 903d d305 e5bd 50a0 763d
000002a0: 1b5b d13d 7224 27bd aa7d 23bd daee 72bd
000002b0: 46f6 603d f8da ad3d ea30 d23c c11a 2ebc
000002c0: e3c7 30bc 3ed0 d23d 481a ee3c f7e1 dbbd
000002d0: 6d56 cbbc 20ef 01be 52c1 103e fc15 a63b
000002e0: 9ca9 81bd 1c7e e0bd 1f9a 1bbd 1186 e1bc
000002f0: fba8 4fbc a05b 533b 837d c33d b8e4 993d
00000300: 7351 103e f22c 02be 8efa d6bc 4362 cebb
00000310: 1107 153e 3719 69bb 3179 583d 7392 17bd
00000320: e456 a13d 7772 013e bd83 0d3e 2889 6b3a
00000330: a7af 233e 4eca bb3d c4d8 f63d 6e92 363e
00000340: 126f adbd 1788 f43d 1a6a c1bb 917b 5e3c
00000350: 8224 97bd dd4c 063e a93c 0d3b cfde 203e
00000360: 10c2 213e 68a0 1cbd 9f39 b0bd 4185 b13d
00000370: 8add c03e 9579 b0bd 3026 ab3d deaa 1abe
00000380: 2548 ca3d 8c20 f8bd 4042 02bd 23cb b83c
00000390: 9fe8 f13d 9671 283e 7702 113e 8edf 373d
000003a0: 5534 0d3e b8a3 9a3d bebc f8bc 2317 93bc
000003b0: a8de 8b3d f3e5 4b3b 2f2b 73bd 346f 683d
000003c0: 2a28 0dba 0584 213e 147f 0a3e fad0 b13e
000003d0: cfeb 0a3e 313b abbd c780 243e 82e8 e63d
000003e0: 2ab1 7a3d bd85 1dbe 582e a6bd 7df7 013d
000003f0: 1b57 a1bd 8b83 7c3e 193b 383e 99b3 173e

sensor_model.2.bias f4 [64]
-0.12516835 0.13808404 -0.15020168 -0.027515527 0.26074135 0.03581791 -0.12899773 -0.052208897
-0.12801518 0.10731442 -0.054652233 0.23854162 0.34555164 -0.05353571 0.16698267 0.006145507
-0.10093916 0.06000524 0.3029128 0.09819284 -0.05543825 -0.114662565 0.0552422 0.4795732
-0.01742404 0.029123701 0.25613135 0.010056137 0.011489683 -0.04199513 0.045993052 -0.07942329
-0.05233354 -0.08085866 -0.11348675 0.39077264 -0.062283367 0.1499221 -0.121063404 -0.014780807
0.09435748 0.38269576 -0.112444654 -0.1088535 -0.13250805 0.026365152 0.0077733393 0.044631388
0.41691408 -0.07073769 -0.11757395 -0.10292714 0.2853499 0.5159577 0.49059016 0.5055649
-0.078477256 -0.120570004 0.02946698 -0.027144609 -0.018418122 0.08041117 0.43586498 -0.04588849
00000000: 222c 00be e765 0d3e 78ce 19be 3e68 e1bc
00000010: e47f 853e cdb5 123d fb17 04be ffd8 55bd
00000020: 6916 03be aac7 db3d 05db 5fbd 4144 743e
00000030: 25ec b03e 4348 5bbd 81fd 2a3e 4060 c93b
00000040: 31b9 cebd 0ec8 753d 6317 9b3e 5419 c93d
00000050: 3813 63bd 35d4 eabd a545 623d 9e8a f53e
00000060: dcbc 8ebc d494 ee3c a623 833e 7fc2 243c
00000070: 393f 3c3c 1603 2cbd 3663 3c3d aea8 a2bd
00000080: b25b 56bd 3a99 a5bd be6b e8bd 5a13 c83e
00000090: d81c 7fbd 2e85 193e 17f0 f7bd 332b 72bc
000000a0: 7f3e c13d b3f0 c33e 6249 e6bd 95ee debd
000000b0: 31b0 07be bbfb d73c 7fb7 fe3b 67cf 363d
000000c0: c375 d53e ecde 90bd 9cca f0bd 77cb d2bd
000000d0: 6219 923e ce15 043f a22e fb3e b46c 013f
000000e0: afb8 a0bd 68ed f6bd bc64 f13c 5f5e debc
000000f0: 9ae1 96bc 9dae a43d b229 df3e 92f5 3bbd

target_model.0.weight f4 [16, 66]
0.10831015 -0.20292626 -0.14333622 -0.011666807 0.09302666 -0.14633636 0.11043505 -0.11390685
-0.122353986 -0.23753193 0.16908513 0.2750308 -0.33034614 -0.107586555 0.2630678 -0.0598316
0.14042272 0.120316096 -0.084791854 -0.31273708 -0.15729612 -0.17199703 0.17612477 -0.24107963
-0.082161546 -0.27984706 0.22656758 0.045317467 0.07494106 -0.12127865 0.08458417 0.26122826
-0.029838441 0.1457765 0.24987884 0.079185516 0.15059283 0.24347442 -0.048858177 0.1272858
0.16779026 -0.34849864 0.05339198 -0.1422706 0.051453635 -0.18920255 0.14358574 -0.27666548
-0.22991927 0.2169129 -0.11247898 -0.15291436 0.08506338 -0.07696903 -0.18605623 -0.361836
0.05641431 -0.13965805 0.2673969 -0.10008011 0.115199976 -0.075566985 0.017652705 -0.09482654
0.07246203 -0.0074407994 -0.097052455 -0.012187004 -0.14951602 -0.26138473 -0.25656074 0.036114633
0.09185392 0.20027086 -0.10661864 0.039530516 0.12695631 -0.0041679144 -0.11862085 -0.2668148
-0.22446498 0.029477453 0.1962871 0.16859643 -0.06848808 0.22867462 0.03244111 0.23945236
-0.022246305 -0.268906 -0.10316624 -0.0627152 -0.07754184 -0.17953418 -0.03450196 -0.16136989
0.15582551 -0.11799511 -0.12853786 -0.036899894 0.18315673 0.16872254 0.17247868 -0.14537041
-0.06900278 0.19890705 -0.22214302 -0.030825494 0.110562205 0.26772815 -0.05811672 -0.055363055
-0.050140202 -0.22086044 -0.20453599 -0.045693085 0.12239444 -0.23475818 0.020636737 -0.053972214
0.011281601 -0.2048967 0.13651407 0.028747857 0.05639379 0.18254903 -0.16254726 -0.10262441
-0.14011137 0.15119776 -0.048158802 0.061303474 -0.13499993 0.2146085 0.16419615 -0.07788971
0.035346318 0.06831912 -0.19596161 -0.058880616 0.1044237 0.2547044 0.18940552 0.2137516
0.070874676 0.18432291 0.12393157 -0.16890763 0.11728828 -0.25326395 -0.1518356 -0.19646898
-0.24593678 0.08987178 -0.013589372 -0.0764791 0.073398955 -0.0992175 0.12967823 0.028473292
0.0578347 0.057631426 0.16116975 -0.09157702 -0.071935244 0.15794778 -0.011575969 0.1884153
-0.0054888553 -0.18387967 0.14183311 -0.012458239 0.15960142 0.29898065 0.11554925 0.049151406
-0.06436754 0.053287726 0.0020284064 0.004057862 -0.14710493 0.1860646 0.03421739 -0.23406719
0.014174361 0.06805555 -0.14091164 -0.12228665 -0.02178733 0.13698746 0.25485414 -0.02130784
0.11681892 0.23860109 0.19851546 0.010357603 -0.89976686 -0.058698177 -0.1383855 0.010216357
-0.08766647 0.183034 0.21287268 0.017872969 0.13309148 0.008779993 0.052934296 0.04259499
-0.14148627 -0.15399466 -0.15920216 0.12819123 0.022138564 0.118017346 -0.057265826 0.105264865
0.08101321 0.21460491 -0.2206479 -0.037375085 0.21214159 -0.061314423 -0.27294824 -0.050473336
0.36391515 0.15355155 0.16690256 -0.06663285 -0.20130724 0.04148442 0.047744133 -0.19444019
-0.09826379 0.0371162 -0.25089377 -0.018713282 -0.1813476 0.14728928 -0.1575325 0.25858143
0.055611912 0.008648856 -0.17614026 0.20167513 -0.05532826 0.20253937 0.15715869 -0.0010661543
-0.038106132 -0.20534568 -0.080808416 0.22681753 0.049172446 0.19969723 -0.1770024 -0.08495455
00000000: b6d1 dd3d e7cb 4fbe bbc6 12be 2326 3fbc
00000010: c384 be3d 33d9 15be c62b e23d ff47 e9bd
00000020: ba94 fabd 923b 73be a724 2d3e d6d0 8c3e
00000030: 2123 a9be 5756 dcbd d3b0 863e fb11 75bd
00000040: f9ca 0f3e 4968 f63d 5aa7 adbd 131f a0be
00000050: 3c12 21be fd1f 30be 0d5a 343e 94dd 76be
00000060: 5044 a8bd 1d48 8fbe 5501 683e cf9e 393d
00000070: b37a 993d f160 f8bd 773a ad3d b6bf 853e
00000080: bf6f f4bc 6f46 153e 3de0 7f3e 042c a23d
00000090: 0235 1a3e 5c51 793e 831f 48bd 3557 023e
000000a0: 36d1 2b3e 6a6e b2be 8cb1 5a3d 62af 11be
000000b0: 0cc1 523d 50be 41be 2408 133e 19a7 8dbe
000000c0: f56f 6bbe 6a1e 5e3e 615b e6bd 9595 1cbe
000000d0: b635 ae3d f0a1 9dbd 8685 3ebe 9142 b9be
000000e0: b112 673d 8502 0fbe 3fe8 883e cdf6 ccbd
000000f0: f7ed eb3d ddc2 9abd 689c 903c 6b34 c2bd
00000100: f966 943d f3d1 f3bb 70c3 c6bd 00ac 47bc
00000110: ba1a 19be 38d4 85be ee5b 83be f0ec 133d
00000120: e81d bc3d ce13 4d3e e05a dabd c0ea 213d
00000130: d600 023e 0093 88bb 7def f2bd f39b 88be
00000140: 26da 65be b37a f13c 7cff 483e 8ba4 2c3e
00000150: 7a43 8cbd ae29 6a3e f8e0 043d 0033 753e
00000160: e23d b6bc 0cae 89be d248 d3bd d470 80bd
00000170: 42ce 9ebd cfd7 37be ed51 0dbd 263e 25be
00000180: b990 1f3e 6ca7 f1bd 6e9f 03be 5824 17bd
00000190: 708d 3b3e 9ac5 2c3e 409e 303e fbdb 14be
000001a0: 5451 8dbd 4aae 4b3e 7679 63be bf85 fcbc
000001b0: 706e e23d aa13 893e cc0b 6ebd 5fc4 62bd
000001c0: d05f 4dbd 3d29 62be e271 51be ac28 3bbd
000001d0: f0a9 fa3d 7364 70be 600e a93c f811 5dbd
000001e0: 77d6 383c 71d0 51be 58ca 0b3e a080 eb3c
000001f0: 2dfd 663d 22ee 3a3e ca72 26be bf2c d2bd
00000200: 5b79 0fbe 96d3 1a3e 2a42 45bd 5a19 7b3d
00000210: 6c3d 0abe 55c2 5b3e 0923 283e a484 9fbd
00000220: 4dc7 103d e5ea 8b3d 29aa 48be cd2c 71bd
00000230: 18dc d53d 9d68 823e 85f3 413e b3e1 5a3e
00000240: be26 913d 25bf 3c3e d6cf fd3d 1ff6 2cbe
00000250: d634 f03d d0ab 81be cb7a 1bbe 2a2f 49be
00000260: dad6 7bbe b20e b83d f5a5 5ebc 13a1 9cbd
00000270: 3152 963d 8b32 cbbd 5fca 043e d240 e93c
00000280: 14e4 6c3d ee0e 6c3d af09 253e bc8c bbbd
00000290: c952 93bd 10bd 213e 22a9 3dbc f1ef 403e
000002a0: dbdb b3bb f44a 3cbe b33c 113e a41d 4cbc
000002b0: 8e6e 233e fe13 993e 16a5 ec3d fc52 493d
000002c0: 21d3 83bd 3b44 5a3d 03ef 043b d0f7 843b
000002d0: ada2 16be b887 3e3e 8927 0c3d 4faf 6fbe
000002e0: 943b 683c b560 8b3d 244b 10be 6c71 fabd
000002f0: 587b b2bc 7146 0c3e 3e7c 823e c78d aebc
00000300: c23e ef3d d853 743e a347 4b3e f0b2 293c
00000310: 1f57 66bf 806d 70bd eeb4 0dbe 8262 273c
00000320: 7a8a b3bd 446d 3b3e 4cfb 593e 556a 923c
00000330: 2249 083e f6d9 0f3c a2d1 583d 1678 2e3d
00000340: c7e1 10be c7b0 1dbe e405 23be 9044 033e
00000350: ef5b b53c 14b3 f13d 928f 6abd 1b95 d73d
00000360: 41ea a53d 64c1 5b3e 86f1 61be 9e16 19bd
00000370: a53b 593e d524 7bbd dfbf 8bbe 21bd 4ebd
00000380: 1653 ba3e 9e3c 1d3e 81e8 2a3e ce76 88bd
00000390: 7c23 4ebe 91eb 293d 5a8f 433d 541b 47be
000003a0: 873e c9bd 2807 183d 2675 80be 994c 99bc
000003b0: 2fb3 39be 00d3 163e 3350 21be c964 843e
000003c0: 51c9 633d eeb3 0d3c 1d5e 34be ed83 4e3e
000003d0: e39f 62bd 7b66 4f3e 35ee 203e 34be 8bba
000003e0: 2d15 1cbd 2346 52be e27e a5bd db42 683e
000003f0: 0c69 493d 6e7d 4c3e 1e40 35be a7fc adbd

target_model.0.bias f4 [16]
-0.041674893 -0.0636123 0.48154306 0.04270831 0.025111683 -0.040533826 -0.0064465026 0.2912234
0.539095 -0.27317482 -0.037711002 -0.30436447 -0.3354426 -0.13789175 0.67861897 0.050603773
00000000: 4bb3 2abd 2a47 82bd d08c f63e e9ee 2e3d
00000010: 04b7 cd3c cc06 26bd 2f3d d3bb 3c1b 953e
00000020: 2102 0a3f 92dd 8bbe da76 1abd a9d5 9bbe
00000030: 22bf abbe 7f33 0dbe f9b9 2d3f e745 4f3d

state_model.0.weight f4 [16, 18]
0.22322875 0.030821338 0.5104696 -0.07229078 0.054573346 0.15116245 -0.33693954 0.4874213
0.026123667 0.057894327 0.08896159 -0.1376387 0.22918665 0.32288563 -0.08614303 0.081083134
-0.42024145 0.15343608 0.24903645 0.22677636 -0.3657736 0.2668686 -0.27519095 0.4656305
0.34448308 -0.15140136 0.27864903 0.16578871 -0.18611021 0.21156648 0.41597566 0.058902185
0.30496362 -0.049236175 0.4805582 0.22326985 0.41506556 -0.34965986 0.19139194 -0.039365157
-0.16049401 0.12621112 -0.20369184 -0.093998075 -0.37600106 -0.16308983 -0.21598105 0.057097584
0.03544006 0.21208265 -0.560935 -0.19881265 -0.18247648 -0.012165469 0.043336257 0.0476182
0.27488476 -0.38340935 -0.12539637 0.2646564 -0.14284584 -0.096660025 0.47014436 -0.2985768
0.2506374 -0.202684 -0.11575578 -0.14574373 0.58679426 -0.104954384 0.19384827 0.1597919
0.083566755 0.18967678 -0.13331234 -0.00084969465 0.051302772 0.275917 0.21795979 -0.38873073
-0.08923591 -0.30984023 -0.11840457 -0.25992265 -0.22687903 -0.34636655 -0.15188082 -0.16933443
-0.20009352 -0.01591695 -0.15142809 0.310372 -0.288826 -0.26433113 0.37801155 -0.49766934
-0.29344246 -0.79495776 0.076603755 0.048203208 -0.2099779 0.2135039 0.4226731 0.14281242
0.04760148 -0.030160619 -2.736349 -0.09546595 -0.29772344 0.27099922 -0.30255243 -0.053536355
0.29030517 -0.650349 -0.17233495 -0.4666999 0.10692709 -0.3558537 -0.08723002 0.32926944
-0.04206033 0.007632526 0.043089684 -0.13559194 0.50905514 0.8274906 0.20546246 -0.2059839
-0.40868154 0.28428677 0.12403356 -0.21749274 -0.06951527 -0.029481927 -0.2821564 -0.26319003
0.18951823 0.13845734 0.12984264 0.12790781 -0.3878622 0.023680808 -0.11669084 -0.22951584
0.24050899 -0.13797423 -0.3014331 0.349722 0.07269232 0.19281681 0.30073753 -0.1052983
-0.1905506 -0.13879605 -0.061559487 0.38802543 -0.10347359 -0.34920463 -0.09483335 0.25654292
0.29734266 -0.22434817 -0.18307708 0.11657287 -0.06935157 -0.16881274 -0.086728595 0.32829276
0.117478915 0.26653197 -0.25249934 0.42953625 0.33389956 -0.27433503 0.29110104 -0.17970689
-0.22079541 -0.124390095 -0.00720597 -0.01486582 -0.3581884 0.1846924 0.040658496 0.06424167
-0.13577092 -0.20299229 0.17748322 -0.004219128 -0.13809939 0.54394436 -0.1037751 -0.092416555
-0.037232537 0.2615113 -0.6146386 0.25888944 -0.2767174 -0.14729452 0.14917003 0.104517184
0.1549659 -0.0841587 0.30201486 -0.38238463 0.25660542 0.114935845 -0.12989669 -0.0062880395
0.11763161 -0.054264527 -0.014341902 -0.33909258 -0.14689457 0.23085521 0.06734992 0.22739361
-0.18364151 0.13249463 0.3198962 -0.30485526 -0.44644305 0.12220153 -0.022881052 0.3953603
0.13886343 0.24181622 -0.38541144 0.16966256 -0.22218508 0.08682044 0.18989338 0.10848739
1.3559352 0.2806616 0.16030094 0.10057533 0.1124153 -0.45394418 0.16865782 0.053667605
0.00421265 -0.07431088 -0.07079095 0.1661508 -0.23605844 -0.06569505 -0.29271787 -0.26533303
0.46716726 -0.26628172 0.6538447 0.045127135 -0.2670029 -0.009257466 -0.20278825 0.32210684
00000000: 1496 643e 087d fc3c 23ae 023f 300d 94bd
00000010: 4d88 5f3d 54ca 1a3e 5783 acbe 498f f93e
00000020: 4d01 d63c 9a22 6d3d 7e31 b63d 29f1 0cbe
00000030: e8af 6a3e 4451 a53e c26b b0bd ea0e a63d
00000040: e329 d7be 591e 1d3e 6903 7f3e 1038 683e
00000050: ad46 bbbe 00a3 883e d4e5 8cbe 1f67 ee3e
00000060: 1660 b03e f508 1bbe 16ab 8e3e 84c4 293e
00000070: ad93 3ebe e2a4 583e c3fa d43e 6b43 713d
00000080: 3124 9c3e dfab 49bd b90b f63e daa0 643e
00000090: 7983 d43e 9e06 b3be 40fc 433e 5c3d 21bd
000000a0: 8b58 24be 7d3d 013e 9894 50be 1082 c0bd
000000b0: 3683 c0be 0501 27be 232a 5dbe 28df 693d
000000c0: 9929 113d 322c 593e 7099 0fbf 8b95 4bbe
000000d0: 1ddb 3abe ad51 47bc 5c81 313d 4d0b 433d
000000e0: b2bd 8c3e 3b4e c4be e867 00be 0b81 873e
000000f0: 2e46 12be b1f5 c5bd c3b6 f03e 0fdf 98be
00000100: 8c53 803e 658c 4fbe 5e11 edbd d83d 15be
00000110: 2638 163f 53f2 d6bd 2980 463e 7da0 233e
00000120: 0c25 ab3d a13a 423e 0883 08be 0bbe 5eba
00000130: db22 523d fe44 8d3e da30 5f3e b707 c7be
00000140: 51c1 b6bd 61a3 9ebe 187e f2bd 9514 85be
00000150: fa52 68be f556 b1be a586 1bbe 0166 2dbe
00000160: 51e5 4cbe 4364 82bc f70f 1bbe 14e9 9e3e
00000170: 00e1 93be 6956 87be bb8a c13e 84ce febe
00000180: 173e 96be 5a82 4bbf 6ee2 9c3d ba70 453d
00000190: 7204 57be c4a0 5a3e 9c68 d83e 6b3d 123e
000001a0: c5f9 423d 6713 f7bc 5820 2fc0 a783 c3bd
000001b0: 356f 98be 69c0 8a3e 27e8 9abe f048 5bbd
000001c0: e1a2 943e 467d 26bf 9378 30be 4af3 eebe
000001d0: 97fc da3d 7532 b6be a7a5 b2bd 0196 a83e
000001e0: 7447 2cbd 451a fa3b cf7e 303d 9dd8 0abe
000001f0: 7051 023f 6dd6 533f c064 523e 72ed 52be
00000200: b53e d1be 098e 913e 4f05 fe3d 6bb6 5ebe
00000210: 065e 8ebd 1584 f1bc ce76 90be d8c0 86be
00000220: 1111 423e c3c7 0d3e 78f5 043e 44fa 023e
00000230: e095 c6be 41fe c13c 9bfb eebd 3306 6bbe
00000240: fd47 763e 1e49 0dbe 7055 9abe c30e b33e
00000250: b6df 943d c571 453e 45fa 993e a3a6 d7bd
00000260: b21f 43be 8d20 0ebe cd25 7cbd 45ab c63e
00000270: f6e9 d3bd f3ca b2be fd37 c2bd 9859 833e
00000280: 4c3d 983e 87bb 65be 8f78 3bbe c2bd ee3d
00000290: 3208 8ebd 3fdd 2cbe c39e b1bd fd15 a83e
000002a0: c998 f03d e176 883e 9847 81be 2dec db3e
000002b0: e2f4 aa3e a475 8cbe 320b 953e 1505 38be
000002c0: 3118 62be 3cc0 febd 0f20 ecbb c58f 73bc
000002d0: 7864 b7be 0120 3d3e 8689 263d 2391 833d
000002e0: 8807 0bbe 36dd 4fbe 29be 353e 9c40 8abb
000002f0: ed69 0dbe f03f 0b3f 0a88 d4bd e444 bdbd
00000300: 2581 18bd cfe4 853e f558 1dbf 288d 843e
00000310: e7ad 8dbe 60d4 16be 07c0 183e 1b0d d63d
00000320: 62af 1e3e 665b acbd b1a1 9a3e ebc7 c3be
00000330: c961 833e 7c63 eb3d a303 05be e60b cebb
00000340: d7e8 f03d 7b44 5ebd 4cfa 6abc 8b9d adbe
00000350: 886b 16be 4f65 6c3e c1ee 893d dfd9 683e
00000360: 850c 3cbe acac 073e 6fc9 a33e fd15 9cbe
00000370: 2f94 e4be cc44 fa3d 0b71 bbbc aa6c ca3e
00000380: 3732 0e3e ac9e 773e a654 c5be 06bc 2d3e
00000390: 7c84 63be eace b13d 6973 423e a32e de3d
000003a0: 498f ad3f e1b2 8f3e ee25 243e 70fa cd3d
000003b0: fe39 e63d 5f6b e8be a3b4 2c3e 90d2 5b3d
000003c0: 450a 8a3b 4d30 98bd d8fa 90bd 6f23 2a3e
000003d0: 4eb9 71be 208b 86bd 1edf 95be bbd9 87be
000003e0: 8c30 ef3e 1456 88be 5e62 273f 3bd7 383d
000003f0: 9bb4 88be a0ac 17bc b9a7 4fbe 30eb a43e

state_model.0.bias f4 [16]
-0.5345785 0.7718794 -0.18102804 0.834671 -0.18445708 0.54326814 0.47984985 0.19921708
0.14093465 -0.29438317 0.13249835 -0.27019697 -0.6471511 0.89953774 -0.28243503 0.52795964
00000000: 23da 08bf e399 453f 6a5f 39be 00ad 553f
00000010: 51e2 3cbe 9f13 0b3f e1ae f53e 90ff 4b3e
00000020: 2c51 103e 64b9 96be a6ad 073e 4257 8abe
00000030: b2ab 25bf 1b48 663f 539b 90be 5d28 073f

state_model.2.weight f4 [1, 16]
-0.15568693 0.4155882 -0.54572266 0.6917206 -0.28931865 0.25913617 0.22177619 0.42362636
-0.24020514 -0.14329354 -0.19001661 0.51573735 -0.6426001 0.377312 0.31169435 0.20781367
00000000: 656c 1fbe fac7 d43e 7bb4 0bbf 9a14 313f
00000010: 9321 94be 7fad 843e 4c19 633e 8ee5 d83e
00000020: 56f8 75be 8bbb 12be b793 42be 5d07 043f
00000030: 7181 24bf 0a2f c13e 6796 9f3e 1bcd 543e
