Pytorch_DRL/HNRN/models/best_td_actor.model (torch_old, 10448 bytes, 6 tensors)

state_model.0.weight f4 [64, 2]
0	0xbe8212df	-0.25405023
1	0xbe359ce6	-0.17735633
2	0x3e00015c	0.12500519
3	0x3d2cc190	0.042176783
4	0xbcc07220	-0.023491919
5	0xbd33fde0	-0.043943286
6	0xbe882f54	-0.26598608
7	0x3d1db148	0.038499147
8	0x3dc663d4	0.096870095
9	0xbddf2e98	-0.10897559
10	0x3e4cc0b0	0.1999538
11	0x3e8eea3c	0.27913082
12	0xbd823432	-0.06357612
13	0xbc874e00	-0.016516685
14	0xbe86ca64	-0.26326287
15	0x3e89ea68	0.2693665
16	0xbea90882	-0.33014303
17	0xbe4b86f9	-0.19875707
18	0xbd817b2e	-0.06322323
19	0xbd2df1b8	-0.04246685
20	0x3eeb3394	0.45937788
21	0xbe165b02	-0.14683154
22	0x3e37f538	0.17964637
23	0x3e31f108	0.17377102
24	0xbe090a7c	-0.13382906
25	0xbdd2833c	-0.10278937
26	0xbe450e35	-0.19243701
27	0x3eae6a4d	0.34065476
28	0xbeaca9cc	-0.33723295
29	0xbd571bd3	-0.05251677
30	0x3f025fc9	0.50927407
31	0xbed5eb0d	-0.41780892
32	0xbd8f383e	-0.06993149
33	0x3e8a9c77	0.27072498
34	0xbcf38526	-0.029726576
35	0x3f0e0b66	0.5548614
36	0xbe39c73b	-0.18142407
37	0xbe876658	-0.2644527
38	0x3e25e334	0.16199952
39	0xbd430070	-0.04760784
40	0xbf0b11ca	-0.5432402
41	0x3e0eca5a	0.13944378
42	0xbdd4a324	-0.10382679
43	0x3c0541e0	0.008133382
44	0x3ea8f252	0.32997376
45	0xbeaef41b	-0.34170613
46	0xbceb9f7c	-0.028762572
47	0x3e030ba7	0.12797414
48	0x3e94d298	0.2906692
49	0x3e188e8c	0.14898127
50	0x3eac08a9	0.33600357
51	0x3e44ebb4	0.19230539
52	0x3e97e3b3	0.29665908
53	0xbccc19ce	-0.024914648
54	0x3d719c40	0.058986902
55	0x3b814040	0.003944427
56	0xbe90d4b7	-0.2828729
57	0x3f472e30	0.7780485
58	0xbe3a2b25	-0.18180521
59	0xbd87697a	-0.06611915
60	0x3cb83d90	0.022490293
61	0x3e6961ec	0.2279126
62	0x3e7434c5	0.23848255
63	0x3e3078c9	0.17233576
64	0xbcfa6c38	-0.03056918
65	0xbe9a16cd	-0.3009552
66	0x3f327a67	0.6971802
67	0x3df087b1	0.11744631
68	0x3e4f3644	0.20235544
69	0x3d39fa90	0.04540497
70	0x3ce4dffa	0.027938832
71	0xbe681e57	-0.22667824
72	0xbe3baf72	-0.18328646
73	0xbf191a94	-0.5980618
74	0xbec56cf7	-0.38559696
75	0xbe959fc7	-0.29223463
76	0x3f1245f2	0.5713798
77	0x3c1aaa43	0.009440008
78	0xbe99f86c	-0.30072343
79	0xbeb43fe3	-0.35204992
80	0x3e8ef037	0.27917644
81	0x3e788b88	0.24271977
82	0x3ded99a5	0.11601571
83	0xbeb8bc26	-0.36081046
84	0x3e4b2c6a	0.19841161
85	0x3d5f2e78	0.054487675
86	0x3e154cc3	0.14580064
87	0x3ec8b969	0.39203957
88	0xbe871ddd	-0.2638997
89	0x3f1f16e9	0.62144333
90	0x3df97d51	0.12182105
91	0xbe4f5e8e	-0.20250914
92	0x3d712e10	0.05888182
93	0xbd90f132	-0.07077254
94	0x3e8a4b3e	0.2701053
95	0x3cb69586	0.022288095
96	0xbc709c60	-0.01468572
97	0xbe88f0ec	-0.2674631
98	0x3ecb0bed	0.39657536
99	0xbe8d2853	-0.27569827
100	0x3e212550	0.1573689
101	0x3d430430	0.047611415
102	0xbcb26890	-0.021778375
103	0xbcc3d800	-0.023906708
104	0x3dfffd41	0.12499476
105	0x3f3cd331	0.7375975
106	0xbef20b09	-0.47274044
107	0xbe9dac70	-0.30795622
108	0xbeeb123e	-0.45912355
109	0x3e3066b1	0.17226674
110	0xbe79686e	-0.24356243
111	0xbe8ac37d	-0.2710227
112	0x3e101dd2	0.14073876
113	0x3c912fa0	0.017722905
114	0xbe81684f	-0.25274894
115	0x3b841279	0.0040305224
116	0xbeb2e62e	-0.34941238
117	0xbeeb0889	-0.4590495
118	0xbd415db0	-0.047208488
119	0x3e185e5a	0.14879742
120	0x3d0a2907	0.033730533
121	0xbeac6b22	-0.33675486
122	0x3dfd3174	0.12362948
123	0x3e8059d4	0.25068533
124	0x3ed64b5b	0.41854367
125	0x3ea55261	0.32289413
126	0xbe3cdbb8	-0.18443191
127	0xbde412e6	-0.11136417

state_model.0.bias f4 [64]
0	0xbed25f35	-0.41088262
1	0xbe59665c	-0.21230453
2	0xbf1b5e27	-0.6069054
3	0xbf18e1c8	-0.59719515
4	0xbe7718b6	-0.2413052
5	0xbec42a04	-0.38313305
6	0xbf18d42e	-0.5969876
7	0xbf0d1862	-0.5511533
8	0x3f243811	0.6414805
9	0xbe0a4da8	-0.13506186
10	0xbdd88554	-0.10572305
11	0xbef2e2c8	-0.47438645
12	0xbf20fc99	-0.62885433
13	0x3ea9f83e	0.33197206
14	0x3f2a2c6d	0.6647404
15	0xbdc892b5	-0.09793607
16	0x3f3a281f	0.7271747
17	0xbd2f266d	-0.042761255
18	0xbd04c360	-0.032412887
19	0xbecdb0c0	-0.40173912
20	0x3efbd205	0.4918367
21	0xbf0f6908	-0.5601964
22	0x3ea31dff	0.31858823
23	0x3efa56fb	0.48894486
24	0xbf2b1e45	-0.6684306
25	0xbe1c9092	-0.15289524
26	0x3f42402e	0.7587918
27	0xbea3d3f0	-0.31997633
28	0x3e876c30	0.26449728
29	0xbf040705	-0.5157321
30	0xbf2f84a1	-0.6856175
31	0x3d711f98	0.05886802
32	0x3f297ecb	0.66209096
33	0x3eae11ac	0.33997858
34	0xbe5bf68a	-0.21480766
35	0x3e96dc03	0.2946473
36	0x3edd5393	0.43227825
37	0x3e855499	0.26041105
38	0x3e98c826	0.298402
39	0x3c6314b2	0.013859915
40	0x3f198082	0.5996171
41	0x3d4a2b18	0.049357504
42	0xbea8872e	-0.32915634
43	0x3e96d27f	0.2945747
44	0x3e100536	0.14064488
45	0x3e42ae32	0.19011763
46	0xbe9735fc	-0.29533374
47	0x3ed29fda	0.41137582
48	0xbe93c3fb	-0.2886046
49	0xbdf5fa0a	-0.12010582
50	0xbf294cc4	-0.6613276
51	0xbe4a2dd4	-0.19744045
52	0x3e658ecb	0.22417752
53	0x3f28a740	0.65880203
54	0x3e9289da	0.28620797
55	0xbf293bbf	-0.6610679
56	0xbe7625e2	-0.24037889
57	0x3eb2756b	0.34855208
58	0xbe3d2865	-0.1847244
59	0xbeea5c3e	-0.457735
60	0x3e4366b1	0.19082142
61	0xbf326485	-0.6968463
62	0x3e117471	0.14204575
63	0xbf2574c7	-0.64631313

state_model.2.weight f4 [32, 64]
0	0xbc91ec80	-0.017812967
1	0x3e4cc4ca	0.19996944
2	0x3e0c867e	0.1372318
3	0xbca1d9c0	-0.019757152
4	0xbe5dfb68	-0.21677935
5	0x3d850bfc	0.064964265
6	0x3cb32320	0.021867335
7	0xbe1088fc	-0.14114755
8	0xbe1db022	-0.1539922
9	0x3e703d18	0.23460805
10	0xbd197420	-0.03746426
11	0x3d432e20	0.04765141
12	0x3a9d2100	0.0011987984
13	0xbcedb8c0	-0.02901876
14	0xbe145e1e	-0.14489028
15	0x3e6db04c	0.23211783
16	0x3c999ee0	0.018752515
17	0xbb216100	-0.0024624467
18	0x3e5ea016	0.21740755
19	0xbcacfde0	-0.02111715
20	0xbe2ebb58	-0.17063653
21	0x3d2225a0	0.039586663
22	0xbe442e50	-0.19158292
23	0x3deabb80	0.11461544
24	0x3dae4998	0.08510131
25	0x3d813460	0.06308818
26	0x3dfd72e8	0.12375432
27	0xbe298bbc	-0.1655721
28	0xbe0a0b1e	-0.13480803
29	0x3e3daab8	0.18522155
30	0x3e642a36	0.22281727
31	0x3d838f84	0.06423858
32	0xbd0ea9b0	-0.034829795
33	0xbe3b9ff4	-0.18322736
34	0x3e7a60bc	0.24450964
35	0xbe3dd0f2	-0.18536738
36	0xbcf28bc0	-0.029607654
37	0x3df6d0f8	0.120515764
38	0xbe459178	-0.19293773
39	0xbe6f86fe	-0.23391339
40	0xbe48439e	-0.19557044
41	0x3e3a05e4	0.1816631
42	0xbe0e81a2	-0.13916638
43	0x3e77aeb8	0.24187744
44	0xbd90a338	-0.070623815
45	0xbe52a6a4	-0.20571381
46	0x3e11fabe	0.14255807
47	0xbe285074	-0.1643694
48	0x3e75c4a6	0.24000797
49	0x3cfa8e30	0.030585378
50	0xbe440990	-0.19144273
51	0x3e643a1a	0.22287789
52	0x3d0373a0	0.03209269
53	0x3e085306	0.13312921
54	0x3c115620	0.008870631
55	0xbe00fc82	-0.12596324
56	0x3e749b18	0.23887289
57	0xbe3ca672	-0.18422869
58	0x3e48fe48	0.1962825
59	0x3e4825ea	0.19545713
60	0x3e17f0de	0.14837977
61	0x3d713670	0.058889806
62	0x3d3b3ad0	0.045710385
63	0x3cffd7d0	0.031230837
64	0xbe37bc38	-0.17942894
65	0x3e7186a8	0.23586524
66	0xbe349bd2	-0.17637566
67	0xbd051130	-0.032487094
68	0x3e62aa0a	0.22135177
69	0xbe2ddbe4	-0.16978413
70	0xbdc1fccc	-0.09472045
71	0xbd614e80	-0.055006504
72	0xbe196c00	-0.14982605
73	0xbdd946e4	-0.106092244
74	0x3e386e50	0.18010831
75	0x3e5b4a9a	0.21415177
76	0x3e61aa4e	0.22037622
77	0x3eb3c547	0.35111448
78	0x3e475c27	0.19468747
79	0xbe97e93d	-0.29670134
80	0x3e392e97	0.18084179
81	0xbe1cedc8	-0.15325081
82	0x3ed582e1	0.41701415
83	0x3e2be22c	0.16785496
84	0x3ed443c5	0.41457954
85	0xbc778e20	-0.015109569
86	0xbe64c762	-0.22341684
87	0x3e9cef87	0.30651495
88	0x3d90735c	0.07053253
89	0xbc754145	-0.014969175
90	0xbd60f0d2	-0.054917164
91	0xbe2a40a4	-0.16626221
92	0x3eb6c6a4	0.35698426
93	0xbe7bf0b0	-0.24603534
94	0xbd55c350	-0.052188218
95	0x3e7f4429	0.24928345
96	0x3e922155	0.28541055
97	0x3d820038	0.06347698
98	0x3de683d8	0.11255616
99	0xbe15c494	-0.1462577
100	0xbecdf9dc	-0.4022969
101	0xbe0b7c76	-0.13621697
102	0x3d1d4955	0.038400013
103	0x3df7e14b	0.12103518
104	0x3e771152	0.24127701
105	0xbeacd016	-0.33752507
106	0xbe69140c	-0.22761554
107	0x3e8d1cc9	0.27561024
108	0x3e8705bc	0.26371562
109	0xbe12abed	-0.14323397
110	0x3e16afc4	0.14715487
111	0x3e079973	0.1324213
112	0x3c596d40	0.013270676
113	0xbe95dd86	-0.2927057
114	0x3e31b144	0.17352778
115	0xbd81d2bc	-0.063390225
116	0x3e9de930	0.3084197
117	0x3d79ec63	0.06101645
118	0xbc0e1f91	-0.008674518
119	0x3da3decc	0.080014795
120	0x3e217838	0.15768516
121	0xbd27d0a7	-0.04097047
122	0xbe6b57a3	-0.2298265
123	0xbe13893a	-0.14407817
124	0xbe2a72ff	-0.1664543
125	0x3e1f946e	0.15583965
126	0xbca112c7	-0.019662274
127	0x3e1b6458	0.15174997
128	0x3e6116a6	0.21981296
129	0xbd97854c	-0.07398471
130	0x3e10bdae	0.14134857
131	0xbc901d40	-0.017592072
132	0xbe75277e	-0.23940846
133	0xbd04f2a8	-0.032457978
134	0xbe78e6ba	-0.24306765
135	0xbe04b8fa	-0.12961188
136	0xbdbc4880	-0.09193516
137	0x3e1fe5a6	0.15614948
138	0x3e397492	0.18110874
139	0xbde83250	-0.11337721
140	0xbe63ddd0	-0.22252584
141	0xbe250306	-0.16114435
142	0x3c7b76a0	0.015348107
143	0x3e63e3ae	0.22254822
144	0x3e1dc02e	0.15405342
145	0x3c82f240	0.015984654
146	0xbe55e77c	-0.20889086
147	0x3a998100	0.0011711419
148	0x3cbb20c0	0.022842765
149	0x3d6de1e0	0.05807674
150	0x3e297fc2	0.16552642
151	0x3d38e350	0.045138657
152	0x3e51b4ba	0.20479098
153	0x3e04f212	0.12982967
154	0xbe5b927e	-0.21442601
155	0xbe773d48	-0.2414447
156	0xbe37e1c4	-0.17957217
157	0x3e3d2780	0.184721
158	0xbcdef8e0	-0.027218282
159	0xbdf701a8	-0.12060863
160	0xbe48981a	-0.19589272
161	0xbe738832	-0.23782423
162	0xbe1c9304	-0.15290457
163	0x3d383708	0.044974357
164	0x3e3ad7f8	0.18246448
165	0x3cb31690	0.021861345
166	0xbe7f9baa	-0.24961725
167	0xbe6fb598	-0.23409116
168	0xbccf3d20	-0.025297701
169	0xbe1b5a44	-0.15171152
170	0xbdaafc5c	-0.08348915
171	0x3e00d308	0.12580502
172	0x3d4538a0	0.048149705
173	0x3ddc3e78	0.107541025
174	0x3e52ac06	0.20573434
175	0x3bcda2c0	0.006275505
176	0x3c8ea030	0.017410368
177	0xbd1953c8	-0.037433416
178	0xbcada300	-0.021195889
179	0x3dfdcc0c	0.123924345
180	0x3ccb9450	0.024850994
181	0xbe588d78	-0.21147716
182	0xbe13bcf4	-0.14427549
183	0xbe3c6b76	-0.18400368
184	0xbe3562f2	-0.17713526
185	0x3e43a5d0	0.19106221
186	0xbd0700d0	-0.03295976
187	0xbd9a23f0	-0.07526386
188	0x3e775836	0.24154744
189	0x3ddf632c	0.109075874
190	0x3e3dcbe0	0.18534803
191	0x3e3148a0	0.1731286
192	0xbde3cbdc	-0.111228675
193	0xbd7cc638	-0.061712474
194	0xbe69290a	-0.22769561
195	0x3dfda514	0.12385002
196	0x3e2081a4	0.15674454
197	0x3d92a73c	0.07160804
198	0x3e0ec58e	0.13942549
199	0x3d30cc68	0.043163687
200	0x3e394452	0.18092468
201	0x3e22caf8	0.15897739
202	0xbde7f34c	-0.11325702
203	0x3db4e490	0.08832657
204	0xbd923c0c	-0.07140359
205	0x3df107fc	0.11769101
206	0xbe1b7d86	-0.15184602
207	0x3c2c6f60	0.010524601
208	0xbdb215b4	-0.08695546
209	0x3e6f7cba	0.23387423
210	0xbd85df2c	-0.06536707
211	0x3e1202d0	0.14258885
212	0xbe1d78a4	-0.15378052
213	0x3e6f0844	0.23342997
214	0x3e23be46	0.15990552
215	0xbdd48530	-0.10376966
216	0xbe5847d0	-0.21121144
217	0x3e7bfe98	0.24608839
218	0x3d186950	0.03720981
219	0xbe32690e	-0.17422888
220	0xbe3b4bf0	-0.18290687
221	0x3e3b208a	0.18274131
222	0xbc1259c0	-0.008932531
223	0x3b6cb580	0.0036118925
224	0x3e28ff46	0.16503629
225	0xbe50a99e	-0.20377204
226	0x3d345750	0.04402858
227	0xbc385640	-0.011251032
228	0xbd93b368	-0.072119534
229	0xbb860e80	-0.004091084
230	0xbe271b62	-0.1631904
231	0xbe3ba178	-0.18323314
232	0xbdd9163c	-0.10599944
233	0xbe5ecef0	-0.21758628
234	0x3dc7b03c	0.09750411
235	0xbcc7b630	-0.024378866
236	0xbe15691c	-0.14590877
237	0x3e5552d2	0.20832375
238	0x3cce8190	0.025208265
239	0xbe2cc836	-0.1687325
240	0x3df13fb4	0.117797285
241	0xbe508742	-0.20364097
242	0xbdfc8434	-0.12329903
243	0xbe226a46	-0.15860853
244	0xbe52aeb2	-0.20574453
245	0x3dba9860	0.091110945
246	0xba83ac00	-0.0010045767
247	0x3c181be0	0.00928399
248	0x3e1e1c68	0.15440524
249	0x3cbd3f20	0.02310139
250	0xbe5b789a	-0.21432725
251	0xbe697d1c	-0.22801632
252	0x3e40741a	0.18794289
253	0xbe45f7a6	-0.19332752
254	0xbe146844	-0.14492899
255	0x3e7f2c46	0.24919233

state_model.2.bias f4 [32]
0	0xbd8d75a6	-0.06907205
1	0x3e65b33e	0.22431657
2	0xbda1b18a	-0.07895191
3	0xbd950600	-0.07276535
4	0x3e1c3d93	0.15257864
5	0x3d84cda7	0.064845376
6	0xbdb9e3b3	-0.09076633
7	0x3c0faf50	0.008769825
8	0x3b9c22ff	0.004764914
9	0xbd1d1ff8	-0.038360566
10	0x3d20a4f4	0.03921981
11	0x3c7117ab	0.014715116
12	0xbc8a7cf0	-0.016905278
13	0xbbfd7900	-0.0077353716
14	0x3de7ca52	0.113178864
15	0x3dd22cad	0.102624275
16	0x3ded39d4	0.115832955
17	0xbde23d9e	-0.11046909
18	0x3cdf1867	0.027233316
19	0x3dc09d3a	0.094049886
20	0x3c7c2e8c	0.015391957
21	0xbd95dcce	-0.07317506
22	0xbdd6420a	-0.10461815
23	0xbdc90aa4	-0.09816483
24	0x3dbfbd79	0.09362311
25	0x3d9cab39	0.07649846
26	0x3de5c93a	0.112200215
27	0xbdaedf22	-0.08538653
28	0xbdd9bfe8	-0.10632306
29	0xbddcf4ee	-0.10788904
30	0xbd5596f2	-0.052145906
31	0x3cbd4ef8	0.023108944

state_model.4.weight f4 [2, 32]
0	0xbecbe9a6	-0.39826697
1	0xbf3aff65	-0.7304595
2	0x3e537efa	0.20653906
3	0x3eb375dd	0.3505086
4	0xbea55ab8	-0.32295775
5	0xbef58f6d	-0.47960988
6	0x3ee5c240	0.44874763
7	0x3eb6ceed	0.35704747
8	0x3e4bab6f	0.19889615
9	0x3eb1f4df	0.34757134
10	0xbee75be5	-0.45187297
11	0xbf1c8c24	-0.6115134
12	0x3eb7c8ad	0.3589529
13	0xbec27592	-0.37980324
14	0xbe46ae08	-0.19402325
15	0xbf05d6c4	-0.5228083
16	0xbf1d426d	-0.6142948
17	0xbe9faa83	-0.31184778
18	0xbd7f0b0c	-0.062266394
19	0xbea3e370	-0.3200946
20	0xbf59901a	-0.84985507
21	0x3e0c11b9	0.13678636
22	0xbec03772	-0.375423
23	0x3e949b15	0.29024568
24	0xbe5a9be4	-0.2134853
25	0x3eff63d3	0.49880847
26	0xbbcd408a	-0.006263797
27	0x3e86f257	0.26356766
28	0x3e4aa1c6	0.19788274
29	0xbe556165	-0.20837934
30	0xbdfd3d3e	-0.12365197
31	0xbe38a79f	-0.18032692
32	0x3de5c84c	0.11219844
33	0x3ea8b06b	0.32947096
34	0x3ed47003	0.41491708
35	0xbe80ac7d	-0.25131598
36	0xbf12c53a	-0.57332194
37	0x3ea43a29	0.32075623
38	0x3e8c7d5c	0.27439392
39	0xbe89259e	-0.26786512
40	0xbee7e191	-0.4528928
41	0x3ebc4f0b	0.36779055
42	0xbf103863	-0.5633604
43	0xbea2f970	-0.3183093
44	0x3d8a948d	0.06766615
45	0xbecfb22c	-0.40565622
46	0xbeb409cc	-0.35163724
47	0x3e842a5c	0.25813568
48	0xbe5ddfe5	-0.2166744
49	0x3e79da4a	0.24399677
50	0x3e875ca1	0.26437858
51	0xbe508b2e	-0.20365593
52	0xbe93645d	-0.2878751
53	0x3ec02808	0.3753054
54	0x3f3119c6	0.6917995
55	0x3ed2e4d7	0.41190216
56	0xbf1d17cc	-0.61364436
57	0x3df345e8	0.11878568
58	0xbf1094ca	-0.56477034
59	0x3e65592a	0.22397295
60	0x3e9fe911	0.31232503
61	0xbef59515	-0.47965303
62	0xbee1b28a	-0.44081527
63	0x3e8ba84d	0.2727684

state_model.4.bias f4 [2]
0	0xbda7223e	-0.08160828
1	0x3d5c44fb	0.053776722
