Pytorch_DRL/DDPG/models/backup/3.31/best_ca_critic.model (torch_old, 559066 bytes, 13 tensors)

sensor_model.0.weight f4 [256, 360]
0.057144485 0.034708895 -0.050364446 0.08899812 -0.04097121 0.029268406 0.098000266 0.023930386
-0.07174861 -0.08605595 -0.063478254 -0.025806263 0.043585785 -0.046819836 -0.07749802 -0.01016625
0.018326968 -0.009017862 0.097630925 -0.0014217868 0.089565836 0.0037821606 -0.07910818 0.030585565
0.092895366 0.01726453 -0.06823033 -0.027720608 0.07438169 -0.07177541 0.09054371 -0.05410071
0.044318743 -0.08322016 0.03147564 -0.06365781 0.036155187 0.008703545 -0.08994252 0.048349373
0.0048827752 0.09852751 -0.011553802 0.0145967975 -0.058793947 -0.070520036 0.036326475 -0.039225772
-0.031261005 -0.09526827 0.058019094 -0.077206716 0.004792452 -0.061775822 -0.019626513 0.0645986
0.008234754 -0.09289293 0.048984922 0.065501325 0.08267356 -0.025949009 0.051915146 -0.0512977
0.035156555 0.07669664 0.090723984 -0.007537931 0.025478087 0.088164784 -0.031041458 -0.07720653
0.036898263 -0.07918296 -0.03838725 -0.09244391 0.02081041 -0.08955298 0.0216133 -0.07178134
0.038403742 0.07913848 -0.010604188 0.08194517 -0.021497011 -0.079306364 -0.07618682 0.027092837
-0.04747223 -0.079490766 0.09540876 0.06693504 -0.09419573 0.046837635 -0.030416392 -0.0010803416
-0.069651306 -0.0030950084 -0.045707222 -0.03776103 0.014604904 0.012305431 -0.047409147 0.028298773
0.09017492 0.059128232 -0.002035901 0.045552947 0.051949598 -0.020865083 -0.077283 -0.03006474
-0.0498979 -0.09347771 0.058880694 -0.06974976 -0.091118984 -0.089934245 0.038483553 0.022035666
0.02140189 -0.036771294 -0.06721909 -0.05601082 -0.018149458 -0.0027329475 0.0699063 -0.054487735
-0.04727038 0.040756054 -0.07154485 -0.06398778 -0.002137646 0.013762273 -0.058631234 0.09364761
0.059745662 0.08625939 0.02617599 -0.07517858 0.07084782 0.0878455 0.08924513 -0.0054920986
0.053649165 0.02658566 -0.041059926 0.07392944 0.04147484 0.0941241 -0.08763127 -0.08318256
0.007834047 0.011489905 0.021372765 -0.06582128 0.013369098 -0.012836598 0.07446901 -0.097642705
0.037373982 -0.037502423 -0.030640222 0.055688225 0.04029601 -0.045694243 -0.068642184 -0.08178599
-0.0144158155 0.087149926 0.07307219 -0.00029791892 -0.052862316 -0.089554 -0.017242074 0.06821401
0.06903214 -0.09628425 -0.08148806 -0.04422736 0.032788374 -0.09144089 0.0478298 -0.043192998
-0.0649515 -0.06604989 0.034982823 0.07276649 0.056382544 0.029145338 0.044471376 -0.029508345
0.05083584 0.052923612 0.06239941 0.0131341 -0.08021518 0.020274736 -0.08117398 -0.05532877
-0.09166345 0.08041837 -0.085328184 -0.08961456 0.03720876 0.033640705 0.07082916 0.07101809
-0.08169939 -0.054661926 0.052126028 -0.014567502 0.09840519 -0.018994316 -0.08981773 0.07155419
0.036407314 -0.09814277 0.04626908 -0.094713904 -0.03858001 0.0858125 0.026104048 0.004341893
-0.09183637 -0.060896285 -0.02214814 -0.00976225 -0.038886797 0.088478304 0.027445309 -0.03962407
0.09151267 -0.022403523 0.06833061 -0.065867424 0.022293381 -0.05192327 -0.04828573 -0.028784089
0.014948539 -0.02976872 -0.064199395 0.0059400573 0.08013304 0.06997331 -0.026587486 -0.09649542
-0.07896054 0.049968414 -0.05755687 -0.07734258 -0.05522058 -0.018564567 -0.02125831 0.07760855
00000000: 5610 6a3d ea2a 0e3d f34a 4ebd a544 b63d
00000010: 6dd1 27bd 4cc4 ef3c 5db4 c83d a809 c43c
00000020: eff0 92bd 1a3e b0bd e300 82bd a867 d3bc
00000030: 0287 323d 28c6 3fbd 48b7 9ebd 5890 26bc
00000040: 7022 963c a8bf 13bc b9f2 c73d 405b baba
00000050: 4b6e b73d 20de 773b 7803 a2bd 948e fa3c
00000060: ed3f be3d 586e 8d3c 58bc 8bbd 5416 e3bc
00000070: 6d55 983d fcfe 92bd fb6e b93d b598 5dbd
00000080: 9287 353d 556f aabd 9aec 003d 075f 82bd
00000090: 7617 143d 5099 0e3c c933 b8bd fe09 463d
000000a0: b0ff 9f3b cbc8 c93d 284c 3dbc 6827 6f3c
000000b0: ecd1 70bd cf6c 90bd 12cb 143d 34ab 20bd
000000c0: 8a0b 00bd 031c c3bd 6ea5 6d3d 8e1e 9ebd
000000d0: 000a 9d3b a508 7dbd c8c7 a0bc 454c 843d
000000e0: 10eb 063c a63e bebd 6aa4 483d 8f25 863d
000000f0: c150 a93d 0493 d4bc faa4 543d 891d 52bd
00000100: 5200 103d 2113 9d3d 7fcd b93d c000 f7bb
00000110: 6cb7 d03c bd8f b43d a84a febc 751e 9ebd
00000120: a222 173d ad2a a2bd f33b 1dbd 3c53 bdbd
00000130: 987a aa3c 8e67 b7bd 600e b13c 1802 93bd
00000140: 3e4d 1d3d 5b13 a23d 30bd 2dbc dfd2 a73d
00000150: 801a b0bc 606b a2bd d607 9cbd ccf1 dd3c
00000160: 3e72 42bd 0ecc a2bd ab65 c33d 3d15 893d
00000170: b1e9 c0bd d2d8 3f3d cc2b f9bc 409a 8dba
00000180: 58a5 8ebd a0d5 4abb 7f37 3bbd 4fab 1abd
00000190: 6849 6f3c b89c 493c 1830 42bd d4d2 e73c
000001a0: a1ad b83d 7230 723d c06c 05bb ba95 3a3d
000001b0: 1ac9 543d 40ed aabc 8d46 9ebd 544a f6bc
000001c0: be61 4cbd 3e71 bfbd e22c 713d f6d8 8ebd
000001d0: 979c babd 722f b8bd eea0 1d3d 2484 b43c
000001e0: 0453 af3c 7f9d 16bd 2aaa 89bd 9a6b 65bd
000001f0: 2cae 94bc 401b 33bb 092b 8f3d 882e 5fbd
00000200: 969e 41bd d2ef 263d 1b86 92bd 060c 83bd
00000210: c017 0cbb 287b 613c 4e27 70bd 51ca bf3d
00000220: deb7 743d c3a8 b03d 086f d63c 3af7 99bd
00000230: a918 913d 57e8 b33d 27c6 b63d 10f7 b3bb
00000240: 3abf 5b3d 2cca d93c 742e 28bd 5168 973d
00000250: 86e1 293d 23c4 c03d 0678 b3bd 9e5b aabd
00000260: 605a 003c 2840 3c3c f015 af3c 4fcd 86bd
00000270: 100a 5b3c 9850 52bc 3583 983d e6f8 c7bd
00000280: 7615 193d 249c 19bd 3401 fbbc 5619 643d
00000290: 6e0d 253d e329 3bbd 4694 8cbd 6a7f a7bd
000002a0: 5030 6cbc a97b b23d dfa6 953d 0032 9cb9
000002b0: 2886 58bd 1668 b7bd 403f 8dbc c9b3 8b3d
000002c0: b960 8d3d ad30 c5bd 36e3 a6bd c027 35bd
000002d0: 1a4d 063d 5d45 bbbd 2ee9 433d 24eb 30bd
000002e0: 4b05 85bd 2a45 87bd 264a 0f3d 9906 953d
000002f0: 62f1 663d 34c2 ee3c 9e27 363d 7cbb f1bc
00000300: 3e39 503d 6ec6 583d 8696 7f3d 6830 573c
00000310: db47 a4bd 3417 a63c 8b3e a6bd 6ca0 62bd
00000320: 0cba bbbd 63b2 a43d 8bc0 aebd d787 b7bd
00000330: 3668 183d d6ca 093d e10e 913d ef71 913d
00000340: 0352 a7bd 2fe5 5fbd 1a82 553d 88ac 6ebc
00000350: a988 c93d f899 9bbc 5cf2 b7bd 018b 923d
00000360: d61f 153d 14ff c8bd a684 3d3d 5df9 c1bd
00000370: 1306 1ebd 77be af3d 28d8 d53c 7046 8e3b
00000380: b514 bcbd 626e 79bd 0470 b5bc d8f1 1fbc
00000390: c347 1fbd 1d34 b53d fcd4 e03c d94c 22bd
000003a0: ff6a bb3d 9887 b7bc ebf0 8b3d 80e5 86bd
000003b0: 9ca0 b63c 7fad 54bd 42c7 45bd 9ccc ebbc
000003c0: b8ea 743c 88dd f3bc f97a 83bd d0a4 c23b
000003d0: cb1c a43d 2b4e 8f3d 00ce d9bc 649f c5bd
000003e0: 10b6 a1bd aeab 4c3d c1c0 6bbd c965 9ebd
000003f0: fa2e 62bd b814 98bc e825 aebc 3bf1 9e3d

sensor_model.0.bias f4 [256]
-0.0002245006 -0.010595232 -0.0409157 -0.00093363255 -0.048015226 -0.00096873275 -0.019276496 -0.02774592
-0.023202812 -0.0067622485 -0.007690805 -0.006680008 -0.029041758 -0.044900402 -0.047548074 -0.007127937
-0.038917016 -0.00014022546 -0.0009510623 -0.029460467 -0.0092838 -0.012518652 -0.012117708 -0.020215549
-0.03976252 -0.016521081 -0.017335802 -0.012140561 -0.01260544 -0.0026538013 -0.0053525437 -0.0005310314
-0.008969058 -0.007949416 -0.009235772 -0.0055511864 -0.0017383918 -0.0019856468 -0.012033803 -0.002899074
-0.047374573 -0.031207938 -0.03395822 -0.026724927 -0.0057935477 -0.024953267 -0.040838156 -0.049921896
-0.001236652 -0.00027222798 -0.015819568 -0.025886407 -0.0005104557 -0.036977425 -0.0006491295 -0.00065383554
-0.0054729446 -0.010133487 -0.0050944267 -0.04066588 -0.012697898 -0.0015366939 -0.009257883 -0.012070917
-0.0036592851 -0.007640572 -0.03407285 -0.004247015 -0.011106726 -1.2716354e-05 -0.023596706 -0.02343881
-0.03539508 -0.0013671534 -0.0075378814 -0.00052697654 -0.02053564 -0.007502534 -0.036236588 -0.02422762
-0.0006026011 -0.048918866 -0.0032630004 -0.0066090715 -0.002368848 -0.016842056 -0.035069995 -0.013178961
-0.0042828256 -0.020367987 -0.0014112985 -0.017404422 -0.04815216 -0.0011624342 -0.0138185285 -0.01953074
-0.025342818 -0.003566081 -0.004992027 -0.0059310487 -0.0017008994 -0.026428852 -0.011591811 -0.03506518
-0.05047389 -0.01728246 -0.006185387 -0.007238394 -0.025198106 -0.0009662667 -0.043437455 -0.00934745
-0.052070342 -0.010959581 -0.015130613 -0.0026695393 -0.025705108 -0.0012631543 -0.006220591 -0.0011852119
-0.002793189 -0.02123456 -0.046396017 -0.00039727468 -0.047909137 -0.023119597 -0.042450037 -0.0019147829
-0.000958822 -0.0038351805 -0.0011290285 -0.009146951 -0.04402364 -0.0025414713 -0.00634984 -0.051312342
-0.00090051186 -0.014447365 -0.01815847 -0.05129467 -0.00069754856 -0.0002915399 -0.00048254157 -0.0037084818
-0.04760763 -0.013877821 -0.033304736 -0.05040292 -0.0028137225 -0.037123013 -0.02913852 -0.014603578
-0.041541286 -0.03560853 -0.04056128 -0.00014377883 -0.033607993 -0.014261308 -0.0033906146 -0.050526913
-0.009063208 -0.0017618574 -0.0154277645 -0.025426608 -0.010731388 -0.0001819581 -0.0015683857 -0.007182601
-0.00024884444 -0.03652807 -0.0133592645 -0.0056609847 -0.00058504666 -0.008809308 -0.04208099 -0.031978957
-0.0029963572 -0.00084521744 -0.029996427 -0.009814035 -0.012991295 -0.014465518 -0.051852338 -0.0018784452
-0.03188131 -0.0010111486 -0.00507456 -0.022864737 -0.003047105 -0.006813784 -0.0065042535 -0.015103224
-0.0008849316 -0.01065255 -0.038087748 -0.0013660662 -0.00017565596 -0.0009888958 -0.020886816 -0.0005102509
-0.02708586 -0.02542895 -0.00041269782 -0.0016934123 -0.0039098114 -0.018736482 -0.00015085356 -0.052420203
-0.00740359 -0.000986569 -9.0426445e-05 -0.0034313714 -0.03743632 -0.0068778694 -0.001238379 -0.0015298408
-0.008284066 -0.0007308978 -0.014082693 -0.0073152347 -0.0008132025 -0.0030878715 -0.006846255 -0.006433061
-0.040575683 -0.025133995 -0.025245804 -0.00037336678 -0.000538646 -0.0006018165 -0.040141717 -0.015915543
-0.022571677 -0.013957835 -0.0021611683 -0.0002596032 -0.04338731 -0.0035201532 -0.005316096 -0.010916803
-0.00844107 -0.030635606 -0.0062276586 -0.032526605 -0.022353474 -0.000954181 -0.023419807 -0.048799776
-0.00012785781 -0.015318714 -0.0032974228 -0.009996005 -0.052544158 -0.010236637 -5.9858903e-05 -0.0012378562
00000000: ec67 6bb9 a097 2dbc 3997 27bd 05bf 74ba
00000010: 9dab 44bd 8ef2 7dba bee9 9dbc 694b e3bc
00000020: d313 bebc da95 ddbb 2603 fcbb f8e3 dabb
00000030: fbe8 edbc 7ce9 37bd c5c1 42bd 7891 e9bb
00000040: 7367 1fbd 7c09 13b9 b650 79ba 1457 f1bc
00000050: 141b 18bc 081b 4dbc 5a89 46bc 149b a5bc
00000060: 06de 22bd 3857 87bc d003 8ebc 34e9 46bc
00000070: 0c87 4ebc 66eb 2dbb 6464 afbb ea34 0bba
00000080: f5f2 12bc 443e 02bc a351 17bc bae6 b5bb
00000090: c0da e3ba a021 02bb 6e29 45bc 64fe 3dbb
000000a0: d70b 42bd caa7 ffbc c617 0bbd 3cee dabc
000000b0: cdd7 bdbb cb6a ccbc e945 27bd e77a 4cbd
000000c0: 2817 a2ba d2b9 8eb9 0a98 81bc bb0f d4bc
000000d0: 1ad0 05ba a475 17bd 582a 2aba 2966 2bba
000000e0: 6356 b3bb ed06 26bc 26ef a6bb 4491 26bd
000000f0: d80a 50bc e46a c9ba 60ae 17bc 18c5 45bc
00000100: 9ed0 6fbb c35d fabb f98f 0bbd 8b2a 8bbb
00000110: fcf8 35bc 5358 55b7 e14d c1bc bf02 c0bc
00000120: 6efa 10bd 0e32 b3ba 5500 f7bb cc24 0aba
00000130: 5c3a a8bc d1d7 f5bb d16c 14bd 0079 c6bc
00000140: e0f7 1dba 265f 48bd 10d8 55bb e990 d8bb
00000150: ad3e 1bbb 5af8 89bc 8ea5 0fbd 92ec 57bc
00000160: f256 8cbb c4da a6bc 52fb b8ba b893 8ebc
00000170: 333b 45bd d25c 98ba 1c67 62bc eefe 9fbc
00000180: be9b cfbc e9b4 69bb 2894 a3bb 3e59 c2bb
00000190: b7f0 deba 5281 d8bc 94eb 3dbc 82a0 0fbd
000001a0: b6bd 4ebd f293 8dbc c9ae cabb 0d30 edbb
000001b0: 426c cebc 104d 7dba 79eb 31bd 0c26 19bc
000001c0: b647 55bd d08f 33bc 64e6 77bc 70f3 2ebb
000001d0: 8593 d2bc 6d90 a5ba 19d6 cbbb 1d59 9bba
000001e0: ef0d 37bb 1af4 adbc c009 3ebd 4e49 d0b9
000001f0: 5f3c 44bd 4f65 bdbc 17e0 2dbd 74f9 faba
00000200: 7559 7bba a757 7bbb e9fb 93ba 18dd 15bc
00000210: 2252 34bd d08e 26bb 5212 d0bb e42c 52bd
00000220: 5410 6cba a4b4 6cbc 12c1 94bc 5c1a 52bd
00000230: b1db 36ba d3d9 98b9 a2fd fcb9 000a 73bb
00000240: 3800 43bd cd5f 63bc 8c6a 08bd 4b73 4ebd
00000250: 6e66 38bb 4d0e 18bd e8b3 eebc d843 6fbc
00000260: 3227 2abd 40da 11bd 9623 26bd 56c3 16b9
00000270: 89a8 09bd 43a8 69bc 1335 5ebb 4ff5 4ebd
00000280: d97d 14bc 20ee e6ba bcc4 7cbc 764b d0bc
00000290: b4d2 2fbc 01cc 3eb9 4b92 cdba 065c ebbb
000002a0: 5677 82b9 759e 15bd d1e0 5abc c87f b9bb
000002b0: d15d 19ba ea54 10bc 1e5d 2cbd 5efc 02bd
000002c0: 885e 44bb 9591 5dba 11bb f5bc 0ccb 20bc
000002d0: 71d9 54bc c800 6dbc 1e63 54bd 2936 f6ba
000002e0: fa95 02bd 8488 84ba 7f48 a6bb d44e bbbc
000002f0: f0b1 47bb 2a46 dfbb a221 d5bb 8373 77bc
00000300: c1fa 67ba 0888 2ebc e601 1cbd 930d b3ba
00000310: 4a30 38b9 d69d 81ba d41a abbc 5cc2 05ba
00000320: 2ae3 ddbc 6050 d0bc 5d5f d8b9 7df5 ddba
00000330: e01d 80bb 407d 99bc 722e 1eb9 91b6 56bd
00000340: d099 f2bb c34f 81ba 54a3 bdb8 dce0 60bb
00000350: d456 19bd c05f e1bb 1b51 a2ba f084 c8ba
00000360: e4b9 07bc b999 3fba 18bb 66bc a3b4 efbb
00000370: 192d 55ba e35d 4abb 8d56 e0bb 6dcc d2bb
00000380: b032 26bd cfe5 cdbc 4ad0 cebc 71c0 c3b9
00000390: ec33 0dba 39c3 1dba a46b 24bd 5061 82bc
000003a0: 3de8 b8bc 67af 64bc 63a2 0dbb 5a1b 88b9
000003b0: e4b6 31bd 5fb2 66bb a532 aebb 64dc 32bc
000003c0: 6a4c 0abc 86f7 fabc 6311 ccbb 9e3a 05bd
000003d0: a21e b7bc 0122 7aba e5da bfbc 46e2 47bd
000003e0: 9211 06b9 58fb 7abc 9319 58bb 49c6 23bc
000003f0: 8b38 57bd 91b7 27bc 0211 7bb8 903f a2ba

sensor_model.2.weight f4 [128, 256]
0.08985802 0.08039568 0.046100527 0.018641436 0.079033196 0.11622197 0.015977979 0.10434842
-0.12369487 0.086353324 0.05476629 -0.043246746 0.07317798 0.042665243 0.0495805 -0.1262991
-0.054848224 0.03198016 -0.13283725 0.061087593 -0.11019095 0.06858419 -0.03417177 0.10224271
-0.06570344 -0.09305528 -0.0073523074 0.033806592 0.11509314 -0.065900214 -0.033631053 0.005265422
0.028067814 0.10314058 -0.104997665 -0.13749607 -0.08455056 -0.031504333 0.05992786 0.015605181
-0.109509155 -0.101011515 -0.08131476 -0.0082184225 0.06714943 0.017091334 0.026643857 -0.006783411
0.00195737 0.055772044 0.107894376 -0.015821338 0.056204256 0.110163465 -0.11650624 0.029911706
-0.006002359 -0.08543692 0.00097625155 0.0015108436 0.066087455 -0.0010412666 -0.006421834 -0.018057585
-0.06782941 -0.009063291 -0.08231729 -0.008726475 -0.028617516 0.06820623 0.07027957 0.089188576
0.035503834 0.0120081995 -0.101031624 0.048082095 0.08656299 0.053665135 0.107519165 0.10317983
-0.05691989 -0.035985336 0.039616615 -0.03200217 0.018005772 0.024118215 -0.05163154 -0.10173453
-0.09027524 -0.083161145 0.06704598 0.08755923 0.018395469 0.043888662 0.051287103 -0.03428161
-0.05290076 0.0736279 0.090663314 0.047322664 0.08066279 0.011784658 -0.119140565 0.12117763
0.088489294 -0.088767484 -0.025590256 0.11037808 -0.050469548 0.11082023 -0.022747844 0.004881789
0.0051671118 0.06047082 0.023035951 0.05737123 -0.12469903 0.033906203 -0.1271422 -0.048506007
-0.062636904 -0.044243842 -0.0464828 0.015659647 0.053695872 0.067910284 0.0870464 0.030036176
-0.052137475 0.005044394 -0.10157075 -0.06483728 0.013852447 0.12362139 -0.06006998 -0.062986106
-0.034403946 0.07665691 0.027620763 0.101932734 -0.08920438 0.036192026 -0.053156957 -0.06501274
0.024088502 -0.030950643 0.009638011 0.061596364 -0.13129187 0.04930234 -0.061548695 0.08755938
-0.06791186 -0.035069153 0.037672028 -0.02119039 -0.115731046 -0.10471792 0.030244235 0.01866965
-0.07395318 0.021072984 0.10697913 0.02208823 0.08971958 0.09115756 -0.11883782 -0.10901298
0.09413366 -0.11128317 -0.113344036 -0.051851477 0.0076992344 0.010567532 -0.09741089 0.0958799
-0.031546842 0.08345429 -0.08203863 -0.053717628 0.07934965 0.12444395 0.114408955 -0.12054728
-0.067665905 -0.0455266 -0.065743685 -0.118806675 0.11685012 -0.09151478 0.055137917 -0.13807926
-0.094445616 -0.083839655 0.046199203 0.01353175 -0.056968477 0.1035977 0.09545706 -0.0005619835
-0.06777449 -0.0869098 0.049815796 -0.0935672 -0.08921796 -0.027656391 0.0007180456 0.085058674
-0.09848216 0.07161016 -0.063668005 0.060822893 -0.057381064 -0.09855756 0.09236695 -0.053717133
0.11529817 0.06266024 -0.12503566 0.039564986 -0.086773254 0.017834049 -0.118360415 -0.04126307
0.113598734 -0.07215525 0.08829638 0.10951496 -0.04464025 -0.008986157 0.09694335 0.12100491
0.053372417 -0.041573536 -0.1186044 -0.12144178 -0.02417311 0.05130984 -0.044652924 -0.0093096495
-0.016887316 -0.10690178 0.10186014 -0.012827009 0.11597416 -0.025235603 -0.010699121 -0.014993146
-0.10212583 0.08611895 -0.07724832 -0.09347265 -0.009528384 -0.009367521 -0.036754467 -0.051222384
00000000: 7b07 b83d 7ea6 a43d e8d3 3c3d edb5 983c
00000010: 28dc a13d c905 ee3d 40e4 823c a0b4 d53d
00000020: bc53 fdbd 03da b03d 9e52 603d 8023 31bd
00000030: 56de 953d c0c1 2e3d ec14 4b3d 8d54 01be
00000040: 88a8 60bd a1fd 023d 7d06 08be fc36 7a3d
00000050: cbab e1bd de75 8c3d b3f7 0bbd a064 d13d
00000060: 868f 86bd c493 bebd a0eb f0bb c878 0a3d
00000070: f4b5 eb3d b1f6 86bd b7c0 09bd 9089 ac3b
00000080: 79ee e53c 5e3b d33d 0409 d7bd c5cb 0cbe
00000090: d828 adbd b00a 01bd ea76 753d e0ac 7f3c
000000a0: 5646 e0bd 20df cebd 5a88 a6bd 90a6 06bc
000000b0: a485 893d 2003 8c3c 3844 da3c 6047 debb
000000c0: 3847 003b 3a71 643d baf7 dc3d c09b 81bc
000000d0: 6f36 663d 629d e13d d39a eebd 6509 f53c
000000e0: 70af c4bb 8df9 aebd 22eb 7f3a 8007 c63a
000000f0: dc58 873d 1c7b 88ba 406e d2bb 80ed 93bc
00000100: 25ea 8abd 337e 14bc f895 a8bd 7df9 0ebc
00000110: 486f eabc b5af 8b3d bcee 8f3d 80a8 b63d
00000120: 786c 113d 0abe 443c abe9 cebd bbf1 443d
00000130: f047 b13d f9cf 5b3d 0233 dc3d f24f d33d
00000140: d524 69bd 5c65 13bd 0845 223d b514 03bd
00000150: d780 933c 9093 c53c 987b 53bd 315a d0bd
00000160: 3ae2 b8bd 6450 aabd 674f 893d 4152 b33d
00000170: 18b2 963c 99c4 333d 6d12 523d e06a 0cbd
00000180: 78ae 58bd 39ca 963d b0ad b93d 69d5 413d
00000190: 8832 a53d 7014 413c f8ff f3bd fa2b f83d
000001a0: e039 b53d bacb b5bd a8a2 d1bc e70d e23d
000001b0: 28b9 4ebd b7f5 e23d b059 babc 6af7 9f3b
000001c0: e050 a93b 40b0 773d e4b5 bc3c 18fe 6a3d
000001d0: 3462 ffbd 3be1 0a3d 9131 02be 3cae 46bd
000001e0: c747 80bd 0839 35bd c064 3ebd a948 803c
000001f0: 34f0 5b3d 8c14 8b3d 6245 b23d 6d0e f63c
00000200: 1b8e 55bd 724b a53b 5304 d0bd 68c9 84bd
00000210: 60f5 623c 362d fd3d f00b 76bd dcfe 80bd
00000220: 27eb 0cbd 4cfe 9c3d f044 e23c 1cc2 d03d
00000230: c9b0 b6bd 173e 143d 1cbb 59bd 6625 85bd
00000240: 4055 c53c 348c fdbc c0e8 1d3c 784c 7c3d
00000250: 6071 06be 40f1 493d 7c1a 7cbd 5552 b33d
00000260: 6015 8bbd aca4 0fbd fc4d 1a3d 7897 adbc
00000270: 6604 edbd 5976 d6bd c2c2 f73c 18f1 983c
00000280: c474 97bd 40a1 ac3c e017 db3d 60f2 b43c
00000290: e6be b73d d1b0 ba3d 3e61 f3bd 3242 dfbd
000002a0: 26c9 c03d 6ee8 e3bd eb20 e8bd 3762 54bd
000002b0: dc49 fc3b 7123 2d3c 5c7f c7bd ae5c c43d
000002c0: 4337 01bd 15ea aa3d df03 a8bd 0407 5cbd
000002d0: 1282 a23d 78dc fe3d 3e4f ea3d 7ee1 f6bd
000002e0: 6c94 8abd 1a7a 3abd a0a4 86bd ea50 f3bd
000002f0: 1e4f ef3d 1a6c bbbd 4cd8 613d a664 0dbe
00000300: b46c c1bd 20b4 abbd 603b 3d3d 46b4 5d3c
00000310: c757 69bd 082b d43d fe7e c33d 1352 13ba
00000320: 5acd 8abd c4fd b1bd a60b 4c3d 29a0 bfbd
00000330: e8b7 b6bd a88f e2bc 393b 3c3a 3e33 ae3d
00000340: 04b1 c9bd 59a8 923d 5f64 82bd 6d21 793d
00000350: 6808 6bbd 8cd8 c9bd e22a bd3d 7f06 5cbd
00000360: 7221 ec3d 0354 803d 5909 00be e50e 223d
00000370: 2db6 b1bd b618 923c f266 f2bd 7703 29bd
00000380: 74a6 e83d 22c6 93bd bcd4 b43d 6149 e03d
00000390: b2d8 36bd ad3a 13bc 3c8a c63d 6cd1 f73d
000003a0: 099d 5a3d 0349 2abd dde6 f2bd 78b6 f8bd
000003b0: b006 c6bc 442a 523d fce5 36bd 8087 18bc
000003c0: 4557 8abc 52ef dabd 0d9c d03d 6028 52bc
000003d0: dc83 ed3d e5ba cebc 5e4b 2fbc d0a5 75bc
000003e0: 5927 d1bd 225f b03d 5e34 9ebd 976e bfbd
000003f0: f01c 1cbc 3b7a 19bc da8b 16bd 90ce 51bd

sensor_model.2.bias f4 [128]
-0.0010132656 -0.008402388 -0.0053625423 -0.007845059 -0.03947179 -0.05100035 0.17945048 0.07755944
-0.010675229 -0.029944338 -0.0023295574 -0.03446503 -0.04488936 -0.045182332 -0.0020583805 -0.027576603
-0.012275704 -0.028697759 -0.003605374 -0.050073057 -0.061933435 -0.03350135 -0.03415686 -0.020791046
-0.00042474625 -0.0010692453 -0.024456881 -0.011820965 -0.0015346819 -0.0014596141 -0.05255899 0.20605952
-0.0032453856 -0.033350676 -0.0017856515 -0.058663055 -0.01427109 -0.054703534 -0.0063320547 -0.002854765
-0.018493135 -0.00816896 -0.00042056516 -0.00047783242 -0.029118888 -0.0535793 -0.040341068 -0.02597566
-0.03287077 -0.025789812 -0.019535104 -0.0026810744 0.30523786 -0.0017705547 -0.055495366 -0.0021349152
-0.0020919794 -0.042272493 -0.0034954748 -0.062304564 -0.015464 -0.03542179 -0.0032902637 0.21366031
-0.05238208 -0.009866927 -0.04428324 -0.0016078333 -0.017894715 -0.01674534 -0.041204765 -0.0020818438
-0.03131386 -0.00050066004 -0.0023312792 -0.0022095195 -7.411797e-05 -0.0012030716 -0.010969012 -0.03533041
-1.0453109e-06 0.15495706 -0.04939824 -0.007350643 -0.009481505 -0.052663505 -0.00020055237 -0.00416445
-0.004539971 -0.0026072876 -0.022791162 -0.005788224 -0.041445985 -0.011904946 -0.0063745733 -0.055736057
-0.02070686 -0.0042913477 -0.014191043 -0.0010702299 -0.041647494 -0.015927615 -0.0188077 -0.00092519744
-0.04393518 -0.052543372 -0.021692157 -0.0028394968 -0.011055659 -0.033015274 -0.001168329 -0.011529522
-0.04129502 -0.051544614 -0.05818674 -0.015712623 -0.0026758478 -0.04737746 -0.053904064 -0.02634505
-0.014484028 -0.0009801851 -0.00077179406 -0.04990714 -0.022855353 -0.0042659263 -0.060808107 -0.055648588
00000000: 8dcf 84ba 2baa 09bc 44b8 afbb 9088 00bc
00000010: 2cad 21bd bee5 50bd dec1 373e 7cd7 9e3d
00000020: 28e7 2ebc d44d f5bc 7dab 18bb 342b 0dbd
00000030: e8dd 37bd 1c11 39bd e5e5 06bb 54e8 e1bc
00000040: 0920 49bc 9017 ebbc 2348 6cbb 6819 4dbd
00000050: eaad 7dbd b638 09bd 10e8 0bbd fc51 aabc
00000060: 7ab0 deb9 eb25 8cba cc59 c8bc b9ac 41bc
00000070: 6127 c9ba 8650 bfba 1848 57bd 4401 533e
00000080: 89b0 54bb b89a 08bd 860c eaba ac48 70bd
00000090: 4ad1 69bc d010 60bd 207d cfbb 0217 3bbb
000000a0: ea7e 97bc 1ad7 05bc 4d7f dcb9 9585 fab9
000000b0: bc8a eebc f875 5bbd ad3c 25bd e8ca d4bc
000000c0: 80a3 06bd 2845 d3bc 1508 a0bc f7b4 2fbb
000000d0: 2348 9c3e f511 e8ba 1c4f 63bd efe9 0bbb
000000e0: 9719 09bb ec25 2dbd 5614 65bb 1233 7fbd
000000f0: b85c 7dbc 7016 11bd 77a1 57bb c5c9 5a3e
00000100: 988e 56bd e4a8 21bc 5862 35bd efbd d2ba
00000110: f097 92bc 862d 89bc 54c6 28bd 8b6f 08bb
00000120: f642 00bd ba3e 03ba 60c8 18bb 96cd 10bb
00000130: c86f 9bb8 62b0 9dba 5fb7 33bc 9fb6 10bd
00000140: 9c4c 8cb5 10ad 1e3e cf55 4abd aadd f0bb
00000150: 5058 1bbc b0b5 57bd 5e4b 52b9 f075 88bb
00000160: 09c4 94bb 07df 2abb 88b4 babc 24ab bdbb
00000170: 44c3 29bd f60c 43bc cce1 d0bb 7e4b 64bd
00000180: 6fa1 a9bc 6f9e 8cbb 8c81 68bc f546 8cba
00000190: 9096 2abd a17a 82bc 9b12 9abc f388 72ba
000001a0: 60f5 33bd b837 57bd c0b3 b1bc da16 3abb
000001b0: cb22 35bc 063b 07bd 9e22 99ba 52e6 3cbc
000001c0: f824 29bd 7220 53bd 3855 6ebd c2b7 80bc
000001d0: 475d 2fbb de0e 42bd 82ca 5cbd 93d1 d7bc
000001e0: 6b4e 6dbc 8e79 80ba 3952 4aba 6e6b 4cbd
000001f0: 263b bbbc 2fc9 8bbb ec11 79bd c6ef 63bd

sensor_model.4.weight f4 [64, 128]
-0.046495136 0.067479976 0.05338166 -0.108536035 -0.14932358 -0.033342227 0.099913016 -0.08427776
-0.09792664 -0.08107029 -0.19787341 -0.13057673 0.13437976 0.043593243 -0.16500363 0.032917336
-0.07787586 0.06473027 0.110552326 -0.13410638 0.049353033 0.08030772 0.012080133 0.06894815
-0.043376975 0.004926916 0.051797673 -0.08027957 -0.082022786 0.1672107 -0.0099398345 -0.1686777
-0.055589326 -0.07046378 0.11636275 0.07225652 -0.04837865 -0.026498213 0.054917943 -0.12961417
-0.14472839 0.016997954 -0.10701464 -0.19425981 0.10382114 -0.075353295 0.010304153 0.1021101
0.040524915 -0.13707809 -0.0056658206 0.12168968 0.08608138 -0.07332832 -0.0919035 0.05539799
-0.14084426 -0.13266769 -0.068332106 -0.06569659 -0.055609714 -0.108863704 0.13499561 0.062362213
-0.16474584 -0.017475946 0.13451265 -0.167229 -0.021563277 0.1274773 0.17620425 0.07433485
-0.05491688 0.07356229 -0.100752585 -0.09117033 0.12802224 0.15198733 -0.17900927 0.0019038618
0.09588783 0.008762548 -0.15692087 0.1359865 -0.055811025 0.15043582 -0.22136627 -0.107693695
-0.14987883 -0.049756162 -0.055449322 -0.14858606 -0.09455915 -0.042533416 0.05173607 -0.014487639
0.16097292 -0.14906143 -0.06451125 -0.17619282 0.0038252026 -0.15862645 -0.11724969 -0.1324951
-0.11137922 -0.04850246 0.014673084 0.11461697 -0.05298682 -0.004801452 -0.15601479 0.16458395
0.07348004 -0.110773526 0.08468644 -0.09355926 -0.09479318 -0.078639045 0.048658088 0.0637069
0.030941367 -0.1724633 -0.21422209 -0.11633567 -0.074262016 0.048265867 -0.0826274 -0.01044403
-0.09292307 -0.13382134 0.06923381 -0.07806228 0.029339135 0.14788146 0.04634256 0.033720117
0.10069938 0.14967434 0.029886983 -0.00062429835 0.13467044 0.0943232 0.0029602377 -0.12023863
-0.0337849 0.06444807 0.11858326 0.055896625 0.03795825 0.14572114 -0.06741645 0.1576746
-0.17980644 -0.02293733 0.022387922 -0.1635971 0.102293864 0.02715104 0.16117285 0.09058618
0.05861979 -0.15660807 -0.17381695 -0.14851277 -0.14668606 0.09717171 0.019422583 0.030554224
-0.14882442 -0.048609015 -0.06287273 0.07295667 0.0518959 0.026994929 0.08335377 0.1568935
0.07378264 -0.15956564 0.15844041 -0.056386866 -0.13108167 0.0934256 0.11892529 -0.02167388
0.042330217 -0.1274779 -0.1460506 0.04509686 -0.043414846 -0.0907864 -0.09994845 -0.07916899
-0.0015835166 -0.045365103 -0.056878433 0.025154287 -0.034603998 0.0030501485 -0.17189233 0.009102627
-0.055983596 -0.18101044 0.0958655 -0.059991974 -0.17474991 0.004965946 -0.11141215 0.028048236
0.13816564 0.019450642 0.050067782 -0.028231243 0.094621465 0.15346833 -0.058327157 0.06626421
-0.20533384 -0.17832041 -0.1752836 -0.042624205 -0.03970261 -0.10321327 0.075281456 -0.0014652759
0.0048995856 -0.119926535 0.07215815 -0.048179578 -0.07402984 0.024348097 0.022188833 0.13617028
0.15629561 0.0987166 -0.041790873 0.06883953 0.0012753553 0.16122232 0.07658967 -0.0047143046
-0.062999174 -0.12996073 -0.1366044 0.15244773 0.09189792 0.10192697 0.15056004 -0.17047459
-0.06181141 -0.057145048 -0.14637299 0.04378642 -0.1854349 0.048063442 0.08270557 0.15109225
00000000: af71 3ebd f132 8a3d baa6 5a3d 2448 debd
00000010: 48e8 18be dc91 08bd 329f cc3d d199 acbd
00000020: c38d c8bd 2e08 a6bd 549f 4abe e8b5 05be
00000030: d99a 093e d48e 323d b6f6 28be 54d4 063d
00000040: 617d 9fbd 4e91 843d 4269 e23d 2f53 09be
00000050: 6826 4a3d 6078 a43d c0eb 453c b034 8d3d
00000060: 0eac 31bd f871 a13b cc29 543d 9d69 a4bd
00000070: 90fb a7bd 4839 2b3e b0da 22bc d9b9 2cbe
00000080: a2b1 63bd 504f 90bd 984f ee3d 3afb 933d
00000090: b128 46bd c812 d9bc a3f1 603d 94b9 04be
000000a0: ae33 14be 4b3f 8b3c 7e2a dbbd 0bec 46be
000000b0: 2ea0 d43d d452 9abd c0d2 283c 1a1f d13d
000000c0: 74fd 253d 335e 0cbe 59a8 b9bb 7038 f93d
000000d0: 6f4b b03d 292d 96bd e737 bcbd 01e9 623d
000000e0: 7a39 10be 0ada 07be b4f1 8bbd ef8b 86bd
000000f0: 03c7 63bd eff3 debd 4a3c 0a3e 856f 7f3d
00000100: 22b3 28be b729 8fbc afbd 093e 143e 2bbe
00000110: 78a5 b0bc 6989 023e e36e 343e df3c 983d
00000120: 86f0 60bd d3a7 963d 5f57 cebd 83b7 babd
00000130: 4318 033e 91a2 1b3e 354e 37be 008b f93a
00000140: d760 c43d ca90 0f3c ddaf 20be 0c40 0b3e
00000150: 1a9a 64bd d90b 1a3e d7ad 62be 838e dcbd
00000160: d679 19be 1ecd 4bbd d41e 63bd f226 18be
00000170: 3aa8 c1bd 8537 2ebd 34e9 533d 905d 6dbc
00000180: 16d6 243e 8fa3 18be 791e 84bd e46b 34be
00000190: 40b0 7a3b f96e 22be 9b20 f0bd ccac 07be
000001a0: ca1a e4bd 84aa 46bd 6067 703c 4dbc ea3d
000001b0: b508 59bd 8055 9dbb 57c2 1fbe b288 283e
000001c0: b47c 963d 3bdd e2bd 1670 ad3d ff9b bfbd
000001d0: ed22 c2bd 820d a1bd b44d 473d c378 823d
000001e0: c078 fd3c 389a 30be 095d 5bbe 6541 eebd
000001f0: af16 98bd 6eb2 453d 8e38 a9bd 701d 2bbc
00000200: 734e bebd 7608 09be 75ca 8d3d 1edf 9fbd
00000210: a058 f03c 3d6e 173e b2d1 3d3d 1b1e 0a3d
00000220: 7a3b ce3d 3b44 193e 8cd5 f43c f4a7 23ba
00000230: 0ce7 093e 862c c13d 8c00 423b ac3f f6bd
00000240: 0962 0abd 5afd 833d c8db f23d dcf3 643d
00000250: 1c7a 1b3d ec37 153e a311 8abd 7375 213e
00000260: 2e1f 38be 11e7 bbbc e066 b73c 0086 27be
00000270: 727f d13d dc6b de3c 7f0a 253e 3f85 b93d
00000280: 4e1b 703d de5d 20be 12fd 31be bb13 18be
00000290: df34 16be f601 c73d 1c1c 9f3c da4c fa3c
000002a0: 6e65 18be 3f1a 47bd 6bc3 80bd 4e6a 953d
000002b0: cc90 543d 7824 dd3c 62b5 aa3d b1a8 203e
000002c0: 5a1b 973d 2d65 23be 343e 223e eaf5 66bd
000002d0: 463a 06be ec55 bf3d 1a8f f33d 6c8d b1bc
000002e0: 7362 2d3d 9189 02be 4a8e 15be 7cb7 383d
000002f0: c4d3 31bd 38ee b9bd c6b1 ccbd 5a23 a2bd
00000300: 008e cfba c2d0 39bd 5cf9 68bd 5d10 ce3c
00000310: ecbc 0dbd 00e5 473b 8b04 30be 2f23 153c
00000320: 0e4f 65bd cd5a 39be 2255 c43d 25ba 75bd
00000330: a4f1 32be 60b9 a23b 0e2c e4bd 6ac5 e53c
00000340: 4b7b 0d3e f456 9f3c e013 4d3d 3545 e7bc
00000350: e6c8 c13d cd26 1d3e 75e8 6ebd 88b5 873d
00000360: 0943 52be a099 36be 8b7d 33be b896 2ebd
00000370: 349f 22bd 7b61 d3bd 2a2d 9a3d 800e c0ba
00000380: b48c a03b 0b9c f5bd a7c7 933d f357 45bd
00000390: f59c 97bd a975 c73c 5bc5 b53c 3970 0b3e
000003a0: f50b 203e ee2b ca3d e82c 2bbd bdfb 8c3d
000003b0: d329 a73a 7717 253e 0bdb 9c3d 747a 9abb
000003c0: b605 81bd 6d14 05be 06e2 0bbe 421b 1c3e
000003d0: fa34 bc3d 16bf d03d 692c 1a3e e490 2ebe
000003e0: f62d 7dbd ed10 6abd cde2 15be 6459 333d
000003f0: a5e2 3dbe 2cde 443d 8a61 a93d edb7 1a3e

sensor_model.4.bias f4 [64]
-0.02630697 0.015213874 -0.09507872 0.0033056338 0.0064710975 0.002953133 0.020379763 0.019462429
0.0049396274 -0.06158258 -0.053272128 0.18113825 0.23965621 -0.07885877 -0.031348046 0.20618038
-0.08316653 -0.09695721 0.028297797 0.01365769 -0.002535157 -0.13797352 -0.082278065 0.012200458
0.0052329297 0.19795506 -0.06910662 -0.044953443 -0.08615493 -0.078111194 0.025462396 -0.001099026
-0.01843025 -0.06671314 0.19692054 -0.107735425 -0.040697154 -0.06557092 -0.0047700303 -0.064827666
-0.003450796 -0.013314631 0.031425375 0.015631108 0.03189078 -0.0011246848 -0.08201767 -0.05722398
-0.012235034 0.008428079 -0.049516045 0.034391027 0.015255245 -0.08355292 0.22472245 0.013221051
-0.065569654 -0.07148283 -0.08499084 -0.0671221 -0.033376414 -0.03128715 0.019310057 -0.008250763
00000000: b781 d7bc 9d43 793c a2b8 c2bd 55a3 583b
00000010: 800b d43b 5a89 413b 76f3 a63c ac6f 9f3c
00000020: 99dc a13b 043e 7cbd e033 5abd 4e7c 393e
00000030: 7068 753e b580 a1bd cf66 00bd f320 533e
00000040: 3753 aabd 8091 c6bd c8d0 e73c 81c4 5f3c
00000050: e024 26bb ee48 0dbe 6781 a8bd 6ee4 473c
00000060: ff78 ab3b bbb4 4a3e c687 8dbd 1a21 38bd
00000070: ff71 b0bd c3f8 9fbd 8496 d03c 310d 90ba
00000080: 09fb 96bc e6a0 88bd 8aa5 493e 64a4 dcbd
00000090: 0fb2 26bd 0c4a 86bd ea4d 9cbb 5ec4 84bd
000000a0: c026 62bb 9c25 5abc e5b7 003d cf0c 803c
000000b0: e89f 023d 296a 93ba e1f8 a7bd b163 6abd
000000c0: 7475 48bc ed15 0a3c 56d1 4abd 9bdd 0c3d
000000d0: 23f1 793c cb1d abbd a41d 663e 1b9d 583c
000000e0: 6249 86bd 9765 92bd ad0f aebd 5077 89bd
000000f0: b5b5 08bd f426 00bd 2030 9e3c 352e 07bc

target_model.0.weight f4 [64, 66]
-0.15956293 -0.18059866 -0.04120426 -0.08855522 0.12020846 0.14268178 -0.15159547 -0.10154572
0.039452676 0.029767573 0.11207496 -0.080744475 0.037317295 0.10832761 -0.1986908 0.08620091
0.15196927 0.10947238 -0.18121634 0.17141569 -0.17019854 0.033608705 -0.13396099 -0.20734908
-0.033604536 -0.20785369 0.18901102 0.15979296 0.20602874 0.07414581 0.09881444 -0.07480466
-0.115003765 0.093897715 0.08824064 0.08686255 0.07258543 -0.13410279 -0.043730825 -0.103583425
0.12616451 0.09012441 -0.20047174 -0.04182917 -0.082291156 -0.17833297 -0.18381688 0.004570633
-0.021122187 0.14153272 0.18846612 -0.17699791 0.19746636 0.11558117 -0.0916735 -0.065893576
-0.10020815 -0.08403526 -0.06772801 0.08410846 0.02667839 -0.0748861 -0.07831778 -0.11079564
-0.20237969 -0.03990987 0.2168723 -0.036425356 -0.09060496 -0.070632614 0.0040123016 -0.19832908
0.119806245 -0.094905354 -0.043835465 -0.033036172 -0.12820438 -0.22688508 0.052183647 -0.052633315
-0.1405747 0.110833205 -0.06673794 0.07433733 -0.1823203 0.10408472 -0.18639982 0.0149007775
0.037354425 -0.17166428 0.04383893 0.05440872 -0.048423037 -0.05221546 -0.1614713 -0.13397196
0.09063189 -0.12595983 0.012978258 0.1327705 -0.15646173 0.21265344 -0.09295321 -0.105640806
-0.15403761 0.17930637 -0.05287777 0.19406343 -0.11057696 -0.07937464 -0.10718686 0.043685604
-0.12530841 0.058254883 -0.10893833 -0.17792103 0.16083287 -0.0402568 0.20209174 -0.026480872
-0.028274495 0.19615735 0.16017206 0.006448924 -0.065081835 0.105325624 -0.09462755 0.04369937
-0.20279661 0.009617879 -0.29498798 -0.056405853 -0.016700057 0.0106420675 -0.10298827 -0.046285667
0.13837488 0.11240605 -0.19823597 0.13796276 -0.03274274 -0.04445128 -0.18505079 0.08989909
-0.12042595 0.14748631 0.076052725 -0.20851886 -0.07604028 -0.08203359 -0.068290696 0.13663563
0.10799743 -0.24903749 0.12899189 -0.06860585 -0.03142663 0.027674634 0.017323658 -0.016021082
-0.20759885 -0.08928922 0.14824249 -0.048734017 -0.011602167 0.14920838 -0.27960595 -0.13622881
-0.33751354 0.0022066385 -0.20346308 0.106932245 0.03938435 0.14296053 0.0793761 -0.055946354
-0.04372008 -0.069266655 0.07453064 0.057966772 0.20373672 -0.15877663 -0.18327263 0.12637097
0.071249366 -0.16180149 -0.124099486 0.049743015 0.10965584 0.14616467 0.14158313 0.19624467
0.16915312 0.04854598 0.157482 0.03069552 0.013106321 -0.017306324 -0.038070645 -0.085999206
-0.03412276 0.010171362 0.15304895 -0.0068200617 0.0077712745 -0.19374137 -0.12864381 0.116965756
-0.07749008 0.111250594 0.2037803 -0.13604867 -0.038161464 0.22857302 0.17696406 -0.05644782
-0.12718987 -0.0492878 0.15404914 0.062247515 0.13317882 0.19266734 0.11294339 0.0019224163
-0.26256728 0.0042247553 -0.041750103 -0.1530506 -0.09100925 -0.14431916 -0.11247953 0.0021658093
-0.02662632 -0.19353119 0.037402045 -0.18294418 -0.024750566 -0.060693588 0.088101044 0.017767526
0.009385011 0.017695839 0.20253533 0.026640935 0.16214608 -0.12694733 -0.10840418 -0.048437715
-0.11499103 0.13792911 0.04554932 -0.054270245 -0.1409281 0.10719387 -0.013446361 0.18040264
00000000: 7764 23be dbee 38be ccc5 28bd 705c b5bd
00000010: da2f f63d 2c1b 123e d83b 1bbe 34f7 cfbd
00000020: 2199 213d 20db f33c 8e87 e53d 5c5d a5bd
00000030: 05da 183d deda dd3d 9a75 4bbe 1a8a b03d
00000040: d59d 1b3e 0e33 e03d c790 39be 9887 2f3e
00000050: 8748 2ebe 48a9 093d 122d 09be 5153 54be
00000060: e9a4 09bd 99d7 54be 1b8c 413e c4a0 233e
00000070: 33f9 523e c2d9 973d 3a5f ca3d 3033 99bd
00000080: 1887 ebbd 724d c03d 82b7 b43d fee4 b13d
00000090: aca7 943d 3e52 09be 181f 33bd 8c23 d4bd
000000a0: 4531 013e 2693 b83d 7748 4dbe 1055 2bbd
000000b0: 4488 a8bd eb9c 36be 7e3a 3cbe 40c5 953b
000000c0: 7008 adbc f4ed 103e 43fd 403e f13e 35be
000000d0: 9f34 4a3e d2b5 ec3d 51bf bbbd 36f3 86bd
000000e0: ee39 cdbd ae1a acbd fcb4 8abd 0e41 ac3d
000000f0: a48c da3c e25d 99bd 1265 a0bd d3e8 e2bd
00000100: 9f3c 4fbe 8878 23bd c613 5e3e c132 15bd
00000110: 188f b9bd d5a7 90bd a079 833b c716 4bbe
00000120: fa5c f53d bd5d c2bd d18c 33bd f050 07bd
00000130: 0248 03be 9054 68be 85be 553d 0896 57bd
00000140: d0f2 0fbe 85fc e23d e7ad 88bd 2c3e 983d
00000150: 2cb2 3abe 5f2a d53d 98df 3ebe 6422 743c
00000160: f400 193d c3c8 2fbe 7390 333d aedb 5e3d
00000170: 3c57 46bd e1df 55bd bc58 25be f22f 09be
00000180: 369d b93d 9dfb 00be c2a2 543c fdf4 073e
00000190: 8137 20be d3c1 593e 415e bebd 355a d8bd
000001a0: 09bc 1dbe 179c 373e 5c96 58bd 90b8 463e
000001b0: 2c76 e2bd 2c8f a2bd c984 dbbd adef 323d
000001c0: d950 00be ac9c 6e3d 0f1b dfbd ee30 36be
000001d0: 5fb1 243e 50e4 24bd 23f1 4e3e 6aee d8bc
000001e0: ea9f e7bc 79dd 483e 2504 243e 7f51 d33b
000001f0: a049 85bd f6b4 d73d 17cc c1bd 1cfe 323d
00000200: eaa9 4fbe 4f94 1d3c aa08 97be d309 67bd
00000210: 8fce 88bc 115c 2e3c 84eb d2bd 0a96 3dbd
00000220: 25b2 0d3e 2535 e63d 5ffe 4abe 1c46 0d3e
00000230: 401d 06bd 8c12 36bd f47d 3dbe 041d b83d
00000240: e1a1 f6bd a706 173e 88c1 9b3d f885 55be
00000250: 02bb 9bbd 3a01 a8bd fedb 8bbd 36ea 0b3e
00000260: c22d dd3d af03 7fbe 7316 043e 3981 8cbd
00000270: 36b9 00bd eab5 e23c 58ea 8d3c a53e 83bc
00000280: cb94 54be 44dd b6bd e1cc 173e 529d 47bd
00000290: 0417 3ebc 15ca 183e 8328 8fbe 917f 0bbe
000002a0: 93ce acbe 409d 103b a058 50be 4bff da3d
000002b0: 7c51 213d 3f64 123e f08f a23d 0128 65bd
000002c0: d413 33bd addb 8dbd 85a3 983d 916e 6d3d
000002d0: 5ca0 503e 5796 22be d2ab 3bbe 6467 013e
000002e0: 30eb 913d 4aaf 25be df27 febd 55bf 4b3d
000002f0: 3e93 e03d 31ac 153e 2bfb 103e 5df4 483e
00000300: 7a36 2d3e 26d8 463d f642 213e 2c75 fb3c
00000310: e5bb 563c fec5 8dbc f7ef 1bbd 5a20 b0bd
00000320: 4fc4 0bbd c9a5 263c ddb8 1c3e d37a dfbb
00000330: 2da6 fe3b 2364 46be 34bb 03be be8b ef3d
00000340: 1eb3 9ebd 5ad7 e33d c8ab 503e 5850 0bbe
00000350: 324f 1cbd 0c0f 6a3e 1136 353e d435 67bd
00000360: 103e 02be 01e2 49bd 0fbf 1d3e 40f7 7e3d
00000370: 0760 083e 964a 453e dd4e e73d 96f9 fb3a
00000380: 386f 86be d16f 8a3b 2802 2bbd 4cb9 1cbe
00000390: 0f63 babd 67c8 13be ab5b e6bd 40f0 0d3b
000003a0: 711f dabc 0a2d 46be e332 193d b855 3bbe
000003b0: b3c1 cabc d799 78bd 526e b43d 348d 913c
000003c0: 97c3 193c ddf6 903c 6c65 4f3e 173e da3c
000003d0: 9f09 263e 7bfe 01be 0303 debd a066 46bd
000003e0: 6b80 ebbd 4a3d 0d3e ec91 3a3d 7a4a 5ebd
000003f0: 754f 10be 7688 db3d 204e 5cbc 78bb 383e

target_model.0.bias f4 [64]
-0.1185188 -0.024809169 -0.079669 -0.073977664 -0.22663027 -0.14072223 -0.022027416 0.040280223
-0.001053962 -0.021506548 0.14510207 0.10227974 -0.13006577 -0.05953717 -0.12942198 0.1472862
-0.19860981 0.10179981 -0.014105979 0.44912425 -0.11754148 -0.23651975 -0.06467229 -0.09962335
0.37275603 0.11091787 -0.15512645 0.02477618 0.15177104 -0.45076898 -0.038917948 -0.124118276
0.29221055 -0.009706075 -0.112377465 -0.34495696 0.00047363227 0.15559497 0.14212036 0.15211225
-0.113646 -0.31284487 -0.29613063 -0.21596417 -0.025312698 0.034153856 -0.030226426 -0.06450006
0.16999951 -0.2925341 0.4490318 0.07282092 0.04561677 -0.022104677 -0.11376028 -0.115631856
0.36603475 -0.16536967 -0.1462897 -0.1524182 -0.4034383 -0.03193872 0.04924028 0.092250444
00000000: fcb9 f2bd 993c cbbc 8029 a3bd 9a81 97bd
00000010: c411 68be 7d19 10be d772 b4bc e0fc 243d
00000020: 1925 8aba 802e b0bc a395 143e 0a78 d13d
00000030: f62f 05be 3fdd 73bd 3287 04be 32d2 163e
00000040: 5f60 4bbe 6b7c d03d c41c 67bc 9df3 e53e
00000050: 96b9 f0bd 3c32 72be e872 84bd 5407 ccbd
00000060: e1d9 be3e e928 e33d 78d9 1ebe 6af7 ca3c
00000070: de69 1b3e 31cb e6be 6d68 1fbd b931 febd
00000080: 9f9c 953e 3b06 1fbc 2826 e6bd 339e b0be
00000090: d951 f839 4a54 1f3e 0088 113e 50c3 1b3e
000000a0: 3cbf e8bd 342d a0be 6f9e 97be b625 5dbe
000000b0: 935c cfbc eae4 0b3d 699d f7bc 9c18 84bd
000000c0: 5a14 2e3e 08c7 95be 7fe7 e53e 2223 953d
000000d0: a6d8 3a3d de14 b5bc 26fb e8bd 65d0 ecbd
000000e0: e868 bb3e ab56 29be f8cc 15be 8413 1cbe
000000f0: 778f cebe 2dd2 02bd 2db0 493d cded bc3d

target_model.2.weight f4 [16, 64]
0.14694007 -0.07533405 0.016330052 0.1751731 0.07462435 0.033357628 -0.03407018 0.22669856
0.020982016 0.052743983 0.16829114 0.12882282 0.1422564 -0.05542873 -0.0545955 0.5744207
0.13030201 0.005490141 -0.10234754 -0.059582017 0.13745476 -0.30373508 -0.07755559 0.5579003
-0.22522075 -0.22000217 -0.023496546 0.648414 -0.053567927 -0.0356289 0.40684143 0.058363624
0.017237358 0.16361164 -0.050806694 0.100385524 0.07298073 -0.014066681 0.047846023 -0.049475778
-0.12165616 -0.33144403 -0.17977306 0.18065716 -0.042336226 0.27534306 0.16581781 -0.2584037
0.72975004 -0.22340868 -0.18278743 0.79609567 0.5791492 0.14592317 -0.19940831 -0.03410165
0.281803 -0.02289984 -0.045445528 0.09506208 -0.21173172 0.051035475 0.7073199 -0.021182425
-0.18185994 0.04130276 -0.10128758 0.0009336254 -0.16871113 -0.12362429 0.031906225 -0.12778184
-0.20735049 0.11579986 0.005081087 0.035950273 -0.19244142 0.10708324 -0.15271911 0.172541
-0.08742714 0.13127023 -0.13997726 0.09774267 0.122225374 -0.10519557 -0.004222156 0.026870739
-0.18987563 0.15967391 -0.11255219 0.110837825 -0.10377637 -0.21272634 0.077886425 0.25589758
0.06484759 0.2225046 -0.013235775 -0.058280677 -0.027589843 0.056677286 -0.08699837 -0.026415875
-0.17924821 -0.09844003 -0.115848854 0.019182151 0.12260428 0.031849764 0.22507723 0.21245985
0.36752528 -0.23681673 -0.29585752 0.15553237 0.13014796 -0.1772041 -0.11980144 0.019913211
-0.06689539 0.24773292 0.18635905 0.033067632 -0.25564077 0.0593599 0.20298187 -0.050410222
-0.18017676 0.17665476 -0.27405182 -0.26254776 0.13105597 -0.10790284 -0.118284434 0.13049373
-0.044873394 0.16883196 -0.2475836 0.26556596 0.24660903 0.18619178 -0.14583415 -0.115859665
0.2671366 -0.19488925 0.24365439 0.14507256 0.1507285 0.095361546 -0.014679818 -0.0062051755
0.10954187 -0.057012077 -0.22754405 -0.10273584 -0.005452179 0.20270374 -0.25963786 -0.020588446
-0.14416766 0.1929546 -0.08681548 -0.22853178 -0.05841572 0.07176289 -0.2678613 0.03808861
-0.22967441 -0.18686163 0.00835117 0.18863302 -0.07422882 0.04483449 -0.048632007 0.142612
0.1581935 -0.022888202 -0.14676712 0.075241685 -0.28249902 -0.1580151 -0.06836184 0.21074253
-0.19179644 0.27189365 -0.20309182 -0.022201674 -0.057214998 0.27615207 0.17328584 -0.12877871
-0.22890165 0.038434673 0.0023412053 -0.2247549 -0.017878417 -0.063583724 0.0023328916 0.0806134
0.02745085 0.21655563 0.025618168 0.1349625 -0.10555259 -0.012202286 -0.0045855325 -0.13756178
0.06586114 0.12140844 0.029030751 0.24819963 0.20067868 0.0055963565 -0.029160053 -0.24868459
0.2835574 0.00087938685 0.039013144 -0.19888115 -0.0018724555 -0.13395105 -0.356959 -0.099339284
0.103513286 0.0053842315 -0.104045875 -0.021630796 0.024771195 0.026194844 0.024372453 0.0044670524
0.05441536 0.010019467 -0.13691385 0.012362178 0.24660544 -0.30466264 -0.21714322 0.0005106635
0.18663564 0.024348501 0.16734955 -0.067964405 -0.45184323 0.19180162 0.017380536 0.042131726
0.27658236 -0.14142781 0.07553902 -0.1320018 -0.0034413964 0.058525607 -0.29774517 0.017577678
00000000: 7577 163e bd48 9abd 9ac6 853c 9460 333e
00000010: a7d4 983d 02a2 083d 2c8d 0bbd ab23 683e
00000020: 7ae2 ab3c 130a 583d 8354 2c3e 21ea 033e
00000030: a9ab 113e 3c09 63bd 889f 5fbd 3c0d 133f
00000040: e46d 053e a4e6 b33b 969b d1bd 460c 74bd
00000050: f1c0 0c3e 2a83 9bbe 77d5 9ebd 8ed2 0e3f
00000060: 45a0 66be 4048 61be d47b c0bc 76fe 253f
00000070: 0b6a 5bbd 9cef 11bd 854d d03e b20e 6f3d
00000080: 5c35 8d3c cf89 273e ae1a 50bd ed96 cd3d
00000090: ec76 953d f077 66bc 31fa 433d 1da7 4abd
000000a0: dd26 f9bd 08b3 a9be 6e16 38be 31fe 383e
000000b0: c068 2dbd c4f9 8c3e 25cc 293e 7d4d 84be
000000c0: e6d0 3a3f 3fc5 64be a12c 3bbe edcc 4b3f
000000d0: 1f43 143f e26c 153e b131 4cbe 2cae 0bbd
000000e0: 7c48 903e 7298 bbbc 1725 3abd e8af c23d
000000f0: 33d0 58be 930a 513d eb12 353f c486 adbc
00000100: 7e39 3abe 152d 293d dd6f cfbd 8abe 743a
00000110: 9cc2 2cbe bb2e fdbd 1ab0 023d 3ed9 02be
00000120: b053 54be 7a28 ed3d 3f7f a63b 9840 133d
00000130: 5d0f 45be 754e db3d 6662 1cbe 97ae 303e
00000140: 000d b3bd b46b 063e 3356 0fbe 4f2d c83d
00000150: 4c51 fa3d c670 d7bd 035a 8abb 0620 dc3c
00000160: c26e 42be 8f81 233e c381 e6bd f1fe e23d
00000170: b588 d4bd efd4 59be eb82 9f3d 0205 833e
00000180: d0ce 843d 3fd8 633e ddda 58bc b8b7 6ebd
00000190: 1804 e2bc 7126 683d 342c b2bd 1b66 d8bc
000001a0: d88c 37be ed9a c9bd 2a42 edbd e323 9d3c
000001b0: f417 fb3d e674 023d a57a 663e 138f 593e
000001c0: 462c bc3e 1680 72be a37a 97be e143 1f3e
000001d0: 8245 053e fe74 35be 755a f5bd 0821 a33c
000001e0: 7300 89bd b3ad 7d3e e8d4 3e3e ed71 073d
000001f0: 59e3 82be 5e23 733d 7bda 4f3e f37a 4ebd
00000200: 4280 38be fce4 343e 8550 8cbe a96c 86be
00000210: 8933 063e 2afc dcbd 1c3f f2bd 26a0 053e
00000220: 2acd 37bd 49e2 2c3e 8e86 7dbe 43f8 873e
00000230: 1487 7c3e 0fa9 3e3e 8c55 15be d547 edbd
00000240: 21c6 883e 0c91 47be 8980 793e e78d 143e
00000250: 9258 1a3e ea4c c33d 9f83 70bc c954 cbbb
00000260: 7d57 e03d 7f85 69bd 4f01 69be 2b67 d2bd
00000270: 31a8 b2bb 9291 4f3e 41ef 84be 1aa9 a8bc
00000280: b0a0 13be e495 453e 50cc b1bd 3c04 6abe
00000290: 5245 6fbd 6cf8 923d 1e25 89be cd02 1c3d
000002a0: c52f 6bbe a858 3fbe 59d3 083c 0429 413e
000002b0: 4805 98bd 5fa4 373d 5b32 47bd e108 123e
000002c0: 7afd 213e 0a80 bbbc 1f4a 16be 5018 9a3d
000002d0: b6a3 90be b6ce 21be 4b01 8cbd e4cc 573e
000002e0: 4966 44be a535 8b3e 4df7 4fbe 49e0 b5bc
000002f0: 465a 6abd ce63 8d3e d871 313e 91de 03be
00000300: 3265 6abe ad6d 1d3d e86e 193b 2626 66be
00000310: c275 92bc 2f38 82bd 6de3 183b a318 a53d
00000320: 9be0 e03c c2c0 5d3e 31dd d13c 9c33 0a3e
00000330: f52b d8bd 19ec 47bc 3c42 96bb ffdc 0cbe
00000340: 35e2 863d fda4 f83d e6d1 ed3c 0b28 7e3e
00000350: b67e 4d3e a461 b73b 10e1 eebc 2ca7 7ebe
00000360: 6f2e 913e a786 663a 3fcc 1f3d 80a7 4bbe
00000370: 2e6d f5ba 772a 09be 54c3 b6be 6572 cbbd
00000380: c6fe d33d 356e b03b 0116 d5bd 1133 b1bc
00000390: f6ec ca3c 9296 d63c bda8 c73c 5a60 923b
000003a0: a4e2 5e3d b128 243c 2533 0cbe bc8a 4a3c
000003b0: 2386 7c3e befc 9bbe cb5a 5ebe 0cde 053a
000003c0: 6a1d 3f3e 8276 c73c ae5d 2b3e ec30 8bbd
000003d0: ff57 e7be a567 443e a061 8e3c 5192 2c3d
000003e0: 349c 8d3e 74d2 10be 34b4 9a3d 7b2b 07be
000003f0: 0d89 61bb 8cb8 6f3d 0e72 98be 10ff 8f3c

target_model.2.bias f4 [16]
0.065796696 0.056863874 -0.15239859 0.34943298 -0.121807426 0.025169598 -0.08772716 0.022306265
-0.016835313 -0.049343128 -0.10603 -0.0030344774 0.041472867 -0.04531696 -0.095047034 -0.056393836
00000000: 6bc0 863d 18ea 683d 600e 1cbe e1e8 b23e
00000010: 2c76 f9bd 7930 ce3c 4caa b3bd a1bb b63c
00000020: 36ea 89bc 051c 4abd 4226 d9bd 15de 46bb
00000030: 74df 293d 479e 39bd 05a8 c2bd 39fd 66bd
