Pytorch_DRL/HNRN/models/backup/4.1_pretrain_target/best_ca_actor.model (torch_old, 557663 bytes, 12 tensors)

sensor_model.0.weight f4 [256, 360]
00000000: 18dd 113c 93bc 2bbd d812 7dbc 80a5 88bc
00000010: fd72 9f3d 8f98 98bd 60e9 94bb eb4d a03d
00000020: 6c3f a7bd 786a 44bc 2271 353d 049b a2bd
00000030: 7490 bdbd 47b5 c23d bc3b d43c 0cef 89bd
00000040: 67b7 b63d 11b3 23bd 4bdd 23bd ee1c 7d3d
00000050: 4ab1 463d 0096 7cbc 6056 afbb f865 05bc
00000060: 90e0 d5bb f303 b63d d191 80bd fdd0 bc3d
00000070: 500e 43bd 80e8 a53c 738e 8a3d 2ab1 4e3d
00000080: 2c65 b4bd 0d57 6bbd 8024 75bb 9bca bf3d
00000090: c1b2 943d 5398 8f3d 96dc 1b3d f191 863d
000000a0: 6f09 843d 9d09 b53d 7819 8cbd 83d4 92bd
000000b0: acb3 d73c 7e4d 303d a4c0 16bd 40cb ac3a
000000c0: d06d 80bd ae4b 60bd f246 27bd e757 c63d
000000d0: 94f3 813c bba2 b33d 5500 4cbd c086 b33b
000000e0: 9466 ee3c d8a1 903c 73a5 a43d 99e2 903d
000000f0: 0410 aabc a102 1fbd 5026 c0bc f87c 9cbd
00000100: 18f5 4bbd b255 703d 1ac4 503d c284 87bd
00000110: 245e f63c ed58 ae3d ce91 393d 06bf b9bd
00000120: 459b 65bd 3eb6 263d e238 a7bd 57f6 a23d
00000130: 59aa c83d 9959 6dbd e87d 693c 0c98 57bd
00000140: 87e2 17bd 83a8 c0bd 1cd5 ff3c acef babc
00000150: 60a9 5cbc cc07 de3c 3315 c93d 0831 3abc
00000160: 2d1d 85bd 24ad 973c f049 a3bd 9660 1bbd
00000170: 42d7 353d 887d 303c bde2 bc3d c00b d33b
00000180: c43e 32bd ecfb dd3c b548 843d a00d 2c3b
00000190: 0cff 74bd 2b65 7dbd 8c6b f13c 6dcc 9bbd
000001a0: 99e0 af3d e0e3 4f3c 44cb f33c 42fc 743d
000001b0: 2e5f 173d 3bd6 72bd 50b0 f6bc 49c2 bebd
000001c0: 7c17 99bc edc9 bcbd e040 34bc 67e7 b2bd
000001d0: 8e15 603d 3ebb 8fbd 979a 94bd b505 933d
000001e0: 07fc 813d 20ce 3bbb d8aa c4bc 27f1 a13d
000001f0: 78ed 0fbc aebc 7e3d e02c aabb 40c9 22bc
00000200: aff3 933d 20ff 81bb b00c 80bb e8d1 9cbd
00000210: 7a38 5c3d 9c0b e13c 03cb 903d 5673 acbd
00000220: 6e79 273d 1fab 933d 25b6 3abd fc25 fb3c
00000230: 40ca 6ebc de23 9bbd 0a11 233d 5095 65bc
00000240: e428 fdbc 26a3 88bd 6037 9abc 665a 3a3d
00000250: 569f 85bd 0b25 9f3d 604c 61bc fed2 0dbd
00000260: a8e7 e3bc 6b91 8f3d 9a94 7c3d 1519 9d3d
00000270: 3843 c7bd a036 16bb 0095 b8bb 285f 59bd
00000280: 60c4 103b 00dc 09bc b0f5 d33c f215 1d3d
00000290: f4a5 c2bc ae7f 2b3d 059d 8dbd c0db 803a
000002a0: 2d43 22bd 09c8 9b3d a87d 753c fadb 99bd
000002b0: 5ce5 ff3c c207 bfbd 02e3 633d 3aec b9bd
000002c0: 861a 7cbd 3ad4 81bd 116f 993d ec16 b0bd
000002d0: 786a 5ebc 27c5 c43d 17b4 62bd f535 c3bd
000002e0: 65b2 b53d 51e5 a63d dfd6 98bd 582d aabc
000002f0: d37f ae3d 1d3a 863d 396f b13d df53 4dbd
00000300: 2434 d33c 836e 863d cfc5 c5bd 26d3 3abd
00000310: 8395 b23d c0c0 553c 61d6 a8bd 005e a339
00000320: eceb cdbc 00dd ddbb a0cc 22bb 1714 913d
00000330: 207b 8cbc 3350 2abd 7031 08bd a707 86bd
00000340: 682c 24bd 4225 153d 044f e63c d21d 333d
00000350: a5b8 8e3d 551d a63d 08a5 7ebd 7744 24bd
00000360: a2a9 73bd a4aa 95bd 2ee6 bfbd 608a 6f3b
00000370: 93b7 acbd 1157 953d 0a33 213d 20d7 6cbb
00000380: 473c 81bd 904d 3a3c f142 963d 6b4f 19bd
00000390: 8009 6abc c41a 02bd 3071 1cbc f450 e3bc
000003a0: 63b8 21bd 86e4 213d e8bf f1bc bcd7 b73c
000003b0: e835 b8bc 34a0 95bd d337 a33d cbfe a43d
000003c0: 5036 21bd 5c9f ec3c 0253 283d 7813 5a3c
000003d0: 7d57 79bd 7a79 74bd b3f3 843d cee8 04bd
000003e0: 3fd7 a0bd 1cd7 a3bc 14c0 ee3c a31c 8c3d
000003f0: 27f6 843d bda0 b93d d102 b33d 00e8 bd3a
0.0089028105 -0.041927885 -0.015446387 -0.016680479 0.07785604 -0.07450973 -0.004544422 0.07827362
-0.08166394 -0.011988275 0.044297345 -0.07939723 -0.09256068 0.09507232 0.02590739 -0.06735048
0.089217 -0.039965693 -0.040005963 0.061795168 0.04850892 -0.015416622 -0.005350873 -0.008141987
-0.006527014 0.08887472 -0.06277812 0.09219549 -0.04762107 0.020252466 0.06765451 0.050461926
-0.088083595 -0.057456065 -0.003740579 0.09364816 0.07260657 0.070114754 0.038052164 0.06570805
0.06447112 0.08839724 -0.06840795 -0.0716944 0.026330791 0.043042652 -0.03680481 0.0013183132
-0.06270945 -0.054759674 -0.040839143 0.09684735 0.015863217 0.08771273 -0.049805004 0.00547871
0.029101647 0.017655298 0.080393694 0.0707447 -0.02075959 -0.038820866 -0.023455769 -0.076410234
-0.049794286 0.058675475 0.050968267 -0.066171184 0.030074187 0.08513055 0.045305066 -0.09069638
-0.05605628 0.040701143 -0.081651464 0.07957142 0.09798116 -0.057946775 0.01425121 -0.052635238
-0.037081268 -0.09407141 0.031229548 -0.022819363 -0.0134681165 0.027103327 0.098184966 -0.011364229
-0.064997055 0.018515177 -0.07973087 -0.03793391 0.04439474 0.0107721165 0.092229344 0.0064406097
-0.04351689 0.027097665 0.0645918 0.0026253238 -0.059813544 -0.06186406 0.029470228 -0.076073505
0.085877605 0.012688607 0.02976001 0.059810884 0.036956005 -0.059286337 -0.03011337 -0.09314401
-0.018687956 -0.09218202 -0.0110017955 -0.08735543 0.054708056 -0.070181355 -0.07256048 0.07178823
0.063468985 -0.0028656796 -0.024007246 0.07907324 -0.008784644 0.062191658 -0.005193338 -0.009935677
0.07224213 -0.003967181 -0.0039077625 -0.07657224 0.053764798 0.027471356 0.070699714 -0.08420436
0.04088729 0.07210373 -0.045583863 0.03065776 -0.014574587 -0.075752005 0.03981117 -0.01401265
-0.030903287 -0.06671743 -0.018825233 0.045496367 -0.065245315 0.07770737 -0.013751119 -0.034625046
-0.027820423 0.07010158 0.061665155 0.076708 -0.09729618 -0.0022920743 -0.0056329966 -0.053069264
0.0022089705 -0.0084142685 0.025873989 0.038351007 -0.023760773 0.04186981 -0.06914715 0.0009831116
-0.039614845 0.07606513 0.014983572 -0.0751266 0.031237297 -0.093276516 0.055636413 -0.0907826
-0.061548732 -0.06339307 0.07491887 -0.08598122 -0.013575189 0.09607916 -0.05534753 -0.09531776
0.08871917 0.081492074 -0.074628584 -0.020773575 0.08520474 0.06554053 0.08663792 -0.050128814
0.025781699 0.06564047 -0.096568696 -0.045611523 0.08719923 0.013046443 -0.082440145 0.00031159818
-0.02513691 -0.00677073 -0.0024841204 0.0708391 -0.017148554 -0.04158039 -0.033250272 -0.06544428
-0.04008141 0.036412485 0.02811385 0.04372961 0.06968812 0.081110634 -0.062169105 -0.040104356
-0.059487946 -0.07307938 -0.09370075 0.0036550984 -0.084334515 0.07291997 0.039355315 -0.0036138967
-0.06310325 0.011371031 0.07336987 -0.037429255 -0.014284492 -0.031763807 -0.00954847 -0.027748562
-0.039482486 0.039524578 -0.029510453 0.022441737 -0.022486642 -0.07305947 0.07969632 0.080564104
-0.039358437 0.028884582 0.041094787 0.013310306 -0.06087445 -0.05968616 0.064917944 -0.032448582
-0.07853555 -0.020000033 0.029144324 0.068413995 0.06492262 0.090638615 0.087407716 0.0014488697

sensor_model.0.bias f4 [256]
00000000: a990 773d 06ab bd3d 5434 15bd 6083 3cbd
00000010: 61f9 493d 6cd2 5bbc 04a2 e6bc fa79 18bd
00000020: 563b 833c ead9 a1bc 3fc9 4ebd 4812 36bc
00000030: a7ed b43d fe09 febc edac 2ebd 5832 07bc
00000040: 01ce 9d3d 28de efbb 722f 253d d8ae 95bb
00000050: 2d17 b23d b0b1 9dbc b6d1 9c3d fdc2 baba
00000060: e0e2 90bb 25e0 c4b8 e2d0 c93d f420 9e3a
00000070: e93f cf3d 4c4e 64bc 7d5e 863d 2e2e a2bc
00000080: af51 26bd 16af 01bd 6d63 92ba c895 6ebc
00000090: ae23 9e3d 0256 bdbc 8ad0 53b9 170c 853d
000000a0: 38f8 ffbc 992d 793d 2720 323d 984c 623d
000000b0: d70e e03c 9580 593d 6ed3 833d 824a 4dbd
000000c0: 325b a03d faad d0bc 2cf1 7d3d 46f7 d6bc
000000d0: 1a17 a93d 9453 31bc a90c 253d ed7a 683d
000000e0: 412c 2cbd d9dd ce3d c995 37bd bce3 1dbc
000000f0: c828 d9bb 70dc a43d 166c 4abd 0e8b c5bc
00000100: b6ef 4bbd 6518 ad3c 7855 ca3d e653 0abd
00000110: bc5e 923d 8006 83ba 0a64 643d a417 c73c
00000120: 58fe da3c de44 683d 480d 55bc ae83 91ba
00000130: 2773 a7b9 a5d1 8d3c 57e0 57bd f82f f8bc
00000140: 9680 35bd b117 12bd 3396 633d e3e7 c93d
00000150: e445 56bd 44f3 73bc 474a 2cbd 87f3 a63d
00000160: 94b4 913d 913a 8e3d 63d9 14bd 400b 27ba
00000170: 5ee5 693d feef a6bc 1267 8abc 71b3 10bd
00000180: e2f7 403d 58da 253d 3c89 673d d57e a73d
00000190: 4468 3fbd e36c d6bc 4053 b0ba 9092 873d
000001a0: e47c b93d 0078 beba bc94 933d 1c96 1f3d
000001b0: 59bd dcbc c0ee 95bc 2d35 f4bc cc80 40bd
000001c0: 7a9d 8aba 4600 a03d 6f58 9d3d 90cb 6dbc
000001d0: 1ab9 abbc 5cfe 9cbc 6841 15bc f0fe c3bc
000001e0: 875d a13d d36a 57bd e05b 34bb e7d8 46ba
000001f0: beb1 783d 1c32 06bd b889 1cbd 3a22 1dbd
00000200: ea5c 06bd e6c2 d23c 080b 12bd 8cdf 243d
00000210: 7472 29bd e94f 1abd f5fa 263d 3fac 43bd
00000220: 3b9b aa3d 7270 2ebd 6c3a 1fbc df41 653d
00000230: 8482 38bc 21b3 b43d 578e 923d 4053 d9ba
00000240: d9db 1b3d 3edd d93d 0935 b1bc 3206 803d
00000250: 00cb 4bbd d815 9cbc 0708 4abd d8dd 49bd
00000260: 93bb d3bc 6af6 d1b8 1f60 42b9 bfc4 34bd
00000270: 7824 44bd cfbd b33d dc4d afbc 7035 35bb
00000280: 5d11 b7bc 05a9 513d 48d9 f1bb e11a 963c
00000290: e856 913d e12e 35bd 1d64 ac3d 40dc ddba
000002a0: a53b 2bbd b40d 3f3d 8053 5d3d c098 6dbb
000002b0: d2df 8d3d 016e 9d3d 883c 7b3d 453b 5f3d
000002c0: f8cd 6abc d6ed 80bc 8300 2abd 0b36 c2bc
000002d0: 80f8 48bc 6833 55bc 441d 17bd 090a a43d
000002e0: 1f09 57bd ad82 dabc e692 49bd ee6b 0abd
000002f0: 8663 e7bc e7be 4ebd 3a57 a93c 424b 9f3d
00000300: 5c25 25bc bc77 a7bc 80c7 4cbd c0b5 3fba
00000310: 465c 813d 3c5e a03d 48d8 2f3d e0c6 90ba
00000320: c80f debb ad7f bd3c d0b4 9b3d 808c 6dbb
00000330: a16a aa3d 9f80 4f3d 7725 883d e239 b33d
00000340: 1258 eebc 2245 15bd 1216 b6bc 705b a2bb
00000350: 119c fcbc 0304 ed3d 2c52 40bd dc85 883d
00000360: e515 aa3d e961 eebc d679 3fbd 4a52 2abd
00000370: b817 283d 55de b7bc 74ec 34bd 202b bd3d
00000380: 6647 a73d 840b 8d3d c84c 1dbc b8d0 20bd
00000390: 1893 d8bb 5683 743c ee65 c93c 5cbb 21bc
000003a0: d96e 353d 9631 763d aae7 0ebd ecc0 893d
000003b0: d435 943d 1639 c93d 6a36 143d a526 823d
000003c0: 626a 99bc e1ce 9a3d 376d 8a3d df14 663d
000003d0: ad99 b33d 8e93 683b 20ee a63d 7ba7 b9bc
000003e0: e4be 4ebd 7bbc ddbc 3293 0cbd c3de bf3d
000003f0: a80c d73d 405f d0bb db1f 0ebd 30a1 87bc
0.060440693 0.09261136 -0.036426857 -0.046023726 0.049310092 -0.013416868 -0.028153427 -0.0372257
0.016019505 -0.01975723 -0.050484892 -0.011112757 0.08834391 -0.031010624 -0.042645384 -0.008251749
0.07705308 -0.0073201843 0.04032845 -0.004567962 0.08695827 -0.019249767 0.07657187 -0.0014248785
-0.004421577 -9.3877585e-05 0.09854294 0.0012064264 0.10119612 -0.013934683 0.06560991 -0.01979741
-0.040605243 -0.031661116 -0.0011168547 -0.014562078 0.07721649 -0.0231123 -0.00020200215 0.064964466
-0.03124629 0.0608345 0.043487694 0.055248827 0.027350826 0.05310114 0.064368114 -0.050119884
0.07829894 -0.025473583 0.061997578 -0.026240956 0.082563594 -0.010823149 0.040295277 0.056757856
-0.04203439 0.10100908 -0.04482058 -0.009636816 -0.006627176 0.080498576 -0.049419485 -0.024114158
-0.049789153 0.021129796 0.09879583 -0.033771418 0.071469754 -0.0009996444 0.055759467 0.024303265
0.026732609 0.056706302 -0.013003655 -0.0011101866 -0.00031938517 0.01731188 -0.05270418 -0.03029631
-0.044312082 -0.035667125 0.055563163 0.09858682 -0.052312747 -0.014889542 -0.042063024 0.08151918
0.07114521 0.069447644 -0.03634013 -0.0006372221 0.057103507 -0.020378109 -0.01689485 -0.03532738
0.0471114 0.040491432 0.05652736 0.08178488 -0.046730295 -0.026174968 -0.0013452545 0.066197515
0.09057024 -0.0014531612 0.07206103 0.038961515 -0.026945757 -0.018302321 -0.029810512 -0.04699783
-0.0010575496 0.07812552 0.07682883 -0.014513865 -0.020962287 -0.019164257 -0.009109832 -0.023925275
0.07879167 -0.05259211 -0.0027520582 -0.00075854216 0.060716383 -0.03276263 -0.038217276 -0.03836272
-0.032803454 0.0257277 -0.03565505 0.040252253 -0.041368917 -0.037673865 0.040766675 -0.04777169
0.08330389 -0.042587705 -0.009718519 0.055971023 -0.011261586 0.088232286 0.071560554 -0.0016580597
0.03805146 0.10637902 -0.021631734 0.06251182 -0.049754143 -0.019053385 -0.04932406 -0.049283832
-0.025846278 -0.00010011795 -0.0001853709 -0.044132944 -0.04788634 0.087764375 -0.02139943 -0.002765026
-0.022347147 0.05118658 -0.0073806383 0.018323364 0.07096654 -0.04423416 0.084175326 -0.0016926602
-0.04180493 0.046643928 0.05403471 -0.0036254376 0.06927456 0.07686997 0.061337024 0.054499883
-0.014331333 -0.015738409 -0.041504394 -0.02370741 -0.012266278 -0.0130127445 -0.036893144 0.080097266
-0.052498933 -0.02667364 -0.04921236 -0.033794336 -0.028245699 -0.050475027 0.020671476 0.07778026
-0.010079708 -0.020442836 -0.049994946 -0.00073131546 0.06316428 0.07830474 0.04293087 -0.0011045597
-0.0067767836 0.02313217 0.076028466 -0.0036247075 0.08321119 0.050659772 0.06647771 0.08751275
-0.02909473 -0.036442883 -0.02222732 -0.004954748 -0.030836137 0.11573031 -0.046953365 0.06666157
0.08304957 -0.029099422 -0.04674705 -0.041582383 0.041038245 -0.022444883 -0.04417081 0.09236741
0.08167915 0.06886962 -0.009600826 -0.03926155 -0.006609332 0.014923891 0.024584737 -0.00987133
0.044295166 0.060105883 -0.0348889 0.0672625 0.072368294 0.098253414 0.036184706 0.06355027
-0.018727485 0.0755899 0.06759112 0.056172248 0.08769546 0.003548834 0.081508875 -0.022662869
-0.050475016 -0.027067414 -0.034320064 0.0936866 0.10500461 -0.006359011 -0.03469835 -0.016556352

sensor_model.2.weight f4 [128, 256]
00000000: 8766 ab3c dfa4 893d 1879 c13c c0e1 e0bb
00000010: aea1 813d 608c d2bb a068 df3c 8829 cf3d
00000020: e57a 003d e810 b73c 2294 88bd 0ee3 ab3d
00000030: ff9d 1e3d ece4 533d 5253 dd3d 34e5 f93d
00000040: c283 843c 0017 97bc c976 fcbc e8fe fa3c
00000050: 7c15 d33d 4008 e13b b027 913c d4e3 73bd
00000060: b0c5 e63c 4fb6 5dbd cbc1 aa3c e9de ea3c
00000070: 22ad 0d3e 5052 60bc 9307 3e3d dc50 28bd
00000080: 02d4 e8bd d892 e23c 9f4d 6dbd b895 88bc
00000090: 9fbb 183e d05c e5bc 78ca f33c 00dc 8ebd
000000a0: 40c1 6e3d 867e f7bc 5fb5 89bd 0ea3 073d
000000b0: 05ad db3d cc4a b23d 372a 2a3e 7464 643d
000000c0: 462d 9fba b840 0dbd a03b a13c 7682 f13d
000000d0: efe8 0c3d 103e 3a3c 126f 64bd 1b4a 1e3e
000000e0: 4ce1 953d 2207 ee3d ae9a bc3d b002 2c3d
000000f0: 9afb b2bd 66ad 213e e819 88bc bea0 e8bd
00000100: f41f 943d 2a3c bd3d fae9 da3d 58e7 7e3d
00000110: 6b98 213e 50a1 e83c 95c0 2cbd a40a 81bd
00000120: c125 1a3e e1db 933d 18dc 29bd 857b c9bd
00000130: c4bf de3d c7b1 f83d 0eff b5bd 4050 423d
00000140: 1ce8 343d 80c9 e63c 2576 ddbc e599 693d
00000150: f045 96bc 80f6 153c 18cf 8e3d 77ac 5b3c
00000160: 3d05 a83d 04ee 303e e24f ccbd cc6b e1bd
00000170: 5d8c 673d 645e 5e3d 1472 d7bd b094 7cbc
00000180: 08ee 95bd 8d59 1a3e 1901 8d3c 40fb 163e
00000190: 30fc 1b3d 8821 babd 408d 31bd 779d 873c
000001a0: 6bb3 2b3e 0683 fe3d ecc6 033e d33c 98bb
000001b0: 6c8d a3bd c0c8 f63c 003e 07ba ae24 cd3d
000001c0: d9de 8dbc dce4 a33d b5e0 303c 809a ae3c
000001d0: 7671 86bd 62af f53d d0a5 a6bc 0c0d 8c3d
000001e0: a336 0b3e c0cd eebc 4024 eabd 9165 2abd
000001f0: 7f66 183e 788b c8bc 4683 e13d 2e4e b93d
00000200: a058 ec3c a7af 753d d259 94bd f023 e83d
00000210: 2aea d03d aaf0 933d eb65 7b3d 9adf e53d
00000220: ded0 4abd 1024 68bd e23a e7bd 35a4 8dbd
00000230: 4006 61bb 77e4 793d fc54 a43b b81b f8bd
00000240: 8631 48bd 83d9 aa3d 545c 72bd 744a a33d
00000250: 34f9 04bd 9496 803d 30a3 613d 4aba d93d
00000260: 8c88 fabd e761 a93d cf1f 393d 4a5a bf3d
00000270: 7e18 da3d d0ad 043e d07f a2bc a03f 95bd
00000280: 803e 2b3d 3479 623d 9c42 7abd 862e 0f3c
00000290: a119 1b3e 4822 173d e575 123e 9c87 dc3d
000002a0: 2024 c23c a484 023e 7ebe 443d 24fb 75bd
000002b0: 1d57 2dbd 3725 b93d ca78 a43d 2119 a7bb
000002c0: cc0b 29bd 6a78 d93d 8670 dc3d e0fc fe3d
000002d0: 2a8b 80bd 7887 043d aaba 94bd 7746 b63d
000002e0: 884a fcbd f658 9b3d 403f 983c 98d3 b8bc
000002f0: be03 f7bd d2bd a2bd e8cc 9abc 83b4 253e
00000300: b474 43bd 9ebc efbd 4087 083c c449 093d
00000310: b6c3 923b 9d2d 04bc 03d0 55bc 713f 3fbb
00000320: 209d 40bc f237 923d fd51 9abc e043 803d
00000330: ae2c c93c 827f 363e 6bc4 223e 8082 663d
00000340: 144a 9f3d 7039 3bbc fa84 b0bd b8ee 823d
00000350: f899 69bd 9454 913c f877 bfbc 295d a1bc
00000360: 4bed 233e 405a 7e3c 3e8c ca3d 3035 ee3d
00000370: 6d4b 763c b83e c23d 8013 f3bb d3bb 7ebd
00000380: 4f02 d93d a789 103e 104b 55bc f260 fb3d
00000390: 02f1 8cbd 90b1 69bd 1e5a fd3d aeb8 a1bd
000003a0: ab7e 063e 7122 f73d 2c68 fd3d 9d2f c6ba
000003b0: 2f4f 163e 847c ec3c 359a 973d 9edb 8cbd
000003c0: cc82 adbd d12d 2b3e 4479 2e3e d892 00bd
000003d0: 1fa5 003e a106 713d 5c26 143e 3c6a bc3d
000003e0: 8af3 aabd 20ff 593d 0ac4 b9bd b139 083e
000003f0: b0f9 d83d d851 bfbd e8c7 83bd 9e70 f7bd
0.020922912 0.067209 0.023617312 -0.006862849 0.06329666 -0.0064254254 0.027271569 0.10115343
0.0313672 0.022346929 -0.06668879 0.083929166 0.038724896 0.05173199 0.10806908 0.1220192
0.016176108 -0.018443584 -0.03081836 0.030639127 0.10306832 0.0068674386 0.01771912 -0.059543446
0.028170437 -0.05412894 0.02084436 0.028670745 0.13835576 -0.0136915 0.046393942 -0.04109274
-0.11368562 0.027657911 -0.057935353 -0.016672954 0.14915322 -0.027998358 0.02975963 -0.069755554
0.058289766 -0.030211698 -0.06724047 0.033114485 0.1072636 0.087056726 0.16617666 0.055759862
-0.001214423 -0.03448555 0.019681752 0.117924616 0.03440183 0.011367336 -0.055769987 0.15457956
0.073183626 0.11622454 0.0920919 0.04199475 -0.087393954 0.15788803 -0.016613916 -0.11358784
0.07232657 0.09239991 0.10689159 0.062232345 0.15780799 0.028397232 -0.042175848 -0.06300858
0.15053464 0.07219673 -0.041469663 -0.098380126 0.1087642 0.12143283 -0.088865384 0.047439814
0.04416667 0.028172255 -0.027033875 0.05703153 -0.018343896 0.009153008 0.06973094 0.013407818
0.08204124 0.17278296 -0.09976174 -0.11006889 0.056530345 0.054289237 -0.105198056 -0.015416309
-0.073207915 0.15073223 0.017212437 0.14744282 0.0380823 -0.09088427 -0.043347597 0.016554577
0.16767661 0.124273345 0.12868851 -0.0046459227 -0.079859585 0.030125022 -0.000515908 0.10016762
-0.017318176 0.08002636 0.010795762 0.021313906 -0.0656461 0.11996342 -0.020342737 0.06838426
0.13595061 -0.029150844 -0.114326954 -0.041600768 0.14882849 -0.024480566 0.110113665 0.09048115
0.028850853 0.05998197 -0.07243694 0.113349795 0.10200913 0.072236374 0.061376493 0.11224289
-0.049515598 -0.056675017 -0.11290528 -0.06916086 -0.0034336 0.061008897 0.0050150137 -0.12114662
-0.048875354 0.08342268 -0.059170082 0.07973185 -0.03246422 0.062787205 0.05508727 0.10631235
-0.122330755 0.082706265 0.04519635 0.09343393 0.10649203 0.12956929 -0.019836336 -0.07287526
0.04180765 0.05529137 -0.06109868 0.008739119 0.15146495 0.036897928 0.14302786 0.10768053
0.023698866 0.12745911 0.04803323 -0.06005396 -0.042319406 0.09040301 0.08030851 -0.005099431
-0.041271016 0.1061867 0.1076365 0.12450576 -0.062765434 0.032355756 -0.07262166 0.08900159
-0.12318903 0.07585327 0.018584847 -0.022561833 -0.12061261 -0.079463616 -0.018896535 0.16182141
-0.04771872 -0.11705898 0.008333027 0.033517614 0.004478897 -0.008067516 -0.013050082 -0.00291821
-0.0117562115 0.07139577 -0.018837923 0.06262946 0.024557438 0.17822078 0.1589524 0.0562768
0.07777801 -0.011427268 -0.08619113 0.06393188 -0.0570316 0.017740525 -0.023372635 -0.019697743
0.16008489 0.015524447 0.0989003 0.116312385 0.015032631 0.09484619 -0.007418096 -0.062190842
0.105961435 0.1411501 -0.013018385 0.1227435 -0.06881906 -0.057054102 0.12370704 -0.07896553
0.13134257 0.12067116 0.12373385 -0.0015120391 0.14678644 0.028867967 0.074024595 -0.06877826
-0.08472213 0.16716696 0.17038447 -0.03139004 0.12562989 0.058844212 0.14467758 0.0919995
-0.08347233 0.05322182 -0.090705946 0.13303258 0.10594499 -0.09341782 -0.064346135 -0.12082027

sensor_model.2.bias f4 [128]
00000000: 4948 bc3d 81a6 2a3d 398e 8a3d 2036 5fbb
00000010: 9f66 f73c 2c36 15bd 408c 793c 4e47 27bd
00000020: 51c2 d1bc ce0c 26bd 014c 133d 1c0f f53c
00000030: af9c c03d 3e8e 70bd cff0 25bc ee8f 5db9
00000040: fb78 1d3d a09f 933c 6859 c8bc 9c52 9abc
00000050: 4a14 7fbd ac06 803d 2cc0 29bd 5b9b 3d3d
00000060: c84a 123d 102a 21bd 08cd e9bc e51f ab3d
00000070: 867d 58bd 2a15 dc3c 9f16 af3c c81e bdbc
00000080: 7c1c 77bd ae7b 47bd a06e bdbc 0e41 f83c
00000090: 1077 a5bc 90df f9bb 72ff 0f3d 3ad5 963d
000000a0: 2514 163d 5fac b33c 46a5 db3c d6a0 713c
000000b0: 862d 563d e877 9e3d fde8 d6bb 6e3c 59bd
000000c0: 5631 04bd c4e6 923d 1884 7c3b 00be 10b9
000000d0: 94c8 a43d 1089 f4bb 90d9 3f3c dee6 6cbd
000000e0: f639 21bd 3dcb 043d d032 b73b 4be3 5bbc
000000f0: b912 b33d 2ce1 07bd bdb9 0a3d 38bf 163d
00000100: a25c 6abd 84f3 c7bc ee1c 593c 2cf2 4e3d
00000110: 40bb 823b 71c8 403d 24a3 7f3c 00f9 2fbc
00000120: f111 07bd 4708 453d 609e 473b 786c 45bc
00000130: 407c 253d 457d 8f3d c477 6ebd c942 8a3c
00000140: 00d3 d9ba f675 2abd 0294 1fbd 629e bc3a
00000150: 5099 1abc d5c3 013b 46ff 443d 00df f33b
00000160: 7a0c e33c 0fb9 5f3d 8469 ff3c 6ec8 66bd
00000170: 7d5c 4f3d c6f1 50bd d8e1 063c acfa 80bc
00000180: ba43 0e3d 17cf 063d 60b8 933b 24c2 b5bc
00000190: 1cf3 82bc a08f d63c 0eaf 14bd 229d 4d3d
000001a0: 8431 74bd 171c d2bc 8305 cbbb 6aa4 01bd
000001b0: 38f5 f1bc e450 513d 364d 7f3d 60a4 11bb
000001c0: 53e1 cb3c 2fab 483d 90f1 84bb 6471 aebc
000001d0: 93a6 7c3d f2fb 03bd 3652 563d 3734 fd3c
000001e0: 188a 123d 12a5 54bd 5d14 c53d 235e 103d
000001f0: 13b6 723c a4d5 c53c 9085 b33b 9c3a 6ebd
0.09193475 0.041662697 0.06765408 -0.003405936 0.0302003 -0.036428615 0.015231192 -0.040839486
-0.025605353 -0.040539555 0.035961155 0.029914431 0.09404885 -0.058729403 -0.010128214 -0.0002112982
0.038445454 0.018020451 -0.024456695 -0.01883822 -0.06227521 0.062512726 -0.041443035 0.046290737
0.03571585 -0.039346755 -0.02854015 0.08355693 -0.052854083 0.02686556 0.021373091 -0.023085967
-0.0603299 -0.048701935 -0.02312404 0.030304458 -0.020198375 -0.0076255277 0.03515572 0.073648885
0.036640305 0.021932779 0.026812207 0.014747819 0.05228951 0.07737714 -0.006558536 -0.053036146
-0.032273613 0.07172921 0.0038530882 -0.0001380369 0.0804607 -0.007462628 0.011709586 -0.05783736
-0.039361916 0.032420386 0.005590774 -0.01342089 0.087438054 -0.033173725 0.03386854 0.036803454
-0.057217248 -0.02440811 0.013251526 0.05052392 0.003989607 0.047066156 0.015602861 -0.010740519
-0.032976095 0.048103597 0.003045939 -0.012049787 0.040401697 0.07006315 -0.058219686 0.016877549
-0.0016618669 -0.041616403 -0.03895951 0.0014390463 -0.009435967 0.0019800563 0.04809501 0.007442355
0.02771591 0.054619845 0.031178243 -0.05634349 0.050625313 -0.051011823 0.008232556 -0.01574453
0.034732558 0.03291234 0.004508063 -0.0221873 -0.015985064 0.026191533 -0.036299758 0.05019868
-0.059617534 -0.02564816 -0.0061957254 -0.031650938 -0.029535875 0.051102534 0.062329493 -0.002222322
0.024887716 0.04899138 -0.004057117 -0.021294303 0.061682295 -0.032222696 0.052324496 0.030908687
0.035776228 -0.051915236 0.096230246 0.035246026 0.014813918 0.024149723 0.0054785684 -0.058161363

sensor_model.4.weight f4 [64, 128]
00000000: 8e79 9ebd a202 843d 3748 27be 192f 9cbd
00000010: 83af c7bd d0bd 6abc d0d4 403c ca87 963d
00000020: fad1 de3d c55e 0a3e 00fd 22bb f10b 113e
00000030: c00d 393d 616f 0a3e e81c 4a3d 0e9e a1bd
00000040: 7e09 f33d 3247 89bd 8cde 043d 4f57 d4bd
00000050: d25e c03d cfeb 0f3e 96eb 9ebd 73d3 b9bd
00000060: 3db1 2a3e bbad 0d3e e0c9 24bd 7cc0 20bd
00000070: 660d cc3d f2fb febd 88c5 3c3d d228 2abe
00000080: 13e2 08be 04d1 0b3d b888 87bc 29c9 0b3e
00000090: 05fb 2bbe 2e1e 34be 40c2 74bb 8aa7 8d3d
000000a0: bd98 c1bd c098 b6bc 05d5 c3bd 0b0d 063e
000000b0: 0019 0aba 9310 1b3e 821f e03d f368 2e3e
000000c0: cc1d 823d 0ae5 c33d c0c1 56bd 49a9 2a3e
000000d0: f0d4 b5bd 4020 dfbd fc4e 6e3d 1743 06be
000000e0: d0c4 28bc 53e5 ccbd 3642 a03d e675 9abd
000000f0: 25e9 133e 2693 e63d a05a 4a3d 30d1 61bc
00000100: ce63 c83d 4402 383d ef61 89bd f87b 18bd
00000110: 40e2 15bd cdba 203e 6092 f8bd baa9 a73d
00000120: 3800 c6bd 6d61 2d3e 60e8 ffbb 7ed5 963d
00000130: b097 be3c 04cd 0cbd 0275 a53d 4a3c ed3d
00000140: 8c94 843d c06f 043c 0436 7abd 0003 d13c
00000150: e64d 59bd 484e 82bc 001e 1e3a a016 71bd
00000160: e856 16be f42f 95bd 068e d93d 3379 273e
00000170: 90c8 41bd 0427 14be ef61 dbbd 4858 d4bd
00000180: 50b8 0abe 95e1 1ebe 40b7 2abc 7b13 e1bd
00000190: 5010 813d 7007 e3bd b69d dd3d 2079 04bd
000001a0: e8c8 533d 3c40 68bd 4a2b da3d 6d9d 1e3e
000001b0: cec3 993d b0a3 9a3c c60d cf3d 7038 e9bd
000001c0: 00cc 01be e8fd 253d 78ad 0ebd e5f4 34be
000001d0: 22e4 ff3d 3760 04be 926d b63d b424 b9bd
000001e0: 8e00 2fbe 9621 c33d 1473 573d 5b0e 223e
000001f0: 47b7 0dbe 0828 a8bd 4c38 b2bd 6bea e1bd
00000200: 34df 623b b2b2 10be 4532 ec3d 2e0f cf3d
00000210: 42be eb3d 6f5e 153e aa33 fa3d a77e 2cbe
00000220: 6253 8fbd 4289 c83d eced 17be 5732 043e
00000230: 89cb 343e 3f63 af3d 5387 523e 3050 9fbc
00000240: fa79 8abd 0719 dcbd 7451 20bd fb94 d33d
00000250: 53aa 023e 3860 503e 7343 333e 50de 3b3e
00000260: 581d d53c 060e b03d e269 25be b625 5d3e
00000270: 20bf 653c 0af0 17be c696 363e 820e 28be
00000280: 6e31 9d3d 7061 5d3c f461 24be 46d2 2b3e
00000290: 808a adbd df51 d6bd 072b 023d c2e9 413e
000002a0: ec44 853d 3b4f 2c3e d4dd a7bd 1fbe adbd
000002b0: a1b3 2f3d 0d32 6a3c e86c 28be f332 133e
000002c0: 3d39 2e3e 132f 0d3e 95d8 813e 6370 1f3e
000002d0: c0c5 a9bc 2ca1 71bd 68dd 26be ab45 203e
000002e0: 2a4b e5bd eab3 b23d 222a bb3d c8eb e83c
000002f0: f535 2a3e ceaa ec3d 1f2e 8e3c 424b e83d
00000300: 31fb 373e 2e07 afbd c5d3 eb3d e201 bcbd
00000310: 6a89 be3d fbae 4e3e 4a87 87bb bcd0 273d
00000320: 17d3 163e 69ee 183d 7534 0b3e 0c3b 66bd
00000330: a573 243e c79c 2c3e 013d 323e 0a26 8a3d
00000340: 40d4 ed3b 5aca d7bd f82e f8bc 827d 0abd
00000350: 58ea 04be 165d 523d 3eb2 c53d b833 80bd
00000360: 22ba d53d ff06 94bd eea8 023e 3a46 fcbd
00000370: d9af 923c 131e 24be 05b7 c7bd 90d8 8f3d
00000380: 939f 613e d7c9 3cbd ae94 f63d 7b48 2cbe
00000390: 6d24 d03d 432e 2fbd a0f2 4f3c d898 483d
000003a0: b04d 60bd 9793 f53d caa4 f1bd c3d9 313e
000003b0: 1003 bb3c 1ac8 d43d 4223 aebd a059 863c
000003c0: 1a56 133d ed5c f73d a17a 27be 00ca b8b9
000003d0: b333 14bd 0d86 83bd 1fed db3d f06d 08bc
000003e0: 2e9c aa3c 4062 df3c 10b3 57bc 7d2d 0d3e
000003f0: edf4 5a3e 89e3 bb3c 463d 22bd eaa7 98bd
-0.077380285 0.06445815 -0.16336142 -0.07626171 -0.09750273 -0.014327481 0.011769488 0.073501185
0.108798936 0.13512714 -0.0024870038 0.14164712 0.04517913 0.1351905 0.049343973 -0.07891475
0.11867045 -0.067030326 0.0324388 -0.10368215 0.093930855 0.14054798 -0.07759778 -0.09073534
0.16669174 0.13835804 -0.040231586 -0.039246067 0.09963493 -0.124503985 0.046086818 -0.16617134
-0.1336749 0.03413488 -0.016544685 0.13650955 -0.16794975 -0.17589638 -0.0037347227 0.06916721
-0.09452961 -0.022289634 -0.095621146 0.13090913 -0.00052680075 0.15143041 0.1094351 0.17032222
0.063533396 0.0956517 -0.05243087 0.1666614 -0.08878505 -0.10894823 0.058180794 -0.1311153
-0.01030083 -0.100046776 0.07825129 -0.075420186 0.14444406 0.11258535 0.049402833 -0.013782784
0.09784661 0.044924036 -0.067081325 -0.0372276 -0.036592722 0.15696259 -0.12137294 0.0818667
-0.096680105 0.16931696 -0.0078096837 0.07364939 0.02326569 -0.034375206 0.08078958 0.11583765
0.064736456 0.008083284 -0.06108667 0.025514126 -0.053052805 -0.015906468 0.0006031692 -0.058859468
-0.1468159 -0.07284537 0.10622792 0.16354828 -0.047310412 -0.14468008 -0.10712039 -0.10368401
-0.13546872 -0.1551574 -0.010419667 -0.10990044 0.063019395 -0.11085403 0.108210966 -0.032342076
0.05170527 -0.056701884 0.10652788 0.1548974 0.0750805 0.01887688 0.10110049 -0.11387718
-0.12675476 0.040525347 -0.0348334 -0.17671545 0.12494685 -0.12927328 0.08907618 -0.09040204
-0.17090055 0.095278904 0.05259998 0.15825789 -0.13839446 -0.0821076 -0.08702144 -0.1103104
0.0034617903 -0.14130667 0.11533026 0.10110317 0.11510898 0.14586805 0.122168854 -0.16845189
-0.06998326 0.09791805 -0.14836854 0.12909828 0.17655768 0.085638516 0.20559435 -0.019447416
-0.067615464 -0.10746961 -0.03914018 0.1033115 0.12760286 0.20349205 0.17506199 0.18346524
0.026014969 0.08596425 -0.16153672 0.21596417 0.0140226185 -0.14837661 0.17830953 -0.16411784
0.076754436 0.013512 -0.16052991 0.16779432 -0.084736824 -0.104648344 0.031779315 0.18936828
0.065072864 0.16827099 -0.08196607 -0.08483528 0.042895917 0.01429416 -0.16447794 0.14374904
0.17014022 0.13787489 0.2536055 0.15570216 -0.020724177 -0.058991596 -0.16295397 0.15651576
-0.11195977 0.08725722 0.091388956 0.028432742 0.16622145 0.11556016 0.017355977 0.11342479
0.17966916 -0.08546291 0.11515001 -0.091800466 0.093035534 0.20183937 -0.0041360008 0.04097055
0.14728962 0.03733674 0.1359423 -0.056208655 0.1605974 0.16856681 0.17406084 0.067455366
0.007257968 -0.105366424 -0.030295834 -0.0338111 -0.1298002 0.051358305 0.096531376 -0.062598646
0.10435893 -0.07227897 0.12759754 -0.12318082 0.017906116 -0.16027097 -0.09751705 0.07023728
0.22033529 -0.046090927 0.12040077 -0.16824524 0.10163198 -0.042768728 0.012692124 0.04897389
-0.05476159 0.11991041 -0.11799009 0.17368226 0.022828609 0.10389729 -0.08502819 0.016400158
0.035970785 0.12078271 -0.16355373 -0.00035245717 -0.036182117 -0.064220525 0.10738587 -0.008326992
0.020826425 0.027268529 -0.01316525 0.13786884 0.21382494 0.022935646 -0.039609216 -0.07453902

sensor_model.4.bias f4 [64]
00000000: fd78 a6bd 0475 7d3d da61 3e3d fb93 96bd
00000010: bec1 38bd 4700 ad3d 3d71 11bd 1d72 91bd
00000020: a671 25bc 1b59 633d 5b7a 8e3c 193e a23c
00000030: 77e8 2a3d b64b 453d b8ad b73a 7463 0fbd
00000040: 83c9 213d a692 dcbc f1a5 c4bc ec52 093b
00000050: ef0b bdbc 59a9 993b abb5 55bd 87f8 4fbd
00000060: 4801 383c 7f2c 493d 1277 7abd df47 9bbc
00000070: 9293 043d ee2c a7bd e015 0c3d b874 1ebd
00000080: 1a4d f0bc fe94 d93a a4ea 723d c817 583c
00000090: 695c 8abc 1375 303c e8f8 133c 71e4 6c3d
000000a0: 0ee1 a8bd eca1 a63d 7b8e ab3c 462c 7d3d
000000b0: df72 8cbd e112 97bd 6f76 5d3d 45a3 91bd
000000c0: 183c 05bc 0819 1a3d ad51 18bd a42a 623d
000000d0: 3e4e 023d b03f a33c a0f5 d53d c2ba a23d
000000e0: 2a42 9ebd a57f 3cbc 212e 043d b0a6 973d
000000f0: ee86 2e3c aa40 0b3d adb3 6fbd 5043 35bc
-0.081285454 0.061879173 0.046480037 -0.07352444 -0.045106642 0.084473185 -0.035508383 -0.071018435
-0.010097897 0.0555049 0.017392328 0.019805001 0.041725602 0.048167907 0.0014013564 -0.035006955
0.039498817 -0.026925396 -0.024004908 0.0020953966 -0.02307698 0.0046893773 -0.052175205 -0.050774124
0.011230774 0.0491147 -0.06114871 -0.01895517 0.032367297 -0.081628665 0.03420055 -0.03868553
-0.02933364 0.0016600189 0.059305802 0.013189264 -0.016889768 0.0107701 0.009031512 0.057835046
-0.08246051 0.08136353 0.020941963 0.0618098 -0.068578474 -0.07376648 0.054068025 -0.07111219
-0.008132003 0.037621528 -0.037187267 0.055216447 0.0318129 0.01992783 0.1044724 0.079457775
-0.077274635 -0.011505042 0.032270554 0.0740484 0.010652287 0.033997215 -0.05852096 -0.011063412

target_model.0.weight f4 [64, 66]
00000000: 3b2e 0fbe 3b49 833d 5a3c febc 7c4b 46bd
00000010: aa14 8d3d c325 603e 324e 863d 8aba e33d
00000020: fe4a 633c a9a3 2a3e 72ed 26be 1149 25bd
00000030: ba27 4dbd 356c 183e 3587 123d 49bf 1abe
00000040: 9791 a03c c676 e3bd a7e2 5dbd 84cf bfbd
00000050: e77b 33be 836d 29be dee7 f93d ba6e 813e
00000060: c6f9 5f3e e7a5 1a3e 35f6 0c3e ca33 bf3d
00000070: 283f de3d 2826 cabc 423e e63d e298 86bd
00000080: 0a6f bc3d e0b6 a7bb 125c 4d3e aa69 a93d
00000090: 700a 9b3d 16f7 22be 61e7 00be 139b 8dbd
000000a0: 0d87 373e 2908 3a3d a62e 08be d87b 0e3e
000000b0: e7ce 4a3e c565 ecbd 3d20 4d3e 7061 74bc
000000c0: 408c cc3c 8349 3fbd c00c dc3c 1ba7 3b3e
000000d0: 5c99 d63d 144c a6bd 4744 2dbe 4d7a c7bb
000000e0: da3e a83d 6464 393d df05 ddbd e638 463e
000000f0: add6 df3d bed6 d0bd a420 303d 88c9 a7bd
00000100: 453e 093e 2f1b d83d eda2 5b3e a0dd d8bb
00000110: 8499 dcbd bc1e 4abe 8471 03be 7611 22bd
00000120: f34f 2a3e 019a 8a3d e51d 7d3d 14ac 91bd
00000130: f761 2dbd 107c 703e a247 00be 3241 1c3e
00000140: fb43 313e 85fb 863d 72e9 643e fc0d 683d
00000150: f275 983c 742b 623e a48a ebbd 30ee 733e
00000160: 9a3f df3d e94d edbd 3b63 2abe d269 6d3d
00000170: edcd fbbd e13b a8bc a88a cc3d 80b1 acbd
00000180: 1e90 563e 4f0c 59be 4b82 bcbc 3fb4 f73d
00000190: 130f 383e a71b 54be 6397 d5bd 991e 18be
000001a0: 4cf6 2bbe 0008 99bd 8bee 373e 77c5 213e
000001b0: b859 883e c729 053e 3481 02bd 7937 cdbd
000001c0: 44e9 b63d e530 353e 2cf9 4d3d 5ef4 693d
000001d0: 28a0 e73c 77e9 e53d 2459 f63d 43e2 4dbe
000001e0: 3549 a43b 5f87 323e 5c32 11bd d021 773e
000001f0: 2dd1 77bd 4b86 ffbd b780 1c3e 4920 093e
00000200: 1a23 d03d 0438 633d 1250 293e e2dd a53d
00000210: 3d97 4e3e ca6b 093e ad8e 053e f79d 4b3e
00000220: 481f 073d 34cc 4a3e 2cc7 eebd 71b5 f5bd
00000230: 4744 19be dbca a93c 7540 02be 6402 2abe
00000240: 7fb7 813e 1d03 0e3e 2fb7 c53c ea1d 8f3d
00000250: 5905 7f3e 4148 0f3e 86a3 fdbc 26a9 f53d
00000260: edf4 9cbc 918f 603d 2801 0c3d 8b3f 8fbd
00000270: ae78 203e 7afb 55be 46d6 b83d 1ee0 e33d
00000280: 4c5f 123e 3fc4 fdbd c241 173a 31e3 34be
00000290: f782 973d 626a 28bd 459a 133b 875b 0a3e
000002a0: 96ff 31be de45 5abc a08e 55bc df8f c6bd
000002b0: 9514 1a3e 7e61 103e 8f93 603e 658e 6bbd
000002c0: c6d0 c53d 449b e8bd 2100 2c3e 4cde 3f3d
000002d0: 046a 4d3d 7850 533d c7f8 ef3d d231 febc
000002e0: 6252 023e 7128 03bc ee0c e83d 6f16 36bc
000002f0: b682 b5bd f800 5a3e 6a0d d7bd 83a8 b93d
00000300: 8a52 22bd 7f2a 9e3c ca41 9dbd 1edd 8f3d
00000310: 5859 1f3e a456 793e 2760 3d3e 3209 5d3c
00000320: fd9a 1c3e 9ee4 45be 7a06 e03d 9e99 8cbd
00000330: 58e9 2bbd 484e 05bd 176b 0d3e a36d b83d
00000340: cccb 13be 3d25 54bd ba42 f53d 2d7c 73be
00000350: aad7 bc3d 85a4 4e3e 2c13 7abd 8949 45be
00000360: e707 3b3e 2221 26be 4119 65be 9377 573d
00000370: 7eb1 a83d 577c 9cbd f368 2d3e bb81 57be
00000380: 626a 813d 450c ee3d 04a9 d23d d4ff 13be
00000390: e815 3fbe b04c 233d b213 f63d 2fb4 85bc
000003a0: cc08 31be 7d79 e9bd 5773 5a3d d257 773e
000003b0: bfff 423e 7224 2a3d 00f6 8539 9459 8bbd
000003c0: 323c 11bd 0de4 353e 12ae 18be 9e8b 1ebe
000003d0: fea1 39be 5785 073e 3876 efbc 1f95 33be
000003e0: 99c1 1a3e 0e81 50bd a304 5ebe 0e93 43bd
000003f0: 3dc4 a83d 5f5f ff3d 0076 5abc 1f27 223c
-0.1398248 0.06410452 -0.031034637 -0.04841183 0.06888707 0.21889405 0.06557883 0.11119564
0.01387286 0.16663994 -0.16301516 -0.040352885 -0.050086714 0.14885028 0.035773475 -0.15112032
0.019600673 -0.111066386 -0.05417123 -0.09365752 -0.17527734 -0.16545682 0.12202428 0.2527979
0.21872625 0.15102349 0.13765796 0.0933605 0.1085189 -0.024676397 0.112423435 -0.06572129
0.092008665 -0.005118236 0.20054653 0.08272107 0.0757035 -0.15914568 -0.12588264 -0.06914344
0.17922612 0.04541794 -0.13299045 0.1391443 0.1980549 -0.115428485 0.20031829 -0.014915809
0.02496922 -0.046700966 0.026861548 0.18325464 0.1047847 -0.081199795 -0.16920577 -0.0060875774
0.08215113 0.045261756 -0.107921354 0.19357643 0.10929618 -0.10197209 0.04299988 -0.08192736
0.1340266 0.1055206 0.2144887 -0.0066182166 -0.10771468 -0.19738287 -0.12836272 -0.039567433
0.1663206 0.06767655 0.061796088 -0.071128994 -0.042329755 0.23484826 -0.12527326 0.15259245
0.17311089 0.06590942 0.22354677 0.05665396 0.018610928 0.22086889 -0.11501053 0.2382133
0.10900803 -0.11587126 -0.16639416 0.057962246 -0.122951366 -0.020536365 0.09987384 -0.08432293
0.20953414 -0.21196102 -0.023011347 0.12094926 0.179745 -0.20713674 -0.10429265 -0.14855422
-0.16793174 -0.07472229 0.1796209 0.15797983 0.2663095 0.13004218 -0.0318615 -0.10020346
0.08931211 0.17694433 0.050286457 0.057117812 0.02827461 0.112261705 0.12028721 -0.20105843
0.00501361 0.17434452 -0.035448417 0.24133992 -0.06050222 -0.12476786 0.15283476 0.13391222
0.10162945 0.055473343 0.1653445 0.080989614 0.2017488 0.13420025 0.13042708 0.19884478
0.032988816 0.1980446 -0.11659083 -0.11997498 -0.14967452 0.020726612 -0.12719901 -0.16602474
0.2533531 0.13868375 0.0241352 0.069881275 0.24904384 0.13992406 -0.030961763 0.11995153
-0.019159758 0.054824416 0.03418079 -0.06994542 0.15671036 -0.20896712 0.090252444 0.11126731
0.14294165 -0.123909466 0.00057699915 -0.17664792 0.073980264 -0.04111708 0.0022522372 0.13511477
-0.17382655 -0.013322322 -0.013034493 -0.0969541 0.15046914 0.1409969 0.21931289 -0.057508845
0.09658961 -0.113577396 0.16796924 0.04684286 0.050149933 0.051590413 0.117173724 -0.031029616
0.12726739 -0.008005247 0.11330591 -0.011113747 -0.08862822 0.21289432 -0.105006054 0.09065344
-0.039629497 0.019307373 -0.07678564 0.07024597 0.15561426 0.24349457 0.1849371 0.013490962
0.15293498 -0.19325492 0.10938735 -0.06865238 -0.04197058 -0.032545358 0.13810383 0.090052865
-0.14433211 -0.051793326 0.11975618 -0.23777838 0.09220822 0.20179947 -0.06105344 -0.19266333
0.18264733 -0.16223577 -0.22372915 0.05260427 0.08236979 -0.076409034 0.16934566 -0.21045582
0.06319119 0.11623434 0.102861434 -0.1445306 -0.186607 0.039868057 0.12015475 -0.01632127
-0.17288512 -0.11400125 0.053332653 0.24154595 0.19042872 0.041538663 0.0002555102 -0.06804195
-0.035457797 0.17762776 -0.14910153 -0.15482947 -0.18128201 0.13234459 -0.029231176 -0.17537354
0.15112914 -0.050904326 -0.21681456 -0.047747664 0.082405545 0.124693625 -0.013333797 0.0098970225

target_model.0.bias f4 [64]
00000000: 7c9d 93bb 0dee eabc 181d ed3d 6dee b8bd
00000010: 8c60 b13c 6253 10bd db2b 263e a40c bc3d
00000020: 7f24 d3bd 6420 783a 507a b6ba 846f 3bbd
00000030: b6c1 093d d677 c5bd ffd0 06bd a02d ca3d
00000040: f3f5 bcbd 6cb5 abbd f6f9 1f3d 50fb 2b3c
00000050: 2437 c43d 3e9d dd3c e909 10bd 6d25 1d3d
00000060: 834b d73d aea6 b3bd 3a6d f13d 963e 7f3d
00000070: f4e2 cdb9 abeb 5b3c 4bc1 b4bd bbd4 dabd
00000080: fc1d c9bd dda9 0dbc 5174 cabd c348 abbc
00000090: 0350 033d f95a 9bbd 346e 713d 39c6 0fbd
000000a0: 7ccd 573d 3813 d5bd 30a8 acbb 11f4 dfbd
000000b0: e0c0 5c3c e887 c13d fe8d 80bd 8401 153c
000000c0: 30f5 35bd a2d9 8fbd 84cf 653c d8b9 a3bd
000000d0: 3b49 c03d c4bd a8bd 3765 69bd 36a5 013e
000000e0: 83b4 96bd 6789 463d e4bb 72bd b86e 783d
000000f0: b24c 77bd a929 8a3d 432c 36bd ba04 9bbd
-0.0045048576 -0.028677965 0.11577815 -0.09029851 0.021652482 -0.03523577 0.16227667 0.091820985
-0.103096955 0.0009465276 -0.001392195 -0.045760646 0.033632003 -0.096419975 -0.032914158 0.098719835
-0.092265986 -0.08384213 0.03905674 0.010496929 0.0958083 0.027052518 -0.0351657 0.03836577
0.105124496 -0.08772026 0.117884114 0.062315546 -0.0003926974 0.013422887 -0.0882593 -0.10685106
-0.09820172 -0.008646456 -0.09885467 -0.020908719 0.032058727 -0.07585711 0.05894299 -0.03510115
0.0526862 -0.10404056 -0.005269073 -0.10935224 0.013473719 0.0944975 -0.06277083 0.0090946
-0.044423282 -0.07023932 0.014026526 -0.07994431 0.093889676 -0.0823932 -0.05698129 0.12660679
-0.07358649 0.04847088 -0.059261218 0.060652465 -0.060375877 0.06746227 -0.044475805 -0.07569261

target_model.2.weight f4 [16, 64]
00000000: 6e50 7ebe b26c 4ebd ba66 153e f763 d13a
00000010: 7816 033e 57e3 7f3d 0557 0d3e a02b 04be
00000020: 8d53 4dbe f042 d6bd cc48 0fbe 67e9 b1be
00000030: 7d22 cc3d 7a1f 833e cf79 59bd 85ba 7f3e
00000040: 3983 16bd 8078 b53c c2e1 4c3e 1006 903d
00000050: f222 4d3e ab0c 023e 19d3 253e 685f a6be
00000060: 2ff5 943d 54f1 423d fb94 38be 99ab d6bd
00000070: 28bb 873d 3e03 d9be 4e48 6ebe 46fb 88bd
00000080: 9796 12bb 0a56 623e 0877 1abd eb4c 39be
00000090: 3324 5bbe d6e8 14be 6088 8c3d 9302 86be
000000a0: b635 a33e 1230 413e d21c 89be 6cca 76be
000000b0: f6d4 113e e56f 8b3e 48de 4c3d cb8b f6bd
000000c0: 8ce1 8cbd 4957 cd3d 6254 f1bd b9f0 11bd
000000d0: 1c05 aa3c 96b2 d63d 82cb 81be 9ce3 3e3e
000000e0: 20d2 8cbe d965 80be e57b 7bbe 34a1 bd3d
000000f0: b8f8 59be 7c33 783e 923c 6a3e 13c8 d4ba
00000100: e7d9 fabd 6141 733e 5b22 083e d3ba 9cbe
00000110: 55c6 c5bd 4c78 093e b9a7 f2bd 738c 473e
00000120: de20 223e 2fd9 6c3e 2bdb 903d 9bf4 a5be
00000130: 3b65 593d 4af6 0f3e ba2c c73d 6f20 ec3d
00000140: c7d8 19be 156e bcbd edfc 853e 10cc a43c
00000150: 6422 8abe dd79 8fbe 8ac7 8abe e816 8ebe
00000160: 9776 8fbc 6dc2 eebe ab52 d7be 0080 163e
00000170: 9843 5e3d 88ad 65be 1720 8a3d d0be de3d
00000180: 04f2 89be 4910 8dbd f0e4 bfbd 486a b43d
00000190: 763e 4a3e 664a 3ebd 72fd c13c 4481 b7be
000001a0: 5571 7ebe bc68 953d a813 a3bd eec0 2e3e
000001b0: 564d 53be 801a 4ebe 81d0 d4b9 3a21 43be
000001c0: 5667 853e 1bb8 a3be 35e3 6ebe bd1c 24be
000001d0: d066 c9be 8930 06bb 2015 1bbe 5f3b 863e
000001e0: 80cb b1bd c1a8 133e a32e 193e d3d4 e53d
000001f0: 5886 57be 1d7b f4bd 188d e5bc 864c a5be
00000200: eb4b 4a3e df75 cc3d e708 993e 1d46 9bbd
00000210: ce03 823e f68c b8bd dff1 4bbd 748d 07be
00000220: d91d 39be 3c6f 45be bfd9 bfbe 1851 af3d
00000230: 90f7 b83e 6038 7e3e 3038 ce3c 8827 d3bd
00000240: cf80 283d 61b9 893e 0ee5 36be 8083 8a3b
00000250: d8f6 6abe 7b32 66bd 43a7 b5bc 22ff 95be
00000260: a23e f1bc b703 36be 232a ea3d f26b 3e3d
00000270: 7644 dc3d 3264 82bc 59c7 423e 3403 dcbd
00000280: 2b11 a33d f74c 033e d78b af3d 6851 87be
00000290: ed53 99be 6bd8 82bd 031d edbd d815 443d
000002a0: e641 813e 8896 73be 04b2 11be 602d 89be
000002b0: 904a 863c defc 8cbd e042 2cbd 4202 1ebe
000002c0: ae83 48be 1b6e 183e 0047 bdbd a260 06bc
000002d0: ea1a 1e3e 7f14 8fbe ed33 45be ddc1 853d
000002e0: e623 3cbe 0309 81be 4308 8e3e 92e8 e1bc
000002f0: f037 c23c 89c9 6abe 8c12 f4bd 8f95 ad3d
00000300: 8ecc df3d 71b6 2d3e 85eb f63d 09b4 bb3d
00000310: 18d2 1e3d 0e4e 8c3e eb74 753e 5fbd 32bd
00000320: b983 17be e6d9 7f3e 4799 043e ab85 d83d
00000330: 820a b93e d3bc ff3d 57ee b2bd 6b44 0b3e
00000340: aa20 80be d5c1 0abe 56a6 7abe 7e56 63be
00000350: b055 2d3e 2c5b 2a3d 0052 62be 391b 8c3e
00000360: f3a9 c23e 5a20 7cbd 7962 04be 35cd a9bd
00000370: 41d4 88bd 9cc2 253e 080d 793d 25b1 86be
00000380: 11f3 f13d e481 f73c 97a0 bdbb e37c 293e
00000390: df14 6e3e 4d63 a3be b612 0e3e f8b4 96bd
000003a0: ac3d 283e cca5 183e eecd 80be 8628 aebd
000003b0: 009b 6dbb 88ca 433e a284 8b3e a79f 10bd
000003c0: e800 6abe 172c 8bbe c930 3dbe 91a5 b4bd
000003d0: c93a 853d c4bd 753e 84c9 243e 27b4 6e3e
000003e0: 35ef 43be 9ea1 193e 794b 063e 6f35 52be
000003f0: 7077 5bbe 0738 58bd 255e 44bd ed0a 063d
-0.24835369 -0.05039663 0.14589968 0.0015975226 0.1280154 0.062472668 0.13802727 -0.12907267
-0.20051403 -0.10461986 -0.13992614 -0.34748384 0.099675156 0.25609952 -0.05309468 0.24973495
-0.036746237 0.022152185 0.20007995 0.07032406 0.20032862 0.12700145 0.16193809 -0.32494664
0.072733276 0.04759343 -0.18025582 -0.104819484 0.06627494 -0.42385286 -0.2326977 -0.066885516
-0.002236759 0.22103134 -0.037711173 -0.18095748 -0.21400528 -0.14541945 0.06861949 -0.2617384
0.31876916 0.18865994 -0.267798 -0.24100655 0.14241394 0.27233806 0.05001667 -0.12038382
-0.06878957 0.10026414 -0.11783673 -0.03562996 0.02075439 0.10483281 -0.25350577 0.18641514
-0.27504063 -0.25077704 -0.24558981 0.09259263 -0.21286285 0.2423839 0.22874668 -0.0016233943
-0.12248593 0.23755409 0.13294356 -0.30611286 -0.096569695 0.13424796 -0.11848397 0.19487171
0.1583285 0.23129724 0.07073053 -0.32413182 0.053075057 0.14058796 0.09725328 0.11529624
-0.150241 -0.09200684 0.2616953 0.020116836 -0.26979363 -0.28022662 -0.2710536 -0.2775185
-0.017512603 -0.4663271 -0.42055258 0.14697266 0.05426368 -0.22429478 0.06744402 0.10876238
-0.26942456 -0.06887872 -0.09369838 0.08809334 0.1975039 -0.04645767 0.023680422 -0.3584081
-0.2484792 0.07295367 -0.079627335 0.17065784 -0.2063497 -0.20127296 -0.00040591139 -0.19055644
0.26055402 -0.319764 -0.2332886 -0.16026588 -0.39336252 -0.0020475707 -0.15144777 0.26217172
-0.08681393 0.14419843 0.14959197 0.112222336 -0.21047342 -0.119375445 -0.02802138 -0.32284945
0.19755523 0.099834196 0.29889604 -0.075817324 0.25393528 -0.09011261 -0.049791213 -0.13237554
-0.18077792 -0.19280714 -0.37470815 0.08560389 0.36126375 0.24826193 0.025173277 -0.10310274
0.041138466 0.26899245 -0.17860815 0.004227102 -0.22945726 -0.056200486 -0.022174483 -0.29296213
-0.029448811 -0.17774855 0.11433818 0.046489663 0.107552454 -0.015916917 0.19021358 -0.107427984
0.07962259 0.12822329 0.08571594 -0.26429296 -0.29946843 -0.06388935 -0.11577799 0.047872394
0.2524559 -0.23787892 -0.14228064 -0.2679243 0.016392976 -0.06884168 -0.042055964 -0.15430549
-0.19581482 0.14885752 -0.09242058 -0.00820175 0.15439954 -0.27945325 -0.1925809 0.06531117
-0.18373069 -0.25202188 0.27740678 -0.027576718 0.023708314 -0.22928442 -0.119176 0.08475792
0.109276876 0.16964127 0.120566405 0.09165198 0.03877458 0.274033 0.23970382 -0.04363763
-0.14796342 0.24985465 0.12949096 0.1057237 0.3614083 0.12487187 -0.08736866 0.13600318
-0.2502492 -0.13550504 -0.24477515 -0.22200963 0.16927218 0.041590855 -0.22101593 0.2736452
0.38020286 -0.06155429 -0.1292819 -0.08291093 -0.06681109 0.16187519 0.060803443 -0.26307026
0.11813939 0.030213304 -0.005786966 0.16551547 0.23250149 -0.31911698 0.13874325 -0.07358736
0.16429776 0.14906996 -0.25157112 -0.08503823 -0.0036255717 0.19120228 0.27249628 -0.035308506
-0.22851908 -0.27182075 -0.18475641 -0.08820642 0.06505353 0.23998171 0.16092497 0.2331091
-0.19134219 0.15003058 0.13114728 -0.20528196 -0.2143228 -0.052787807 -0.047941346 0.032725263

target_model.2.bias f4 [16]
00000000: f6f6 f83c e4ed c63b 033e 4b3b 47bc 763d
00000010: 6214 f23d f27e 483d 819a 33bd ba52 613d
00000020: bedc ecbd 8af3 d2bd 4485 ae3d 2b11 84bd
00000030: f2c6 f63d 3503 293d 9a5e c33b 7b86 abbd
0.030391198 0.0060708392 0.0031012304 0.06023815 0.11820294 0.04894919 -0.04384852 0.055010535
-0.11565541 -0.10300358 0.08521512 -0.06448587 0.120496646 0.041262824 0.005962205 -0.083752595

target_model.4.weight f4 [2, 16]
00000000: ef1f 623e 65af 0b3f fb2c 09bf 8978 ef3d
00000010: 6e6b cabe e8e0 913d 0157 923e df7b 743e
00000020: fbbf a63e 2357 b13e 41b7 62bc a995 23bf
00000030: 1adf 9b3e 2a7b 24be a797 25bf a19e 4cbe
00000040: d6cf 16bf 89c5 d93e e2c3 a5be e1f7 36be
00000050: 2a5d cb3e 9bd1 1f3e 2ee0 903e dda0 bf3e
00000060: 954b 4f3e c730 b03e 4035 ae3e 59c8 6b3c
00000070: 0028 513c 33c0 c6be 2c60 b23e 7c24 0fbe
0.22082494 0.54564506 -0.5358426 0.11692912 -0.39535087 0.071229756 0.28582004 0.23875378
0.32568344 0.34636793 -0.013837636 -0.6390024 0.3044365 -0.16062608 -0.6468453 -0.19982387
-0.5891088 0.4253352 -0.3237601 -0.17867996 0.39719516 0.15607302 0.28296036 0.37427416
0.20243676 0.34412214 0.34025002 0.014391028 0.012765884 -0.3881851 0.34838998 -0.13978761

target_model.4.bias f4 [2]
00000000: 53bc 1b3d 4bcb 2dbe
0.038021397 -0.16972081
