Pytorch_DRL/HNRN/models/backup/4.1_pretrain_target/best_ca_critic.model (torch_old, 559066 bytes, 13 tensors)

sensor_model.0.weight f4 [256, 360]
0.072726645 -0.0016200766 -0.07069403 -0.061684724 0.07285992 -0.05173155 -0.0546257 -0.011533536
-0.06285931 0.016666561 -0.018078454 -0.0068283975 -0.047405843 -0.024549596 0.04198683 0.07566381
-0.004835017 0.093083836 -0.0764235 -0.018095039 -0.044956267 -0.08387245 -0.015448615 -0.05918784
0.0818275 -0.04197252 -0.04770838 -0.00951077 0.06426109 0.019002892 0.0776924 -0.06680395
-0.04859414 0.049744137 0.07907962 0.038284473 0.033593126 -0.04716114 -0.04694138 0.08917553
0.008696429 -0.02389767 0.06864772 0.09204785 -0.016028479 0.006569132 -0.026574306 0.07899978
0.01906044 0.023648567 0.012608603 0.05061368 0.010060459 -0.0058721006 0.052071504 0.08025185
0.027330168 -0.093579315 0.06048291 -0.004961878 0.049015068 0.09826406 0.09278714 0.008080937
-0.06362653 -0.0028242543 0.049119122 -0.040126603 -0.075194426 -0.055449918 -0.05343277 0.09361694
0.076025896 -0.054830205 0.034994744 0.053631715 -0.019268751 0.017167412 -0.055582583 0.06214542
0.085021846 -0.057520986 0.041270413 0.023212962 0.05342584 -0.024964914 -0.015434049 -0.004593529
-0.04432339 -0.07049514 0.05951626 0.008985989 -0.057497162 0.09056213 -0.04738324 0.08509629
-0.012517378 0.08762767 -0.06971985 -0.08957316 0.024744377 -0.006967038 0.0040496513 -0.083145656
-0.046857353 0.0027605742 0.063769706 -0.01930447 0.07669396 -0.058984987 -0.08595097 0.021852657
-0.060108576 0.08086049 -0.04139369 0.079493396 -0.06784631 -0.038517065 0.07820026 0.0922141
-0.05747834 0.03183175 0.05543717 -0.053918116 -0.07171455 -0.005654514 -0.09785141 0.0034857243
-0.019293435 -0.004761353 0.06190536 0.041547455 0.023819879 0.07107786 -0.036530145 0.08976405
-0.024653003 0.06596292 -0.018610545 -0.019823156 0.083352976 0.094586976 -0.04940932 -0.030902147
-0.025160708 0.048729576 -0.072114274 0.05223743 0.057150982 0.007016711 0.038890503 0.04270368
-0.007943958 -0.052150305 0.06308531 0.09247834 -0.03575579 -0.09241435 -0.07925613 -0.090461925
-0.048519406 -0.006366715 0.063614 0.03865967 0.07878212 0.03327594 -0.026073307 -0.07922055
-0.07965911 0.095571525 0.04117637 -0.09210717 -0.0045642555 0.0756133 -0.05017305 -0.044847462
-0.06695309 0.0066788867 -0.071127966 0.030848242 0.078847 0.034866042 0.09196586 0.051202096
-0.06721936 0.010583676 -0.0026225895 -0.08634024 0.06895412 0.062555276 -0.077502854 0.028066017
0.07200336 0.024478592 0.06850202 9.995699e-05 0.07073591 -0.0697123 -0.0867661 -0.08121829
-0.021382853 0.0072843656 0.05718752 0.006610535 -0.009382442 0.03359648 -0.0966599 -0.065027975
-0.030955702 0.09760537 0.043264605 -0.09814985 -0.049288526 -0.08782069 0.007359892 -0.07287125
-0.065348245 -0.06642416 -0.005994834 -0.06929307 0.04171226 -0.08308509 0.034213297 -0.09496158
0.08008487 0.084923185 0.081700675 -0.019379213 0.012308367 -0.030435286 0.037572734 -0.016109444
0.07432287 0.0008278042 0.020025142 -0.093841605 0.035784163 0.028287329 0.00080709904 0.062127374
0.024194255 -0.041035973 0.09603565 0.07412315 -0.06705566 -0.057166528 0.06572839 -0.018948086
0.025632545 0.07678052 0.020514973 0.00012265146 -0.0067244247 -0.04390201 0.021899872 0.08286696
00000000: b5f1 943d c058 d4ba 08c8 90bd 1fa9 7cbd
00000010: 9537 953d 76e4 53bd 33bf 5fbd 28f7 3cbc
00000020: 62bc 80bd 5088 883c 4419 94bc c0c0 dfbb
00000030: a12c 42bd 3c1c c9bc 62fa 2b3d a1f5 9a3d
00000040: 106f 9ebb bda2 be3d ed83 9cbd 0c3c 94bc
00000050: 1024 38bd 52c5 abbd 301c 7dbc f36e 72bd
00000060: 2d95 a73d 61eb 2bbd dd69 43bd 10d3 1bbc
00000070: 519b 833d f4ab 9b3c 311d 9f3d 82d0 88bd
00000080: a60a 47bd 82c0 4b3d 7ff4 a13d 2ed0 1c3d
00000090: f298 093d 0a2c 41bd 9b45 40bd a9a1 b63d
000000a0: 787b 0e3c 0cc5 c3bc 2d97 8c3d 9583 bc3d
000000b0: 284e 83bc e041 d73b 5cb2 d9bc a3ca a13d
000000c0: a424 9c3c a4ba c13c 5094 4e3c 4a50 4f3d
000000d0: a0d4 243c c06a c0bb ee48 553d 155b a43d
000000e0: 84e3 df3c 83a6 bfbd eebc 773d 4097 a2bb
000000f0: 06c4 483d ab3e c93d 2f07 be3d e865 043c
00000100: a04e 82bd 2017 39bb 2231 493d cb5b 24bd
00000110: 89ff 99bd 741f 63bd 52dc 5abd 3dba bf3d
00000120: 77b3 9b3d a395 60bd a656 0f3d eeac 5b3d
00000130: 80d9 9dbc aca2 8c3c 90aa 63bd 328c 7e3d
00000140: ef1f ae3d 209b 6bbd 2a0b 293d 1c29 be3c
00000150: 0ed5 5a3d 3883 ccbc 18df 7cbc 5085 96bb
00000160: 718c 35bd c25f 90bd 52c7 733d f839 133c
00000170: 2582 6bbd a378 b93d ee14 42bd f746 ae3d
00000180: b015 4dbc 2376 b33d 48c9 8ebd 2272 b7bd
00000190: b8b4 ca3c c04b e4bb f0b2 843b 4548 aabd
000001a0: 7fed 3fbd c0ea 343b b199 823d 6824 9ebc
000001b0: b911 9d3d 3e9a 71bd 1007 b0bd 5804 b33c
000001c0: 6934 76bd 2f9a a53d 6e8c 29bd 6fcd a23d
000001d0: 02f3 8abd 12c4 1dbd 7527 a03d bfda bc3d
000001e0: 686e 6bbd 0262 023d 1612 633d 3ed9 5cbd
000001f0: 14df 92bd 8049 b9bb 5266 c8bd c070 643b
00000200: 440d 9ebc 2005 9cbb 7a90 7d3d aa2d 2a3d
00000210: e821 c33c 4591 913d a2a0 15bd 37d6 b73d
00000220: 18f5 c9bc 9117 873d 2475 98bc 2c64 a2bc
00000230: f7b4 aa3d d1b6 c13d 6d61 4abd 8026 fdbc
00000240: d41d cebc aa98 473d a6b0 93bd eaf6 553d
00000250: 2617 6a3d 70ec e53b a64b 1f3d 0eea 2e3d
00000260: 6027 02bc 8f9b 55bd df32 813d 4965 bd3d
00000270: aa74 12bd bc43 bdbd 0a51 a2bd 1a44 b9bd
00000280: 49bc 46bd e09f d0bb 0f48 823d 9a59 1e3d
00000290: 8558 a13d 5a4c 083d b097 d5bc 623e a2bd
000002a0: 5124 a3bd 01bb c33d 8ea8 283d afa2 bcbd
000002b0: c08f 95bb 25db 9a3d 4282 4dbd f9b1 37bd
000002c0: b41e 89bd 90da da3b 8aab 91bd 74b5 fc3c
000002d0: 897a a13d b2cf 0e3d 9958 bc3d 4ab9 513d
000002e0: 4eaa 89bd 2867 2d3c c0df 2bbb 27d3 b0bd
000002f0: d137 8d3d fb1c 803d d1b9 9ebd b4ea e53c
00000300: 7f76 933d 5487 c83c c94a 8c3d 00a0 d138
00000310: fddd 903d 53c5 8ebd 6db2 b1bd c655 a6bd
00000320: 182b afbc b0b1 ee3b 763d 6a3d 309d d83b
00000330: d0b8 19bc 769c 093d a0f5 c5bd 632d 85bd
00000340: d096 fdbc 53e5 c73d 3a36 313d ca02 c9bd
00000350: c4e2 49bd 55db b3bd 402b f13b 863d 95bd
00000360: 4dd5 85bd 6409 88bd 5070 c4bb 86e9 8dbd
00000370: 7ada 2a3d 8428 aabd 3e23 0c3d 387b c2bd
00000380: 8903 a43d 35ec ad3d af52 a73d 28c1 9ebc
00000390: 08a9 493c 6c53 f9bc dee5 193d f4f7 83bc
000003a0: 9736 983d 0001 593a c40b a43c 0730 c0bd
000003b0: 6a92 123d d4ba e73c 8093 533a 4679 7e3d
000003c0: 0833 c63c 5615 28bd 57ae c43d e1cd 973d
000003d0: 7a54 89bd 7327 6abd 9b9c 863d 0439 9bbc
000003e0: 58fb d13c 1b3f 9d3d 040f a83c 009c 0039
000003f0: 9058 dcbb 98d2 33bd 5c67 b33c 27b6 a93d

sensor_model.0.bias f4 [256]
0.04889102 -0.040054765 -0.041860946 -0.0034749433 -0.0012955926 -0.0013384372 -0.032716222 0.012608293
-0.052313298 0.032630455 -0.000991337 -0.03180003 0.04758704 0.016916055 -0.027601125 0.04082748
-0.016843788 -0.011487789 0.047209214 0.0032677501 0.013327394 0.011611674 -0.049548976 0.03602362
0.029446173 -0.024677122 -0.04983254 0.013414856 -0.019180551 0.048830133 -0.040974338 0.02985454
-0.033566978 -0.0053474233 -0.021917291 -0.030320337 -0.029353093 -0.009323042 0.01312853 0.016775321
-0.029839251 0.022173163 0.010908913 0.019127961 0.04778893 0.016900498 0.025315445 0.0432554
0.014136989 -0.03658445 -0.047925938 -0.022367448 0.038906965 -0.0049984045 -0.049169768 0.032925498
0.03922886 0.0152796395 -0.019859232 -0.002235286 -0.04423265 -0.015627492 -0.021396521 0.014724184
-0.02645323 0.021888424 0.0065476187 0.0086358525 -0.0014424883 0.0392917 -0.04030156 -0.045932468
0.015671011 -0.027986359 -0.028833274 -0.00040470064 -0.03132845 -0.020839732 0.047114264 -0.02420262
0.04048014 -0.012811642 -0.0026833862 0.018717054 -0.023493158 0.00038294867 0.008023672 -0.0022925176
-0.009770133 -0.0012693368 0.029236358 0.0074052624 -0.017367795 0.02971926 0.038227547 -0.007569935
0.044201944 0.020970318 -0.0061100535 0.029633295 -0.04709488 0.0024235696 0.044242505 0.037629414
0.034487102 0.015443873 0.0072536804 0.034017924 0.01929449 0.050636638 -0.045272313 -0.04915999
-0.01581626 0.0012887567 -0.050412137 0.011921715 -0.019472703 0.03957643 0.029435772 -0.038142733
0.04530021 0.0010673739 0.014136005 -0.044740498 -0.048603263 0.031215522 0.0021662936 -0.049921073
0.045233134 0.019365225 0.02394225 0.042752836 0.0064348206 0.038429033 -0.017796807 0.013630312
-0.00796961 0.005299747 -0.027270311 0.033067275 0.023016203 0.050721783 0.045891833 -0.0020897053
0.007040359 0.016821984 -0.04322034 -4.2013824e-05 0.012200829 -0.049379427 0.051443126 -0.00042496622
-0.030850217 -0.0036825612 -0.027205518 0.008816894 0.050233353 -0.029839879 -0.028714847 0.04701801
0.04078271 0.016388368 -0.032831155 0.031095635 0.0041251592 -0.02952657 0.045626294 -0.049446784
0.032195937 -0.008944575 0.022217635 0.011415791 0.029365744 0.00097517297 0.028565522 0.046312373
-0.02037733 0.039805222 -0.020512331 0.017459627 -0.0066797845 0.05080198 -0.0131041 0.004973624
-0.003215935 -0.036925167 0.024645422 0.05026656 0.008172516 0.030026387 0.0068455897 0.03047238
-0.023688862 0.018781144 0.014723662 -0.047482196 -0.029150805 -0.028599268 0.05077045 0.028236743
0.0069834664 -0.016938247 0.0360326 0.010874998 -0.024349175 -0.008681867 0.024267998 -0.024714267
-0.040732987 0.028919134 0.010563958 0.00041105226 0.04894552 -0.03159947 0.00902541 0.04630061
0.0054445565 0.047203828 0.04937044 -0.03502121 -0.004765 0.0043136813 0.046397705 -0.04803278
0.0134135075 0.028647635 -0.004934512 -0.017712422 -0.028110346 -0.016343314 -0.00067008287 -0.025197243
0.033840787 0.045127753 -0.048021745 0.047347303 -0.02165784 -0.01542845 0.013791498 0.018420156
-0.03050834 0.03720132 0.0012428053 -0.0027125888 -0.033943824 0.046033848 -0.034580175 -0.027594956
-0.038207516 -0.005619999 0.012106296 -0.045180496 0.009855527 -0.028027192 -0.004363984 0.04557683
00000000: f341 483d 7710 24bd 6276 2bbd e0bb 63bb
00000010: e0d0 a9ba 806e afba 7201 06bd 0493 4e3c
00000020: 7846 56bd 83a7 053d c0ef 81ba c040 02bd
00000030: a1ea 423d 8a93 8a3c c11b e2bc b73a 273d
00000040: fcfb 89bc 4837 3cbc 735e 413d c027 563b
00000050: 245b 5a3c e43e 3e3c def3 4abd 818d 133d
00000060: 1a39 f13c ad27 cabc 351d 4cbd fcc9 5b3c
00000070: 8820 9dbc 1b02 483d b5d4 27bd 8291 f43c
00000080: 877d 09bd 7039 afbb e48b b3bc 5b62 f8bc
00000090: e675 f0bc acbf 18bc 0c19 573c 666c 893c
000000a0: 7271 f4bc 7ea4 b53c 4cbb 323c 3eb2 9c3c
000000b0: 53be 433d ea72 8a3c 5662 cf3c 932c 313d
000000c0: d49e 673c 94d9 15bd fd4d 44bd f03b b7bc
000000d0: e95c 1f3d a8c9 a3bb 3d66 49bd e3dc 063d
000000e0: 71ae 203d 7457 7a3c d4af a2bc e07d 12bb
000000f0: 4c2d 35bd 3a05 80bc c247 afbc b43d 713c
00000100: 72b4 d8bc 5a4f b33c 688d d63b 647d 0d3c
00000110: e011 bdba 55f0 203d 4013 25bd af23 3cbd
00000120: 7e60 803c a643 e5bc c233 ecbc 002e d4b9
00000130: 4352 00bd 16b8 aabc e3fa 403d 9344 c6bc
00000140: 81ce 253d ece7 51bc c0db 2fbb 8254 993c
00000150: b974 c0bc 80c6 c839 b875 033c 103e 16bb
00000160: e812 20bc e05f a6ba 1681 ef3c d8a7 f23b
00000170: e846 8ebc ce75 f33c 7d94 1c3d 380d f8bb
00000180: 190d 353d f2c9 ab3c d836 c8bb 86c1 f23c
00000190: 90e6 40bd c0d4 1e3b a137 353d 4d21 1a3d
000001a0: 5942 0d3d 4c08 7d3c 48b0 ed3b 6156 0b3d
000001b0: 7a0f 9e3c 5d68 4f3d 766f 39bd fc5b 49bd
000001c0: 1a91 81bc 80eb a83a f57c 4ebd 4c53 433c
000001d0: 3885 9fbc e51a 223d 4a23 f13c 8e3b 1cbd
000001e0: b78c 393d 20e7 8b3a b49a 673c d041 37bd
000001f0: 3714 47bd b2b7 ff3c 60f8 0d3b 0a7a 4cbd
00000200: 6146 393d d2a3 9e3c 8a22 c43c 991d 2f3d
00000210: 30db d23b c367 1d3d 9cca 91bc ac51 5f3c
00000220: f892 02bc 80a9 ad3b fd65 dfbc 8d71 073d
00000230: 7a8c bc3c a5c1 4f3d 13f9 3b3d 70f3 08bb
00000240: d0b2 e63b 42ce 893c d007 31bd 0038 30b8
00000250: fce5 473c 1542 4abd 07b6 523d 00ce deb9
00000260: 98b9 fcbc 2057 71bb 1bde debc bc74 103c
00000270: 7dc1 4d3d c372 f4bc 663b ebbc f595 403d
00000280: c50b 273d e640 863c f679 06bd 46bc fe3c
00000290: 582c 873b b5e1 f1bc a3e2 3a3d b688 4abd
000002a0: e3df 033d 448c 12bc c201 b63c 4c09 3b3c
000002b0: 6e90 f03c c0a2 7f3a 3e02 ea3c 0bb2 3d3d
000002c0: 5cee a6bc cd0a 233d 7a09 a8bc 7e07 8f3c
000002d0: 18e2 dabb bd15 503d 94b2 56bc c8f9 a23b
000002e0: 70c2 52bb d83e 17bd 32e5 c93c 4fe4 4d3d
000002f0: 04e6 053c e6f9 f53c f850 e03b 36a1 f93c
00000300: 250f c2bc eada 993c 843b 713c b17c 42bd
00000310: abcd eebc 0349 eabc adf4 4f3d be50 e73c
00000320: 90d5 e43b 14c2 8abc eb96 133d 0c2d 323c
00000330: ec77 c7bc 643e 0ebc aecd c63c 9375 cabc
00000340: a2d7 26bd d2e7 ec3c 7414 2d3c 8082 d739
00000350: 197b 483d 726e 01bd 50df 133c b5a5 3d3d
00000360: 4068 b23b cd58 413d a938 4a3d 6672 0fbd
00000370: b823 9cbb c859 8d3b 850b 3e3d 05be 44bd
00000380: 54c4 5b3c 72ae ea3c b0b1 a1bb a419 91bc
00000390: ab47 e6bc 6ae2 85bc 80a8 2fba 736a cebc
000003a0: a39c 0a3d e1d7 383d 73b2 44bd 3fef 413d
000003b0: c86b b1bc 9cc7 7cbc bcf5 613c dee5 963c
000003c0: a0ec f9bc 6960 183d a0e5 a23a b0c5 31bb
000003d0: ae08 0bbd fd8d 3c3d f1a3 0dbd d10e e2bc
000003e0: 7c7f 1cbd f827 b8bb 7c59 463c 2f0f 39bd
000003f0: 1479 213c 4899 e5bc c0ff 8ebb c5ae 3a3d

sensor_model.2.weight f4 [128, 256]
-0.05578655 -0.09369339 0.0032684356 0.053098828 0.10313408 -0.0021549463 0.039263368 -0.05227013
0.080559 0.096330464 -0.062650785 0.11760129 -0.08800933 0.023333952 0.04886353 0.030455634
0.078669816 -0.062897295 0.035407156 0.027437776 -0.06193489 -0.0064549 0.082613006 -0.005976945
0.116881 -0.07143608 0.11810374 0.020395994 0.04820697 -0.034370944 -0.105964035 0.11513901
-0.09078053 0.009177864 0.0114650875 -0.10999593 0.10140179 0.068710715 0.04269004 0.06685975
0.10005678 -0.061836466 -0.120775536 0.08739281 0.11409123 -0.00515005 -0.11713672 -0.07816687
-0.022931859 -0.07890983 0.06271942 0.026759893 0.08693977 -0.07009697 0.11652902 0.09466326
0.021401405 0.06320198 0.03683278 -0.026502728 -0.061112285 -0.019504547 0.12421198 0.0045942366
0.013265312 0.02898407 0.0008434057 -0.091807455 -0.018421248 0.064119324 -0.10206954 0.033798218
-0.11755264 0.087330505 0.1027216 -0.019136265 -0.0046705753 -0.030993596 -0.03336613 -0.033035174
0.085941106 -0.121090636 0.023791313 -0.083424345 0.07632029 0.06641936 -0.045659676 -0.05962047
-0.010384738 0.04797034 0.06517045 0.04837212 0.095098495 0.09303877 -0.0107058585 0.11509563
-0.04573448 0.08322452 -0.043532208 -0.023805305 0.08114435 -0.08382872 -0.08031094 -0.028727591
-0.096733406 0.059913218 0.0031757206 -0.036817923 -0.0017575324 0.1108854 -0.07222007 -0.08670226
0.08788338 0.072734475 -0.07737753 -0.040308326 0.11456032 -0.1010156 -0.11909492 -0.0062354803
0.1064467 -0.093598366 -0.04387231 -0.042258233 0.08890544 -0.09623088 -0.027308196 0.09940809
-0.107585296 -0.08217774 0.081019655 -0.011199817 0.100220576 0.06880817 -0.0095822215 -0.029772162
-0.042886704 -0.12248984 -0.058546603 -0.11145325 0.11875856 -0.080617145 -0.10782905 0.06524676
-0.0043795556 -0.10477257 0.11248188 -0.020929009 0.01714681 -0.114659265 -0.09253159 0.081239104
0.06229268 -0.112277746 -0.03206125 0.057575703 -0.060479254 -0.123616755 -0.033627123 0.048061937
0.052182168 0.014061645 0.043024823 -0.042264804 -0.047637388 -0.07697798 0.058415264 0.07617909
-0.094342574 -0.08135983 -0.092595994 -0.09742515 -0.011599064 -0.09410559 -0.069212615 0.044150144
0.10109402 -0.06506102 0.081435636 0.01007852 0.11532007 0.1225231 -0.121035144 -0.07546097
0.017497405 -0.0148741305 0.024670705 -0.12197693 -0.014446899 0.0010657758 0.052381217 -0.03597112
0.052084878 0.123274654 -0.05998212 -0.07089889 -0.103178784 0.021511182 0.108670965 0.0018960536
0.0038837045 0.10438529 0.09878941 -0.09442231 0.021324351 0.08818439 -0.106392905 -0.051705047
-0.008130282 -0.044111475 -0.06171158 -0.097906575 -0.10457115 -0.05061695 -0.109623015 -0.009945601
0.03384562 -0.12225363 -0.014694199 -0.108472124 0.09466837 0.056141734 -0.045722663 -0.002504468
-0.007550746 -0.014613867 0.050476596 -0.066139475 -0.05504389 -0.101435795 0.07946183 0.07650852
0.11024396 0.006786108 -0.08637647 -0.0589668 -0.037734553 0.006454304 -0.015947461 -0.06300935
-0.043680698 -0.09711939 0.11482757 -0.121316254 0.11266214 0.07507956 -0.08641191 0.053221866
0.031052753 0.038433135 0.052395523 0.047822654 0.053417444 -0.099055976 0.015798643 0.011941448
00000000: 7080 64bd 52e2 bfbd 4033 563b 287e 593d
00000010: f637 d33d 003a 0dbb a0d2 203d 3419 56bd
00000020: 1efc a43d e848 c53d 0e4f 80bd f2d8 f03d
00000030: 3c3e b4bd d826 bf3c 2025 483d 187e f93c
00000040: a41d a13d 4cd0 80bd 1807 113d 30c5 e03c
00000050: 70af 7dbd a083 d3bb 0231 a93d 40da c3bb
00000060: 4e5f ef3d 144d 92bd 60e0 f13d 8015 a73c
00000070: ac74 453d 8cc8 0cbd ac03 d9bd 00ce eb3d
00000080: 24eb b9bd c05e 163c 10d8 3b3c 8c45 e1bd
00000090: beab cf3d 34b8 8c3d c0db 2e3d c4ed 883d
000000a0: 92ea cc3d 3c48 7dbd 2a59 f7bd 00fb b23d
000000b0: aaa8 e93d c0c1 a8bb 60e5 efbd f415 a0bd
000000c0: 98db bbbc 7a9b a1bd 0a73 803d 9037 db3c
000000d0: 7a0d b23d 008f 8fbd c4a6 ee3d d0de c13d
000000e0: 0052 af3c 0a70 813d f8dd 163d 401c d9bc
000000f0: e050 7abd 00c8 9fbc da62 fe3d 408b 963b
00000100: c056 593c 0070 ed3c 0018 5d3a 8c05 bcbd
00000110: 28e8 96bc fe50 833d d609 d1bd 0070 0a3d
00000120: 70bf f0bd 56da b23d b45f d23d a8c3 9cbc
00000130: a00b 99bb 48e6 fdbc ecaa 08bd e44f 07bd
00000140: e401 b03d 5efe f7bd 00e6 c23c 62da aabd
00000150: d04d 9c3d e006 883d a405 3bbd 9834 74bd
00000160: c024 2abc 8c7c 443d 1678 853d d821 463d
00000170: 00c3 c23d 1c8b be3d a067 2fbc 42b7 eb3d
00000180: 1454 3bbd 9e71 aa3d d44e 32bd 5803 c3bc
00000190: 022f a63d 64ae abbd 107a a4bd 2056 ebbc
000001a0: 2a1c c6bd 9067 753d c01f 503b 64ce 16bd
000001b0: 005d e6ba e217 e33d 1ee8 93bd f490 b1bd
000001c0: 34fc b33d d0f5 943d 1c78 9ebd 581a 25bd
000001d0: 9a9e ea3d 44e1 cebd 0ae8 f3bd 0053 ccbb
000001e0: ba00 da3d 80b0 bfbd 74b3 33bd f816 2dbd
000001f0: 0e14 b63d b214 c5bd 70b5 dfbc 7896 cb3d
00000200: ae55 dcbd ce4c a8bd a2ed a53d 707f 37bc
00000210: 7240 cd3d 4ceb 8c3d c0fe 1cbc c0e4 f3bc
00000220: f8a9 2fbd f4db fabd 90ce 6fbd 9a41 e4bd
00000230: b037 f33d 9a1a a5bd 7ad5 dcbd 18a0 853d
00000240: 6082 8fbb 0093 d6bd e65c e63d 5073 abbc
00000250: 7877 8c3c 7ad2 eabd 3481 bdbd b060 a63d
00000260: 9c26 7f3d e0f1 e5bd a852 03bd 80d4 6b3d
00000270: 18b9 77bd c82a fdbd 98bc 09bd 98dc 443d
00000280: f8bc 553d d062 663c cc3a 303d dc1d 2dbd
00000290: 6c1f 43bd a2a6 9dbd d844 6f3d c803 9c3d
000002a0: ae36 c1bd fc9f a6bd f8a2 bdbd d686 c7bd
000002b0: 000a 3ebc 6eba c0bd 58bf 8dbd c8d6 343d
000002c0: 620a cf3d b63e 85bd bac7 a63d 6020 253c
000002d0: ee2c ec3d 64ed fa3d 46e1 f7bd 488b 9abd
000002e0: b856 8f3c a0b2 73bc 381a ca3c 0acf f9bd
000002f0: b0b2 6cbc 80b1 8b3a b08d 563d 7456 13bd
00000300: f456 553d 6c77 fc3d d0af 75bd 7033 91bd
00000310: 664f d3bd 3838 b03c e28e de3d 0085 f83a
00000320: c085 7e3b f4c7 d53d 1a52 ca3d 7c60 c1bd
00000330: 68b0 ae3c 049a b43d 86e4 d9bd acc8 53bd
00000340: e034 05bc 3cae 34bd 48c5 7cbd 3e83 c8bd
00000350: 6629 d6bd b853 4fbd 0882 e0bd e0f2 22bc
00000360: b4a1 0a3d 1c60 fabd f0bf 70bc a226 debd
00000370: 7ee1 c13d e0f4 653d b047 3bbd 0022 24bb
00000380: 406c f7bb 006f 6fbc 8cc0 4e3d 2274 87bd
00000390: b475 61bd 92bd cfbd e2bc a23d 80b0 9c3d
000003a0: 96c7 e13d 005e de3b 26e6 b0bd 2c87 71bd
000003b0: 8c8f 1abd a07e d33b 40a4 82bc 0c0b 81bd
000003c0: 88ea 32bd 88e6 c6bd b82a eb3d a874 f8bd
000003d0: 68bb e63d 50c3 993d baf8 b0bd 2cff 593d
000003e0: 5862 fe3c 106c 1d3d b09c 563d b0e1 433d
000003f0: 40cc 5a3d dcdd cabd 286c 813c 10a6 433c

sensor_model.2.bias f4 [128]
-0.040054664 -0.027463391 0.061124444 0.017557412 -0.019460991 0.06094458 -0.004738398 0.02398657
-0.05571074 0.04213646 -0.05649527 0.017579801 -0.047688097 -0.054946415 0.010917515 -0.029146388
0.00040465593 0.03335789 0.026106551 -0.0049586073 0.001125291 0.044993706 0.06092877 -0.057259418
0.06214443 0.023112364 0.041856334 -0.036679916 0.055609122 -0.03179939 0.026115976 0.04761272
-0.00345546 -0.04986135 0.0036516264 0.03495776 0.0039028153 0.027809724 -0.021166198 -0.04416015
-0.03159029 -0.01592087 -0.011831954 -0.0031039119 -0.05271644 0.005107671 0.018517964 -0.05469188
-0.021618128 -0.025376223 0.00025794655 0.061539724 -0.053623967 0.030253112 -0.041499004 0.022098064
0.016394667 -0.026142374 0.041992493 -0.013091594 0.028190292 0.032179266 -0.050529413 -0.0015296638
-0.025947273 0.03757982 0.056022614 0.0063563883 0.033431537 0.03232742 0.017567843 -0.053667687
-0.061458915 -0.050563656 0.044184305 0.045278683 0.053853206 0.013857909 -0.01902356 0.010237321
-0.01662162 0.015843213 0.058128014 -0.017682001 -0.05284839 -0.033318497 -0.014547475 -0.011666812
-0.052950285 0.0017399192 -0.05831469 -0.049759857 0.0010136515 -0.018299967 -0.020712987 -0.050793305
0.008786313 0.06017355 -0.04954557 0.034019865 -0.012583248 -0.050036363 0.03594275 -0.053413346
-0.049921356 0.052403234 -0.053698152 0.012438275 0.01859475 0.04713834 -0.030530162 -0.013558932
-0.023436002 0.060091518 -0.046773687 0.0136711225 -0.055402793 0.016570926 0.05243876 0.032922596
-0.006309457 -0.030365065 0.029436529 -0.032993726 -0.051930606 -0.031548195 0.05354432 0.015878074
00000000: 5c10 24bd e8fa e0bc a05d 7a3d 90d4 8f3c
00000010: a86c 9fbc 06a1 793d 9044 9bbb 7c7f c43c
00000020: f230 64bd 4897 2c3d 9667 67bd 8403 903c
00000030: 9854 43bd 7e0f 61bd 60df 323c 68c4 eebc
00000040: 0028 d439 48a2 083d 68dd d53c d07b a2bb
00000050: 807e 933a 524b 383d 7290 793d da88 6abd
00000060: 288b 7e3d 2456 bd3c 8c71 2b3d ae3d 16bd
00000070: 64c6 633d 1440 02bd 2cf1 d53c 8e05 433d
00000080: 0075 62bb 6a3b 4cbd 2050 6f3b de2f 0f3d
00000090: 60c6 7f3b 38d1 e33c bc64 adbc 46e1 34bd
000000a0: d264 01bd 7c6c 82bc d0da 41bc 006b 4bbb
000000b0: 32ed 57bd 405e a73b fcb2 973c 9804 60bd
000000c0: 8018 b1bc cce1 cfbc 003d 8739 1411 7c3d
000000d0: cea4 5bbd 60d5 f73c dcfa 29bd 0007 b53c
000000e0: 1c4e 863c 8828 d6bc 5200 2c3d 207e 56bc
000000f0: 54ef e63c 68ce 033d eef7 4ebd 007f c8ba
00000100: 608f d4bc 4ced 193d f877 653d 4049 d03b
00000110: 82ef 083d c269 043d 70ea 8f3c a6d2 5bbd
00000120: 58bc 7bbd d61b 4fbd 9afa 343d 2476 393d
00000130: 2e95 5c3d 480c 633c 4cd7 9bbc 70ba 273c
00000140: 102a 88bc a0c9 813c a417 6e3d d8d9 90bc
00000150: 8e77 58bd fa78 08bd 8858 6ebc 2826 3fbc
00000160: 66e2 58bd 000e e43a 62db 6ebd fed0 4bbd
00000170: 80dc 843a d0e9 95bc 48ae a9bc a40c 50bd
00000180: 78f4 0f3c 8a78 763d 4cf0 4abd 6a58 0b3d
00000190: f829 4ebc eef2 4cbd b438 133d f4c7 5abd
000001a0: 567a 4cbd c6a4 563d 98f2 5bbd e8c9 4b3c
000001b0: 0454 983c 2214 413d 641a fabc 4826 5ebc
000001c0: dcfc bfbc 8622 763d c495 3fbd d8fc 5f3c
000001d0: 0aee 62bd c0bf 873c 06ca 563d d8d9 063d
000001e0: 90bf cebb 28c0 f8bc e024 f13c 6e24 07bd
000001f0: 30b5 54bd ae38 01bd 4a51 5b3d bc12 823c

sensor_model.4.weight f4 [64, 128]
-0.062945604 0.036786884 0.1276655 0.00042055547 0.095084265 0.11465575 -0.13891746 0.14166053
-0.058149666 0.04249057 0.07000126 0.08067672 0.14856018 -0.048027962 -0.0145187825 -0.17287727
0.09664945 0.17278029 0.03392157 0.088211045 -0.093099624 0.05380796 0.110902414 0.12507291
0.041371614 -0.036425725 -0.093459815 -0.03858991 -0.11795377 0.09899743 -0.1353491 -0.07658274
0.10380177 -0.004952237 -0.08406398 0.06778945 0.16595908 -0.106249355 -0.17019473 0.13399704
0.060387343 0.0144272 -0.030649677 -0.014685169 -0.1331634 0.10805066 -0.1278415 -0.14123768
-0.14649144 -0.02336213 0.12637402 -0.0061190873 -0.11507202 -0.026968002 0.028742552 -0.025493741
0.054846972 0.1335025 -0.09852249 -0.03470841 -0.063579656 -0.08361088 -0.08894203 -0.07111069
0.07459833 -0.063516185 0.03941506 0.12945177 0.14731891 -0.012155592 0.16111581 -0.022019014
-0.03198929 0.07203111 0.056015775 -0.103115 0.16112922 0.028976187 0.04469952 -0.0643359
0.007851034 0.06979105 0.10005875 -0.17522214 -0.06976098 0.09543897 0.044156343 -0.0029174238
-0.1334538 -0.08930177 0.037723005 0.059785783 -0.06413062 0.1756037 -0.09316451 -0.16295809
0.096267566 0.1271524 -0.10135807 0.015708968 -0.038942248 -0.17004898 0.11228295 -0.04427187
0.005188927 0.17610611 -0.03719352 -0.14519216 -0.0745881 0.031520844 -0.02654533 0.044118285
0.044329002 0.12855618 0.11307369 0.15105252 0.16521172 0.09454833 -0.0029475838 -0.009158
0.048263952 -0.14977531 -0.07592757 -0.09132805 -0.16354193 -0.07978451 0.17054702 -0.14628914
0.06807853 0.16423063 -0.17428468 -0.09423106 0.062147424 0.06687342 -0.06910736 0.09943189
-0.10480703 -0.12729868 -0.13348567 0.10108404 -0.12530926 -0.14829238 0.06945415 0.12816896
-0.16194716 0.10777502 -0.17368189 -0.02577591 -0.020524949 0.04562679 0.07494764 0.093418434
-0.11637482 0.08104019 0.15893002 0.061133116 0.068941414 -0.039057523 0.052142352 0.13555838
-0.020033479 -0.03524132 -0.0009339899 0.032839805 -0.11436975 0.09534387 0.11238481 -0.1451757
-0.15662166 0.013990164 0.16830407 0.07724066 0.05124852 -0.022797331 -0.0723266 0.06304076
0.1641251 0.11717893 0.12904464 0.124148354 -0.04374543 0.023361593 -0.1694056 0.1696824
0.10322447 -0.15520425 -0.13547707 0.05778137 0.17071874 0.12115772 0.013417631 0.13249047
0.16032527 -0.13271444 0.08333264 0.15576325 -0.09584539 -0.16609035 0.046038076 -0.03917688
-0.045988068 -0.15070271 0.11363615 0.01531361 -0.15446772 -0.12107752 -0.15580119 0.1107278
0.15659966 0.1555299 0.021861508 0.10971786 0.06454642 0.077072755 0.07544626 -0.013435572
-0.12998892 0.08921386 -0.11359332 -0.06362562 -0.08353107 -0.15128961 -0.13970388 -0.03633912
-0.08373329 -0.058471337 -0.16500852 0.025759727 -0.05205123 0.14276536 0.059939653 -0.10598097
0.04481238 -0.046882242 0.14946519 0.0017647147 0.050180346 -0.11085264 -0.1316606 0.16567554
0.1200708 0.09893264 0.10272853 0.015727729 0.047943383 0.13433714 -0.053985246 0.11274476
-0.089073166 -0.03194721 0.04259436 -0.0871255 0.04282351 0.080580935 -0.12492237 0.09419267
00000000: a0e9 80bd d8ad 163d bfba 023e 007e dc39
00000010: 8abb c23d a2d0 ea3d 6140 0ebe 750f 113e
00000020: 582e 6ebd 980a 2e3d d25c 8f3d d639 a53d
00000030: 2920 183e f8b8 44bd 30e0 6dbc bd06 31be
00000040: 26f0 c53d 51ed 303e 58f1 0a3d fea7 b43d
00000050: 04ab bebd bc65 5c3d ce20 e33d 1d13 003e
00000060: 4875 293d 2433 15bd dc67 bfbd 7410 1ebd
00000070: bf91 f1bd 2abf ca3d f498 0abe 69d7 9cbd
00000080: 0696 d43d 6046 a2bb bc29 acbd 32d5 8a3d
00000090: 2df1 293e 4399 d9bd 8747 2ebe 8536 093e
000000a0: b858 773d 1060 6c3c 0815 fbbc 109a 70bc
000000b0: fd5b 08be aa49 dd3d e2e8 02be 9ca0 10be
000000c0: da01 16be f061 bfbc 3168 013e a082 c8bb
000000d0: e1aa ebbd 00ec dcbc 8075 eb3c 40d8 d0bc
000000e0: 38a7 603d e1b4 083e 29c6 c9bd 682a 0ebd
000000f0: 0d36 82bd 2e3c abbd 3d27 b6bd 7ba2 91bd
00000100: 02c7 983d c614 82bd b071 213d 018f 043e
00000110: c5da 163e 4028 47bc 8bfb 243e 3861 b4bc
00000120: 3407 03bd 0c85 933d cc70 653d f52d d3bd
00000130: 0fff 243e 785f ed3c d816 373d 8ac2 83bd
00000140: a0a1 003c 9cee 8e3d 9aeb cc3d 6f6d 33be
00000150: d8de 8ebd 8275 c33d 48dd 343d 4032 3fbb
00000160: 1da8 08be d9e3 b6bd 7083 1a3d f0e1 743d
00000170: ea56 83bd 75d1 333e 09cd bebd 7cde 26be
00000180: ee27 c53d 3d34 023e d294 cfbd 18b0 803c
00000190: e881 1fbd 5221 2ebe 9af4 e53d 6c56 35bd
000001a0: e007 aa3b 2955 343e 3c58 18bd 41ad 14be
000001b0: a5c1 98bd 001c 013d 9875 d9bc 60b5 343d
000001c0: 5492 353d 3ba4 033e 2e93 e73d 83ad 1a3e
000001d0: 432d 293e 8ea2 c13d 402c 41bb 700b 16bc
000001e0: 6cb0 453d b35e 19be ea7f 9bbd 330a bbbd
000001f0: 8977 27be 1066 a3bd e1a3 2e3e d2cc 15be
00000200: c26c 8b3d 132c 283e af77 32be 37fc c0bd
00000210: 4c8e 7e3d eef4 883d 2988 8dbd f2a2 cb3d
00000220: 11a5 d6bd 965a 02be 78b0 08be 2605 cf3d
00000230: 1251 00be f5d9 17be fa3d 8e3d b93e 033e
00000240: 7ad5 25be 26b9 dc3d aad9 31be 0028 d3bc
00000250: f023 a8bc 28e3 3a3d 267e 993d 2a52 bf3d
00000260: ec55 eebd 66f8 a53d 8dbe 223e b866 7a3d
00000270: 2831 8d3d c8fa 1fbd 3893 553d d1cf 0a3e
00000280: 401d a4bc 3459 10bd 00d7 74ba 0883 063d
00000290: b03a eabd a643 c33d 022a e63d f0a8 14be
000002a0: 6e61 20be 0037 653c e757 2c3e 5a30 9e3d
000002b0: f8e9 513d 78c1 babc f81f 94bd 841b 813d
000002c0: 6910 283e 82fb ef3d 4724 043e 7e41 fe3d
000002d0: 682e 33bd d060 bf3c a978 2dbe 39c1 2d3e
000002e0: 5a67 d33d dded 1ebe 80ba 0abe 28ac 6c3d
000002f0: e5d0 2e3e 8a21 f83d a0d5 5b3c 95ab 073e
00000300: 4f2c 243e 4be6 07be 4eaa aa3d 6780 1f3e
00000310: 964a c4bd 9713 2abe 6c92 3c3d f077 20bd
00000320: fc5d 3cbd d051 1abe 12ba e83d f0e5 7a3c
00000330: c92c 1ebe 7ef7 f7bd 598a 1fbe 42c5 e23d
00000340: a95b 203e 3b43 1f3e e816 b33c c2b3 e03d
00000350: ea30 843d 52d8 9d3d 9283 9a3d e020 5cbc
00000360: d11b 05be c2b5 b63d 9da3 e8bd 264e 82bd
00000370: 5612 abbd aaeb 1abe 890e 0fbe 54d8 14bd
00000380: 5c7c abbd a47f 6fbd fef7 28be 1006 d33c
00000390: ac33 55bd 1531 123e 4883 753d 8d0c d9bd
000003a0: 308d 373d 9807 40bd 670d 193e 004e e73a
000003b0: e889 4d3d b506 e3bd 09d2 06be d9a6 293e
000003c0: aee7 f53d 329d ca3d 5663 d23d 70d7 803c
000003d0: 4860 443d ad8f 093e a21f 5dbd bae6 e63d
000003e0: fe6b b6bd 14db 02bd 6c77 2e3d db6e b2bd
000003f0: b467 2f3d 9e07 a53d 4dd7 ffbd 16e8 c03d

sensor_model.4.bias f4 [64]
0.06591868 -0.072886795 -0.061072543 -0.030522075 -0.029105265 0.021725774 -0.056732807 0.0031067207
0.055746384 0.060533352 -0.035719097 -0.07415388 -0.045045644 0.040022574 -0.014876485 -0.07885095
0.019748308 -0.031613603 0.05566182 -0.069794156 -0.027115341 0.015392356 -0.024383165 0.060990714
-0.06400352 -0.032467686 -0.009589665 -0.024436392 -0.0519431 0.056132503 0.05353614 -0.038839616
0.030521631 -0.044805944 -0.022820674 0.00035768747 -0.039835524 -0.007608801 -0.011595599 0.055255644
0.06524462 -0.022121817 0.08130648 -0.01609876 -0.013246521 -0.037809726 -0.052687343 -0.06119307
-0.04236031 0.05766339 0.05204851 -0.041876245 0.03590919 -0.08565326 -0.07728296 0.028872192
0.08410839 0.020639017 -0.054648362 0.020899221 -0.06856266 -0.061748073 0.07992289 0.08499413
00000000: 5f00 873d ac45 95bd 3427 7abd 6e09 fabc
00000010: 2a6e eebc 40fa b13c a960 68bd 209a 4b3b
00000020: 5256 643d d2f1 773d 304e 12bd fddd 97bd
00000030: c881 38bd b6ee 233d 80bc 73bc 9b7c a1bd
00000040: 34c7 a13c 447d 01bd a6fd 633d 3df0 8ebd
00000050: fe20 debc 3830 7c3c 34bf c7bc 66d1 793d
00000060: 4714 83bd d6fc 04bd f81d 1dbc d42e c8bc
00000070: 4ac2 54bd 32eb 653d b648 5b3d 4a16 1fbd
00000080: 8008 fa3c 7086 37bd 6cf2 babc 0088 bb39
00000090: 932a 23bd 4053 f9bb 78fb 3dbc be53 623d
000000a0: f99e 853d d038 b5bc 0384 a63d 8ce1 83bc
000000b0: f007 59bc 5fde 1abd afce 57bd 96a5 7abd
000000c0: 0182 2dbd 7230 6c3d d230 553d 6d86 2bbd
000000d0: 8415 133d fa6a afbd 8746 9ebd 6085 ec3c
000000e0: 0541 ac3d 2813 a93c f6d6 5fbd d834 ab3c
000000f0: 946a 8cbd 8ceb 7cbd 9dae a33d 6711 ae3d

target_model.0.weight f4 [64, 66]
-0.20370361 -0.17757522 0.06292407 -0.07677609 0.092023775 0.06798299 -0.034869343 0.179532
0.20519428 -0.09748186 0.1355244 -0.1865814 -0.057595253 0.19848745 0.13260241 -0.07274173
-0.040908247 0.065011665 0.16556449 0.14665298 0.048865512 0.13668878 0.18636917 -0.16730356
0.03188175 0.20710547 -0.061095178 -0.21072115 0.11092915 -0.0038284063 -0.19179977 -0.17476565
0.13976388 -0.209323 -0.16552049 -0.21281497 -0.025084928 0.013456345 0.024585143 -0.1837841
-0.063163996 0.0010268986 -0.12734702 -0.020828113 0.07087304 0.042453244 -0.17495462 0.036383286
0.19343878 -0.13354424 -0.115390345 0.09435584 0.180295 -0.15657406 0.069713905 0.13435645
0.16116364 -0.20629872 0.17642011 0.19388182 0.05889289 0.13147934 -0.17868517 -0.10146246
0.059555605 0.16028367 -0.06277816 0.035309687 -0.12928438 -0.14307302 -0.121909134 0.0135285705
-0.21238531 -0.16570614 0.16763057 -0.20884909 -0.12991181 -0.17389323 0.13229711 0.08060457
0.007514745 0.18941222 -0.087946266 0.06202568 -0.02892907 0.034944385 -0.1413157 -0.075463995
0.08507447 0.15093462 0.14728968 0.20927615 -0.19679283 0.13912226 0.029284105 0.022373408
-0.06045267 0.2019548 0.006609857 -0.07972719 -0.050832808 0.07630055 0.047912374 -0.16642548
-0.03523384 0.036585286 0.17976145 -0.12381733 0.1802028 -0.12682872 0.13864528 0.00048972666
-0.18640141 0.12218337 0.11081205 0.12926038 -0.0037758946 0.19425379 -0.06729558 0.03434615
-0.055529743 0.046600804 -0.09580784 0.10645513 0.0070512295 -0.0922241 -0.14570181 0.21235637
-0.21378501 0.06772469 -0.1073728 0.16455151 -0.12054969 -0.14351356 -0.17479372 -0.03865695
0.053133503 -0.0033898056 0.18865575 -0.08336353 -0.03231208 -0.16148253 -0.025165945 0.14839007
-0.00013752282 0.20347096 -0.020210773 0.05930765 -0.03219618 0.016029418 0.12729795 0.14904962
-0.07784939 -0.20549627 -0.13118672 -0.16041186 -0.14655435 0.04625617 0.06809048 0.17230354
0.2076232 -0.18285523 -0.10389344 -0.168351 0.027786523 -0.19519836 0.108761325 0.08508168
-0.1568701 0.07667546 -0.1900446 0.14614539 0.203918 -0.20030765 -0.091562614 0.07271545
-0.028104722 -0.12795626 0.21480353 -0.09928959 -0.04249975 0.042752787 0.2117412 0.08551659
-0.01756385 -0.12138528 0.020648614 0.21097986 -0.14982714 -0.16955312 -0.11851101 -0.13973442
0.13718404 0.045921907 0.20309527 0.080419704 -0.16246226 0.124550626 0.14599822 0.09110512
0.18850143 0.012891054 0.20130883 0.11350672 -0.06915668 -0.029579297 -0.1738388 0.10774793
-0.019803211 0.1051736 0.071424976 0.029398605 -0.10220447 -0.05502829 -0.21166459 0.09347682
0.018000603 -0.04244873 0.07578547 0.19123997 -0.05453892 0.1561762 -0.02018936 -0.0048050284
0.00021925569 0.12741451 -0.16341293 -0.021395817 -0.04941486 0.13869329 0.16475607 -0.0009088814
-0.11214171 0.000291422 0.09382059 -0.17290032 0.09936701 -0.12832528 -0.10502859 0.033664495
-0.05297959 0.04102747 -0.04498279 0.09753017 0.0589893 0.19317414 0.03661944 -0.19797745
0.12274723 0.09577952 -0.10588351 0.19892444 -0.1717472 -0.15835014 0.07290463 -0.085095376
00000000: ae97 50be 47d6 35be 56de 803d c83c 9dbd
00000010: f676 bc3d aa3a 8b3d 28d3 0ebd 3dd7 373e
00000020: 731e 523e 92a4 c7bd e9c6 0a3e 320f 3fbe
00000030: 00e9 6bbd 4b40 4b3e edc8 073e 9ef9 94bd
00000040: 688f 27bd d624 853d bd89 293e 332c 163e
00000050: 3427 483d 25f8 0b3e 8fd7 3e3e a051 2bbe
00000060: 7096 023d 7513 543e f03e 7abd 49c7 57be
00000070: d22e e33d 00e6 7abb 2967 44be c4f5 32be
00000080: 431e 0f3e c558 56be 347e 29be 2bec 59be
00000090: e87e cdbc 0078 5c3c c866 c93c e631 3cbe
000000a0: 205c 81bd 0099 863a 4267 02be b89f aabc
000000b0: e225 913d 74e3 2d3d 4e27 33be a406 153d
000000c0: d114 463e d2bf 08be c651 ecbd a23d c13d
000000d0: 419f 383e f354 20be 2ac6 8e3d bd94 093e
000000e0: 1508 253e f93f 53be 79a7 343e f588 463e
000000f0: ac39 713d 85a2 063e 3ff9 36be 8dcb cfbd
00000100: 94f0 733d 6721 243e d691 80bd e4a0 103d
00000110: 2063 04be bc81 12be 7fab f9bd f0a6 5d3c
00000120: 897b 59be dfae 29be 59a7 2b3e 89dc 55be
00000130: 9a07 05be 1111 32be e578 073e 0214 a53d
00000140: 403e f63b 47f5 413e 2c1d b4bd a40e 7e3d
00000150: a8fc ecbc d821 0f3d 10b5 10be de8c 9abd
00000160: 863b ae3d 9b8e 1a3e 1bd3 163e 7d4c 563e
00000170: 0f84 49be 1176 0e3e 38e5 ef3c 7048 b73c
00000180: 389d 77bd 3dcd 4e3e 8097 d83b 0248 a3bd
00000190: 1036 50bd 7643 9c3d c43f 443d 716b 2abe
000001a0: 5c51 10bd 74da 153d 6313 383e f193 fdbd
000001b0: 1587 383e 63df 01be 07f9 0d3e 0061 003a
000001c0: 03e0 3ebe 463b fa3d 6ef1 e23d d55c 043e
000001d0: 0075 77bb 77ea 463e 44d2 89bd 8cae 0c3d
000001e0: 2873 63bd 7ce0 3e3d e736 c4bd 2605 da3d
000001f0: 000e e73b fddf bcbd db32 15be f373 593e
00000200: 75ea 5abe 3eb3 8a3d 45e6 dbbd 3180 283e
00000210: c2e2 f6bd 38f5 12be 20fd 32be c056 1ebd
00000220: 84a2 593d 8027 5ebb f92e 413e 80ba aabd
00000230: ac59 04bd ad5b 25be d028 cebc 91f3 173e
00000240: 0034 10b9 b15a 503e 1091 a5bc 94ec 723d
00000250: 24e0 03bd 2050 833c 655a 023e 77a0 183e
00000260: 806f 9fbd 9d6d 52be d055 06be 0243 24be
00000270: 5812 16be 1c77 3d3d 0673 8b3d 5770 303e
00000280: 2d9b 543e 673e 3bbe 15c6 d4bd 3464 2cbe
00000290: 90a0 e33c 14e2 47be 42be de3d 4e3f ae3d
000002a0: 8ea2 20be 0608 9d3d 0d9b 42be 23a7 153e
000002b0: e1cf 503e 731d 4dbe 2e85 bbbd d6eb 943d
000002c0: e03b e6bc f706 03be 75f5 5b3e 5758 cbbd
000002d0: 3814 2ebd 8c1d 2f3d afd2 583e 5223 af3d
000002e0: 10e2 8fbc d898 f8bd 4827 a93c 1b0b 583e
000002f0: 496c 19be 559f 2dbe e7b5 f2bd 8a16 0fbe
00000300: f979 0c3e 9c18 3c3d 35f8 4f3e 16b3 a43d
00000310: 825c 26be 6614 ff3d 8f80 153e 5295 ba3d
00000320: 8506 413e 0035 533c e723 4e3e 3676 e83d
00000330: 04a2 8dbd 4850 f2bc cc02 32be f2aa dc3d
00000340: 583a a2bc 4265 d73d 4247 923d 58d5 f03c
00000350: 9450 d1bd 5865 61bd 9abe 58be c670 bf3d
00000360: 0076 933c b8de 2dbd 6a35 9b3d 69d4 433e
00000370: 3464 5fbd a7ec 1f3e 2864 a5bc 8073 9dbb
00000380: 00e8 6539 f378 023e b855 27be 4846 afbc
00000390: 3c67 4abd 9d05 0e3e d1b5 283e 0042 6eba
000003a0: 8eaa e5bd 00ca 9839 0225 c03d c80c 31be
000003b0: ee80 cb3d b467 03be 3b19 d7bd c8e3 093d
000003c0: 2001 59bd 6c0c 283d e03f 38bd e6bd c73d
000003d0: c49e 713d 71cf 453e 44fe 153d 9aba 4abe
000003e0: e662 fb3d 0e28 c43d 74d9 d8bd d9b2 4b3e
000003f0: 7fde 2fbe 8a26 22be 064f 953d 7c46 aebd

target_model.0.bias f4 [64]
-0.06944831 0.0134320855 0.08913651 -0.09013111 0.08397263 0.0061039627 0.029056877 -0.0057880953
-0.08682965 0.02676265 0.08833744 0.03349401 0.11654198 0.0740969 0.08113374 0.084129006
0.10464437 0.043734014 -0.03394878 0.024877891 0.106463075 0.06547493 -0.08764201 0.1197298
-0.086719446 -0.096412 -0.09331116 0.10813357 0.07480103 0.06677385 -0.051927313 -0.027574837
0.079465225 -0.10696988 -0.022935793 0.100043535 -0.034974992 -0.086004704 0.04578516 0.068695694
-0.08213029 0.015114307 -0.10309629 -0.109426156 -0.09426169 -0.005841799 0.006902635 0.00063066185
0.077127844 0.006992832 -0.0896085 -0.1025182 -0.104706064 -0.011543982 -0.087335385 0.022279114
0.045351937 -0.08787598 0.016441703 0.059846476 -0.0035130158 -0.08418006 0.038207754 -0.046937406
00000000: ea3a 8ebd 4012 5c3c 348d b63d a996 b8bd
00000010: d8f9 ab3d c003 c83b b008 ee3c 10aa bdbb
00000020: bed3 b1bd 583d db3c 42ea b43d 0431 093d
00000030: 90ad ee3d 1ec0 973d 7229 a63d d44b ac3d
00000040: ca4f d63d 7022 333d e00d 0bbd b8cc cb3c
00000050: 5009 da3d b817 863d a77d b3bd e634 f53d
00000060: f799 b1bd a873 c5bd ec19 bfbd 2275 dd3d
00000070: 4831 993d bac0 883d bcb1 54bd a0e4 e1bc
00000080: aabe a23d 0613 dbbd d8e3 bbbc a0e3 cc3d
00000090: f041 0fbd 3c23 b0bd 3889 3b3d 54b0 8c3d
000000a0: ed33 a8bd 00a2 773c 2624 d3bd d21a e0bd
000000b0: 460c c1bd 906c bfbb 802f e23b 0053 253a
000000c0: 34f5 9d3d 2024 e53b a984 b7bd 10f5 d1bd
000000d0: 2270 d6bd f822 3dbc e5dc b2bd b082 b63c
000000e0: f4c2 393d 52f8 b3bd c0b0 863c 9421 753d
000000f0: a03a 66bb 9866 acbd bc7f 1c3d 7041 40bd

target_model.2.weight f4 [16, 64]
-0.008363128 0.20997801 0.05008304 0.16773686 -0.005144 0.016503036 -0.17777373 -0.04940529
0.11782247 0.2658258 0.23926765 -0.109868556 0.005967796 0.08345252 0.25920594 -0.0327473
-0.10834369 -0.18471104 -0.054913074 -0.27051306 0.113921076 -0.002719432 -0.17058268 -0.089439556
0.16422799 -0.14276482 -0.1575886 -0.05086699 0.09011796 0.25841582 0.23727232 0.25098288
-0.07118957 -0.11780928 0.20302457 0.009982437 -0.1850709 -0.06432626 0.094337136 -0.05722545
0.13371512 0.08618748 -0.22928514 -0.11606398 0.012599409 0.013067722 0.059771597 -0.16884995
-0.06625676 0.11797196 0.026688486 -0.23128754 -0.23678565 0.26840615 -0.033468887 0.030169576
0.10576296 0.05316031 -0.19444782 -0.13779898 0.18156004 -0.24931993 -0.18186405 -0.20971256
-0.080240145 0.15542799 0.00085794926 0.19173515 0.02972889 -0.23055063 -0.09861654 -0.27233037
0.08660582 -0.15458833 0.1751341 -0.037934124 0.17306536 0.18583465 -0.22580293 -0.16978881
-0.08848481 -0.19938543 -0.0077724457 0.27326894 -0.10355091 -0.26616484 0.055995822 0.07230416
0.24958289 -0.1831422 0.035231203 -0.21928406 0.0073387325 0.097877234 0.07789281 -0.21341941
0.2672624 0.06362629 -0.01665467 -0.20992623 -0.024743214 -0.13211873 0.09770623 0.009467423
-0.16848865 0.22658813 -0.004469663 -0.055725366 0.048082054 -0.17989674 0.21595967 0.19434956
-0.049328193 0.11694306 0.2704994 0.06047359 -0.24853931 -0.10862799 0.21309435 -0.045930922
0.13337564 -0.14118902 0.2632603 -0.14066684 -0.035256535 -0.04203172 -0.2568403 0.17729047
-0.14936945 0.19854102 0.12128329 0.2175006 0.25459516 -0.023778021 0.066470236 -0.08005752
0.070613414 -0.27183315 -0.11478497 0.2662663 0.14081356 0.016495883 0.1158531 0.010545522
0.25587547 -0.08243342 0.25736183 0.00038263202 0.15961555 0.12991413 0.15781844 0.07683474
-0.05291006 0.056668192 0.2499662 0.09561646 0.03239703 -0.2672675 -0.1906685 -0.113679394
-0.2521251 -0.063133284 -0.13542286 -0.0040887594 -0.14898893 0.1801587 0.06818485 0.06642482
-0.22624859 0.0366939 -0.15274549 0.03533995 -0.19788805 0.078656584 -0.07196137 0.17768925
0.07989463 0.17647696 -0.20323253 -0.26264876 0.13405457 -0.035904467 -0.24411015 -0.19752492
0.07229155 0.059882253 -0.23178637 -0.25360528 -0.014374167 0.22955227 -0.13964738 -0.024440482
-0.012580544 -0.016631037 0.10856721 -0.06303635 0.15262276 -0.10233913 -0.21010944 0.08537102
-0.0006465614 -0.26297224 0.035262764 0.25701123 0.15634164 0.1366468 -0.10375874 -0.23367417
-0.21749674 0.22288123 0.16465878 0.006464392 0.2651121 0.048656017 -0.048340365 0.09385225
-0.2624324 0.0768258 -0.25781384 -0.015806258 0.15632147 -0.06466344 0.19875914 0.046557903
-0.22025666 0.03557527 -0.22449651 -0.08196941 0.20212331 -0.120296314 -0.20560774 0.08316845
0.132821 -0.016575336 0.04963824 0.0020200014 0.09603307 -0.0029648244 -0.23300146 -0.2215278
0.20629945 0.10440746 0.019153357 0.16538754 -0.13922285 -0.24680454 0.015507132 -0.051827133
-0.14924645 -0.247329 0.12193847 0.13670948 0.022795498 -0.1771854 -0.25703368 -0.079391986
00000000: 8005 09bc 7a04 573e e023 4d3d 36c3 2b3e
00000010: 008f a8bb 6031 873c 510a 36be 345d 4abd
00000020: e84c f13d 521a 883e 9402 753e c402 e1bd
00000030: 808d c33b 28e9 aa3d a4b6 843e 0822 06bd
00000040: 4ce3 ddbd e424 3dbe 88ec 60bd b080 8abe
00000050: 744f e93d 8038 32bb 3aad 2ebe 162c b7bd
00000060: 622b 283e f130 12be e85e 21be e859 50bd
00000070: c48f b83d 144f 843e 84f7 723e d480 803e
00000080: d6cb 91bd fe45 f1bd ace5 4f3e 608d 233c
00000090: 3a83 3dbe 7cbd 83bd d433 c13d 3c65 6abd
000000a0: 9eec 083e 1083 b03d b9c9 6abe f4b2 edbd
000000b0: c06d 4e3c 001a 563c 10d3 743d 00e7 2cbe
000000c0: a0b1 87bd 489b f13d d0a1 da3c a4d6 6cbe
000000d0: f077 72be 886c 893e ac16 09bd 3026 f73c
000000e0: 409a d83d a0be 593d 541d 47be 2d1b 0dbe
000000f0: e0ea 393e b94d 7fbe 923a 3abe e4be 56be
00000100: f254 a4bd 8428 1f3e 00e8 603a 3856 443e
00000110: 008a f33c 7715 6cbe 78f7 c9bd e36e 8bbe
00000120: 645e b13d 674c 1ebe 5a56 333e d060 1bbd
00000130: 0c38 313e 704b 3e3e e238 67be 1edd 2dbe
00000140: 8637 b5bd b22b 4cbe 00b0 febb e8e9 8b3e
00000150: 8012 d4bd c246 88be e05b 653d 3414 943d
00000160: a892 7f3e a189 3bbe 984e 103d 008c 60be
00000170: c079 f03b dc73 c83d 4486 9f3d 9e8a 5abe
00000180: 9ed6 883e 804e 823d 606f 88bc e7f6 56be
00000190: 48b2 cabc 224a 07be 341a c83d 401d 1b3c
000001a0: 4a88 2cbe b806 683e 4076 92bb 4840 64bd
000001b0: b0f1 443d da36 38be 8824 5d3e 9203 473e
000001c0: 5c0c 4abd d87f ef3d e67e 8a3e 28b3 773d
000001d0: 1781 7ebe 5a78 debd 6835 5a3e 1022 3cbd
000001e0: a093 083e db93 10be 0eca 863e f80a 10be
000001f0: 2869 10bd 7429 2cbd 9280 83be a28b 353e
00000200: 4ef4 18be 564e 4b3e 6063 f83d 7ab8 5e3e
00000210: 4c5a 823e 20ca c2bc 8c21 883d 32f5 a3bd
00000220: c49d 903d b72d 8bbe 6214 ebbd 0e54 883e
00000230: 6e31 103e 6022 873c 6444 ed3d 20c7 2c3c
00000240: 1c02 833e dad2 a8bd eec4 833e 009c c839
00000250: 4272 233e 3608 053e 289b 213e 885b 9d3d
00000260: 38b8 58bd e81c 683d 24f7 7f3e 90d2 c33d
00000270: c0b2 043d 49d7 88be 9a3e 43be bed0 e8bd
00000280: 8b16 81be 064c 81bd 4aac 0abe 00fb 85bb
00000290: 8e90 18be 867b 383e 80a4 8b3d bc09 883d
000002a0: b6ad 67be 584c 163d 5069 1cbe a0c0 103d
000002b0: 2aa3 4abe b416 a13d 7c60 93bd 2cf4 353e
000002c0: cc9f a33d 60b6 343e 301c 50be e679 86be
000002d0: 9a45 093e 9010 13bd 03f8 79be f943 4abe
000002e0: 980d 943d 1847 753d 6859 6dbe 8dd8 81be
000002f0: a081 6bbc c00f 6b3e b9ff 0ebe 6837 c8bc
00000300: a01e 4ebc d03d 88bc 7c58 de3d 3419 81bd
00000310: 2449 1c3e 2e97 d1bd ee26 57be 00d7 ae3d
00000320: 007e 29ba 4ca4 86be b06f 103d fa96 833e
00000330: 0618 203e 24ed 0b3e 767f d4bd 4848 6fbe
00000340: 77b7 5ebe fa3a 643e 509c 283e 40d3 d33b
00000350: c6bc 873e 884b 473d 8c00 46bd 9c35 c03d
00000360: 8a5d 86be d856 9d3d 2d00 84be 207c 81bc
00000370: bc12 203e 446e 84bd 8487 4b3e 80b3 3e3d
00000380: f68a 61be 60b7 113d 6ae2 65be 94df a7bd
00000390: 6af9 4e3e ea5d f6bd d68a 52be 3854 aa3d
000003a0: 3a02 083e 00c9 87bc 7851 4b3d 0062 043b
000003b0: fcac c43d 804d 42bb ef97 6ebe 2fd8 62be
000003c0: 2a40 533e 94d3 d53d 80e7 9c3c 5a5b 293e
000003d0: 6f90 0ebe 54ba 7cbe a011 7e3c b048 54bd
000003e0: 10d4 18be d043 7dbe e0ba f93d 92fd 0b3e
000003f0: a0bd ba3c 1770 35be eb99 83be 4498 a2bd

target_model.2.bias f4 [16]
-0.01395157 0.0464679 -0.035910532 -0.10738304 0.107730106 0.006208837 -0.12443936 0.008525193
0.02338618 0.006817177 -0.034634784 -0.11484444 -0.108499795 0.046581298 -0.054214835 0.027979478
00000000: 2095 64bc 2055 3e3d ec16 13bd a4eb dbbd
00000010: 9aa1 dc3d 8073 cb3b 10da febd 40ad 0b3c
00000020: 6094 bf3c a062 df3b 34dd 0dbd 9033 ebbd
00000030: 2435 debd 08cc 3e3d 6010 5ebd 3835 e53c
