Pytorch_DRL/HNRN/models/backup/4.9/best_ca_critic.model (torch_old, 225090 bytes, 9 tensors)

sensor_model.0.weight f4 [128, 360]
-0.006690218 -0.10021321 -0.086106144 0.011668445 0.037811827 -0.010159972 -0.03234235 0.006474577
-0.037131272 0.015594537 -0.040990718 -0.05143854 -0.031534564 -0.100529075 0.09577674 0.062449966
0.11688102 0.07116681 -0.009647367 -0.05384222 -0.049892057 -0.054867703 0.08125759 -0.041628458
0.041229423 -0.090845615 -0.028081207 -0.10339686 0.05790443 -0.009682335 0.08943423 0.10171606
0.09023854 -0.002996618 -0.056967154 -0.007915046 0.07568559 0.07412636 0.07767604 0.035666116
-0.018703451 0.059292328 0.030298963 0.010982322 0.060323272 0.03504993 0.08044415 -0.0416895
-0.06682625 -0.0691866 0.10046981 -0.034260698 -0.07744843 0.078224935 0.025865097 0.06555861
-0.051179036 0.071018115 -0.0059730983 0.08180209 -0.0928961 0.062079966 -0.09623648 0.068771526
-0.0514596 0.0036647376 0.084664136 -0.10678142 -0.083206974 -0.038652077 0.087822996 -0.015347822
0.064961925 -0.061549474 0.035368122 0.014695839 0.10081164 -0.069749355 -0.094779 -0.0062858346
0.056449797 -0.028949486 -0.060073502 -0.106363 -0.080901 -0.04778263 0.10412781 0.008847947
0.013235329 -0.033571195 0.07246743 0.058784634 -0.016792538 -0.052185662 0.02076026 -0.09171027
0.020971362 0.09289335 0.10520667 -0.061010446 -0.020312073 -0.031338308 -0.020291382 0.09273229
0.041730385 0.03516841 0.02041047 -0.052945912 -0.088995844 0.10334579 0.07545492 -0.042508952
0.029624172 0.10817073 0.010576381 0.061939403 -0.0820918 0.07340449 -0.07419511 0.018258717
0.014499665 -0.09379391 -0.0448476 0.08120226 -0.07438278 -0.071988404 0.09567901 0.0988381
0.07107348 0.063819475 0.044483103 -0.052207887 0.09435472 0.0019593998 -0.02408385 -0.098815344
0.11317842 0.0043533035 0.10166746 -0.08211948 -0.020307383 0.10827078 0.010196018 -0.06547285
0.07070196 -0.04434784 0.00040567823 -0.06647631 0.058624163 -0.03530917 -0.08717072 0.013606515
-0.06589828 -0.07150799 0.08328259 -0.09637109 0.09420296 -0.08256591 0.022078853 0.10038334
0.0049603223 -0.10238154 -0.084892154 -0.061492644 0.01971199 0.05016716 0.10453334 -0.0033846302
-0.09805843 -0.057527855 0.022010515 -0.046780214 -0.100051336 0.07396912 0.017720303 -0.09178596
0.065479785 -0.04448955 0.026007468 0.10861296 -0.0727364 -0.028875904 0.051034175 0.07290529
-0.06673146 -0.07812332 0.020409958 0.027639583 0.0068168533 -0.07965531 0.09296054 0.07703393
0.06489488 -0.07794266 0.02344516 0.020888261 0.082993075 -0.034380015 0.03207779 -0.078353524
0.07926639 -0.043092873 0.08338305 0.047382064 -0.055772703 -0.059462942 0.08401965 -0.025271928
-0.041313678 0.009488014 0.03114901 0.10633827 0.03696639 0.09832916 -0.039294314 -0.08316344
-0.019650474 -0.05915245 -0.07391904 0.0621759 -0.088304155 0.10354421 -0.027896728 -0.06856446
-0.07022397 0.043298732 -0.06954823 0.08645714 -0.043305613 0.07315428 0.076405846 -0.08567196
0.09593006 0.044996377 0.060632303 -0.0031036127 -0.052662205 0.086010054 0.092523985 -0.048901398
0.037699778 0.018409759 -0.02821012 -0.070438296 -0.03480312 -0.08438205 -0.017788816 -0.079734825
0.10647452 0.0071527106 -0.0040572565 -0.021170761 0.089840665 -0.033106957 0.04027747 -0.06560563
00000000: 9e39 dbbb 953c cdbd 6b58 b0bd 012d 3f3c
00000010: 93e0 1a3d 0376 26bc 6979 04bd b028 d43b
00000020: f616 18bd 3b80 7f3c e2e5 27bd 38b1 52bd
00000030: 632a 01bd 30e2 cdbd 9826 c43d 89cb 7f3d
00000040: 515f ef3d e8bf 913d fd0f 1ebc a989 5cbd
00000050: 9d5b 4cbd f5bc 60bd 616a a63d 9a82 2abd
00000060: 2fe0 283d 440d babd 8f0a e6bc bcc1 d3bd
00000070: 322d 6d3d a8a2 1ebc 4b29 b73d 8250 d03d
00000080: fcce b83d e862 44bb 6456 69bd 1cae 01bc
00000090: 0c01 9b3d 90cf 973d 9e14 9f3d a216 123d
000000a0: fb37 99bc 83dc 723d 8835 f83c 32ef 333c
000000b0: 8915 773d 8490 0f3d e7bf a43d 9cc2 2abd
000000c0: 33dc 88bd b4b1 8dbd 1ec3 cd3d f254 0cbd
000000d0: 489d 9ebd 6534 a03d 0ae3 d33c 9843 863d
000000e0: 1ca1 51bd f271 913d fbb9 c3bb db87 a73d
000000f0: 4f40 bebd 9047 7e3d a217 c5bd 16d8 8c3d
00000100: 4dc7 52bd 182c 703b 6464 ad3d 38b0 dabd
00000110: 6b68 aabd a451 1ebd 8bdc b33d 6e75 7bbc
00000120: c20a 853d 4d1b 7cbd 2ade 103d d1c6 703c
00000130: 5576 ce3d c0d8 8ebd 7e1b c2bd 67f9 cdbb
00000140: e737 673d 7927 edbc a20f 76bd d8d4 d9bd
00000150: 6caf a5bd b8b7 43bd f640 d53d fbf6 103c
00000160: fed8 583c f381 09bd ce69 943d 28c8 703d
00000170: 8190 89bc a2c0 55bd 6c11 aa3c 98d2 bbbd
00000180: 22cc ab3c de3e be3d 9876 d73d 17e6 79bd
00000190: 8165 a6bc 995c 00bd 1d3a a6bc 6dea bd3d
000001a0: 7bed 2a3d c00c 103d dc33 a73c d0dd 58bd
000001b0: 7443 b6bd f5a6 d33d 1c88 9a3d de1d 2ebd
000001c0: 64ae f23c 9e88 dd3d 8f48 2d3c 2cb4 7d3d
000001d0: bf1f a8bd 1855 963d 9bf3 97bd 4e93 953c
000001e0: 0190 6d3c 0617 c0bd 1eb2 37bd 5f4d a63d
000001f0: 0056 98bd a86e 93bd 5bf3 c33d a16b ca3d
00000200: f98e 913d c9b3 823d ea33 363d f0d7 55bd
00000210: 0c3d c13d 4669 003b 7f4b c5bc b35f cabd
00000220: 16ca e73d 28a6 8e3b 0737 d03d 422e a8bd
00000230: ab5b a6bc 12bd dd3d 330d 273c a116 86bd
00000240: 30cc 903d 15a6 35bd 36b1 d439 bb24 88bd
00000250: e41f 703d 59a0 10bd 9086 b2bd dced 5e3c
00000260: adf5 86bd c872 92bd 1090 aa3d 355e c5bd
00000270: 7bed c03d 5118 a9bd b6de b43c c895 cd3d
00000280: 338a a23b 6aad d1bd f0db adbd b6df 7bbd
00000290: 0a7b a13c 147c 4d3d 9315 d63d acd0 5dbb
000002a0: dcd2 c8bd 54a2 6bbd 654f b43c 9c9c 3fbd
000002b0: b7e7 ccbd 1f7d 973d 2b2a 913c 47fa bbbd
000002c0: 441a 863d ad3a 36bd 9d0d d53c 7970 de3d
000002d0: d2f6 94bd 298d ecbc 3609 513d 5e4f 953d
000002e0: 81aa 88bd 1fff 9fbd c932 a73c 686c e23c
000002f0: e95f df3b 5322 a3bd 1862 be3d f7c3 9d3d
00000300: 9be7 843d 67a0 9fbd 1010 c03c dc1d ab3c
00000310: 46f8 a93d 0fd2 0cbd 0064 033d d077 a0bd
00000320: 6b56 a23d 2782 30bd bcc4 aa3d b213 423d
00000330: eb71 64bd 6a8f 73bd 7f12 ac3d 1307 cfbc
00000340: 8838 29bd 9d73 1b3c 352c ff3c e1c7 d93d
00000350: 126a 173d cc60 c93d 13f3 20bd 9851 aabd
00000360: 08fa a0bc d749 72bd de62 97bd 28ac 7e3d
00000370: cfd8 b4bd fd0e d43d ae87 e4bc 866b 8cbd
00000380: 96d1 8fbd 035a 313d 4d6f 8ebd 7110 b13d
00000390: 3a61 31bd e9d1 953d ab7a 9c3d c874 afbd
000003a0: fb76 c43d 1f4e 383d 9459 783d fb65 4bbb
000003b0: 53b4 57bd 0a26 b03d 377d bd3d d54c 48bd
000003c0: 156b 1a3d 10d0 963c e918 e7bc f441 90bd
000003d0: b78d 0ebd 7fd0 acbd dab9 91bc 034c a3bd
000003e0: 500f da3d 4961 ea3b bcf2 84bb 4e6e adbc
000003f0: 62fe b73d 299b 07bd fdf9 243d 3f5c 86bd

sensor_model.0.bias f4 [128]
-0.006335472 -0.03175113 -0.045953684 -0.034279924 -0.018311847 -0.012489749 -0.051061593 -0.00013750591
-0.010546836 -0.015757728 0.0031556194 -0.017659528 -0.049956683 -0.022068607 -0.043488458 -5.53488e-05
0.0044766883 -0.049318794 -0.010993357 -0.0026165547 0.01028536 -8.171048e-05 -0.021205785 -0.019136576
-0.048396863 -0.0017922331 -0.030552361 -0.016154984 -0.049947698 0.006801739 -0.011404063 -0.019437479
-0.0008092475 -0.028660733 -0.031632416 -0.050852176 -0.037860062 0.0014391629 -0.0068709836 0.0036402473
-0.032331154 -0.022038417 -0.07111708 0.0029424643 -0.009595428 0.00025433025 0.00015860183 -0.016705144
-0.04695327 -0.027694434 -0.023703968 -0.013072265 0.00010215628 0.00013171701 -0.0146322455 -0.0121743735
-0.03151991 -0.023449564 -0.0037432536 -0.009716789 -0.00059048855 0.0038946085 -0.04268908 -0.04980869
-0.022721995 -0.024245327 -0.018052254 -0.019944584 -0.008443893 -0.010104832 0.0061195665 0.0052695856
-0.008084302 0.0016905634 -0.008501255 0.006132477 -0.032982945 -0.027584964 -0.026704047 -0.0015298569
0.0018981213 -0.008060128 0.00027108262 -0.034074727 -0.041356623 -0.008761674 -0.029809162 -0.0063196514
-0.011722205 -0.016404001 -0.05277875 -0.016684916 0.27017462 -0.021458311 -0.003496704 -0.054679416
-0.030084478 -0.029525053 -0.01272885 -0.06141687 -0.0113677075 0.0002808206 -0.033824682 -0.03500725
-0.014297704 -0.05651381 -0.022249416 -0.023880448 -0.037674293 0.00028738726 -0.016607925 -0.024862463
-0.041505728 -0.011585639 -0.042784415 0.28675696 0.1913816 0.004467683 -0.024940463 0.008962984
-0.011065881 -0.008696318 -0.013241974 -0.03053924 0.007932104 -0.0018611955 -0.0063706217 0.00037605557
00000000: cb99 cfbb 790d 02bd ee39 3cbd 1b69 0cbd
00000010: ba02 96bc cea1 4cbc f625 51bd 762f 10b9
00000020: a3cc 2cbc 5a16 81bc 82ce 4e3b b7aa 90bc
00000030: 619f 4cbd 39c9 b4bc f420 32bd 5226 68b8
00000040: 2fb1 923b 8102 4abd 7b1d 34bc 817a 2bbb
00000050: ed83 283c fb5b abb8 c1b7 adbc 4fc4 9cbc
00000060: ca3b 46bd 5de9 eaba f248 fabc 7557 84bc
00000070: f595 4cbd 1fe1 de3b 1bd8 3abc 593b 9fbc
00000080: ae23 54ba eac9 eabc fe90 01bd 5f4a 50bd
00000090: 2713 1bbd 4ba2 bc3a fd25 e1bb 3791 6e3b
000000a0: ac6d 04bd e989 b4bc d5a5 91bd 5cd6 403b
000000b0: 2436 1dbc a157 8539 5b4e 2639 3ad9 88bc
000000c0: 1252 40bd 70df e2bc d32e c2bc 0e2d 56bc
000000d0: bc3c d638 841d 0a39 16bc 6fbc 0677 47bc
000000e0: 051b 01bd 4d19 c0bc 6051 75bb 2b33 1fbc
000000f0: 04cb 1aba b03c 7f3b bfda 2ebd 3204 4cbd
00000100: 7a23 babc 239e c6bc 52e2 93bc d362 a3bc
00000110: 4158 0abc bd8e 25bc a586 c83b 7dac ac3b
00000120: 0574 04bc e595 dd3a d948 0bbc f2f2 c83b
00000130: 2019 07bd ddf9 e1bc 72c2 dabc 7b85 c8ba
00000140: 62ca f83a a10e 04bc 1820 8e39 f191 0bbd
00000150: 9065 29bd 208d 0fbc 5832 f4bc 1415 cfbb
00000160: 7e0e 40bc af61 86bc 882e 58bd ceae 88bc
00000170: 5454 8a3e 57c9 afbc f528 65bb 86f7 5fbd
00000180: b973 f6bc 86de f1bc ab8c 50bc 4290 7bbd
00000190: 9f3f 3abc 1a3b 9339 c08b 0abd c363 0fbd
000001a0: eb40 6abc 067b 67bd 6844 b6bc eea0 c3bc
000001b0: 5c50 1abd 77ac 9639 580d 88bc 5dac cbbc
000001c0: e901 2abd b1d1 3dbc b63e 2fbd cfd1 923e
000001d0: 8af9 433e a465 923b f14f ccbc 7bd9 123c
000001e0: ab4d 35bc 007b 0ebc ddf4 58bc 6e2d fabc
000001f0: a8f5 013c 5cf3 f3ba a6c0 d0bb 5329 c539

sensor_model.2.weight f4 [64, 128]
-0.15619901 -0.021817492 0.16925149 -0.16286623 -0.023926385 0.03142246 0.11804986 0.016920986
0.10196813 0.07488448 0.16742727 0.104887284 -0.06573709 -0.0066632633 -0.015060598 -0.040555518
0.101798005 0.06701059 0.17737493 0.0938382 0.02524667 -0.09326323 -0.12611634 -0.0011511376
0.16059685 -0.01850793 0.04147623 0.03392369 -0.15689918 0.05633554 0.011935083 0.039512288
-0.1720726 -0.16654454 0.05484712 -0.111736335 0.042580873 0.055052362 -0.14380556 -0.095157
0.016180644 0.115691654 0.10373946 0.07613025 0.032485086 -0.117537335 -0.066605024 0.09347585
-0.16085707 -0.12821956 -0.15947217 -0.15037318 -0.16471708 -0.10176206 0.16388217 0.116989106
-0.14185211 -0.08531876 -0.014503666 0.08028522 -0.10060927 -0.10808467 0.05157546 -0.12502542
0.16488306 -0.14332834 0.006350493 0.068138145 0.00228138 0.15339933 0.1523675 0.037841264
0.0038274638 -0.03359583 0.058348253 -0.016007127 -0.06944937 0.061529376 0.10046239 -0.16382147
-0.16597936 -0.15760966 -0.15569441 0.060634606 0.06624073 0.028054165 0.10958442 0.17340675
-0.058430195 0.087241486 0.1327745 0.17542562 0.054557957 0.08925267 -0.028304683 0.104610324
-0.05684435 -0.0690014 -0.06888474 -0.028206434 0.15886539 -0.097361095 -0.027349588 0.143924
0.1017372 -0.1254079 -0.1212997 -0.04393281 0.13217008 -0.045461357 0.07677014 0.025848377
-0.027250366 -0.15201806 0.045249626 -0.05225739 0.12748432 0.018308133 0.09645151 -0.10880442
0.03905737 0.049923632 -0.10629835 0.13425279 -0.113162704 0.18009251 0.12402819 0.07046286
0.008442457 -0.09976331 0.107318155 0.12663278 -0.08979476 -0.0795831 0.053736452 -0.010420087
-0.10975929 0.075339675 0.11339223 -0.06627896 -0.023665885 0.09281915 0.03127308 -0.1401379
0.06455398 0.07805105 0.14728595 -0.069886744 -0.08921309 -0.08193038 -0.10871657 0.11297649
0.06762115 0.07727281 -0.07757262 0.11199307 -0.13266614 -0.09374823 -0.111214235 0.07635086
-0.054044046 0.11324363 0.10019975 -0.017069263 0.11463328 0.024907023 -0.15845276 0.0152104795
0.105516136 -0.10071699 -0.040367465 -0.10552219 0.051065825 0.055583645 0.02625732 0.0070505934
-0.07565451 0.028216911 -0.0026272258 -0.13806435 -0.037596736 -0.16008398 0.14165312 -0.009007793
-0.11633911 -0.11932055 -0.10251992 -0.059126914 -0.041326478 0.008590585 0.08559697 0.1214047
0.16976115 -0.09453426 -0.057320416 -0.074407704 0.11662189 0.008081059 0.015398338 -0.114532664
0.066290066 0.12016319 0.031444028 -0.060703427 0.09934425 0.07920587 0.13643481 0.15544584
-0.13976869 0.054187886 -0.03430238 -0.012601038 -0.096986145 0.1775129 0.0026033148 0.16790901
0.16381535 -0.01793532 -0.08440852 0.053142905 0.15106921 -0.057609398 0.055709362 -0.11779216
0.07149015 -0.11536938 -0.038306084 0.021890644 0.08446507 0.1329403 0.14078501 0.07416541
0.14568022 0.086140476 -0.05821153 -0.03739896 0.06631805 -0.046480183 -0.07207516 0.04593227
-0.054676596 0.09997165 0.091451295 0.1379445 -0.03986145 -0.1150521 0.17266771 0.06891179
0.057567537 -0.16978176 -0.11406485 -0.0027552221 -0.17853822 0.18440473 0.055242423 0.07426637
00000000: a2f2 1fbe 99ba b2bc 4350 2d3e 68c6 26be
00000010: 4401 c4bc d6b4 003d 20c4 f13d e19d 8a3c
00000020: abd4 d03d 095d 993d 0e72 2b3e 25cf d63d
00000030: 2ba1 86bd 8157 dabb bac0 76bc 8b1d 26bd
00000040: 797b d03d d93c 893d c6a1 353e 3e2e c03d
00000050: 1bd2 ce3c cb00 bfbd a424 01be c5e1 96ba
00000060: 8073 243e f19d 97bc fbe2 293d 91f3 0a3d
00000070: 2eaa 20be 18c0 663d 5e8b 433c a3d7 213d
00000080: cd33 30be a78a 2abe 60a7 603d 05d6 e4bd
00000090: 4869 2e3d 967e 613d c441 13be ace1 c2bd
000000a0: 458d 843c bfef ec3d 5b75 d43d 2dea 9b3d
000000b0: 150f 053d 6ab7 f0bd 3768 88bd 4470 bf3d
000000c0: b7b7 24be fd4b 03be ac4c 23be 6dfb 19be
000000d0: 98ab 28be a068 d0bd bad0 273e fc97 ef3d
000000e0: ae41 11be 9abb aebd c9a0 6dbc 946c a43d
000000f0: 3c0c cebd 7f5b ddbd ca40 533d aa06 00be
00000100: 1bd7 283e aac4 12be cc17 d03b 038c 8b3d
00000110: 3483 153b b714 1d3e 3a06 1c3e 71ff 1a3d
00000120: 30d6 7a3b c89b 09bd 94fe 6e3d 6121 83bc
00000130: 793b 8ebd 3a06 7c3d 3abf cd3d d1c0 27be
00000140: 7ef6 29be 6d64 21be 5b6e 1fbe fe5b 783d
00000150: 38a9 873d d9d1 e53c cc6d e03d 8a91 313e
00000160: 8054 6fbd aaab b23d 0af6 073e c6a2 333e
00000170: 2a78 5f3d 1bca b63d 39df e7bc f03d d63d
00000180: 9fd5 68bd 9b50 8dbd 7113 8dbd 2e11 e7bc
00000190: 9cad 223e 4165 c7bd 3e0c e0bc d060 133e
000001a0: 985b d03d ee6a 00be fa6b f8bd e4f2 33bd
000001b0: 9857 073e b035 3abd aa39 9d3d fabf d33c
000001c0: 293c dfbc 9faa 1bbe ac57 393d d80b 56bd
000001d0: 408b 023e f0fa 953c 5f88 c53d dad4 debd
000001e0: 9ffa 1f3d b97c 4c3d f3b2 d9bd 9079 093e
000001f0: d9c1 e7bd 2c6a 383e 7e02 fe3d d54e 903d
00000200: 3b52 0a3c b550 ccbd 9fc9 db3d 06ac 013e
00000210: 51e6 b7bd 77fc a2bd c11a 5c3d 03b9 2abc
00000220: 7bc9 e0bd b04b 9a3d 2f3a e83d 43bd 87bd
00000230: f5de c1bc f717 be3d 3318 003d 4f80 0fbe
00000240: e134 843d 3bd9 9f3d 21d2 163e c820 8fbd
00000250: 5ab5 b6bd 1dcb a7bd cba6 debd 3860 e73d
00000260: f57c 8a3d 3541 9e3d 65de 9ebd 9f5c e53d
00000270: a2d9 07be 12ff bfbd 4ac4 e3bd d75d 9c3d
00000280: 4a5d 5dbd 47ec e73d 8735 cd3d d7d4 8bbc
00000290: dac4 ea3d d009 cc3c 7141 22be 6035 793c
000002a0: d818 d83d b644 cebd 5b58 25bd 051c d8bd
000002b0: 662a 513d adab 633d 9719 d73c aa08 e73b
000002c0: c0f0 9abd 2727 e73c 892d 2cbb be60 0dbe
000002d0: 09ff 19bd 0eed 23be 840d 113e 6c95 13bc
000002e0: 3343 eebd 555e f4bd f7f5 d1bd 102f 72bd
000002f0: f445 29bd 86bf 0c3c 774d af3d 07a3 f83d
00000300: ded5 2d3e 2e9b c1bd d0c8 6abd 1163 98bd
00000310: 75d7 ee3d 6b66 043c 5049 7c3c 1a90 eabd
00000320: 16c3 873d 1e18 f63d 74cb 003d 28a4 78bd
00000330: 0075 cb3d b036 a23d 91b5 0b3e 322d 1f3e
00000340: 861f 0fbe 1ef4 5d3d a780 0cbd 9674 4ebc
00000350: aca0 c6bd f1c5 353e 609c 2a3b 57f0 2b3e
00000360: 36bf 273e 18ed 92bc 60de acbd 60ac 593d
00000370: e3b1 1a3e d5f7 6bbd 802f 643d 043d f1bd
00000380: 6e69 923d c846 ecbd d7e6 1cbd 0254 b33c
00000390: 06fc ac3d 8121 083e f229 103e 09e4 973d
000003a0: 322d 153e 6b6a b03d 376f 6ebd a72f 19bd
000003b0: c2d1 873d 0162 3ebd 249c 93bd 7a23 3c3d
000003c0: 91f4 5fbd f0bd cc3d d14a bb3d 5341 0d3e
000003d0: c345 23bd 6fa0 ebbd cecf 303e a021 8d3d
000003e0: f0cb 6b3d 45db 2dbe d59a e9bd f590 34bb
000003f0: b9d2 36be 98d4 3c3e e145 623d f718 983d

sensor_model.2.bias f4 [64]
-0.09226573 -0.07651764 -0.06556588 -0.062057886 0.4136184 0.094061136 -0.0775521 -0.02982691
-0.085748315 0.0037241667 -0.013845505 -0.03017331 0.49804354 -0.060849003 0.062709 0.008176592
-0.054222435 0.010722399 0.45163572 0.21643299 -0.07548509 -0.07164194 0.0031962853 0.636224
-0.04286684 0.17348579 -0.02981678 -0.01699373 -0.0023267234 -0.012877001 0.008746971 -0.09938783
-0.053963687 -0.047080096 -0.07606765 0.55175036 -0.03136392 -0.009861909 -0.061751094 -0.057782836
0.024489947 0.5391274 -0.08322758 -0.083232984 -0.08210053 -0.03027504 -0.015675284 0.07425932
0.5703781 -0.05280543 -0.07924203 -0.05085999 0.39047965 0.68168694 0.646116 0.65813154
0.0043567587 -0.098824985 0.012200458 -0.04407679 0.02827661 0.02028103 0.5992663 -0.042893652
00000000: d1f5 bcbd 48b5 9cbd 6747 86bd 6930 7ebd
00000010: cac5 d33e 20a3 c03d a3d3 9ebd 9057 f4bc
00000020: d09c afbd 2611 743b 42d8 62bc 042e f7bc
00000030: 90ff fe3e ce3c 79bd 946d 803d 1df7 053c
00000040: 5818 5ebd 00ad 2f3c cc3c e73e 9ca0 5d3e
00000050: ed97 9abd 02b9 92bd c578 513b 93df 223f
00000060: 2495 2fbd 42a6 313e 5242 f4bc 6f36 8bbc
00000070: f17b 18bb 0ffa 52bc 754f 0f3c d98b cbbd
00000080: 0709 5dbd 0fd7 40bd 5bc9 9bbd 833f 0d3f
00000090: 7477 00bd d893 21bc b7ee 7cbd b2ad 6cbd
000000a0: 249f c83c 4104 0a3f 3973 aabd 0e76 aabd
000000b0: 5324 a8bd 5c03 f8bc 7469 80bc 4515 983d
000000c0: 4d04 123f 824a 58bd a549 a2bd 9152 50bd
000000d0: f3ec c73e 0983 2e3f dc67 253f 4f7b 283f
000000e0: 24c3 8e3b c164 cabd 6ee4 473c dd89 34bd
000000f0: 59a4 e73c 6724 a63c 8469 193f 41b1 2fbd

target_model.0.weight f4 [16, 66]
0.116193324 -0.27299258 -0.17782383 -0.056969363 0.12836595 -0.118901126 0.1204899 -0.14124122
-0.18493937 -0.2571415 0.23462652 0.26560742 -0.3082917 -0.14068463 0.27531546 -0.090443425
0.19743325 0.063900575 -0.063773505 -0.3373769 -0.17627296 -0.23574746 0.079911835 -0.21337569
-0.114658356 -0.31279042 0.023540534 0.05289947 0.09010868 -0.064145416 0.15653606 0.26842985
-0.025031252 0.07328701 0.2701896 0.08594127 0.16620834 0.22537814 -0.122543395 0.101607725
0.22149032 -0.33557025 0.040171947 -0.19055007 0.0729035 -0.25818706 0.0873792 -0.27050638
-0.21607332 0.20937155 -0.1638584 -0.25794965 0.06173082 -0.16377474 -0.16086133 -0.34850973
0.034454778 -0.23117623 0.2510973 -0.14115971 0.10617548 -0.026788805 -0.0140833985 -0.08495805
0.07028117 0.013373483 -0.097052455 -0.012187004 -0.14951602 -0.26138473 -0.25656074 0.036114633
0.09185392 0.20027086 -0.10661864 0.039530516 0.12695631 -0.0041679144 -0.11862085 -0.2668148
-0.22446498 0.029477453 0.1962871 0.16859643 -0.06848808 0.22867462 0.03244111 0.23945236
-0.022246305 -0.268906 -0.10316624 -0.0627152 -0.07754184 -0.17953418 -0.03450196 -0.16136989
0.15582551 -0.11799511 -0.12853786 -0.036899894 0.18315673 0.16872254 0.17247868 -0.14537041
-0.06900278 0.19890705 -0.22214302 -0.030825494 0.110562205 0.26772815 -0.05811672 -0.055363055
-0.050140202 -0.22086044 -0.20453599 -0.045693085 0.12239444 -0.23475818 0.020636737 -0.053972214
0.011281601 -0.2048967 0.13651407 0.028747857 0.05639379 0.18254903 -0.16254726 -0.10262441
-0.14011137 0.15119776 -0.048158802 0.061303474 -0.106274776 0.21400738 0.18958078 -0.08311708
0.04468639 0.08935734 -0.1598749 0.009933871 0.10957863 0.19882868 0.19638772 0.21340285
0.03915945 0.1879372 0.09991746 -0.1951847 0.12470846 -0.23827755 -0.18089849 -0.17915298
-0.22795701 0.089227855 0.008788508 -0.097412065 0.104030035 -0.055798534 0.14023511 0.1251866
0.087028764 0.05958143 0.1471855 -0.07431206 -0.066543065 0.15921028 0.018301317 0.15540269
-0.016576923 -0.22260162 0.16343114 0.0027973005 0.20261209 0.2699346 0.10434318 0.04340665
-0.062984414 0.08075488 0.022766266 0.0769487 -0.17343675 0.25784627 0.035949282 -0.2372575
0.03508913 0.036114328 -0.15812603 -0.13316469 0.0028459162 0.14861631 0.24875915 0.012284913
0.099618524 0.25083646 0.23751631 0.03304209 -0.94439304 0.002009166 -0.06581258 -0.0828754
-0.103963174 0.22822453 0.15459967 0.070519775 0.2003183 -0.03303934 0.051377285 -0.02083121
-0.13564295 -0.21722199 -0.27250275 0.11378198 0.000897242 0.10074643 -0.05738018 0.1274646
-0.009281858 0.12246823 -0.17983554 -0.04713592 0.24635635 -0.15286349 -0.21547244 -0.12673222
0.21292686 0.2029625 0.268532 -0.07138744 -0.20151009 0.074779265 0.11252645 -0.21708478
-0.0150925815 -0.07420809 -0.21985932 -0.06455512 -0.19965455 0.17216395 -0.14403601 0.17843728
0.055341832 -0.022045417 -0.17839442 0.18516085 -0.05269841 0.21896364 0.066659056 -0.014842036
-0.06166817 -0.2178002 -0.16483887 0.12813747 -0.046440594 0.12126921 -0.21630752 -0.05400315
00000000: c4f6 ed3d afc5 8bbe 7317 36be b558 69bd
00000010: 5d72 033e 6f82 f3bd 69c3 f63d 8aa1 10be
00000020: bf60 3dbe 0da8 83be ef41 703e b2fd 873e
00000030: 69d8 9dbe a20f 10be 26f6 8c3e 673a b9bd
00000040: f12b 4a3e 4ede 823d af9b 82bd aabc acbe
00000050: e680 34be c867 71be d1a8 a33d 287f 5abe
00000060: 00d2 eabd 1126 a0be 14d8 c03c 1dad 583d
00000070: e68a b83d ac5e 83bd fd4a 203e a36f 893e
00000080: 570e cdbc 8017 963d 4b56 8a3e fa01 b03d
00000090: 8532 2a3e 87c9 663e 08f8 fabd b617 d03d
000000a0: 5cce 623e ddcf abbe 578b 243d 8f1f 43be
000000b0: 6e4e 953d 1831 84be def3 b23d d07f 8abe
000000c0: 5342 5dbe 7f65 563e 7fca 27be fa11 84be
000000d0: 75d9 7c3d 91b4 27be d5b8 24be de6f b2be
000000e0: 7420 0d3d 76b9 6cbe d38f 803e 2c8c 10be
000000f0: 8872 d93d 3274 dbbc 0ebe 66bc 7cfe adbd
00000100: 93ef 8f3d 741c 5b3c 70c3 c6bd 00ac 47bc
00000110: ba1a 19be 38d4 85be ee5b 83be f0ec 133d
00000120: e81d bc3d ce13 4d3e e05a dabd c0ea 213d
00000130: d600 023e 0093 88bb 7def f2bd f39b 88be
00000140: 26da 65be b37a f13c 7cff 483e 8ba4 2c3e
00000150: 7a43 8cbd ae29 6a3e f8e0 043d 0033 753e
00000160: e23d b6bc 0cae 89be d248 d3bd d470 80bd
00000170: 42ce 9ebd cfd7 37be ed51 0dbd 263e 25be
00000180: b990 1f3e 6ca7 f1bd 6e9f 03be 5824 17bd
00000190: 708d 3b3e 9ac5 2c3e 409e 303e fbdb 14be
000001a0: 5451 8dbd 4aae 4b3e 7679 63be bf85 fcbc
000001b0: 706e e23d aa13 893e cc0b 6ebd 5fc4 62bd
000001c0: d05f 4dbd 3d29 62be e271 51be ac28 3bbd
000001d0: f0a9 fa3d 7364 70be 600e a93c f811 5dbd
000001e0: 77d6 383c 71d0 51be 58ca 0b3e a080 eb3c
000001f0: 2dfd 663d 22ee 3a3e ca72 26be bf2c d2bd
00000200: 5b79 0fbe 96d3 1a3e 2a42 45bd 5a19 7b3d
00000210: 97a6 d9bd c024 5b3e 7721 423e 4a39 aabd
00000220: 1309 373d fb00 b73d 3fb6 23be adc1 223c
00000230: c36a e03d bf99 4b3e dd19 493e 4786 5a3e
00000240: a965 203d 9c72 403e 86a1 cc3d 7fde 47be
00000250: 2667 ff3d 08ff 73be 743d 39be e173 37be
00000260: 906d 69be 18bd b63d adfd 0f3c fa7f c7bd
00000270: b30d d53d 018d 64bd cb99 0f3e eb30 003e
00000280: 233c b23d a80b 743d ccb7 163e ec30 98bd
00000290: bb47 88bd 0508 233e a5ec 953c e221 1f3e
000002a0: 54cc 87bc aef1 63be 7e5a 273e ea52 373b
000002b0: 8b79 4f3e de34 8a3e e1b1 d53d 2ccb 313d
000002c0: f9fd 80bd d162 a53d 5280 ba3c 4897 9d3d
000002d0: 6799 31be 6d04 843e 8e3f 133d a1f3 72be
000002e0: 9fb9 0f3d 9eec 133d caeb 21be 535c 08be
000002f0: 8d82 3a3b e02e 183e b8ba 7e3e a946 493c
00000300: cc04 cc3d a36d 803e 7a37 733e 2457 073d
00000310: bec3 71bf 36ac 033b bfc8 86bd 94ba a9bd
00000320: a5ea d4bd b1b3 693e 604f 1e3e ac6c 903d
00000330: 3e20 4d3e 4254 07bd fd70 523d 37a6 aabc
00000340: fce5 0abe 716f 5ebe 7b85 8bbe 8706 e93d
00000350: e434 6b3a 2554 ce3d 7b07 6bbd 1586 023e
00000360: ef12 18bc a0d0 fa3d cf26 38be 9811 41bd
00000370: d744 7c3e 3f88 1cbe cfa4 5cbe 17c6 01be
00000380: 8009 5a3e 67d5 4f3e 077d 893e 9433 92bd
00000390: a958 4ebe df25 993d 4474 e63d 794b 5ebe
000003a0: e046 77bc 69fa 97bd cd22 61be 7a35 84bd
000003b0: 3e72 4cbe bf4b 303e 2d7e 13be 43b8 363e
000003c0: 1eae 623d 9798 b4bc 07ad 36be ce9a 3d3e
000003d0: 4ada 57bd 0138 603e 8b84 883d 032c 73bc
000003e0: c397 7cbd 0407 5fbe 85cb 28be 7836 033e
000003f0: 7e38 3ebd fe5b f83d b87f 5dbe 6832 5dbd

target_model.0.bias f4 [16]
-0.0537589 -0.0636123 0.4687585 -0.038994655 0.051622253 -0.040533826 0.008194198 0.08350964
0.69944584 -0.2644469 0.03383642 -0.3259315 -0.29084602 -0.15421313 0.83876926 -0.0028152205
00000000: 4b32 5cbd 2a47 82bd 1d01 f03e dcb8 1fbd
00000010: db71 533d cc06 26bd f540 063c 1a07 ab3d
00000020: e20e 333f 9665 87be 0f98 0a3d 7ee0 a6be
00000030: c5e9 94be 0cea 1dbe 95b9 563f 907f 38bb

state_model.0.weight f4 [16, 18]
0.4081212 0.030821338 0.43312946 -0.20163698 0.12189059 0.15116245 -0.32290933 0.55375445
0.09883123 -0.052502032 0.055351056 -0.08093635 0.24684124 0.35812947 -0.14794585 -0.103194736
-0.023025183 -0.017207759 0.32467616 0.22677636 -0.24327117 0.35261455 -0.22619942 0.4656305
0.38179904 0.07498895 0.43079734 0.2154302 -0.1179805 0.18101639 0.43470767 -0.017027825
0.5192785 0.09702553 0.6090145 0.181146 0.42443526 -0.34965986 0.19139194 -0.03410828
-0.15455708 0.12621112 -0.20369184 -0.08468968 -0.37227783 -0.15996586 -0.21598105 0.057097584
0.038529012 0.21208265 -0.55373126 -0.19881265 -0.19140735 -0.0031953491 0.12122384 0.0476182
0.39780867 -0.29662165 -0.075474076 0.2646564 -0.10399411 0.13210967 0.6245029 -0.24910131
0.3195836 -0.23329133 -0.09698587 -0.22213024 0.8042134 0.04292514 0.3237014 0.116528496
0.13794619 0.18967678 -0.13331234 -0.00084969465 0.051302772 0.275917 0.21795979 -0.38873073
-0.039976615 -0.30984023 -0.11840457 -0.25992265 -0.22687903 -0.34636655 -0.108714655 -0.13216314
-0.25211695 -0.06794043 -0.3543442 0.310372 -0.1786056 -0.10195889 0.39072946 -0.49766934
-0.29744798 -0.45682886 0.17215273 0.13314864 -0.29201815 -0.051604327 0.38687813 0.20938605
0.25290617 0.22261274 -3.0218074 -0.19110928 -0.2456107 0.27099922 -0.25367382 0.00027842144
0.3559927 -0.650349 -0.13276136 -0.3117118 0.22067687 -0.2785612 -0.005417185 0.052503075
-0.03070792 -0.084138885 0.21299292 0.0106350165 0.6143855 0.9054729 0.30976608 -0.2059839
-0.2892029 0.4181866 0.059426446 -0.21749274 -0.03206236 0.1602557 -0.19413584 -0.343195
0.1330372 0.31392768 0.13595654 0.13508141 -0.15760021 0.14716044 0.05375601 -0.33933127
0.15055725 -0.13797423 -0.3461824 0.3067609 0.14421009 0.19281681 0.32682493 -0.1555155
-0.23877946 -0.17391491 -0.07616637 0.4144575 -0.1251708 -0.32720813 -0.17278497 0.17438704
0.2778391 -0.062053476 -0.1209526 0.11657287 -0.06935157 -0.042565856 0.0918834 0.32829276
0.12585697 0.42958352 -0.12802805 0.44740605 0.33389956 -0.27433503 0.28527102 -0.18521033
-0.0914077 -0.069802225 0.1296329 0.20424005 -0.38102996 0.1846924 0.052895512 0.1049014
-0.0018150912 -0.20299229 0.18352272 -0.00039795224 -0.15813324 0.44819412 -0.10683635 -0.06390042
-0.031181315 0.2615113 -0.5396173 0.27000403 -0.27337375 -0.15269437 0.16088946 0.104517184
0.13121173 -0.19441493 0.32624012 -0.38238463 0.24522953 0.09268809 -0.12614939 0.050698403
0.10492534 -0.15769134 -0.008020567 -0.36102778 -0.14375474 0.24630828 0.058192108 0.21374922
-0.37532887 0.13249463 0.22804421 -0.41721788 -0.5081205 0.12220153 -0.07521573 0.20753004
-0.016088476 0.18387431 -0.48288795 0.14779572 -0.24010384 0.19001466 -0.01958057 -0.03854405
1.1657995 0.24564043 0.23522119 0.10057533 0.23475263 -0.36849973 0.21731591 0.053667605
0.0410282 0.15126199 0.08068619 0.21611014 -0.1682785 -0.09619866 -0.2740031 -0.34109506
0.68027234 -0.1207437 0.78158444 0.003532695 -0.26985067 -0.009257466 -0.20278825 0.32210684
00000000: 43f5 d03e 087d fc3c 25c3 dd3e ed79 4ebe
00000010: c6a1 f93d 54ca 1a3e 5f54 a5be dac2 0d3f
00000020: 0768 ca3d 5f0c 57bd cab7 623d f5c1 a5bd
00000030: f3c3 7c3e bf5c b73e 1e7f 17be c357 d3bd
00000040: 4f9f bcbc 49f7 8cbc f43b a63e 1038 683e
00000050: 141c 79be e589 b43e d2a0 67be 1f67 ee3e
00000060: 2a7b c33e ce93 993d 7891 dc3e bc99 5c3e
00000070: c39f f1bd 5c5c 393e 0192 de3e f07d 8bbc
00000080: 70ef 043f 52b5 c63d 60e8 1b3f 567e 393e
00000090: 944f d93e 9e06 b3be 40fc 433e 20b5 0bbd
000000a0: 3644 1ebe 7d3d 013e 9894 50be c871 adbd
000000b0: 339b bebe 17ce 23be 232a 5dbe 28df 693d
000000c0: 99d0 1d3d 322c 593e 55c1 0dbf 8b95 4bbe
000000d0: 4a00 44be 1069 51bb 3444 f83d 4d0b 433d
000000e0: 94ad cb3e cbde 97be 2792 9abd 0b81 873e
000000f0: ddfa d4bd c247 073e 6cdf 1f3f 6a14 7fbe
00000100: 76a0 a33e ece3 6ebe 87a0 c6bd 1c76 63be
00000110: eee0 4d3f 46d2 2f3d 31bc a53e 7ea6 ee3d
00000120: c441 0d3e a13a 423e 0883 08be 0bbe 5eba
00000130: db22 523d fe44 8d3e da30 5f3e b707 c7be
00000140: 85be 23bd 61a3 9ebe 187e f2bd 9514 85be
00000150: fa52 68be f556 b1be caa5 debd c655 07be
00000160: 7915 81be 5a24 8bbd 9a6c b5be 14e9 9e3e
00000170: 63e4 36be d3cf d0bd b10d c83e 84ce febe
00000180: 1a4b 98be 79e5 e9be ce48 303e 1e58 083e
00000190: 6783 95be 0f5f 53bd e414 c63e 4c69 563e
000001a0: eb7c 813e 98f4 633e 4b65 41c0 27b2 43be
000001b0: 5f81 7bbe 69c0 8a3e 89e1 81be 18f9 9139
000001c0: ad44 b63e 467d 26bf 98f2 07be b098 9fbe
000001d0: 1ef9 613e 939f 8ebe a482 b1bb 770d 573d
000001e0: 2d8f fbbc 0251 acbd d11a 5a3e 7e3e 2e3c
000001f0: 5e48 1d3f 12cd 673f a999 9e3e 72ed 52be
00000200: 6712 94be 8e1c d63e 2569 733d 6bb6 5ebe
00000210: d253 03bd 121a 243e 8ccb 46be 41b7 afbe
00000220: e73a 083e 21bb a03e 3138 0b3e c852 0a3e
00000230: f361 21be 3ab1 163e 432f 5c3d d4bc adbe
00000240: ae2b 1a3e 1e49 0dbe d23e b1be c40f 9d3e
00000250: cfab 133e c571 453e 9955 a73e 753f 1fbe
00000260: 9a82 74be c016 32be 1dfd 9bbd c633 d43e
00000270: c62c 00be d387 a7be 8bee 30be 8492 323e
00000280: ed40 8e3e c92b 7ebd ffb5 f7bd c2bd ee3d
00000290: 3208 8ebd 8959 2ebd 5d2d bc3d fd15 a83e
000002a0: a6e0 003e 5ff2 db3e c919 03be 6812 e53e
000002b0: e2f4 aa3e a475 8cbe 0b0f 923e c7a7 3dbe
000002c0: f633 bbbd 78f4 8ebd 7dbe 043e 4e24 513e
000002d0: 5c16 c3be 0120 3d3e f7a8 583d 8cd6 d63d
000002e0: 5be8 edba 36dd 4fbe 61ed 3b3e 3fa4 d0b9
000002f0: aeed 21be b379 e53e 04cd dabd 39de 82bd
00000300: f56f ffbc cfe4 853e 5c24 0abf f83d 8a3e
00000310: a5f7 8bbe ea5b 1cbe 35c0 243e 1b0d d63d
00000320: 5e5c 063e b514 47be f208 a73e ebc7 c3be
00000330: 731d 7b3e 41d3 bd3d 4e2d 01be 21a9 4f3d
00000340: 19e3 d63d d779 21be b268 03bc a2d8 b8be
00000350: 7134 13be 3d38 7c3e d95a 6e3d 13e1 5a3e
00000360: 1b2b c0be acac 073e 6c84 693e 959d d5be
00000370: 2f14 02bf cc44 fa3d b40a 9abd c182 543e
00000380: fbcb 83bc 8c49 3c3e 173d f7be c357 173e
00000390: c8dd 75be 3493 423e 6e67 a0bc 5ee0 1dbd
000003a0: eb38 953f 2a89 7b3e d3dd 703e 70fa cd3d
000003b0: fe62 703e ffab bcbe 1088 5e3e 90d2 5b3d
000003c0: 300d 283d 6ce4 1a3e cd3e a53d fa4b 5d3e
000003d0: 3351 2cbe ce03 c5bd 224a 8cbe 03a4 aebe
000003e0: 5426 2e3f 7948 f7bd eb15 483f c984 673b
000003f0: de29 8abe a0ac 17bc b9a7 4fbe 30eb a43e

state_model.0.bias f4 [16]
-0.47089624 0.947931 -0.17205827 1.0131309 -0.13243367 0.6992244 0.6121446 0.30635116
0.10283735 -0.13220032 0.13162714 -0.28422594 -0.8175329 1.0747778 -0.28528798 0.68953735
00000000: 5019 f1be 9bab 723f 0b30 30be 46ae 813f
00000010: b19c 07be 5f00 333f 82b5 1c3f 0fda 9c3e
00000020: 639c d23d 855f 07be 44c9 063e 1086 91be
00000030: d649 51bf 5292 893f 4411 92be 8585 303f

state_model.2.weight f4 [1, 16]
-0.18749109 0.58190644 -0.5529175 0.86656344 -0.33152264 0.5324414 0.36283374 0.42266193
-0.23879015 -0.2527944 -0.16577868 0.5077137 -0.40805992 0.55360323 0.3088472 0.3886012
00000000: aafd 3fbe d2f7 143f 008c 0dbf 1ad7 5d3f
00000010: 56bd a9be 144e 083f 58c5 b93e 2567 d83e
00000020: 6885 74be 456e 81be e3c1 29be 86f9 013f
00000030: 3bed d0be f1b8 0d3f 3821 9e3e bdf6 c63e
