Pytorch_DRL/HNRN/models/backup/4.9/best_ca_actor.model (torch_old, 223687 bytes, 8 tensors)

sensor_model.0.weight f4 [128, 360]
000000 81 58 d4 bd f3 57 89 3b 54 9c ef 3b 12 56 a3 bd
       -0.10368443 0.0041913926 0.007312337 -0.07975401
000010 68 56 96 bd 53 b1 99 3d 4b 1b 10 bd d0 ba 87 3d
       -0.073406994 0.07504525 -0.03518228 0.066274285
000020 44 93 81 bb 02 e8 5d 3d 28 2a 69 bb 37 0e 07 3a
       -0.003954323 0.054176338 -0.0035578106 0.00051519595
000030 69 e2 55 3c df cf d1 3d 93 8c f3 3c 66 76 11 bd
       0.013054469 0.102447264 0.029730117 -0.035513304
000040 11 10 e7 bc 2c 4b 04 bd 95 d4 0b 3d b2 54 b8 bd
       -0.028205903 -0.032298252 0.03413828 -0.09000529
000050 33 a4 6a bb 7c 99 41 bc 78 60 3f 3d b0 9b 2d bd
       -0.0035803437 -0.011816379 0.04672286 -0.042384803
000060 e8 e5 61 3c 46 a5 08 bd b8 93 b3 bd 99 06 94 bd
       0.013787724 -0.033360742 -0.087684095 -0.07227821
000070 ed 4b bc bd 2e 94 b3 bd 48 05 bf bc 5c 1c 88 3c
       -0.09194169 -0.087684974 -0.023317948 0.016615085
000080 4d e7 52 3d 7e 72 aa 3d c7 93 c4 3d 0a 84 87 bc
       0.051490117 0.08322619 0.09598499 -0.016542453
000090 d2 ff 91 bd af 4f 18 bd ee 35 d5 3d 4c 0a 8c bd
       -0.07128872 -0.037185367 0.10410677 -0.068379015
0000a0 cd a0 ae 3c 38 f7 44 3d b9 59 b0 3d 7d 1f 9a bc
       0.02131691 0.04808733 0.08610863 -0.018813843
0000b0 f8 8b 61 3d ef ae d9 3d ab 20 57 3c d6 bd a8 3d
       0.055065125 0.10629069 0.013130347 0.08239333
0000c0 a5 34 d6 bd 4c 20 b7 bd 7b 91 cd bd 13 82 dc bd
       -0.1045926 -0.08941707 -0.10037514 -0.10766997
0000d0 17 1c 8c bd 0c 31 e5 3c 08 67 b7 bd 6e ba 1c 3d
       -0.06841295 0.027977489 -0.089551985 0.03826373
0000e0 ef cb 2e 3c c4 7c 78 3c d9 bf ce 3d aa cb 01 3d
       0.010668739 0.015166465 0.10095186 0.03168837
0000f0 ca 59 d7 3b 53 ac 81 3c 27 0f e6 3c 3a 28 af 3b
       0.006571983 0.01582924 0.028083397 0.0053453716
000100 04 0d 74 3d 51 f9 ac bd 2b 99 99 bd 36 79 cc 3d
       0.059582725 -0.08445991 -0.074999176 0.09984057
000110 ed 39 1b bc 42 87 b7 3d 44 6c 58 bc 53 b6 da 3c
       -0.00947426 0.08961345 -0.013209406 0.026698267
000120 7e a9 6f 3c 3e 80 8f bb 14 c0 95 bd 0e 46 71 bd
       0.014627812 -0.0043793013 -0.073120266 -0.0589047
000130 5d 3b e1 bd dd 0a c3 3d ab 90 01 bd c1 6d c8 bd
       -0.10997651 0.095235564 -0.031632107 -0.09786559
000140 39 ce 1a bc d4 60 6d 3d 56 9e 4d 3d 67 0c bb 3d
       -0.009448581 0.05795367 0.05019983 0.09133225
000150 7d 8b e2 3d 4c 99 08 bd cb dd 7c bd c5 29 12 bd
       0.110617615 -0.03334932 -0.061734956 -0.035684366
000160 ef 17 16 3d aa 1b a5 3d 7d 6f ed bc 13 f1 86 bd
       0.03664392 0.08061917 -0.028983826 -0.0658895
000170 83 95 84 3d 30 7f 49 3d dc e1 05 bd c2 2e a3 3c
       0.064738296 0.04919356 -0.0326861 0.019919757
000180 4f 94 c2 3c 00 80 f8 3c 2f 31 bb 3d a0 a6 6f bb
       0.02375236 0.030334473 0.091402404 -0.0036567822
000190 2a 5c 9a bd 1a 3e f4 3c 6d 78 a7 bd 6e e7 1f bd
       -0.0753711 0.029814769 -0.08177266 -0.039039068
0001a0 0b 9f 45 3d af 40 bb 3d 79 b8 8c bd 9a c1 f8 bc
       0.04824738 0.09143197 -0.06871123 -0.030365754
0001b0 73 4a d2 3d 94 4b 97 bd 39 c5 a4 bd fc ff 1b 3c
       0.10268106 -0.07387462 -0.0804543 0.009521481
0001c0 c8 8c a1 bd dd e3 d3 bd 12 85 da bd 38 71 30 3d
       -0.0788818 -0.10346196 -0.106699124 0.043076724
0001d0 68 4e b1 bc 3d 45 0b bd 4f 74 8e 3d 64 8d a1 3d
       -0.021643832 -0.034001578 0.06955778 0.07888296
0001e0 46 13 0f 3d 89 fe aa 3d c9 ea bf 3d b5 50 17 bd
       0.03493049 0.0834933 0.093709536 -0.036942203
0001f0 f3 e0 ab 3c 5f d6 a0 bd f7 7e ba 3d 64 1a 78 bd
       0.020981288 -0.07853388 0.09106248 -0.060572043
000200 27 dc 9c 3c 95 18 b8 bd a5 e8 1d bb b5 20 86 bd
       0.019147946 -0.08989064 -0.0024094966 -0.06549207
000210 bf e3 ae bd e6 99 d9 3d f9 36 08 bd 42 63 39 3b
       -0.08539533 0.10625057 -0.03325555 0.0028287922
000220 b2 83 9b bd 62 01 31 3c d5 38 ae bd 6e 75 df bd
       -0.07593478 0.010803552 -0.085069336 -0.1091107
000230 e2 7b 6f 3d 61 45 9b 3d 36 d6 d7 bd 65 a0 ce bc
       0.058467753 0.07581592 -0.10538904 -0.025222966
000240 86 7a 03 bd af 60 37 bd b1 b3 a5 3c 0b c8 3c 3d
       -0.03209927 -0.04476994 0.020227285 0.046089213
000250 41 c0 b8 bd 86 37 38 3d 04 5f c6 bd bc 9e b4 3d
       -0.090210445 0.044974826 -0.096860915 0.08819339
000260 e4 aa 8b bd a6 2e c5 bc 94 5b 9d bd 67 6c ac bd
       -0.06819704 -0.024070095 -0.07683483 -0.084191136
000270 fb 3b 84 3d 21 e4 a6 3d 00 4d 57 3c df 6e 75 3d
       0.06456753 0.08148981 0.013140917 0.059920188
000280 a5 1b 84 3c 0e 13 4b 3c 4e 7d 9c 3d f8 52 e0 3d
       0.016126463 0.01239468 0.076410875 0.10953325
000290 4f 55 78 3d 97 ed 41 3d 92 21 f4 bc 50 1d da 3c
       0.06062823 0.047345724 -0.029801164 0.026625305
0002a0 5c 44 b0 3d f2 76 b7 3d f2 04 d2 bd a3 bd 7b bd
       0.086067885 0.08958234 -0.102548495 -0.06146015
0002b0 a9 9b d4 3d 99 da a5 bd 3d 2f 9e bd 78 e9 e1 3d
       0.10381252 -0.08098335 -0.07723854 0.11030859
0002c0 de f2 dc 3d 11 db 7c bc ab 8d dc bd 3e 9e be 3d
       0.10788511 -0.015433089 -0.107692085 0.09307526
0002d0 3c a1 69 3d 55 03 a1 3d dd 1f 8c bd c0 32 b2 3d
       0.05703853 0.07861964 -0.06842015 0.08701086
0002e0 48 29 8d bd 56 3a 8a bd df a8 d8 3d bd 54 c2 bd
       -0.068926394 -0.06749408 0.105790846 -0.09488819
0002f0 ab 5d 88 bd 8c 7d 83 ba db 8a 05 bd ea a9 ac 3d
       -0.06658491 -0.0010031923 -0.032603126 0.08430846
000300 f7 21 68 3c 73 47 e0 bd dc 36 d1 bd c6 9e c3 bd
       0.014168254 -0.10951128 -0.10215542 -0.09551768
000310 f7 d8 aa bd 69 ab a7 3d 52 81 e7 bc 33 94 f2 bc
       -0.08342164 0.08186991 -0.028259907 -0.029611683
000320 b7 88 dd bc 69 70 87 3d 69 5e c7 bd ad 7f 84 3d
       -0.02704273 0.066132374 -0.09734804 0.06469665
000330 7c cb 7d bc 82 29 5a 3c 79 1e d7 bd e9 39 90 3c
       -0.015490409 0.01331556 -0.10503859 0.017605739
000340 01 ad 56 bd 4b 1c 85 3a 3f bb 62 3d f2 18 3e 3d
       -0.052411083 0.0010155527 0.055354353 0.04641051
000350 dd 21 b3 bc 24 b5 b4 bc ff c5 bc 3d 94 44 47 ba
       -0.021866733 -0.02205903 0.09217452 -0.00076014665
000360 28 60 9f 3d 50 ab cd 3d f9 7f 94 3d 56 eb bf 3d
       0.07782012 0.10042441 0.07250971 0.09371059
000370 83 79 a4 bd 50 bb ca 3b be 93 78 bd 73 5c 85 3d
       -0.08030989 0.00618688 -0.060687773 0.06511774
000380 1b 1a ab 3d 1c 7c a1 3d 1a a8 78 bd 09 4b 87 3c
       0.083545886 0.07885 -0.06070719 0.016515272
000390 7a d2 a2 3b ba 0c 87 3d d5 43 e4 bd dd 9b f9 3b
       0.0049689384 0.06594224 -0.111457504 0.0076174573
0003a0 50 46 a8 bc 25 e2 ce bd 5c af 5f bd e6 f6 29 3b
       -0.02054134 -0.101017274 -0.054610595 0.0025934516
0003b0 14 dd 31 3c 08 9e 7e 3c 52 0f cb 3d e8 1c 85 bd
       0.010855932 0.015540607 0.099150315 -0.06499654
0003c0 d2 db 38 3d b0 e3 cc 3d 26 d2 20 3d 06 d4 db 3d
       0.045131512 0.100043654 0.039262913 0.107338
0003d0 8f 70 6d 3d 4b 9c 1f bd 98 07 b9 3d 15 bc af bd
       0.057968672 -0.038967412 0.090346515 -0.08580796
0003e0 a4 5b 43 3c 8d 09 82 3d 4f 9f e3 bd 98 fd 67 bd
       0.011923704 0.06349478 -0.1111437 -0.05663833
0003f0 a7 cc 2d bd 31 90 1e bd 6e 30 4e 3d f1 7c ec 3c
       -0.0424315 -0.03871173 0.050339155 0.02886817

sensor_model.0.bias f4 [128]
000000 3f d9 50 bd 70 be ff bc e6 7f b9 3d 40 80 63 bc
       -0.050988432 -0.031218737 0.09057598 -0.013885558
000010 b3 e2 bf bc b4 38 29 bd 5d 98 55 bb b8 c1 e0 3d
       -0.023423528 -0.041313842 -0.0032592036 0.10974449
000020 a8 f0 e1 3d f6 5b 36 bc 8b e3 98 3b 9a 5a e3 3d
       0.1103223 -0.011130324 0.004665797 0.11101265
000030 28 cb db 3d 97 a6 97 3d 19 a5 0a bc 8a f4 ec bc
       0.10732108 0.07404821 -0.008462214 -0.028925199
000040 b3 76 ae 3d d4 71 e8 3b 26 f2 28 3d b9 46 01 b8
       0.08518734 0.0070936475 0.041246556 -3.0821862e-05
000050 fe 4c 9c 3d 3c bb e9 bc e9 a7 6c bb 44 ac b5 3d
       0.076318726 -0.028531663 -0.0036110824 0.08870748
000060 16 8c 08 3e bb d1 bf 3d 60 5a aa 3b 3c 27 cc bb
       0.13334689 0.09366175 0.005198762 -0.006230263
000070 24 4f 61 3d 3a 8a 42 bd a9 25 94 bc 7b 0f 07 bd
       0.055007115 -0.047495104 -0.018084364 -0.032973748
000080 e0 33 68 3d 49 61 8a bb 9d c0 cd 3d e0 7d 8c bc
       0.056690097 -0.004223023 0.10046504 -0.017149866
000090 88 ab 0f 3d 2e cd e0 3d 60 58 c2 3b 87 35 b6 bb
       0.035075694 0.10976635 0.0059309453 -0.00556058
0000a0 01 a6 2c bd 24 3a 31 bc d7 e8 8d 3d 63 1d 06 3e
       -0.0421505 -0.010817084 0.06929176 0.13097148
0000b0 5d 84 fd bc 98 46 02 bd d3 4b 97 bc 24 55 db bc
       -0.030946905 -0.031805605 -0.018468773 -0.026773997
0000c0 1b 80 a7 3d e2 96 99 3d cd ac 07 bd 33 8b 4f bd
       0.08178731 0.07499482 -0.03312378 -0.05066986
0000d0 c5 18 ed bb 3a 97 1d bc c0 6e 02 bd 33 3a 94 bb
       -0.007235619 -0.009618575 -0.0318439 -0.0045235395
0000e0 bf 31 e4 bc bc 38 f0 3c c9 3d 9c 3d 63 c0 f0 3b
       -0.027855752 0.029323928 0.07628972 0.007347153
0000f0 bb b1 60 bd 48 96 02 bd d1 18 87 bc 78 c9 f8 bc
       -0.054856997 -0.0318816 -0.016491326 -0.030369505
000100 6f d9 68 3d 22 1e b9 3d 0b 1c 37 bc 98 7d 18 3e
       0.056847986 0.090389505 -0.01117612 0.1489166
000110 b3 60 a6 bb b2 7f b3 3d 62 89 8c 3b cc ef 4c bc
       -0.0050774454 0.0876459 0.0042888382 -0.012508344
000120 11 61 dc 3b 9a b4 2c bd cf f7 09 bd 3f ef 35 bd
       0.0067254384 -0.042164423 -0.033683594 -0.044417616
000130 4d d9 b0 3d 1c 52 ea 3d d0 2a da 3d f7 2f 2e bd
       0.08635197 0.11441442 0.10652697 -0.04252621
000140 53 cb 22 bd ac 05 c5 3d d3 49 3c bc e1 15 8a 3d
       -0.039744686 0.096202224 -0.01149221 0.06742454
000150 69 54 03 bd 05 e8 ea 3d 35 1b c8 bb a1 3e 16 bd
       -0.03206292 0.114700355 -0.006106759 -0.03668082
000160 9f 01 e9 bb 4f 38 78 3d 49 26 7d bc 4b a2 39 bd
       -0.007110789 0.060600575 -0.015451022 -0.04532079
000170 0d e7 5f bd ab 88 98 3d c3 01 de ba 3e 22 1b 36
       -0.054663707 0.07447942 -0.0016937781 2.3116731e-06
000180 36 c0 06 bd 7b de fb bc 76 82 0a bd e2 80 d7 bb
       -0.03289815 -0.030745735 -0.033815823 -0.0065766433
000190 8e db 5b bd 77 33 dc 3d 1b 1e 03 bd d4 99 d3 3d
       -0.05367618 0.10752004 -0.032011133 0.10332075
0001a0 04 3a 44 bc f0 20 71 bc 12 be e5 bc a1 1d 69 bc
       -0.011976723 -0.014717326 -0.028044734 -0.0142282555
0001b0 cc 9f 22 bc ec b1 01 3e 88 d8 6e bc 9b e2 ea bb
       -0.009925794 0.12665528 -0.014577992 -0.0071681268
0001c0 be 75 39 bd 94 3d 22 bd 70 38 8c 3b 49 33 28 bd
       -0.045278303 -0.039609507 0.004279189 -0.041064534
0001d0 3f fa 0c bb ea 60 38 3b f5 86 3c bd 51 b7 e6 bc
       -0.0021511463 0.0028133937 -0.046027143 -0.028163584
0001e0 0b 80 0b 3e f7 53 b2 3b 91 a1 da 3b 62 ce 35 bd
       0.13623063 0.0054421383 0.0066720922 -0.044386275
0001f0 94 a0 68 bd 9a ac c0 3d 47 23 4f bd e7 be 27 bd
       -0.056793764 0.09407921 -0.050570752 -0.040953543

sensor_model.2.weight f4 [64, 128]
000000 44 96 f1 3d 48 f7 05 3e ec 04 18 3e 91 64 b9 bc
       0.11796239 0.13082612 0.14845628 -0.022630962
000010 80 46 c3 bd 96 05 6c bd f8 09 b3 3d ae 6a d8 3d
       -0.09534931 -0.057622515 0.08742136 0.105672225
000020 20 0f 08 3e 52 c4 c7 3c 9d b5 13 3e ea eb 17 be
       0.1328702 0.024385605 0.14424749 -0.14836088
000030 2c 11 68 bd 82 eb 81 bd 83 d2 93 bd 44 16 cc 3c
       -0.056657 -0.06343748 -0.07217886 0.02491296
000040 55 69 c2 bd 7b 88 a4 3d 86 01 14 3e 37 7b 2d 3e
       -0.09492747 0.08033844 0.14453706 0.16941534
000050 f7 68 aa 3c d3 75 19 3e bd 33 2c b9 34 ab 0e 3e
       0.020802004 0.14986353 -0.00016422472 0.13932496
000060 54 36 2d bd 4a 9a bf 3d c3 3c 89 bb 2f f1 c6 3c
       -0.04228814 0.093556 -0.0041881516 0.024284927
000070 03 7b c7 bd e0 8b 2d 3e 41 66 5c 3b c4 f1 21 be
       -0.097402595 0.1694789 0.0033630284 -0.15814883
000080 e1 ad 08 be 4c ee a1 3c 5d 4c 33 3b ad 60 3e 3d
       -0.1334758 0.01976695 0.0027358748 0.046478916
000090 79 b1 a7 bd f3 cb b1 bd d7 f5 01 3e ba 45 86 3d
       -0.08188147 -0.08681478 0.12691437 0.06556268
0000a0 cd 3a 55 3d b4 90 6b 37 ec 2d 11 be c9 5d 81 bd
       0.05205803 1.4040783e-05 -0.14177674 -0.06316716
0000b0 de e2 df bd e7 01 2f 3e ce b0 e5 bb 3c f9 d5 3d
       -0.10931943 0.1709057 -0.007009602 0.10447928
0000c0 31 80 97 bd 51 ed 29 be ed 48 1d 3e 59 93 d6 bd
       -0.073974974 -0.16594435 0.1535985 -0.10477323
0000d0 19 fb 1e 3e f8 39 b5 bd 31 96 25 be 7b 2b 21 be
       0.15525474 -0.08848947 -0.16170575 -0.15739243
0000e0 20 f5 a3 bd a3 21 1a be bf 7f 5c 3d f4 45 69 bd
       -0.08005738 -0.15051894 0.053832766 -0.056951478
0000f0 98 cd 45 bd 68 3d f7 bd 64 71 52 3d 8f 12 26 3e
       -0.048291773 -0.12072259 0.05137767 0.16218017
000100 6f 04 13 be 68 5d 63 3d e0 b8 c9 bc 40 ca da bd
       -0.1435716 0.055509 -0.024624288 -0.106831074
000110 0b bc f9 3d d8 85 cb bd 66 62 15 be 5c c7 d5 bd
       0.121940695 -0.09937638 -0.14588317 -0.104384154
000120 6f 8c 07 3e a2 c9 ad bd 3f 6a b6 3d 4a ff 19 3e
       0.13237165 -0.08485724 0.089069836 0.15038791
000130 9a 95 70 3c c5 a2 0b 3e a0 d8 2e 3e da c8 09 3e
       0.014684105 0.1363631 0.17074823 0.13455525
000140 b6 cf 03 3e 87 77 04 3d e2 a9 1f be 52 6e c1 bc
       0.12872204 0.032340553 -0.15592149 -0.023612175
000150 a6 c9 8b 3d 24 32 1f be c6 03 90 bd 44 67 28 3e
       0.06825571 -0.15546471 -0.0703197 0.16445643
000160 5c 2d 9e 3d 9c f1 7e bd ab 28 06 be 80 f6 ca bd
       0.07723495 -0.062242135 -0.13101451 -0.099102974
000170 08 ea 67 3d d8 c4 55 3d db 83 2b be e6 63 09 be
       0.056619674 0.052189678 -0.16749518 -0.13417014
000180 56 1c 79 bd ab 84 76 bd 47 81 8f bd ca a4 1e bd
       -0.06081804 -0.060185116 -0.070070796 -0.038731374
000190 6c 12 e1 bd f3 0c 31 3e e5 ee 7c 3d f0 4a e5 3d
       -0.10989842 0.17290096 0.061751265 0.11195934
0001a0 e4 99 bb 3d 7b 5f 87 3d f4 14 18 bd be cd 47 3d
       0.09160212 0.06610008 -0.037129357 0.048780195
0001b0 d2 7d 06 be 5d dc 8c 3d 89 9a 0d 3e 0d ce bd bd
       -0.13133934 0.068779685 0.13828482 -0.09267817
0001c0 da d3 19 be e7 4b 2f 3e 45 aa d2 bd e8 32 34 be
       -0.15022221 0.17118798 -0.102863826 -0.17597544
0001d0 33 8e 15 be 3a 59 ce bd 59 d6 30 be 03 ba 23 3d
       -0.14605026 -0.10075612 -0.17269267 0.039972316
0001e0 ff 9e 20 3e 5a c6 b0 bd 65 e9 8c 3d 7d 2c 9e bc
       0.15685652 -0.086315826 0.06880454 -0.019308323
0001f0 28 5e 10 be 93 54 df bb d1 1e 24 bd 78 b1 b7 bd
       -0.14098418 -0.006815502 -0.04006845 -0.08969396
000200 ac 09 10 bb 4a 65 10 be 25 79 fd bd 0b e3 8d 3d
       -0.002197842 -0.14101139 -0.12376622 0.06928071
000210 5e fd dd bd 89 1e 19 be 71 b6 d1 3d 23 e6 90 bd
       -0.108393416 -0.14953054 0.10239876 -0.07075145
000220 26 bc c0 bd 94 e6 06 bd d4 69 3e be 43 68 13 be
       -0.094108865 -0.03293474 -0.18595058 -0.14395241
000230 ca ca eb bd bb 03 69 3d 87 2f 24 3e 83 fe 24 be
       -0.11513288 0.056888323 0.16033755 -0.16112714
000240 59 ff ce 3d 70 ec b8 3d 75 84 c0 bd b1 25 3d be
       0.101072975 0.09029472 -0.09400264 -0.1847141
000250 4b 3a 06 3e 9b 84 88 bd 8a c8 ef bd ae 61 09 be
       0.13108175 -0.066659175 -0.11708172 -0.13416168
000260 f3 b9 ba bd 93 0f 25 be eb 7a 99 bd 70 de 1c 3e
       -0.09117498 -0.16119222 -0.07494148 0.15319228
000270 6b 86 82 bd 73 09 aa bc 30 82 ff 3c c5 2c a5 3c
       -0.063732944 -0.020756459 0.031190008 0.02016295
000280 2f 5c be 3d 9e 83 a6 bd 6e f9 0b 3e d2 9e a6 bd
       0.092949264 -0.08130573 0.13669369 -0.08135761
000290 e7 60 dc bd 9f 78 c6 bc c5 fa 8e bc 03 0b 15 3e
       -0.1076067 -0.024227438 -0.01745356 0.14554982
0002a0 a3 05 24 3e 1b 0a bd 3d f7 6f 30 be 5e 04 58 be
       0.16017775 0.09230443 -0.17230211 -0.21095416
0002b0 a2 d7 2e be b2 7f d9 bc 84 ac e0 bd d1 43 98 3b
       -0.17074445 -0.026550148 -0.10970405 0.004646756
0002c0 ff 96 8d 3d 58 64 9f bd 54 99 a8 3d b7 ba 47 bd
       0.06913566 -0.07782811 0.0823237 -0.04876205
0002d0 c2 d0 ac 3d df 8a 56 3d c6 a6 7e bd f8 4a 32 3d
       0.08438255 0.05237853 -0.062170766 0.043528527
0002e0 1e 12 ea 3d 8b d8 83 3c 77 fb fc 3d b0 b4 93 3d
       0.11429237 0.016094467 0.123526506 0.07212198
0002f0 bd b1 d1 bd 46 05 1f be e4 80 df 3d a2 65 06 bc
       -0.10238979 -0.15529355 0.10913256 -0.008202942
000300 56 e5 12 3e c3 66 07 3e c2 20 e7 bd 8b 70 20 be
       0.14345297 0.13222794 -0.11285545 -0.15667932
000310 e7 6f cb 3d 00 27 51 be 53 b9 26 be 06 11 05 be
       0.09933453 -0.20425034 -0.16281633 -0.12994775
000320 d6 a2 46 bd 6b b6 13 bd bf 79 1f be 95 e0 df bd
       -0.048495136 -0.03606264 -0.15573786 -0.109315075
000330 5a 6e 1d bd 3b 89 bd ba 3d a6 e0 3d 78 b1 cb bd
       -0.038435318 -0.0014460454 0.109692074 -0.09945959
000340 8e db a4 bd 69 02 08 be a1 cb 66 3d 56 87 92 3d
       -0.08049689 -0.1328217 0.05634654 0.071547195
000350 5c 3e 2f 3e ab 22 8e bd 53 d2 24 3d f0 35 86 3a
       0.17113632 -0.06940206 0.040239643 0.0010239463
000360 8e c1 d1 bd bb b7 26 3d 5e 81 28 3e 86 e9 27 3d
       -0.10241996 0.040702563 0.164556 0.04099419
000370 3c ea 80 bd 49 03 20 bd f4 17 19 3e f4 a1 02 3e
       -0.06294677 -0.039065633 0.14950544 0.12757093
000380 bd e8 01 3e 24 65 33 3d a7 71 2c 3e 06 8c c3 bc
       0.12686439 0.043797627 0.1684023 -0.02387048
000390 b7 42 c0 3c 23 00 04 3e 96 b2 ab 3d a6 dd 1f bc
       0.023469312 0.12890677 0.08383672 -0.009757435
0003a0 87 1b 35 bd 4e c2 66 3d a6 8c b5 bd cc c4 c0 3d
       -0.044215705 0.056337647 -0.08864717 0.09412536
0003b0 55 a4 c4 bd 33 b1 16 bd 7c de d6 3d 5b c4 3c bd
       -0.09601656 -0.036790084 0.10491654 -0.046085697
0003c0 50 8c 2b 3e 9f f3 9d bd c1 d2 15 3c 13 6d d7 3d
       0.16752744 -0.07712483 0.009144486 0.10518851
0003d0 ba c1 22 3e f0 3f e5 bd c5 a9 d4 bd 5b d1 be bb
       0.15894213 -0.11193836 -0.103839435 -0.005823297
0003e0 80 fb 4d 3d 78 cf 58 3d 34 87 0f 3e d4 70 3d 3d
       0.050288677 0.052932233 0.1401642 0.04625018
0003f0 9e 04 0b bd e9 c3 2b bd db 28 98 3d 80 db 59 bc
       -0.03393995 -0.04193488 0.074296676 -0.013296962

sensor_model.2.bias f4 [64]
000000 b1 ef 73 3d 48 42 0e 3d 13 e3 22 bb 50 7e 83 3c
       0.05955476 0.03473118 -0.0024854585 0.016051441
000010 e0 2c 88 3d 03 66 56 bd 93 44 5f bd 42 81 b0 bc
       0.06649184 -0.05234338 -0.054508757 -0.02154601
000020 41 c9 58 3d 3c fa 6c 3b 9c 9a d3 3b ad b3 fb 3d
       0.052926306 0.0036159893 0.00645764 0.1229013
000030 83 b7 4e 3d 80 dd 5d bc 18 cd 0b 3d 64 e1 51 3d
       0.05046798 -0.013541579 0.03413114 0.05124034
000040 e1 fa 90 3d 39 69 ac 3d b8 73 0b 3e 3e dd a8 bd
       0.07079101 0.08418507 0.13618362 -0.082453236
000050 bc 02 45 3d b3 df b8 3c 14 d0 12 3d f1 96 f5 3c
       0.04809831 0.022567606 0.03584297 0.029979201
000060 2d 09 67 bd a0 c5 02 3c 97 07 8a bd 87 ad c1 3d
       -0.056405235 0.007981688 -0.06739729 0.09456926
000070 e1 8c 46 3d 4a b0 ec 3c aa e6 df 3c b4 68 bf 3c
       0.048474196 0.028892655 0.027331669 0.023365356
000080 dc 3c 5b bd af b5 0b bd 4e cb 35 3c 4d 3e a9 bd
       -0.053524837 -0.034108814 0.011095835 -0.08263836
000090 a9 66 79 bc ab c1 83 3c d3 7a ba bd 1e e7 99 bb
       -0.01522223 0.016083559 -0.09105458 -0.004696741
0000a0 40 3d 4f bc 89 3d 0f 3c 6e 43 99 bd d5 b4 ee 3d
       -0.0126488805 0.0087426985 -0.07483564 0.11655585
0000b0 2b 2f 06 3c a7 1e ab 3c 10 7a 64 3d 8b 12 1a 3d
       0.008189957 0.02088864 0.05578047 0.03761534
0000c0 8f 0d af 3c 0e db af bd 06 cd b4 3d 3c e2 0a bd
       0.02136877 -0.08586703 0.088281676 -0.03390716
0000d0 38 b7 91 3d eb 55 49 3d b7 4d f9 3d 20 e3 94 bc
       0.07115024 0.049154203 0.12173026 -0.018174708
0000e0 d9 0e 6c bd d0 38 5a bd b4 ae b3 bc c9 e5 d3 3d
       -0.057631347 -0.053276837 -0.02193389 0.103465624
0000f0 21 55 ee 3c 64 23 1f bd 9e 60 93 bd b6 07 3d 3c
       0.029093327 -0.03885211 -0.07196163 0.011537483

target_model.0.weight f4 [16, 66]
000000 75 d5 75 be 8a d9 21 3e d8 6b ca bd af ab 4a 3d
       -0.24007209 0.15805641 -0.09883851 0.049480136
000010 d0 6e 73 3e 0a c1 3b 3c 69 1e 3f be 26 36 e5 bd
       0.2377274 0.011459598 -0.18663944 -0.111919686
000020 9c 86 25 3e 5a aa 4b 3e 0d 71 4f bd 2a d4 32 be
       0.1616463 0.19889203 -0.050644923 -0.17463747
000030 14 c8 8f 3e 92 03 2f bc 48 6a 87 bc 91 61 66 bb
       0.28082335 -0.010682004 -0.016530171 -0.003515337
000040 9a 67 fe 3d d3 f0 f9 bd 20 e8 23 be 2d 1f bb 3b
       0.12422104 -0.12204137 -0.16006517 0.0057105036
000050 6c fb 11 3e b5 05 bc 3d 2a cd 7b 3e fd 27 4a be
       0.14256066 0.09180776 0.24589983 -0.19741817
000060 40 68 5d 3e 41 87 92 be 94 32 1b 3e 23 95 67 3e
       0.216218 -0.28618816 0.15156013 0.22615485
000070 b9 47 0c be 38 4c 05 bd f1 72 56 3c ad d3 ee 3d
       -0.13699235 -0.03254339 0.013088928 0.11661468
000080 6c 2b f1 bd ef 94 80 be 20 15 50 3e 4d 1c 95 bd
       -0.1177586 -0.25113627 0.20320559 -0.072807886
000090 6d e2 3c 3e 90 1c b5 3c 31 b0 82 3e 93 bc 36 3d
       0.1844575 0.022108346 0.25525048 0.044613432
0000a0 be ce d0 bd 67 24 62 be e3 23 77 3e 1d 32 b9 3d
       -0.10195683 -0.22084199 0.24134783 0.090427615
0000b0 53 82 3a bd b3 f2 6b be 44 8a 08 be a7 bf 87 bd
       -0.045534443 -0.23041801 -0.13333994 -0.06628352
0000c0 c9 ad 21 be ec c9 02 3e 6b c7 e8 bd 18 3a 67 3d
       -0.1578895 0.1277234 -0.11366161 0.056451887
0000d0 90 66 4f 3e 1c 51 40 be 13 e5 b3 bd a8 e5 52 3e
       0.20253968 -0.18780941 -0.08783927 0.2059542
0000e0 dd 48 78 3e f9 29 68 be 6e 6d 16 bd 72 e8 54 be
       0.24246545 -0.22672261 -0.036725454 -0.20791796
0000f0 8a 52 ab be 46 4a 5d be b1 3a 40 3e fa 02 9b 3d
       -0.3346141 -0.21610364 0.18772389 0.07568927
000100 a9 f0 8d 3e 55 c3 4b 3e 27 52 68 be fd 1f 5f bd
       0.27722672 0.19898732 -0.22687589 -0.054473866
000110 f9 84 88 3d dd 78 80 bd b3 8d 6b 3e a2 0b 81 bd
       0.066659875 -0.06273053 0.23003273 -0.06301047
000120 57 5d f1 bc 08 68 4d be 1a db 82 be 4e 27 84 bd
       -0.029463453 -0.20059216 -0.25557786 -0.06452809
000130 73 a7 6c be f6 cc 19 be a7 3c e0 3b 16 44 5d 3e
       -0.23110752 -0.15019593 0.006843168 0.21608004
000140 5d f7 25 be dc 26 2f 3e 68 66 7f 3e 26 9c 81 3e
       -0.16207643 0.17104667 0.24941409 0.25314444
000150 4d 8e a5 bd 94 c5 17 be 47 0f 92 bd 28 21 0f 3d
       -0.08083782 -0.14821464 -0.0713182 0.03494373
000160 00 92 15 3e 0d 78 81 3e bd 7f 31 be b4 3f 1b 3d
       0.14606476 0.25286904 -0.17333885 0.03790255
000170 82 84 03 3e d9 f0 09 3b 66 fd 5e be 03 d3 c8 3d
       0.12843516 0.0021048097 -0.21776351 0.09805872
000180 5c c6 b9 3c e4 c7 00 be 64 ea 63 3e a7 7f e4 3d
       0.022677593 -0.12576252 0.22257382 0.1115716
000190 fc e1 7b be 7f dd 87 3e 15 b1 38 bd 6c 5a 00 bd
       -0.24597925 0.26536176 -0.045090754 -0.031336233
0001a0 fc dc 25 3e d6 f2 49 be 40 84 ab 3c b1 f7 6c 3d
       0.1619758 -0.19721541 0.020937085 0.057853404
0001b0 6d a4 82 bd 93 62 b7 3d 2c 0d de bd a1 9a f7 bc
       -0.06379018 0.089543484 -0.10842356 -0.0302251
0001c0 32 78 1c 3e d7 d7 87 be 78 6d 3c 3e 29 39 14 3e
       0.15280226 -0.2653186 0.18401134 0.1447493
0001d0 03 cd 34 3d 1b 44 62 bc bc b7 9a bd a1 d4 90 bd
       0.044140827 -0.013810183 -0.07554576 -0.07071806
0001e0 c6 fd 02 3e 00 82 6d 3e 26 0a 47 be 35 a7 10 bb
       0.1279212 0.23194122 -0.19437465 -0.002207232
0001f0 dc 10 4c bd 43 23 8a 3e 84 2c 94 3e 82 7d 91 bc
       -0.049820766 0.26980028 0.28940213 -0.017760042
000200 00 0b 80 3e 0d 2c 99 3d 05 7b 34 3e 6f 36 cd 3d
       0.25008392 0.07479105 0.17625053 0.10020148
000210 28 79 b6 3d 02 38 82 be b0 8b 17 3e e0 ac 8f 3e
       0.089098275 -0.25433356 0.1479938 0.2806158
000220 c2 09 f9 3b fa 5a 52 3e bd 33 ce bc dc a2 f1 3d
       0.00760004 0.20542517 -0.025171155 0.11798641
000230 bf ac 65 be 84 fc 43 be 29 3e d4 3e c8 b4 49 3e
       -0.22429179 -0.19139296 0.41453674 0.19697869
000240 ed ff 89 3e 2c e8 3c be 5f 00 fb bd cf 66 0c 3e
       0.26953068 -0.18447942 -0.1225593 0.13711093
000250 bc 1f 94 3d 5f 5b 97 3c 8e d4 99 3e 26 2e 88 3e
       0.07232615 0.018476186 0.3004498 0.26597708
000260 08 21 3c 3e fd f5 19 3e 0c 8f 39 be bd 88 59 3e
       0.18371975 0.15035243 -0.18120974 0.21243568
000270 99 42 23 3e 8b 1b c6 3e a3 09 2f 3e 8a 95 d9 3e
       0.15943374 0.3869289 0.1709352 0.42496902
000280 bd 79 3b 3e 37 c4 87 be 41 1c ac 3d ee af 4f 3d
       0.18308158 -0.26516888 0.084038265 0.05070489
000290 ad 73 e8 3e 95 7b 29 bd c0 72 ac bd b0 93 37 bd
       0.45400754 -0.041377623 -0.08420324 -0.04481858
0002a0 76 0b 02 3e 18 7f 3a 3e 19 1f c2 bd 62 93 ab 3d
       0.12699685 0.18212545 -0.09478588 0.083777204
0002b0 d2 24 8b 3d 25 37 8c 3e 5f b8 1b 3c 48 0f 08 bd
       0.06794132 0.27385822 0.009504407 -0.0332177
0002c0 70 0e 4b be 52 be 5d 3e e9 b1 99 bd e9 3c 19 bd
       -0.19829726 0.21654633 -0.07504637 -0.037411604
0002d0 26 29 1c be 92 52 22 3d 0f 5a 2d bd 94 2a a6 bc
       -0.15250072 0.039629526 -0.042322215 -0.020283975
0002e0 34 b4 98 3e 7c 60 54 bc 84 59 1a 3e ca 0d 3a 3d
       0.29824984 -0.012962457 0.1507321 0.045423307
0002f0 7b 0a c8 3d 91 46 77 3e 71 70 39 3e 87 f8 98 3e
       0.09767624 0.24148013 0.18109299 0.2987711
000300 38 06 54 3e 0e 05 d0 3d e0 c4 c3 bc ee 6f 3c 3d
       0.20705497 0.10157214 -0.023897588 0.046005182
000310 92 8e 06 be 80 fe 4f 3d 65 b8 86 3e 9d c6 ef 3d
       -0.13140324 0.05077982 0.26312557 0.11707804
000320 d1 18 ab 3d 6a ad 35 be f1 f9 b2 3d 88 09 ef bc
       0.08354343 -0.17741933 0.08739079 -0.02917935
000330 85 23 76 3e dd 93 a2 bc e6 5e 07 be ed fa 68 3e
       0.24036987 -0.019845897 -0.13219795 0.2275197
000340 55 c4 28 3e aa 09 a0 3e ea af 03 be 30 e3 15 be
       0.16481145 0.31257373 -0.12860075 -0.14637446
000350 54 bd 70 3e 13 60 50 3e 86 b3 02 be 75 4e 52 3e
       0.23509723 0.2034915 -0.12763795 0.20537741
000360 98 ae bc 3d c4 bf 66 3e 7f 26 2b be 7c db 34 be
       0.092129886 0.2253409 -0.16713904 -0.17661852
000370 c9 0e c1 3c 9a 1a 64 be c2 4d 5b 3e b5 2d 84 3e
       0.02356662 -0.22275773 0.21416381 0.25816122
000380 f6 bc 68 be 0f 13 60 3d 42 b8 19 3e 16 42 35 3d
       -0.22728333 0.054705676 0.15011695 0.044252478
000390 6a 7a 9c bd f2 88 07 3d 5b 6d 43 3d 45 dc 07 3e
       -0.07640536 0.033089586 0.04771171 0.1326762
0003a0 c8 21 e8 bc 91 fc 41 3e 15 83 29 be bc cc d2 3d
       -0.02833642 0.18944003 -0.1655391 0.10292956
0003b0 62 0a 4d bd 30 91 84 bd d9 32 56 be 9e 77 45 bd
       -0.05005873 -0.06473005 -0.20917834 -0.04820978
0003c0 e8 73 bc bd 07 2b 71 3e 4d 7b ee 3d 95 42 96 3d
       -0.09201795 0.2355157 0.116446115 0.07336918
0003d0 a9 58 a5 bd ab 1a e6 bd 25 f2 d7 bd f5 b0 42 be
       -0.08073551 -0.11235555 -0.10544232 -0.19012816
0003e0 c6 5f 2e be ef ae d9 3c 85 17 90 3e 5b 4f cb bd
       -0.17028722 0.026572673 0.28142944 -0.09927245
0003f0 2b ff a5 3e e6 d0 a8 3d 5e ca 50 3d 22 6c 55 3e
       0.3242124 0.08242969 0.050974242 0.2084203

target_model.0.bias f4 [16]
000000 31 b7 fd bd 53 f5 40 bd 15 e8 19 3e ee 63 0b 3e
       -0.123884566 -0.04710896 0.15029939 0.13612339
000010 c5 f2 00 3d f3 12 d1 3c c4 23 60 3d df 9c 4a 3d
       0.031481523 0.025521731 0.05472161 0.04946601
000020 14 fd c3 bd c5 56 12 be 19 1c 4c 3d 4d 31 b2 bd
       -0.09569755 -0.14290912 0.049831484 -0.0870081
000030 57 03 bb 3d b9 97 e6 bd 3d 10 c7 bc 14 21 d5 bd
       0.091314964 -0.112594076 -0.024299735 -0.104067

target_model.2.weight f4 [2, 16]
000000 22 81 88 be ad 6a e3 3e 12 52 8c 3e af d7 09 be
       -0.2666102 0.44417325 0.27406365 -0.13461183
000010 d0 b8 9d 3e fe fb 5f bf bc 92 79 3d 9f 51 04 bf
       0.30805063 -0.87493885 0.060930952 -0.51687044
000020 42 49 bd 3e f7 6d 1a bf 04 57 1c 3e fe a8 01 3f
       0.36969954 -0.60324043 0.15267569 0.50648487
000030 f9 70 04 3f 30 ec 0c 3f 87 09 4e bf 6c 93 cc be
       0.5173488 0.55047894 -0.8048329 -0.39956224
000040 09 34 56 3e dd 27 c9 bd 7f e0 b9 3d 1d 0f 24 bf
       0.20918287 -0.098220564 0.09076022 -0.6408556
000050 f7 09 fb be 28 07 69 3e 41 e7 a3 be 64 b0 11 3f
       -0.4903104 0.22756636 -0.3201237 0.56909776
000060 46 ef 6f be bf a8 d7 3e 6d 12 f7 be 39 80 21 3f
       -0.2343112 0.4212093 -0.48256245 0.6308628
000070 7e 12 a8 3e f8 e8 5a 3e 3e 9b eb 3e cd 83 b4 be
       0.32826608 0.21377933 0.46016878 -0.35256806

target_model.2.bias f4 [2]
000000 e9 b7 58 3e 0e 53 84 be
       0.21163906 -0.25844616
