Pytorch_DRL/HNRN/models/backup/4.8_Best_of_Before/best_ca_actor.model (torch_old, 223687 bytes, 8 tensors)

sensor_model.0.weight f4 [128, 360]
000000 b1 76 0e be c6 a3 03 bd 07 94 e4 bc 8f a0 ea bd
       -0.13912465 -0.03213861 -0.027902616 -0.11456405
000010 6b 08 d3 bd 59 2c 57 3d a0 29 59 bd 72 43 21 3d
       -0.1030434 0.052532528 -0.053018212 0.03937096
000020 e9 60 c1 bc 32 f5 1e 3d 2d 3c b0 bc fb bd a0 bc
       -0.02360578 0.038808055 -0.021513069 -0.01962184
000030 23 93 85 bc e7 66 90 3d 30 19 c0 ba ab b2 97 bd
       -0.016305512 0.07050877 -0.0014655944 -0.07407125
000040 81 55 8f bd e8 25 94 bd e2 dc cb bb 36 a5 04 be
       -0.069987305 -0.072337925 -0.0062213996 -0.12953648
000050 2e 14 23 bd 32 26 35 bd e4 a2 70 3c 3a 9d 96 bd
       -0.039814167 -0.04422588 0.014687274 -0.07354207
000060 6b 2e 9f bc 78 45 8b bd 83 ef fe bd e2 8e e0 bd
       -0.019431313 -0.068003595 -0.12448027 -0.10964753
000070 53 ab 05 be 1d 69 00 be 7e 86 6f bd 96 41 93 bc
       -0.13053636 -0.12540098 -0.05847787 -0.01797561
000080 c1 49 b6 3c 17 f8 6c 3d 32 e1 98 3d c0 61 28 bd
       0.022251965 0.057853784 0.074648276 -0.041108847
000090 b1 43 c7 bd de 22 80 bd a4 a1 a7 3d e6 01 b9 bd
       -0.09729708 -0.062566504 0.081851274 -0.09033565
0000a0 8e 97 5b 3b b6 b0 0c 3d 11 ed 99 3d 54 d0 00 bd
       0.0033507082 0.034348212 0.0751592 -0.031448677
0000b0 5b cc 17 3d c7 fb 9e 3d 1f 9a ab bc 81 dc 31 3d
       0.037060123 0.077628665 -0.020947514 0.04342318
0000c0 08 14 15 be 20 0c 09 be 92 c6 13 be 5e 75 18 be
       -0.14558423 -0.13383532 -0.14431217 -0.14888522
0000d0 d5 0f e4 bd 5e db 59 bc 34 0b 01 be 4b 95 9d 3b
       -0.11135832 -0.01329693 -0.1260193 0.004809057
0000e0 e8 c4 ad bc ae ec 51 bc 8e 4d a3 3d 53 bd 27 3c
       -0.021212056 -0.0128127765 0.07973777 0.0102380095
0000f0 27 db 8a bc c9 43 fd bb be 9b c9 3a 84 70 bb bc
       -0.016950203 -0.007729028 0.0015381498 -0.0228808
000100 cd 13 00 3d da ea e6 bd 3b bb d2 bd df d5 95 3d
       0.031268883 -0.11275263 -0.10289618 0.07316183
000110 23 46 0e bd c9 4a 89 3d c4 28 11 bd db 79 43 3b
       -0.034734856 0.06703717 -0.035439268 0.002982727
000120 f6 7e 22 bc 46 a8 e9 bc 60 cd c9 bd c9 31 ad bd
       -0.009917965 -0.028522622 -0.09853625 -0.084567614
000130 b8 af 09 be ef 6f 92 3d 33 92 66 bd 4f 2e f8 bd
       -0.13445938 0.07150256 -0.05629177 -0.12118208
000140 00 f5 03 bd 13 59 16 3d 05 89 e3 3c ea e4 8f 3d
       -0.032216072 0.03670604 0.027775297 0.07026084
000150 97 46 bb 3d 7b ab 55 bd 8b d1 a8 bd 35 92 61 bd
       0.09144323 -0.05216549 -0.08243092 -0.055071075
000160 ec f5 82 3c af 83 6d 3d 94 6f 56 bd 5b 28 b7 bd
       0.015986405 0.05798691 -0.052352503 -0.08943244
000170 ba 73 27 3d c2 c7 d2 3c 8b d1 68 bd 0d 1a aa bb
       0.04088185 0.025730018 -0.05684046 -0.005191094
000180 45 94 e9 3a 78 ff 33 3c 75 3e 98 3d 32 fa af bc
       0.0017820677 0.010986201 0.07433788 -0.021481607
000190 77 1e bb bd 9e e7 86 3c 1a 1c c3 bd ff f0 5a bd
       -0.0913667 0.016467866 -0.09526844 -0.053452488
0001a0 43 f6 0b 3d 83 8a a3 3d d2 b3 a2 bd 51 89 2d bd
       0.0341704 0.079854034 -0.07944454 -0.042367283
0001b0 4b 7d bf 3d 66 b7 a4 bd 75 04 ae bd ff 38 90 3b
       0.093500696 -0.08042793 -0.08496944 0.0044013257
0001c0 f3 52 ab bd f8 1d de bd 3c 6d df bd fc 8e 20 3d
       -0.08365431 -0.1084556 -0.10909507 0.03919886
0001d0 90 8d ec bc 63 b3 2b bd d7 9a 78 3d f5 8d 91 3d
       -0.028876096 -0.041919123 0.06069454 0.07107154
0001e0 9b 00 d3 3c 3d b5 99 3d ea 0d b1 3d 06 6e 2f bd
       0.025757125 0.075052716 0.08645232 -0.042829536
0001f0 0f 58 8c 3c b8 26 a9 bd f3 d3 b3 3d d7 bf 85 bd
       0.017131833 -0.08259338 0.087806605 -0.06530731
000200 6b 5d 54 3c d4 36 c2 bd 21 54 fe bb fd ad 95 bd
       0.012961726 -0.09483114 -0.007761494 -0.07308576
000210 10 c9 bf bd 5b ec c8 3d 28 e7 21 bd 8a cb 92 bb
       -0.093645215 0.09810706 -0.03952709 -0.00447983
000220 01 a3 b2 bd 01 d4 b2 ba 34 59 c3 bd bf 45 f0 bd
       -0.08722497 -0.0013643504 -0.095384985 -0.11732053
000230 af aa 56 3d eb 62 90 3d ef ad df bd 5e e7 e3 bc
       0.05240887 0.07050117 -0.10921847 -0.027820285
000240 42 40 07 bd c2 11 3b bd ac a1 8d 3c 6a cf 26 3d
       -0.033020265 -0.045671232 0.017289005 0.04072515
000250 07 93 c1 bd 0c 72 36 3d 23 2c c5 bd 98 9c b6 3d
       -0.09451871 0.044542357 -0.09627559 0.08916587
000260 a7 9e 80 bd 59 70 8a bc 01 35 8f bd 2e c2 a2 bd
       -0.062802605 -0.016899275 -0.069925316 -0.07947193
000270 75 98 88 3d f8 de a6 3d df 60 56 3c 8b 53 48 3d
       0.06669704 0.08147997 0.013084619 0.048907798
000280 51 ae de 3b 89 f8 bd 3b f4 c9 94 3d 51 05 d7 3d
       0.0067956825 0.00579745 0.07265082 0.10499061
000290 87 3f 6b 3d 66 e7 3b 3d be da e0 bc 29 db 08 3d
       0.05743363 0.045874976 -0.027448054 0.033412132
0002a0 70 04 c3 3d 80 8f c6 3d 39 12 c1 bd 6b 82 58 bd
       0.09522331 0.09695339 -0.09427304 -0.05285875
0002b0 bf f4 e3 3d 94 6b 97 bd 64 02 91 bd 6c 18 e7 3d
       0.11130666 -0.07393566 -0.07080534 0.11283955
0002c0 c8 38 e3 3d 25 03 60 bc f4 22 d8 bd 1b d7 bf 3d
       0.110948145 -0.013672625 -0.10553542 0.093672
0002d0 f3 dc 5b 3d b8 eb 92 3d 1e 76 9c bd 0b 27 9e 3d
       0.05367751 0.07173866 -0.076397166 0.077222906
0002e0 82 a5 a2 bd 24 f4 97 bd 2c 95 d1 3d 26 fd c0 bd
       -0.07941724 -0.07419613 0.102335304 -0.09423284
0002f0 9f f7 76 bd 97 93 a1 3b 1c f7 ed bc 6c d6 b6 3d
       -0.060294744 0.004930924 -0.029048495 0.089276165
000300 01 63 9a 3c 3c 04 d7 bd 68 ff c9 bd e0 7d bd bd
       0.018846037 -0.104988545 -0.09863168 -0.092525244
000310 9a d9 a0 bd 10 66 af 3d f7 db bf bc 81 02 bc bc
       -0.07854004 0.08564389 -0.023420317 -0.022950413
000320 05 40 9a bc 21 44 99 3d eb 4b b3 bd 90 ff 97 3d
       -0.018829355 0.07483698 -0.087547146 0.074217916
000330 a2 84 e9 bb 8f 90 ac 3c 6b b3 c8 bd b7 2d b2 3c
       -0.0071264068 0.021065025 -0.09799846 0.021750314
000340 88 31 41 bd d6 16 c3 3b 1b 10 6d 3d 2b c5 39 3d
       -0.047166377 0.00595365 0.057876687 0.04535405
000350 a2 bb d9 bc e9 ac d0 bc ad 2b ad 3d b2 89 00 bc
       -0.026578728 -0.025473075 0.08455596 -0.007845329
000360 1d 4d 8d 3d 8b 86 b6 3d a5 1a 7e 3d 9b f8 ad 3d
       0.06899474 0.08912381 0.06203713 0.08494683
000370 5f d1 b6 bd c5 55 53 bb 86 df 90 bd db 38 61 3d
       -0.08926653 -0.0032247168 -0.07073884 0.054985862
000380 0a b9 98 3d b9 90 88 3d 96 12 91 bd ac 59 12 3c
       0.074571684 0.06668229 -0.07083623 0.008932512
000390 a4 2d 77 bb da 09 79 3d d8 7e ef bd 5c 6e 19 3b
       -0.0037716413 0.06080041 -0.116941154 0.0023411727
0003a0 ee 82 bd bc 36 1c d3 bd 05 2a 74 bd 49 a1 e4 ba
       -0.023133721 -0.10308115 -0.059610385 -0.0017443086
0003b0 79 ad c5 3b 22 57 28 3c de ba b9 3d 30 c0 91 bd
       0.0060326424 0.01027468 0.09068845 -0.07116735
0003c0 18 4e 1f 3d 8b 10 c0 3d ba 89 0e 3d d5 b2 d3 3d
       0.038892835 0.09378155 0.034799315 0.10336844
0003d0 13 2f 5a 3d 1b b3 36 bd 3f cb b0 3d 68 27 b3 bd
       0.05326755 -0.044604402 0.08632516 -0.087477505
0003e0 75 37 28 3c a1 1f 82 3d 85 6a df bd 1f 0c 64 bd
       0.010267128 0.06353689 -0.10908989 -0.055675622
0003f0 3c 02 2d bd 4c f5 24 bd e7 b2 46 3d dc 8b d3 3c
       -0.04223846 -0.040272996 0.04851046 0.025823526

sensor_model.0.bias f4 [128]
000000 fe db 88 bd 24 3a d3 bc 01 a3 29 3e 9c 7d 26 bd
       -0.06682585 -0.02578456 0.16566087 -0.040647134
000010 ec 2d 54 3a 53 ea 11 bd 15 d4 1b bc 06 8f ea 3d
       0.0008094001 -0.03562386 -0.0095110135 0.11453061
000020 31 6b 1f 3e 76 64 1e 3d 51 43 a4 3c 3b 67 e9 3d
       0.15568234 0.038670026 0.02005163 0.11396643
000030 2d 99 e1 3d fb d0 35 3e 0f 42 52 3d 2e 00 d2 bc
       0.11015544 0.17755501 0.05133253 -0.025634851
000040 58 25 03 3e 13 89 bc 3d cb 21 e2 3c 4b 04 ce bc
       0.12807214 0.09205832 0.027604004 -0.025148531
000050 a3 8c 79 3d e0 4f 2e 3d f2 6a 68 3d f3 5c 11 3e
       0.060925137 0.042556643 0.056742616 0.14195614
000060 c9 a7 0f 3e d5 b9 b9 3d c1 f8 cf 3c e9 a6 9c 3c
       0.14028849 0.09068648 0.02538717 0.019122558
000070 0d 7d 5c 3d 86 46 1d bd 96 32 2c bb de 7e 02 bd
       0.053830195 -0.038397335 -0.0026275269 -0.03185927
000080 2f f5 9d 3d 88 00 a6 3d 97 94 c4 3d c0 27 c5 3b
       0.07712781 0.0810557 0.09598654 0.0060167015
000090 83 fb 70 3d fe 67 00 3e c4 36 c9 3c c7 9f 10 bd
       0.05883361 0.1253967 0.024562247 -0.035308626
0000a0 77 eb 3d bd b7 ac e3 3a 53 dd 1a 3e ab 99 14 3e
       -0.046367135 0.0017370199 0.15123491 0.14511745
0000b0 82 f4 20 3d b1 67 ae 3d a8 12 63 bc 10 75 45 bd
       0.03929568 0.08515871 -0.013859428 -0.048207343
0000c0 c7 48 d1 3d 81 28 6c 3d dd 67 46 bd 4c 51 ac bd
       0.10218959 0.057655815 -0.048438895 -0.08413944
0000d0 33 5a 2e bd 24 ad ab 3d b1 71 3a bd 2d 28 34 3d
       -0.04256649 0.08382633 -0.04551858 0.043983627
0000e0 ee 3f 00 bd b7 73 40 3d 46 20 ba 3d 1a cd e1 3b
       -0.031310968 0.046985354 0.09088187 0.006890905
0000f0 43 5f 63 bd c0 2c 64 bd af da 8e 3c 44 b2 59 bd
       -0.05551077 -0.05570674 0.01743826 -0.053148523
000100 85 5a 49 3d 2c 0f a9 3d 9f 36 be 3b 33 e8 25 3e
       0.04915859 0.08254847 0.005804851 0.16201858
000110 dd 5c 16 3d 2e 2a 4c 3e 27 08 85 ba c9 d5 1c bd
       0.036709655 0.19937965 -0.0010149524 -0.03828982
000120 b6 bb d0 3c 5a 6c 31 bd 46 92 0c 3d e7 5c 0b bd
       0.025480133 -0.043316223 0.034319185 -0.034024145
000130 5c 6b 1a 3e 25 a6 f4 3d aa 2b 27 3e b3 ba 60 bd
       0.15080017 0.11945752 0.1632525 -0.05486555
000140 f5 f0 53 b8 1f ad 08 3e 78 bf a4 ba e1 94 06 3e
       -5.053073e-05 0.1334729 -0.0012569269 0.1314273
000150 a4 08 51 bd 4c 75 e3 3d 4b fc 78 3d a1 a7 58 bd
       -0.05103363 0.11106357 0.06078748 -0.05289424
000160 f7 90 01 bd 87 d9 7d 3d 7d 9e aa bc f0 d2 00 bd
       -0.03163239 0.06197503 -0.020827526 -0.031451166
000170 d7 a1 7f bd 67 e1 20 3e f1 2a 89 bb bc fa 92 3d
       -0.062410202 0.15710984 -0.004186027 0.0717673
000180 3c 85 cc bc 4b 08 ba 3c a7 64 8d bc 0e 8e 22 3d
       -0.024965875 0.022709033 -0.017259909 0.039686255
000190 0d b6 94 bd 28 18 eb 3d f9 4f 26 bd 7b 4d db 3d
       -0.07261286 0.11479217 -0.04060361 0.107081376
0001a0 d0 5e 07 bd 74 32 11 bd 0e 8d 16 bd b8 39 24 bd
       -0.033049405 -0.035448506 -0.036755614 -0.040094107
0001b0 1c b0 1e bc fb 20 0e 3e 87 26 aa 3a af 84 98 3d
       -0.009685542 0.13879769 0.0012981453 0.074471824
0001c0 f1 38 86 bd e0 99 4e bd 43 06 9b 3b 35 0d c7 bc
       -0.065538295 -0.050439715 0.004730971 -0.02429829
0001d0 11 26 5b 3c 8f 40 10 3b 94 42 45 bd e8 36 f3 bc
       0.013375775 0.0022011136 -0.048159197 -0.029689267
0001e0 18 e1 19 3e 1d aa c9 bc e6 5a 48 3c e9 ce 9d bd
       0.15027273 -0.02461725 0.012228703 -0.077054806
0001f0 5d 99 aa bd 81 fa 02 3e 64 70 79 bd cf 3c db ba
       -0.08330033 0.12790872 -0.0608982 -0.0016726496

sensor_model.2.weight f4 [64, 128]
000000 63 47 fd 3d 7e 2b 06 3e 07 7d 34 3e 97 e7 98 bc
       0.123671316 0.13102528 0.17625819 -0.018665118
000010 98 71 cb bd 29 1c 82 bd 0c 83 c7 3d 1e 11 02 3e
       -0.09933776 -0.063530274 0.09741792 0.12701842
000020 e9 8a 21 3e 07 70 2a 3d db 96 22 3e 37 21 fd bd
       0.15775646 0.041610744 0.1587786 -0.12359851
000030 a0 f3 0f bd 38 ff 07 bd 77 e7 46 bd 98 88 ba 3c
       -0.03514445 -0.03320238 -0.048560586 0.022770211
000040 d3 55 8c bd 13 d3 e2 3d a9 1b 2a 3e 44 a8 2c 3e
       -0.06852307 0.110754155 0.16612114 0.16861063
000050 2f ea 56 3d b2 4a 20 3e dd 8b 6e 3c 35 f9 2c 3e
       0.05246943 0.15653494 0.014559713 0.1689194
000060 17 de 83 bc a6 49 f2 3d 97 4b f4 3b 92 0e e2 3c
       -0.016097112 0.118304536 0.0074553 0.027594838
000070 32 c8 9e bd 9f f8 33 3e dc 53 8e 3c b5 3e 1f be
       -0.07753028 0.1757531 0.017373972 -0.15551265
000080 fb 64 e3 bd c8 05 26 3d ec ec 16 3d 8c a8 65 3d
       -0.11103245 0.040532857 0.03684704 0.056068942
000090 4c 03 81 bd 92 ee 5e bd b7 8a 10 3e fc 8e 82 3d
       -0.06299457 -0.054426737 0.14115416 0.06374928
0000a0 b2 e8 6a 3d 46 6d 75 3c 09 f4 f1 bd 70 bb 05 bd
       0.05735082 0.014979666 -0.11814124 -0.032649457
0000b0 11 30 c2 bd 53 4b 42 3e ef 0a 9b bb 53 30 e2 3d
       -0.09481824 0.18974046 -0.004731528 0.11044373
0000c0 85 76 43 bd 07 7f 0d be ea 2d 26 3e 32 8b be bd
       -0.04772045 -0.13817988 0.16228452 -0.09303893
0000d0 97 ef 24 3e 29 7e 8a bd eb bb 22 be 34 5f 0c be
       0.16107021 -0.067623444 -0.15891998 -0.13708192
0000e0 e2 19 99 bd b3 dc 03 be 0e 1f a3 3d 3e 7c 3f bd
       -0.0747564 -0.12877159 0.079649076 -0.046749346
0000f0 b6 43 51 bd 46 b4 f0 bd f8 4d 6e 3d e4 31 26 3e
       -0.051089965 -0.117531344 0.058179826 0.1622997
000100 43 ff f2 bd 75 27 a8 3d 62 4a d3 bb 2a 80 9c bd
       -0.118650936 0.08210651 -0.006448076 -0.07641633
000110 d8 ed 04 3e 48 30 94 bd d9 c5 0e be 89 3b d4 bd
       0.12981355 -0.072357714 -0.1394266 -0.10362918
000120 db b7 18 3e dd 2f 9c bd dc 03 ca 3d e4 4a 20 3e
       0.14913885 -0.07626317 0.09864017 0.15653569
000130 50 f1 2b 3d 24 f5 27 3e 2b ae 4a 3e 6a 0d 09 3e
       0.04197818 0.16402107 0.19793002 0.13384023
000140 c5 c1 04 3e e6 06 84 3d 67 94 21 be dc 1c 95 3b
       0.12964542 0.06446628 -0.15779267 0.0045505594
000150 5e 28 99 3d d1 25 04 be 65 80 49 bd 13 1a 2d 3e
       0.074784026 -0.12905051 -0.049194712 0.16904478
000160 a8 05 a8 3d ab f8 28 bd 9c 68 05 be 91 c7 9d bd
       0.08204204 -0.041252773 -0.13028187 -0.0770408
000170 4c 4d 87 3d 50 fe 97 3d 57 82 25 be e6 17 dc bd
       0.0660654 0.07421553 -0.16163002 -0.10746746
000180 fc 49 47 bd 3b 9a 40 bd 30 ab 81 bd 26 80 e4 bc
       -0.04865454 -0.047022086 -0.063314795 -0.027893137
000190 17 f0 e2 bd 92 2c 49 3e ca 3e 73 3d b0 90 0c 3e
       -0.1108095 0.19645908 0.059386052 0.13727069
0001a0 59 68 c3 3d 0b 05 8d 3d fc 19 a9 bc 91 35 6a 3d
       0.09541387 0.068857275 -0.020642273 0.05717999
0001b0 ed aa f2 bd d7 39 c3 3d 00 a5 18 3e 9b 0c 8c bd
       -0.11849008 0.095325164 0.14906693 -0.06838342
0001c0 d2 21 16 be 97 06 31 3e 67 53 c2 bd 4f db 34 be
       -0.14661339 0.1728767 -0.09488564 -0.17661785
0001d0 ba cb 06 be 9a f9 b3 bd 4a de 2e be f8 d3 25 3d
       -0.13163653 -0.08787842 -0.17076984 0.040485352
0001e0 24 53 3f 3e 1a 58 ae bd 5f 01 a8 3d ea 1e 38 bc
       0.1868406 -0.08512898 0.082033865 -0.011237839
0001f0 9b 1e 13 be e4 67 9a 3c 86 94 13 bd 37 ef 9b bd
       -0.14367144 0.018848367 -0.036030315 -0.07613986
000200 f5 88 cb 3c 13 3d 02 be ac 1f e9 bd ef fd b4 3d
       0.02484558 -0.1271861 -0.11382994 0.088374965
000210 16 de c6 bd 91 03 0e be bf 55 f3 3d fb c5 86 bd
       -0.09710328 -0.13868548 0.11881589 -0.065807305
000220 b6 ed a4 bd 35 a4 bf bc 06 7b 2d be cc 80 07 be
       -0.08053152 -0.02339373 -0.16941461 -0.13232726
000230 d4 54 e3 bd 9d 06 80 3d 52 a2 31 3e 29 79 0e be
       -0.11100164 0.062512614 0.17347077 -0.13913406
000240 67 97 ee 3d f3 15 be 3d 4f 66 95 bd 9e a7 2f be
       0.116499715 0.0928153 -0.072949044 -0.17153785
000250 1b 37 13 3e 59 9c 4c bd af bc d3 bd 04 f6 01 be
       0.1437649 -0.049953792 -0.10338723 -0.12691504
000260 fa 42 a1 bd 06 77 16 be 4a f3 9e bd 1b 24 2e 3e
       -0.07874103 -0.14693841 -0.077612475 0.1700596
000270 b9 84 24 bd 59 58 0e 3b c3 4d 4b 3d fe 9b 1c 3d
       -0.040165637 0.002172014 0.049634706 0.038234703
000280 5d db de 3d 69 06 8f bd bb 22 17 3e 46 3a 4d bd
       0.10881684 -0.069836445 0.14759342 -0.050104402
000290 ec dc c6 bd 5e bd 4b bc 65 73 cd ba b8 bc 25 3e
       -0.09710106 -0.012435285 -0.0015674649 0.16185272
0002a0 23 ed 33 3e e2 00 e7 3d 17 4b 2d be 2a 80 45 be
       0.17570929 0.11279465 -0.16923176 -0.19287172
0002b0 c1 ef 1d be d4 1b be bc ce 1f d2 bd 71 e0 b0 3c
       -0.1542349 -0.023206629 -0.102599725 0.021591397
0002c0 ed 1f a6 3d e0 e1 6b bd ac bc e2 3d a5 8b b1 bc
       0.08111558 -0.057588458 0.110711426 -0.021673033
0002d0 dc c2 d8 3d af db 87 3d 6a 17 f4 bc 78 8d 6f 3d
       0.105840415 0.06633698 -0.029796321 0.058484524
0002e0 c0 78 04 3e e5 cd 02 3d 0c f7 05 3e 44 3f c5 3d
       0.12936687 0.031934638 0.13082522 0.096312076
0002f0 d4 ef c4 bd dd 8c 03 be 1a 49 f5 3d fb a6 96 3b
       -0.09616056 -0.12846704 0.11976834 0.0045975423
000300 8f b2 23 3e 9e 05 0f 3e 7d c3 b2 bd a9 a1 22 be
       0.15986083 0.13966987 -0.08728693 -0.15881981
000310 90 4d e5 3d 7b 87 48 be ed 5c 08 be 26 c2 d2 bd
       0.111964345 -0.19582932 -0.13316698 -0.10290937
000320 44 0d a1 bc e1 e2 0b bd 6a 88 05 be 08 68 c4 bd
       -0.019659646 -0.034151915 -0.13040319 -0.09590155
000330 b2 6f fe bc 8a 99 8c 3c d6 37 e8 3d 11 a9 b2 bd
       -0.03105912 0.017163057 0.11338775 -0.08723653
000340 a9 00 69 bd 9e f6 f2 bd 08 bd 84 3d 6a da 98 3d
       -0.056885395 -0.11863445 0.06481367 0.07463534
000350 6a 57 32 3e 82 11 7c bd 7a 91 4c 3d 8a 78 bc 3c
       0.17416158 -0.061540134 0.049943425 0.023006696
000360 e2 d7 b0 bd 44 25 82 3d 31 9b 36 3e 01 a6 46 3d
       -0.086349264 0.06354764 0.17832638 0.048498157
000370 71 4d 17 bd 50 c8 d8 bc 1a 54 32 3e 10 0f 06 3e
       -0.03693909 -0.026462704 0.17414895 0.13091683
000380 81 89 10 3e b0 ff 82 3d c8 94 32 3e 6a ae 11 bc
       0.14114954 0.06396425 0.17439568 -0.008891681
000390 10 7b 09 3d 59 9f 11 3e 9e 2c c7 3d e4 23 36 3b
       0.033564627 0.14220943 0.09725307 0.0027792389
0003a0 40 c9 f2 bc c1 96 93 3d 27 c7 80 bd 8a 44 f3 3d
       -0.02963698 0.072064884 -0.06287985 0.11878307
0003b0 1a bd 9a bd a7 33 bc bc 0a 15 0a 3e f9 da 34 bd
       -0.075555995 -0.022973849 0.13484588 -0.04415414
0003c0 ed 7d 3f 3e e4 95 77 bd 9a c0 80 3c 0e 77 fb 3d
       0.1870038 -0.06044568 0.01571684 0.12278567
0003d0 d7 af 2e 3e 05 91 b3 bd 21 9b ad bd 02 3d d8 3c
       0.17059265 -0.08767895 -0.08476854 0.026396278
0003e0 f5 bc 5e 3d e8 70 8c 3d 95 b2 20 3e 0a 56 8a 3d
       0.054379422 0.06857473 0.15693124 0.06754692
0003f0 7d 62 5c bc 1a 62 27 bd d3 9d b8 3d f8 08 0a 3b
       -0.013451216 -0.04086504 0.090144776 0.0021062475

sensor_model.2.bias f4 [64]
000000 4d 6f cf 3d ee bd ec 3c ea 20 94 bc 04 dc 3e 3d
       0.10128651 0.02889916 -0.0180821 0.046596542
000010 f0 9b e3 3d 95 e1 81 bd 77 1c 8a bc 39 a5 21 bd
       0.11113727 -0.063418545 -0.016859276 -0.03946421
000020 be b5 61 3d d8 0e 36 3d 43 64 9b bb b2 0b d6 3d
       0.055104963 0.04444775 -0.0047421767 0.104514495
000030 84 f2 76 3c 7d 14 5d 3d 03 2f 60 3d b3 98 57 3d
       0.015072469 0.053974617 0.054732334 0.05263586
000040 1e 1d 38 3e 6d bc 16 3e ea ec 0d 3e 8f 66 c4 bd
       0.17979857 0.14720316 0.13859907 -0.09589874
000050 9c e1 55 3c 91 32 37 3d 26 3b 16 3d be c7 88 3c
       0.013054278 0.04472596 0.036677502 0.016696807
000060 59 b4 8c bd 4c 08 f2 3d 49 58 8f bd 7b c1 a1 3d
       -0.06870336 0.11817989 -0.06999261 0.078982316
000070 95 4e a9 3d d7 16 1b 3c f9 43 e4 3b f3 f9 40 3d
       0.082669415 0.009465895 0.006966111 0.04711337
000080 3d 4a ef bc 51 ff 2e bd 2d 5b 3c 3d 4b b5 9a bc
       -0.029210204 -0.042723957 0.04598539 -0.018885275
000090 98 8e 75 3c 26 d0 0b 3d 12 f2 c2 bd 67 df 31 3d
       0.01498761 0.034134053 -0.095188275 0.043425944
0000a0 53 32 52 bd 58 f7 c0 3c 01 8a 51 bd 63 ea e9 3d
       -0.051317524 0.023555443 -0.051157 0.11421659
0000b0 ea 6f e0 3b 36 31 f3 3c ea 0f 11 3d 0f 24 09 3d
       0.0068492787 0.029686552 0.035415567 0.033481654
0000c0 5d 38 a0 3b 68 5e ec bd dc 1f a8 3d e6 9b 60 bd
       0.0048895315 -0.11541444 0.08209202 -0.054836176
0000d0 f0 73 e4 3d cc 0b d9 3c 2f a7 48 3e 7b f1 ed bc
       0.11154926 0.026494883 0.19595025 -0.02904581
0000e0 64 88 83 bd a8 c8 05 3d e5 fa a7 bc 2f 62 ca 3d
       -0.06422499 0.032662064 -0.020505378 0.09882008
0000f0 ab b6 3a 3d 3c 0f 67 bc 3e 0a ad bd c5 de 44 3c
       0.045584362 -0.014102753 -0.08449219 0.012016003

target_model.0.weight f4 [16, 66]
000000 a6 c5 6b be ca a0 1e 3e 71 bf c0 bd 30 d7 39 3d
       -0.23024616 0.15491024 -0.094115146 0.045371234
000010 97 88 7f 3e 88 4a 97 3c 4c 75 36 be 72 46 e7 bd
       0.24954449 0.018468156 -0.17818183 -0.11292733
000020 ca d2 24 3e 10 38 59 3e d1 74 65 bd a1 ec 26 be
       0.16096035 0.21212792 -0.056019608 -0.16301204
000030 a4 bd 96 3e 86 fd eb 3c 66 56 04 bd 69 a9 b5 3b
       0.2944156 0.028807413 -0.03230896 0.005543877
000040 83 b1 13 3e 13 7c e2 bd 01 f1 17 be 92 07 6c 3c
       0.14423184 -0.110588215 -0.1483803 0.014406102
000050 ae 7a 49 3e 82 a5 e7 3d 8e 9f 81 3e dd 62 43 be
       0.19675705 0.11310865 0.25317043 -0.19080682
000060 82 38 63 3e 14 7a 92 be d3 3d 1f 3e 8a 15 73 3e
       0.22189525 -0.28608763 0.15550928 0.23738685
000070 99 26 ae bd 40 e3 92 bc 31 24 32 3d 81 f2 cf 3d
       -0.08503456 -0.017930627 0.043491546 0.10153676
000080 be 0c dc bd bd a9 79 be 7e 74 5c 3e 7a f2 99 bd
       -0.10744618 -0.24381156 0.21528813 -0.07516952
000090 0a 3e 2f 3e 72 83 7b 3d 38 3a 88 3e ec cb 7f 3d
       0.1711351 0.061404653 0.26606917 0.062450334
0000a0 95 08 99 bd be 02 53 be da 2e 9a 3e 56 1d cb 3d
       -0.0747234 -0.20606515 0.3011387 0.09917705
0000b0 7e 6e 26 bd 9d dc 68 be 5f 6c b0 bd 3c ac 6e bd
       -0.040632717 -0.22740407 -0.0861442 -0.058269724
0000c0 20 e8 15 be 2f 45 3e 3e e3 93 ce bd 13 3e 6e 3d
       -0.1463933 0.18581079 -0.10086801 0.058164667
0000d0 ec 80 5b 3e c3 54 33 be 2d d0 a3 bd 87 10 6a 3e
       0.21435899 -0.17512803 -0.07998691 0.22857867
0000e0 d8 d3 70 3e 31 7b 3f be bf 7e 24 bc 08 01 46 be
       0.23518312 -0.18699338 -0.010039984 -0.19336331
0000f0 9d 44 a4 be 93 36 5e be 90 5a 60 3e 31 9b a7 3d
       -0.32083598 -0.21700506 0.21909547 0.08183897
000100 ee 22 84 3e 67 9c 8b 3e ae b1 67 be c3 e2 80 bd
       0.258079 0.27267763 -0.22626373 -0.06293251
000110 aa 8d 9f 3d 0d 48 b0 bc de 33 73 3e 0d ae 93 bd
       0.07790692 -0.021518731 0.23750255 -0.07210932
000120 b4 e4 40 bd d2 a8 39 be 22 59 84 be 2f 1b aa bd
       -0.04709311 -0.18130806 -0.25849253 -0.08305966
000130 5f da 55 be 1b 36 15 be ac 0e 46 3c a2 57 5c 3e
       -0.20884083 -0.14571421 0.012088459 0.21517804
000140 d2 a1 25 be cc 57 1d 3e fa a1 85 3e 85 ea 83 3e
       -0.16175011 0.15365523 0.2610014 0.25764862
000150 85 a3 99 bd b7 77 18 be 3c 11 d2 bd a3 44 50 3c
       -0.07501892 -0.14889418 -0.102571934 0.012711677
000160 6d f2 0e 3e 53 01 89 3e 4a 4a 14 be 21 c0 82 3d
       0.13959666 0.26758823 -0.14481464 0.06384302
000170 a6 e5 16 3e 9f e5 db 3b fa 9a 81 be 5f 48 a6 3d
       0.14736041 0.0067107226 -0.2531355 0.081192724
000180 f2 48 5a 3c 53 89 fe bd e0 ca 6f 3e 4e 7f dd 3d
       0.013323056 -0.12428536 0.23417234 0.10815297
000190 56 63 83 be 84 f5 82 3e c6 52 58 bd 61 3f 69 bd
       -0.25661725 0.2557794 -0.052813314 -0.05694521
0001a0 8e 44 13 3e 4e d4 65 be 0d 37 f7 3c 46 be a4 3d
       0.1438162 -0.22444269 0.030177617 0.08044104
0001b0 38 d6 cb bd 7e 14 c2 3d f1 0b e7 bd fa b4 ed 3b
       -0.09952968 0.09476565 -0.112815745 0.00725424
0001c0 f9 f0 ed 3d 14 1a 89 be 12 fe 51 3e 89 f5 e4 3d
       0.116182275 -0.2677771 0.20507076 0.111796446
0001d0 16 ee 55 3d 0d c6 58 bc 83 d1 89 bd eb e5 9b bd
       0.05222901 -0.013230813 -0.06729414 -0.07612213
0001e0 60 2a 10 3e 2b a8 5e 3e a4 fa 4a be 2b 50 8a 3c
       0.14078665 0.21743838 -0.19822174 0.01688393
0001f0 9b 71 af bc dd 44 8b 3e 93 9b 96 3e db 84 db bc
       -0.021416476 0.27200976 0.2941557 -0.026796749
000200 61 b2 66 3e cc 7b 81 3d f9 66 52 3e 5e e5 f0 3d
       0.22528984 0.063224405 0.20547093 0.11762498
000210 25 bc c1 3d 17 24 85 be b9 ad 20 3e 8b 97 a1 3e
       0.09459714 -0.26004097 0.1569127 0.3156093
000220 64 39 36 3c b8 98 4c 3e 62 2b 0e bd d7 36 08 3e
       0.011122081 0.19980133 -0.03470934 0.1330217
000230 45 3b 65 be 12 2a 4c be c4 8f dc 3e 28 e7 48 3e
       -0.22385891 -0.19937924 0.43078434 0.19619429
000240 d8 b1 8a 3e 73 2a 2f be e1 1f fc bd 86 43 05 3e
       0.2708881 -0.17106037 -0.12310768 0.1301404
000250 66 27 92 3d 7e 61 85 3c c5 90 9a 3e d9 2e 8c 3e
       0.07136421 0.01628184 0.30188575 0.27379492
000260 e7 db 5f 3e 3e dd 15 3e 0b 53 3c be ed a9 6b 3e
       0.2186123 0.14635178 -0.18391053 0.2301404
000270 d9 e4 38 3e c1 6e cd 3e 0b f8 3b 3e bb ad d9 3e
       0.18056048 0.4012356 0.1835634 0.42515358
000280 18 d1 62 3e 0c d7 81 be fb 6b e4 3d 97 1c 44 3d
       0.22150075 -0.2535938 0.11153408 0.047878828
000290 14 ca ea 3e a6 d0 0f bd bd 21 be bd 7a a1 4b bd
       0.45857298 -0.035111092 -0.09283779 -0.049714543
0002a0 c0 8f e4 3d f7 18 4c 3e d9 15 c4 bd a0 0d 98 3d
       0.11160231 0.19931398 -0.095744796 0.07424474
0002b0 43 b6 b8 3d 10 51 91 3e 43 35 45 3d 95 19 0b bd
       0.09019139 0.28382158 0.048146497 -0.033959944
0002c0 80 e3 50 be c7 cf 81 3e e6 d2 73 bd 66 c8 0e bd
       -0.20399284 0.25353834 -0.0595273 -0.034859084
0002d0 f5 c8 05 be 54 99 97 3d 8e ff 20 bd 78 dd 70 bc
       -0.1306494 0.07402292 -0.039306216 -0.01470124
0002e0 fd 91 99 3e b0 c7 50 bc 6d 62 1d 3e 83 5b 8c 3d
       0.29994193 -0.012742922 0.15369578 0.06853392
0002f0 e5 0b c7 3d 2d c2 86 3e 22 38 5a 3e a4 0b 97 3e
       0.097190656 0.2632002 0.21310475 0.2950107
000300 01 2e 51 3e 57 8a b2 3d 23 33 f8 bb 6a 9b 2c 3d
       0.20427705 0.087177925 -0.0075744553 0.042140402
000310 7b ce c4 bd 1c 62 cf 3d 61 40 7f 3e 4b 8b 05 3e
       -0.096096955 0.10126135 0.24926902 0.13041417
000320 e8 55 e3 3d 8f 18 f2 bd 21 37 01 3e f0 0d 05 bd
       0.1110037 -0.118210904 0.12618686 -0.032483995
000330 74 e1 80 3e 5f 9d 82 3c db 5a 04 be 37 9e 74 3e
       0.25172007 0.015944181 -0.12925284 0.23888479
000340 c6 73 4a 3e 54 b2 b4 3e bb 9d c2 bd a8 c8 17 be
       0.19770727 0.35292304 -0.09502741 -0.14822638
000350 c3 cd 80 3e e3 67 50 3e 00 31 ca bd a5 f3 7e 3e
       0.25156984 0.2035213 -0.09872627 0.2489763
000360 f9 36 05 3e 87 8f 57 3e 40 f9 59 be bc 2e 47 be
       0.13009252 0.21050845 -0.21286488 -0.19451421
000370 31 2f 88 3c d6 e8 4e be 5d 09 78 3e 2f cd 9d 3e
       0.016624065 -0.20206007 0.24222322 0.30820605
000380 fb e5 40 be 23 6c bf 3d 83 26 ef 3d d1 6d 17 3d
       -0.1883773 0.09346797 0.116772674 0.036969963
000390 62 90 bf bd ea df 4f 3d c0 3f ba 3d 8b bc ff 3d
       -0.09353711 0.05075065 0.090941906 0.124871336
0003a0 3e 46 9d bc f1 10 4f 3e 1c 38 12 be 65 b0 93 3d
       -0.019198533 0.20221306 -0.14279217 0.07211379
0003b0 7e 8b 45 bd c0 4b 6b bd f2 a2 5c be e8 12 98 bc
       -0.048228733 -0.057445288 -0.21546534 -0.018563703
0003c0 56 b7 0a be 38 ee 8d 3e e4 73 f3 3d 88 26 e4 3d
       -0.135465 0.2772081 0.11887339 0.11140162
0003d0 11 5c e9 bd 5b 38 fc bd 33 55 af bd ca 2c 73 be
       -0.113945134 -0.123154365 -0.08561172 -0.23747554
0003e0 a1 3d 05 be e2 3c 2d 3c 51 4b a5 3e 17 6f eb bd
       -0.13011791 0.010573598 0.32284024 -0.11495798
0003f0 f8 cb bf 3e 4a cd 74 3d 25 ce 45 3d ad 3b 5f 3e
       0.37460303 0.05976609 0.048292298 0.21800108

target_model.0.bias f4 [16]
000000 75 5c dc bd e9 6d 2d bd 0e cb 1a 3e 6d 03 2f 3e
       -0.10759822 -0.042341147 0.15116522 0.1709115
000010 c5 f2 00 3d 75 c6 20 3d fd f2 d9 3d 11 f3 b4 3d
       0.031481523 0.039251763 0.106420495 0.08835424
000020 16 d4 c4 bd 3b 03 d1 bd a1 db be 3d a2 c9 d4 bd
       -0.09610765 -0.10205694 0.09319235 -0.10390021
000030 cd 85 14 3d 69 cc ea bd af f9 dd bc ad ca 13 be
       0.036260415 -0.114647694 -0.027096597 -0.14432783

target_model.2.weight f4 [2, 16]
000000 df 14 60 be e3 7e ed 3e c6 78 8d 3e 4d 18 09 be
       -0.21882962 0.4638587 0.27631205 -0.13388176
000010 d0 b8 9d 3e 63 a0 5c bf ff aa 7e 3d a6 9b f4 be
       0.30805063 -0.8618223 0.062174793 -0.47775
000020 6b 28 bd 3e b2 56 0e bf d6 e3 29 3e f1 6b 04 3f
       0.369449 -0.55601037 0.16590819 0.51727206
000030 4a 92 0a 3f 02 a9 0c 3f 25 91 4a bf ae 03 bf be
       0.5412947 0.54945385 -0.7912772 -0.37307495
000040 fd a3 9e 3e cd d1 88 bd 26 99 0a 3d db d6 3d bf
       0.30984488 -0.06680641 0.03383746 -0.7415597
000050 f7 09 fb be 51 56 bb 3d 4c 07 db be 48 1f 32 3f
       -0.4903104 0.09147323 -0.42779005 0.6957898
000060 92 ee 6f be cc 0f 0d 3f 6f 0c 0d bf 34 10 36 3f
       -0.23430851 0.5510223 -0.550971 0.71118474
000070 80 96 e6 3e 72 73 59 3e 5c 1a 16 3f c9 2b 9c be
       0.45036697 0.21235445 0.5863397 -0.30502155

target_model.2.bias f4 [2]
000000 bb 59 5b 3e 45 84 9e be
       0.21420948 -0.3096029
