Pytorch_DRL/DDPG/models/backup/3.28/best_ca_critic.model (torch_old, 559066 bytes, 13 tensors)

sensor_model.0.weight f4 [256, 360]
00000000: 6000 aa3c 7206 5a3d 4d97 953d acca afbd
00000010: 64c3 b0bd ecba c2bc 9c51 9c3c 476d c03d
00000020: 0269 9dbd 1299 003d bc42 a9bd 256d 65bd
00000030: ecfc e63c f8ff a53c ba5b 553d a9d4 babd
00000040: 886b c1bc d4f8 e63c 1098 b7bd 38d8 2ebc
00000050: abb6 57bd dbd2 833d 48de 5ebc aec0 afbd
00000060: fcc6 bd3c 5958 92bd 0805 a23c 005d dd39
00000070: e01f d83b 04e0 90bd c26f b5bd 9d55 c53d
00000080: f067 c1bc 961b 6c3d a26f 6c3d e017 c5bc
00000090: 13d0 9abd 80fa 863b a4b0 f93c c35a 873d
000000a0: 1c48 9ebc 14b2 9ebd fc82 8bbd 4a35 133d
000000b0: e46b 90bd 99d7 b53d f450 f43c 314e a43d
000000c0: 11d2 933d 8f5f 953d 3052 12bc 1b5c a4bd
000000d0: 2ce2 f03c f37f b43d c86a b8bd 5fef a33d
000000e0: bda1 37bd 9a4a 0b3d 1d89 c33d b760 8d3d
000000f0: 0528 ab3d 4361 1bbd d09f 2d3c b0a0 fb3b
00000100: c3df c7bd afae 9b3d ea97 143d 5c02 dd3c
00000110: 28c6 7dbd fb67 54bd ec6c da3c be9b 3bbd
00000120: 202d 0cbb be05 053d f524 933d c0fe b2ba
00000130: d491 bbbd 71a6 9a3d b93a 813d dca9 933c
00000140: e992 c0bd 5b32 c43d 38ca 3dbd 0f79 a33d
00000150: 6d92 913d 912f a83d 332b 97bd 0ecf 743d
00000160: a834 8a3c 0ae4 213d ed14 953d cf00 843d
00000170: 398a b0bd 9484 f33c ebfe b23d e673 633d
00000180: 6f84 83bd 8ffb bc3d e096 8dbb 18a1 9c3c
00000190: 4fdc 74bd 3ab2 70bd caec 3a3d 323e 313d
000001a0: 8641 47bd e1a7 ac3d 36bd 773d e295 073d
000001b0: f80a 1fbd 90d5 50bc 353f c8bd bd14 9d3d
000001c0: fc2d f6bc 0a57 693d 5f09 c33d 94f4 8fbd
000001d0: b89f e1bc f85f 04bc 54b7 c93c d044 c53c
000001e0: a49b ce3c 00fd 18bc b8ca 2b3c bba0 c23d
000001f0: 98fd 393c b424 d8bc 0ebe 9abd 9a3c 283d
00000200: 9c69 89bd 586f c8bc 4baf c1bd 4c02 d0bc
00000210: 4e3f 343d 2299 263d 1f0e 54bd d7c2 9dbd
00000220: 9c47 9dbc bc68 a93c 0034 ca3c 1a98 6cbd
00000230: d82a ebbc 664e 44bd 4256 4f3d 89cd ab3d
00000240: 256a 9e3d 764f 3f3d 26c9 7d3d 235c 46bd
00000250: a7d6 803d 20bb bebc 73ac 933d c654 81bd
00000260: 21c5 56bd f888 34bc 206c fa3b 2ea2 8dbd
00000270: 1c4e d5bc aa85 2d3d e0fe 84bd be01 743d
00000280: be82 0e3d 00ec 583b 02dc 3f3d be17 a5bd
00000290: c4f9 c4bd 4594 a0bd 8ffc a13d ff06 8e3d
000002a0: 3f86 7fbd 7599 8b3d e458 80bc 417d 70bd
000002b0: 7896 08bd ad01 8f3d d53f 963d 4e05 a8bd
000002c0: 2095 833b 78a4 a13c 2a8e 23bd 54b1 99bc
000002d0: 48d6 3dbc ae87 663d 68b4 50bd 2d7e 933d
000002e0: 2660 733d 33c7 8f3d a7f3 933d de83 26bd
000002f0: 4306 813d a73c 9d3d 16e9 b2bd 9a58 c2bd
00000300: f6d4 2e3d e99f c03d bcff 913c aec1 5fbd
00000310: c2c6 b1bd 8083 d63a cb60 4fbd 664e 733d
00000320: c0b3 293c c3e1 803d 4df3 c93d bde9 7cbd
00000330: 705b 11bd 6214 053d 1c11 9abc ba20 1e3d
00000340: 0e04 223d 9ad1 25bd 1601 98bd 2c7c 89bc
00000350: f075 2b3c 08bb 19bd d400 9cbd 4e20 b5bd
00000360: c632 8cbd b211 c1bd 0a06 353d 50fa c5bd
00000370: 68e7 cabc 16a1 1a3d f42d 93bc 2e9b 05bd
00000380: 106f 9abc 1cf6 11bd f8c7 7f3c fbaa 963d
00000390: 1d71 b7bd f688 363d bc41 e33c fa67 143d
000003a0: 13ea acbd f280 083d 90ce a6bb e42d fcbc
000003b0: 1211 a7bd e81e 583c e8b2 01bc e00e a23c
000003c0: c5f2 b43d 2e0e 673d 486d 04bd b076 95bc
000003d0: f0ff b4bb 969b 57bd c051 1c3b 1d7b 9e3d
000003e0: 8f77 ad3d 12b6 07bd 6fb0 abbd c6d1 363d
000003f0: 0883 06bc 441f 0cbd c470 f43c 0a04 273d
0.020752132 0.053228803 0.07304249 -0.085835785 -0.08631018 -0.023770772 0.019081883 0.09395843
-0.07686044 0.03139598 -0.08264682 -0.05601229 0.028196774 0.020263657 0.05208943 -0.09122593
-0.023610845 0.028194822 -0.089645505 -0.010671668 -0.05266444 0.06436702 -0.013602801 -0.085816726
0.023166172 -0.07145757 0.01977779 0.00042221695 0.0065955967 -0.070739776 -0.08859207 0.0963547
-0.023609132 0.057643496 0.05772365 -0.024059236 -0.07559218 0.0041192174 0.030479737 0.06609108
-0.019321494 -0.077488095 -0.06812093 0.035939492 -0.070518285 0.088790126 0.029823758 0.08022726
0.07217801 0.07293617 -0.008930728 -0.0802538 0.029404722 0.08813467 -0.09004742 0.08004641
-0.04483198 0.034006692 0.09547637 0.069032125 0.083572425 -0.037934553 0.010597184 0.0076790676
-0.09759476 0.076016776 0.03627769 0.026978664 -0.061956555 -0.051856976 0.026663266 -0.045802824
-0.0021389201 0.03247618 0.07184783 -0.0013656244 -0.09158674 0.075512774 0.063100286 0.018025331
-0.09403021 0.09579917 -0.04633543 0.079820745 0.071080066 0.082121976 -0.073812865 0.059767775
0.016870812 0.039524116 0.07279382 0.06445467 -0.08620114 0.029726304 0.08740028 0.05553045
-0.06421744 0.092276685 -0.004320964 0.019119784 -0.059780415 -0.05876372 0.045635976 0.043272205
-0.048646472 0.08430458 0.06048318 0.033101924 -0.03882882 -0.01274623 -0.09777681 0.07669971
-0.030051224 0.056967773 0.09523272 -0.070290715 -0.02754198 -0.008079521 0.02462355 0.024080664
0.0252207 -0.009337664 0.010485344 0.09503313 0.011351965 -0.026384689 -0.07555781 0.04107342
-0.067095965 -0.024467155 -0.094572626 -0.02539172 0.044005685 0.040673383 -0.05177128 -0.077031784
-0.019199185 0.020679824 0.024682999 -0.057762243 -0.028706953 -0.04792633 0.05061937 0.08388812
0.07735089 0.04670664 0.06195941 -0.048427712 0.06290942 -0.023282588 0.072106265 -0.063149974
-0.05243409 -0.011018984 0.007642284 -0.06915699 -0.026038222 0.0423638 -0.06493926 0.059571974
0.034792654 0.0033099651 0.046840675 -0.08061169 -0.096179515 -0.0784078 0.079095 0.06934928
-0.062383886 0.06816379 -0.015667386 -0.0587132 -0.033346623 0.069827415 0.07336394 -0.08204137
0.00401558 0.019731745 -0.0399305 -0.018761314 -0.011586733 0.056281738 -0.0509533 0.072018005
0.059417866 0.07020416 0.07224207 -0.040653102 0.063000225 0.07677584 -0.08735864 -0.09489556
0.042683564 0.094055004 0.017822139 -0.054628067 -0.08680488 0.0016366094 -0.05062942 0.05940094
0.010357797 0.06293061 0.09860859 -0.061746348 -0.035487592 0.03249014 -0.018806987 0.03860543
0.039554648 -0.040483095 -0.07422082 -0.016782843 0.01046513 -0.037531883 -0.076173455 -0.08844052
-0.06845622 -0.09427203 0.044195212 -0.09666884 -0.024768546 0.03775128 -0.017966248 -0.032618694
-0.018851787 -0.0356351 0.015611641 0.07356831 -0.089571215 0.04456421 0.027741306 0.036231972
-0.084430836 0.033326097 -0.005090542 -0.030783601 -0.08157553 0.013190962 -0.00791619 0.019782484
0.08835367 0.056410007 -0.03233078 -0.018245071 -0.005523674 -0.052638613 0.0023852438 0.07738326
0.084700696 -0.03313262 -0.083832614 0.04463365 -0.008209951 -0.034209505 0.029838927 0.040775336

sensor_model.0.bias f4 [256]
00000000: 65e2 e9bc de0e d33c d8a3 41bc 051c a03c
00000010: 0bdd 4fbd bdde 493b bbe8 cebc ecba 46bd
00000020: 2246 d53c d88d 1abd 250c 4dbd dd6e 44bd
00000030: 418b 52b9 8590 2dbd 6cb5 5ebc 6e0d adbc
00000040: e923 fcbc 93a0 14bb 9749 3abb de62 1c3c
00000050: 3352 60ba cd32 2a3b 07f7 ebbc 0b07 383c
00000060: 7838 57bc 5826 f9bb be61 d1bc adce d53c
00000070: 68ac 853c 5125 00bc ccd9 1b3c 8415 f2bc
00000080: 2adb 19bd 397c f7b9 daa7 2eba 4c0e 02bd
00000090: 4402 013d c83b 7b3c 7cc2 93bc 9427 ffb8
000000a0: e33d b2bc 8222 7c3c e899 fe3c b38a 40bd
000000b0: f83a c13c c0db 233c dae0 08bd adc7 e5bc
000000c0: d109 54bd 6974 2b3c 58b3 3dba 70b1 febb
000000d0: 40d9 f3ba 53e8 1abb ca47 c7bc 80e3 28bb
000000e0: 7a9d 913b 6cab 1d3d 40e7 a3ba e478 eb3b
000000f0: 1102 083d e8f9 113c 1499 92bc 3442 03bc
00000100: f27c 86ba e9a6 4bbd 5485 a0bc b80a c5bb
00000110: 40ec eaba 7c4e 4ebd f578 cfbc 9e44 57bd
00000120: 4b79 8fb9 0313 c43b b821 ebbc 13d3 c2bc
00000130: c043 19bd 7059 1abd 9a28 a6bc 16b6 97ba
00000140: 8267 4abd abfc 593c 58d4 36bd f48a 663c
00000150: 8a83 b0bb 7f9e 613c ec66 0bbd f8b8 c2bb
00000160: c7bd 41bd d807 80bb c091 3fba f9c6 c53b
00000170: 30bc 14bd 20e1 59bb 5b5b 52bd cffe 0e3b
00000180: 7f68 153c 28f5 cfbc 159a 433c 5c36 f6bc
00000190: b71e b1bc 0c90 64bc 7a04 793c c51d 023d
000001a0: aa94 033b dacf d4bc 6a84 e1bb 325d edbc
000001b0: c850 b0bb feab 8bbc 7aa9 a1bc f506 d0bc
000001c0: 968a 0cbd e2a6 83bc 89fc cebc 3ed3 cebc
000001d0: 63ca 103c 6055 9cba c905 ebbc 08ff 8fbb
000001e0: c00e 0cbb 4e6b 18b9 3e80 e63c 593a 0bbd
000001f0: edde 6b3d 1126 573b caed d33a 7b43 09bd
00000200: fcc4 a9bc 4c73 853c 8db3 31bd 2f7c f1bc
00000210: 7022 923c d05e 9bbb 898c 46bd 7815 8bbc
00000220: e09e e2bb a257 92bc d1f4 613d 91d7 57bd
00000230: 17eb 503c 34e4 1dbc 2f5e 083d dbdc c73c
00000240: f213 51ba 62c7 09bd 0873 a83c 80a2 49bd
00000250: 8196 01ba f0c7 57bb 6c55 6bbc 1aad 1d3c
00000260: 06c2 6b3a 5a5a 4dbd e7aa af3b c4fa 09bd
00000270: 3031 21bc 5ccf 11bc f85a 11bd 9147 713c
00000280: 50c7 143c 76c9 0ebd 80e1 a3bc 2315 8f3c
00000290: c41f d8b9 1c9f 0a3d 7313 573b b40e 19bc
000002a0: 2d17 b7bc 66b5 31bd 1d93 eabc 0296 373c
000002b0: 548f e33b bfff a7b9 aac3 39bd c723 b33b
000002c0: b597 503c ec10 13bd 3e1e e33c 9352 edbc
000002d0: e0fc 0ebd 1905 37ba 9edb 9dbc 2085 0fbb
000002e0: 056c 443d dac5 16ba 945c d0bb ecf7 edbc
000002f0: fe32 2fb9 d499 3cbd ab12 91bb f649 89ba
00000300: a01e ccbb 6a91 13bd 08e1 2abc 26b5 563c
00000310: c12a a63c a059 10bd b9dc 7e3b d08b 99bb
00000320: 15bf e7bc aed4 b3ba 5ba3 2abd 8611 1a3c
00000330: caaa cebc 70de 59bb 1400 eb3b 2d16 f33c
00000340: 8769 31ba 6f5d 873b 4874 5fbc 207b 07bd
00000350: 3213 9ebc fb30 583b c697 1abd 170c 11bd
00000360: a276 3bbd c851 973c bb08 9f3b 40e3 85bb
00000370: 0926 bbbc 19eb 54ba 5480 46bd b443 a0ba
00000380: 0018 093d e962 433b 108e 02bc c65e 353c
00000390: 001d b4bc 2c48 b33c 48a9 a9ba e806 cebc
000003a0: 8ca8 923c e5ad 183d f1f9 4dbd d294 463c
000003b0: b6a3 85bc 16b5 663b 62a3 06bd 8113 2abd
000003c0: fca2 2cbc 0835 62bc 007f eeba 94fd 01bc
000003d0: 8a1c 35bd 491b d6bc 9dc5 d3bc c036 93ba
000003e0: 8148 dabc 6625 9b3c ddfa e9bc 6ffd 923c
000003f0: f99e 2a3b c3b8 2a3c 489c e43c b9a6 3bb9
-0.028550336 0.025763925 -0.011818849 0.01954461 -0.050747912 0.0030802928 -0.025257459 -0.048518106
0.026034418 -0.03773293 -0.05006041 -0.04795729 -0.00020079037 -0.042374153 -0.013593059 -0.021124568
-0.030778842 -0.0022678718 -0.002842521 0.009545056 -0.00085571705 0.002597022 -0.028804315 0.011232148
-0.013136022 -0.007603448 -0.025559302 0.026099527 0.016317561 -0.007821397 0.009512376 -0.029551275
-0.037562527 -0.00047204064 -0.0006662585 -0.031751916 0.0314963 0.015334077 -0.018037073 -0.000121667195
-0.021758026 0.015389087 0.031079248 -0.047007274 0.023587689 0.010001123 -0.03341756 -0.028049314
-0.051767174 0.010464766 -0.0007236502 -0.007772617 -0.0018604174 -0.0023637011 -0.024326224 -0.0025770366
0.0044438215 0.03849356 -0.0012504831 0.007186042 0.033205096 0.00890968 -0.017895259 -0.0080113895
-0.0010260625 -0.049719725 -0.019594826 -0.0060132407 -0.0017923191 -0.050367817 -0.025326231 -0.052555673
-0.00027365456 0.0059837117 -0.028702602 -0.023782289 -0.037418127 -0.03768295 -0.020283032 -0.0011574652
-0.04941512 0.01330487 -0.0446361 0.014071215 -0.0053867744 0.013770699 -0.0340337 -0.00594246
-0.047300126 -0.003907185 -0.000730779 0.0060356823 -0.036312282 -0.0033245757 -0.051356655 0.0021819358
0.009119152 -0.025385454 0.0119385915 -0.030055217 -0.021621091 -0.013950359 0.015198821 0.03176667
0.0020077624 -0.025978018 -0.00688224 -0.028975103 -0.0053807236 -0.017049786 -0.019734133 -0.025393942
-0.034311853 -0.016070787 -0.025266903 -0.025247212 0.008837315 -0.0011927299 -0.028689282 -0.0043944158
-0.0021371096 -0.00014535824 0.028137323 -0.03399119 0.057585645 0.0032829086 0.0016168889 -0.03351162
-0.020723812 0.01629033 -0.043384124 -0.02947816 0.017838687 -0.004741527 -0.04847387 -0.01697801
-0.006915912 -0.017864052 0.055165116 -0.052695815 0.012751362 -0.009636927 0.033292945 0.024397304
-0.00079756894 -0.033637412 0.020562664 -0.049227238 -0.00049433863 -0.0032925569 -0.014363628 0.00962379
0.00089934503 -0.050134994 0.0053609493 -0.033686414 -0.009838387 -0.008899536 -0.035487145 0.014726535
0.009080723 -0.034860097 -0.020004988 0.017466133 -0.00041222398 0.033843145 0.003281799 -0.009341884
-0.022349918 -0.043385886 -0.028634602 0.011205198 0.0069445763 -0.00032043268 -0.045352615 0.0054669115
0.012731482 -0.03590481 0.027724382 -0.028970039 -0.03490913 -0.00069816556 -0.01926976 -0.0021899417
0.047954578 -0.0005751528 -0.0063586924 -0.029048882 -0.00016708297 -0.04604514 -0.004427274 -0.0010474313
-0.0062292367 -0.03602735 -0.010429628 0.013104713 0.020284059 -0.035241723 0.0038888885 -0.0046858564
-0.028289357 -0.001372 -0.041659694 0.009403592 -0.025227923 -0.0033244155 0.00717164 0.02967366
-0.0006767739 0.004131011 -0.013638563 -0.033076406 -0.019296262 0.003298818 -0.0377424 -0.03541192
-0.045767434 0.018471614 0.0048533357 -0.004085928 -0.022845285 -0.00081221905 -0.048462227 -0.0012227208
0.033470154 0.0029813594 -0.007968441 0.011069959 -0.021986485 0.021885 -0.0012944127 -0.025149778
0.017902635 0.037275214 -0.05028719 0.012120442 -0.016313415 0.003520315 -0.032870658 -0.041522507
-0.010536905 -0.013806589 -0.0018195808 -0.007933993 -0.04421667 -0.026136057 -0.025851065 -0.0011231527
-0.0266459 0.018938731 -0.028562004 0.017943112 0.0026034696 0.010420027 0.027906552 -0.00017895819

sensor_model.2.weight f4 [128, 256]
00000000: 608d 183d ede1 543a 0cbe 4dbd c4e6 9bbd
00000010: d0f8 7abc 3183 eb3d 108c 733d e0fa 79bc
00000020: b02f c8bd 28de c5bc ba2b 8bbd e869 5abd
00000030: 657b d2bd 483b 8cbd 32cf ef3d 9892 cebd
00000040: c458 6bbd ccb1 cdbd c1ef de3d 6e5d 2a3d
00000050: 1f60 a7bd 9605 773d 448b 0e3d f301 c2bd
00000060: 8e48 d1bd e2ea e8bd 4058 30bd 1907 8c3d
00000070: 3568 dabd a556 393d 28a4 56bd f876 ff3c
00000080: f047 0bbc a3b2 babd 5f01 93bd c82f a43c
00000090: f70b e03d 2ac1 82bd 40da 01bd 4778 be3d
000000a0: a6d9 813d 525e 32bd b999 d13d f4ca a6bd
000000b0: a023 9b3c c681 15bd 10c2 b53d 7004 523c
000000c0: b47f 073d 7c19 043c 7269 a9bd d5f6 e7bd
000000d0: 207f cc3d 9306 cdbd 3652 86bd 5669 efbd
000000e0: aed1 7c3d 9630 abbd 302f 32bd 3618 213d
000000f0: e78e 83bc 4f21 98bd 00ce f53d 4062 78bb
00000100: 3234 b33d c829 c6bd 6038 3dbc 189a 553d
00000110: 94cc 2bbd 1ca5 8fbd 64cd e7bd 040b e23d
00000120: cb41 a8bd c037 a1bd 60c9 fcbb 3041 04bc
00000130: d48d b93d e8b6 9fbc 48fa 0c3d b302 e0bd
00000140: 7a6e cb3d ab26 f8bd 989d 1e3d 90f3 2bbc
00000150: 8bcf 52bd b273 e33d dea3 b0bd ac36 38bd
00000160: 4875 8a3d f0d4 d83d a080 623c b06c b03b
00000170: 30b8 56bd a043 55bc ceb9 cdbd cc7d ed3c
00000180: 75df b63c 8a35 e53d 7566 c5bc 7c16 04bd
00000190: aa05 db3d 78f9 a3bd 6b2f cdbc 58e9 bdbd
000001a0: c5d0 893d d022 60bd 764d ffbc fc85 b4bd
000001b0: bcb2 813d f01e f8bd c00e b33d 409f 4c3c
000001c0: 6489 05bd c03e fbbd c2c8 85bd 40d2 4abc
000001d0: 9bed a8bc 7ca8 47bd c4de 2cbd aca5 2f3d
000001e0: 484b 673d fa17 cfbd 218e 633d f8bf a63c
000001f0: 721d 1c3d dccc e23d ccba d7bd 20cb 953b
00000200: 7862 493d a5e3 793d 70bd 6a3c 70db 083c
00000210: 57aa 1a3d 20a9 9a3c 2605 e13d 0caf 903d
00000220: 97e6 3ebd 288c 203d a914 0bbd 3e44 c33d
00000230: e33d b63d c693 afbd a8b8 29bd f8c4 41bd
00000240: ee0c 4ebd 1e8f a63d c0e3 c13d f025 e03c
00000250: ea2d 9abd de3c eebd debe ca3d 513e b23d
00000260: 7918 8b3d 907e 84bd b9c1 d1bc ece1 b13d
00000270: 28c3 95bc 8e23 95bd 382f ccbd b66b ca3c
00000280: c9db 78bd 14da e33d 383b 073d 7be4 88bd
00000290: e449 99bd f79d 5c3d d8d2 e6bd e80b 353d
000002a0: 4e62 aebd 002e 713c 8c5d 9dbd ea45 a8bd
000002b0: dddd b03d 4d2f a63d 583d 9abc cb62 4a3d
000002c0: 9a69 86bd c819 7f3d c2a5 bb3d c04c ebbb
000002d0: faa6 acbd 06fe fa3c e021 973c 424c 9e3d
000002e0: 602c 92bd 745a b2bc 0c08 9e3c d0d4 45bc
000002f0: 647f d83c 6896 2ebd 7d7a aebc 7673 9dbd
00000300: 0895 3dbd f254 a3bd c0ef 97bb 8e3d 2dbd
00000310: 6690 f1bd 72f8 f63d 18f9 003e 368a b83c
00000320: 80e8 0b3c bcc5 fd3c 6c73 0abd 8692 e83d
00000330: 6053 76bc c058 09bd 9956 da3d fc88 363d
00000340: 95ea d8bd a090 563c 80aa 003d c82b 433d
00000350: c2ad f33d b137 c5bd c09c 143d 3454 2c3d
00000360: d0e5 ba3c aef9 c93d 3e82 9ebd 8c13 ce3d
00000370: 2026 5cbc dda4 983d aa34 dfbd 78de 443c
00000380: c5f6 653d 2e16 c83d 808d e73b 0c55 ec3d
00000390: d059 b43c 186e 6e3d 0809 66bd fca0 583d
000003a0: 36e3 97bd d241 b53d 88c0 b13d 94c4 bbba
000003b0: 0878 9fbc 5ba1 ab3d 0055 773c 8c1f 603d
000003c0: d862 b2bd c078 36bc 906d 47bc 651b c8bc
000003d0: d407 393d 96f4 f73d d89a c1bc 7c7c 85bd
000003e0: 50ff c7bd 4133 91bd b24e d83d 8358 32bd
000003f0: a0ab a63d 9d5d cbbd ee2a 413d 59d4 0cbd
0.0372442 0.0008120824 -0.05023007 -0.076123744 -0.015318111 0.11499632 0.059459746 -0.015257567
-0.09774721 -0.024153784 -0.067954496 -0.053323656 -0.10277442 -0.068472445 0.11709441 -0.10086554
-0.0574577 -0.10043678 0.10885573 0.041593008 -0.081726305 0.06030806 0.034800783 -0.09473028
-0.10218917 -0.11372925 -0.04305291 0.06837291 -0.10664407 0.045248646 -0.052402645 0.031184658
-0.008501038 -0.091161035 -0.07177996 0.020042315 0.10939782 -0.06384499 -0.03170228 0.09300285
0.06340341 -0.043546982 0.102343984 -0.08144179 0.018937886 -0.036500715 0.08874905 0.012818441
0.03308077 0.008062717 -0.08272065 -0.11326376 0.09985185 -0.100110196 -0.06558649 -0.11690013
0.061723404 -0.083588764 -0.043502033 0.03932973 -0.016059352 -0.07428228 0.12002182 -0.0037900358
0.0875019 -0.09675938 -0.011549085 0.05214891 -0.041943148 -0.07013914 -0.11318472 0.11037257
-0.08215674 -0.078719616 -0.0077144355 -0.008072183 0.09060255 -0.019496396 0.034418374 -0.10938015
0.09933181 -0.1211675 0.03872451 -0.010495082 -0.05146746 0.111060515 -0.08625005 -0.044974014
0.06760651 0.105874896 0.013824612 0.0053840503 -0.05242175 -0.013016611 -0.10045205 0.028990649
0.02232335 0.111918524 -0.024096707 -0.032248005 0.1069444 -0.08006567 -0.025047025 -0.092730224
0.06729273 -0.0547207 -0.031164866 -0.08814618 0.06332919 -0.12115276 0.08743048 0.01248914
-0.03260173 -0.12267828 -0.06532432 -0.012379229 -0.020621112 -0.048744664 -0.042204633 0.042882606
0.05646828 -0.10111995 0.055555467 0.02035521 0.03811402 0.1107423 -0.105336756 0.0045713335
0.049166173 0.061008114 0.014327392 0.008353099 0.037760105 0.018879473 0.1098731 0.070646375
-0.046606626 0.039196163 -0.03395525 0.095345005 0.08898523 -0.085731074 -0.041435868 -0.047306985
-0.0503053 0.08132766 0.09467268 0.02736184 -0.07528289 -0.11632703 0.09899686 0.08703292
0.06791777 -0.064694524 -0.02560507 0.08685669 -0.018281534 -0.07282172 -0.09969944 0.024709564
-0.06075648 0.111255795 0.03301546 -0.06684204 -0.07484797 0.053861585 -0.11270684 0.044200808
-0.08514844 0.01472044 -0.07683858 -0.0821646 0.08636067 0.08114491 -0.01882808 0.049410623
-0.06563111 0.062280446 0.09162475 -0.00718078 -0.08430286 0.030638706 0.01844877 0.07729389
-0.0713737 -0.021771647 0.019290946 -0.012074664 0.026427932 -0.042623907 -0.021298641 -0.07688038
-0.046284705 -0.079751864 -0.0046367347 -0.04229503 -0.1179512 0.12059106 0.12595022 0.022526842
0.008539319 0.030978076 -0.03380148 0.11356072 -0.015034527 -0.033531904 0.106610484 0.044564232
-0.10591618 0.013096005 0.0314126 0.047649175 0.11898376 -0.09629763 0.0362823 0.04207249
0.022814661 0.09862076 -0.077396855 0.10062322 -0.013436824 0.0745332 -0.10898717 0.012015931
0.05614354 0.097698554 0.0070664287 0.11539659 0.022015482 0.058210462 -0.056160957 0.0528879
-0.07416384 0.08850445 0.086793005 -0.0014325553 -0.019466415 0.083803855 0.015095949 0.054717585
-0.08710259 -0.0111371875 -0.012172118 -0.024427125 0.04517348 0.12107198 -0.023633406 -0.06517884
-0.09765494 -0.07089854 0.10561885 -0.043541443 0.081382036 -0.09929965 0.04716008 -0.034382198

sensor_model.2.bias f4 [128]
00000000: 6da7 b53c f986 cb3a 0d46 363b 984f cabc
00000010: c455 f7bc 228b ce3c bd8e aa3c c41f 0fbd
00000020: 6ac3 49bd f82a 6fbd c0aa d6bc c021 fb3c
00000030: eef9 23bd 4057 d6bb da51 3fbd 865b 4fbd
00000040: 16ba 403b 4862 2dbd fa41 1cbd f26a 283d
00000050: a46c 013d cb3d b73c 80c4 70bd 2230 e2b9
00000060: c895 363c 68d7 9dbc acb4 ccbc c062 8c3b
00000070: 5694 9a3c 341f 24bd dbb6 af3c 9998 aabb
00000080: 68d2 efbc 2209 5c3c 8cd6 0bbd 1823 49bc
00000090: bfee 163d 556a f33b 2786 223d 7004 f2bc
000000a0: 5a9d 40bd eb72 593c 78bd 9abc 50c6 24bc
000000b0: 20a3 9d3c d812 a6bc a41a 05bc 50ca 203d
000000c0: 1473 06bd eab0 07bd 20fb 8cbb cce9 dc3b
000000d0: a89a d7bc f2a2 b4bc 80eb 96bc 43ad d43b
000000e0: 7af3 513c 3ae6 d5bc 91be e83c c8fb 3d3c
000000f0: 5a29 7cbd e4ce 3dbb 0c81 e3bc f2ef b73b
00000100: e09f 48bd c2f6 50bd dd0d 263d f094 12bc
00000110: 03f6 86bc c60e 663c 6ba2 733c ea0b 49bd
00000120: 0027 e5bc 3232 003d 6023 1abd 1628 9fbb
00000130: 9377 853c 481a 7fbd 1049 0dbc 976a e43c
00000140: 4211 5fbd 3826 abbc b015 2dbd fdbc 7a3b
00000150: 0fe3 e33c 34da bfbc 8805 09bd 025b e83c
00000160: 7012 c83b 6374 31bb 7cfe 1bbd d8c9 a2bb
00000170: a0b0 6cbd cabe 2dbc e51a 683d ae5d f83a
00000180: bf91 8e3c 6dd1 b43c 6cbc 75bd 2a59 02bd
00000190: eeb9 a73c 3da4 cfbb ac50 083d f8cb c43c
000001a0: 0b7a aa3c 5278 153d 5640 5bbd 8cac 1abd
000001b0: 2b06 17bc 0063 cabc f26f a63c 503c b13c
000001c0: 001f d3b9 db6c 023d 61b2 7f3c b2c8 1f3b
000001d0: d1e3 4d3c d1e2 05bc ddfa 8abc c03e 70bb
000001e0: 40ec ae3b 0d5b 7e3c dc59 e43c 6e45 30bb
000001f0: 532b 91bc ff41 24bc 7cab aebc 6910 853c
0.022174561 0.0015527896 0.002781275 -0.024696156 -0.030192263 0.025212828 0.020820016 -0.034942403
-0.049258627 -0.058390588 -0.026204467 0.030655742 -0.040033273 -0.0065411627 -0.04670892 -0.050624393
0.002940779 -0.042330056 -0.038148858 0.041117616 0.03159775 0.022368332 -0.058781147 -0.0004314194
0.011144109 -0.019267753 -0.024988495 0.004284233 0.01886956 -0.04006882 0.021449497 -0.0052061793
-0.029275134 0.013429912 -0.034140155 -0.012276433 0.03684878 0.0074284473 0.03967872 -0.029543132
-0.047025062 0.0132720275 -0.018889174 -0.010057047 0.019242823 -0.020272657 -0.008124027 0.03925544
-0.03282459 -0.033127703 -0.0043023974 0.006741738 -0.026318863 -0.022050355 -0.018422842 0.006490381
0.012814397 -0.026110757 0.028411182 0.011595674 -0.061562873 -0.0028962428 -0.027771495 0.0056133205
-0.048980594 -0.051016577 0.040540565 -0.008946642 -0.01647473 0.014041608 0.014870266 -0.049083628
-0.027972698 0.03129787 -0.037631392 -0.0048570735 0.016292369 -0.062280923 -0.0086233765 0.027882857
-0.054459818 -0.020892248 -0.04225701 0.0038259618 0.02781823 -0.023419477 -0.03345254 0.028363708
0.0061057135 -0.0027077429 -0.038084492 -0.0049679093 -0.05778563 -0.01060457 0.056666274 0.0018948817
0.017403482 0.022072518 -0.059994146 -0.031823315 0.0204744 -0.0063367174 0.03328006 0.024023041
0.020810148 0.0364917 -0.053528152 -0.03776221 -0.009217779 -0.02470541 0.020317052 0.021635205
-0.00040268153 0.031842094 0.015606494 0.0024381098 0.012566523 -0.008171753 -0.016965324 -0.0036658496
0.005338222 0.015524638 0.02787488 -0.0026896852 -0.017720854 -0.0100255 -0.021322004 0.016243177

sensor_model.4.weight f4 [64, 128]
00000000: 10e2 3fbc 7f7c 153e a022 95bb 00ea 67bb
00000010: 9df3 1a3e 5f1f 0abe 437f 323e 41b3 033e
00000020: c0d6 1c3c 7068 17bd acb0 debd c0e7 b5bb
00000030: 2397 18be 91b7 a3bd 5204 ff3d 5823 df3c
00000040: c014 cd3b 108c b93c aba9 c0bd 7e73 bc3d
00000050: 66cc e03d 7d89 89bd 2357 143e 4dba 32be
00000060: a301 223e a939 ffbd c1f6 98bd 580e 1fbd
00000070: 78db 02bd 10ba 99bc 8472 8b3d aeee 32be
00000080: e674 d6bd 7639 cc3d a6bf d93d 3948 223e
00000090: e872 a5bc 12d9 f83d 7291 db3d cbd3 1d3e
000000a0: 81e6 223e d55a 1d3e 12f2 a23d 78a4 fabc
000000b0: f424 33bd e333 d0bd e14f a0bd 8401 25bd
000000c0: 8d52 b6bd 36e6 31be a022 4a3d 6cb5 30bd
000000d0: 8a49 983d e09a 95bb f2cb 5dbd 9ed0 1cbe
000000e0: cf59 1a3e b3f5 2cbe 20bf 7fbd 62e5 d53d
000000f0: 805e 15be 1258 b63d af5d 233e 200f e2bc
00000100: 115b 293e 3bdf 043e 10b3 11bc fa7a 22be
00000110: 0dcd 0c3e 7094 833d e632 ba3d c891 17be
00000120: 7947 1e3e 4def 183e ef71 0c3e 45cc 293e
00000130: 4895 08be 8172 87bd ca7c 0ebe 3eec 73bd
00000140: c85d d53c 5284 b53d 5df7 223e e3ec 023e
00000150: 1578 0a3e 5952 04be 0028 d7bc 64a3 30bd
00000160: 0425 9fbd 5a84 e3bd 2153 2d3e cd3d 13be
00000170: 20a4 14bc 9979 0b3e 484f 023d a49a fdbd
00000180: 10b4 8e3d 8908 1e3e d224 cf3d 5e50 b83d
00000190: de35 e03d 776d 083e 2586 2fbe 8620 cc3d
000001a0: 9d57 083e c077 b23b c01b c83c 4b0f 2cbe
000001b0: 044a 7f3d a875 8e3c 6842 b4bc 9045 9abc
000001c0: 7292 eb3d bac7 97bd 269a af3d 4a48 85bd
000001d0: 5976 e4bd f33e 153e 74bf 8cbd f441 433d
000001e0: 0f67 2fbe 4dca 243e 40fc 523b 6822 183d
000001f0: 6488 343d 3e95 1fbe 39ac 04be 0054 793a
00000200: a642 b73d c68b b63d a062 5dbc d4b5 93bd
00000210: f934 debd 9413 753d 9cdb 3f3d 37cb 263e
00000220: 122d 18be 0d5f 2a3e fa2c cabd 95c6 063e
00000230: f68c 18be 941b 2bbd 4220 98bd 4045 263b
00000240: 7db1 223e 6042 25bc b6c9 ad3d 005a f33b
00000250: 49a2 84bd 2ede 803d 18d6 1ebe fef7 a63d
00000260: c7f7 213e 532f 303e be60 c33d 1afe ac3d
00000270: 9c4c 4bbd f57e 81bd 642a cfbd f0a2 07bd
00000280: 9428 a7bd f4ef 403d c072 a0bb f103 213e
00000290: 0e0d d3bd 5ba5 03be 9748 fabd 6cd3 36bd
000002a0: 60d6 753c bedd dc3d 8071 8fbb 7388 d0bd
000002b0: ecd8 3abd 627e a13d f2ff b13d eae8 a53d
000002c0: aa0d fe3d cbae 2f3e 1a64 b23d fb52 1ebe
000002d0: 875f f8bd f07e 5dbd 0032 f03b 4e2b 0dbe
000002e0: 3e39 a53d 3e1f c33d 28ef 1f3d f09a 433d
000002f0: 204c 70bd 80e1 cc3c c03d ba3c ead7 c5bd
00000300: 2e45 09be 79a5 1abe 2b6e a8bd 6586 153e
00000310: da65 c13d 784e afbc f887 40bd 00a8 b73a
00000320: d0e9 8a3d 37b8 91bd 6047 353d 4a76 f03d
00000330: 90b2 2fbc a783 053e 48f0 a6bc b015 aabc
00000340: d0cd 613c 4629 9abd 9850 2a3d 1829 293d
00000350: e762 8cbd 58d9 babc cb4b f2bd eb7c 103e
00000360: eb94 b6bd 1d47 efbd a932 243e 5a27 03be
00000370: d9ed a7bd 00c2 8fbc 006a b33b 0f06 19be
00000380: a5cf 2c3e 89c8 f1bd 92e3 9c3d 48a0 383d
00000390: f8f0 4e3d cede 1ebe d262 d53d 906a c2bd
000003a0: e0c7 ac3b 4e51 f23d bc92 1f3d 16b2 b93d
000003b0: 3367 2f3e 20b7 463c 98d3 883d fe7a 05be
000003c0: a08f c7bd 8cb5 bcbd 7da1 e9bd c3e0 203e
000003d0: 7534 1dbe c874 183d 8ffb 203e 4b61 193e
000003e0: e63b 823d 3e1a 9e3d dda3 bfbd 589b b53c
000003f0: 1a69 eebd c012 2a3c fb66 283e d554 1d3e
-0.011711612 0.14598273 -0.0045512468 -0.0035387278 0.15131994 -0.1348853 0.17431359 0.12861349
0.009572685 -0.036964834 -0.10873541 -0.0055513084 -0.14901404 -0.07993997 0.12451996 0.027238533
0.006258577 0.022649795 -0.094073616 0.09201716 0.10976486 -0.06715677 0.14486365 -0.1745388
0.15820937 -0.1246217 -0.074689396 -0.03883204 -0.031947583 -0.01876548 0.068089515 -0.17473862
-0.10471515 0.09971897 0.10632257 0.15847863 -0.020196393 0.12150778 0.10721101 0.15412824
0.15908243 0.15366681 0.079563275 -0.030596003 -0.043736413 -0.101661466 -0.07827736 -0.04028465
-0.08902464 -0.17372975 0.049349427 -0.043141767 0.074359015 -0.0045655817 -0.054149576 -0.15313956
0.15073322 -0.16890602 -0.06243813 0.10444142 -0.1458683 0.08903517 0.15953706 -0.027595103
0.16538645 0.1297578 -0.0088927895 -0.15867224 0.13750096 0.064247966 0.09091739 -0.14801705
0.15456952 0.14935036 0.13715337 0.16581829 -0.13338196 -0.06613637 -0.13914791 -0.05955147
0.026045695 0.08863129 0.15914674 0.12785678 0.1352237 -0.12922038 -0.02626419 -0.04312457
-0.07770732 -0.111092284 0.16926242 -0.14379044 -0.009072334 0.13620605 0.03181389 -0.12383011
0.06967938 0.15432943 0.10114445 0.08999704 0.10947774 0.13323008 -0.17141016 0.09967141
0.13314672 0.005446404 0.024427295 -0.16802709 0.062326446 0.017390087 -0.022004321 -0.018831998
0.115025416 -0.07411142 0.08574323 -0.06507929 -0.111553855 0.14574794 -0.06872454 0.04767032
-0.17129157 0.16092797 0.003219381 0.037142187 0.044075385 -0.15584275 -0.12956323 0.0009511113
0.08948259 0.089133784 -0.013512284 -0.07212415 -0.108499475 0.059833124 0.046840295 0.16288458
-0.14860943 0.16637821 -0.0987186 0.1316169 -0.14897522 -0.041774347 -0.07428028 0.0025370866
0.15888019 -0.010086626 0.08485739 0.0074265003 -0.06476266 0.062923774 -0.15511358 0.081527695
0.15817176 0.17205553 0.095399365 0.084469035 -0.049633607 -0.06323043 -0.10115507 -0.033114374
-0.081620365 0.047103837 -0.0048964918 0.1572416 -0.10305224 -0.12856047 -0.12220877 -0.04463522
0.015004724 0.107844815 -0.004377544 -0.101822756 -0.04561703 0.07885434 0.08691396 0.081010655
0.1240495 0.17156522 0.08710499 -0.15461342 -0.121275954 -0.054076135 0.007330179 -0.1378605
0.08067559 0.09527443 0.039046437 0.04775518 -0.05866635 0.02500987 0.022734523 -0.09660323
-0.13405296 -0.15102185 -0.08224138 0.14602049 0.09443255 -0.021399722 -0.04700467 0.001401186
0.067828774 -0.07115214 0.04425752 0.11741312 -0.010723725 0.13038503 -0.020378247 -0.020762295
0.01378198 -0.075274035 0.041580766 0.041298956 -0.068548016 -0.022808716 -0.118308626 0.14110152
-0.089151226 -0.11683486 0.1603495 -0.1280798 -0.08199663 -0.017548561 0.0054752827 -0.14943717
0.16876085 -0.11805827 0.07660593 0.04507473 0.050522774 -0.1551468 0.10419239 -0.094929814
0.0052728504 0.11831914 0.038958296 0.0906717 0.17129211 0.012128621 0.06680983 -0.13035199
-0.09744191 -0.09214315 -0.114077546 0.1571074 -0.15352042 0.037220746 0.15720962 0.1497852
0.06359081 0.07719849 -0.09357426 0.0221688 -0.1164114 0.010380447 0.16445534 0.15364392

sensor_model.4.bias f4 [64]
00000000: 3cdc 67bd d27b 99bd 408d 5abd bb98 01bd
00000010: c4b6 ad3d 1c2a fa3c 0c70 243d 1a2a 30bd
00000020: 6264 8d3c 9849 9bbc 16c3 4cbd 8ef9 7ebc
00000030: 84d6 2c3c 0000 5cbc c465 df3c 471b a8bc
00000040: 076f 80bd 383f 2dbd 2494 3dbd 892e 243d
00000050: b193 8cbc 94c9 043c 9963 ae3d 4420 dabc
00000060: 136e 83bc 2144 d6bc 1402 873d a32f cbbc
00000070: a93a 9fbc e546 b3bc 89a7 ad3b 86ec 89bd
00000080: 0c1e 90bd 7892 4abd 6dfb 9bbd ff0c aabd
00000090: 6c62 dfbc 2942 43bd 0f54 873d 710d 23bd
000000a0: 75cb ed3b 0754 263d 4bdc 4fbd b034 a0bb
000000b0: 331a 45bc 9540 363d db6c 6f3d 4d03 82bd
000000c0: 5200 883d e097 a13c f643 3dbd fc94 a3bc
000000d0: 38b0 2fbc b7d8 1ebc 86ed a2bd ffb2 c03d
000000e0: 639a 0fbd dac5 90bd aab3 23bc 00b0 8cbc
000000f0: 6268 f9bc a873 11bd e040 aabd bd62 433b
-0.056606516 -0.0749432 -0.053357363 -0.031639796 0.084821254 0.030537657 0.04014592 -0.0430089
0.01725978 -0.01895599 -0.049990736 -0.015562428 0.010549191 -0.013427734 0.027270205 -0.02052082
-0.06271177 -0.04229662 -0.046283856 0.040083442 -0.017160269 0.008104701 0.085150905 -0.026626714
-0.016043698 -0.026155533 0.06592193 -0.024802988 -0.019437151 -0.021884391 0.0052995128 -0.067345664
-0.07036981 -0.04945609 -0.07616315 -0.0830326 -0.02726861 -0.047670517 0.0660783 -0.03980774
0.00725692 0.04060748 -0.050747197 -0.0048890933 -0.012030172 0.044495184 0.058453422 -0.06348286
0.06640686 0.01972574 -0.04620739 -0.019968502 -0.010723166 -0.0096952235 -0.0795546 0.09409141
-0.035059344 -0.07068987 -0.009991566 -0.017173767 -0.030445281 -0.03551069 -0.08313155 0.0029813491

target_model.0.weight f4 [64, 66]
00000000: 4ff2 0e3e 9f36 2d3e 5618 893d 00a6 5e3e
00000010: f8ec 35bc da69 1ebe 7293 9fbd b822 10be
00000020: 29bf 1bbe 7835 17be 85bf 103d 0722 1e3e
00000030: a5b0 4abe 8d85 4f3e cb62 9bbd 344e 083e
00000040: f43f 363d b624 10be 0668 86bd 684b 243e
00000050: e6d1 b2bd 65bd eebd 5c51 b8bc c26c 983d
00000060: c85d 27be 787e 3cbe 5648 f7bd 5968 11be
00000070: 7a76 c4bc 1d3e e33c fe35 d83d 8c3b e3bd
00000080: 5c99 5f3d 6b7e 5a3e cd4b 333e 4eb9 f03d
00000090: 1dd1 023e 945c b2bd 1f75 a4bc 60bd ad3b
000000a0: 59ea 593e 67e1 5a3e 15c7 f23d c4ca e3bd
000000b0: e72b 4a3e 2ff5 b8bd 68fa f1bd f5c5 4abe
000000c0: 80ea 01be 8f6a ffbc 8abb 98bd cb0c 3e3e
000000d0: e571 383e 20a8 833d c0f7 94bd 9651 073e
000000e0: 2b95 98bd ee6a 16be 7239 4ebe 4087 90bb
000000f0: 3e71 c5bc 96f3 f23d 8425 41be be81 4b3d
00000100: dfb4 4c3e 61d0 dbbc 98de c4bc d5f9 4d3e
00000110: 0091 7e3a b5eb 493d 9f5f fd3d 2a55 0c3e
00000120: 1418 323e 0994 fabd 4954 b1bd 28c0 06be
00000130: 6d00 d2bd 428d f03b 1915 82be 05ee 533e
00000140: 540b 19bd a4fc c1bd dac5 1fbe 1040 2b3c
00000150: 5f9b 21be d15f c23d 1558 8cbc 28a5 5bbe
00000160: 63b6 763e 9788 213e a0dc 913b ce63 59bd
00000170: 953b 1f3e d537 143e c185 e93d 5341 7ebd
00000180: 2f86 433e 3000 b8bc 00bd 273c 688d 13bd
00000190: 9ff7 153e ade3 59be cc5a 183d 00d6 5f3b
000001a0: 9c93 023e 508d 1abd 84ef 29be 1d3b 7e3e
000001b0: dfee 2e3e cbdf 053e 7283 f03c 1acb 863e
000001c0: a82b dbbc 6c4b 38bd 2d4a 5e3d d652 6e3e
000001d0: 6a75 9abd 83d1 0e3e 2c95 003d b3e6 0ebc
000001e0: 6123 013e bdfe 843e 5fba cf3b bad8 43be
000001f0: 36c3 13be a0b8 fabb 2976 1d3c ea9a 53be
00000200: 5485 32bd 9105 1abd 5e4c f5bd acc6 653d
00000210: c8ed 83bd 8fca 52be b8e8 a9bd d478 ebbd
00000220: 79e3 65bc 5325 093e d993 3b3e 2402 5d3c
00000230: b1dd 2abe 4fd9 a6bd edca 4ebe 95af ffbd
00000240: 08ef 4f3e 5baa 30be c9b6 3cbe 5b93 453e
00000250: 1ca7 1fbd 4050 59bd 0000 133c 9ddc f83d
00000260: 3d43 513c 6df0 383d 1257 8abc 3af6 8bbd
00000270: ffdc 923d e9df 673e fbd6 6dbe 5a63 cd3d
00000280: fe88 9c3c af89 8b3d 3234 2d3c 5ace 9c3d
00000290: 8812 32bd fd76 10be a704 4ebe 38ff 36be
000002a0: abc2 193e c1ea 0d3e adac aabd 648b 493d
000002b0: 163a df3c de98 24be 5845 583d 39e9 c8bd
000002c0: 00ff 15be 6b33 f93d d08b c4bd f61e abbd
000002d0: dfa1 9b3d 1284 52be 607e 55bd a0b2 333c
000002e0: db33 f7bd d80a cfbd 3b39 433e d41e 1c3e
000002f0: 408a 9d3c 839e 2b3e 69a5 f7bd f7e9 543e
00000300: fded 193d 2dd6 4abe 2597 253e d5c8 b63d
00000310: 8a42 2bbe a075 143e 16b1 4fbe 6580 153e
00000320: ee36 8abd 1f6c eebd 363e 513e 792d aabd
00000330: 00fc 9e3d bf2b 0a3e e346 183e 5e14 983d
00000340: 689c 453e f69a f33d 245e 753d ca13 abbd
00000350: 46af fe3d bc2d 10be 5059 a73c c090 f93b
00000360: f598 413e 20ba 8cbd a9e7 263d 13f2 4c3e
00000370: cda8 d53c 7606 c23d cda4 4a3e ae88 2a3e
00000380: a7ea 793d 1888 b4bc 3b86 41be 7782 073e
00000390: 5433 653c 600e 433c df49 cfbd 305d a5bd
000003a0: d708 33be fefe b6bd 6e19 a73d b120 443e
000003b0: 353f 2bbe cfc8 2bbe 8026 5dbb 0b16 ffbd
000003c0: 8023 60bc 46bf e23d 1cad f23d 6140 263d
000003d0: 97e8 413e 8959 1e3e b8a5 183e 02c4 aa3c
000003e0: c190 1e3e c6ea c23d 0733 093e 5f8d 513e
000003f0: 7b39 003e ecd7 b7bc 9a71 6e3c 315c 483e
0.13959621 0.16915368 0.06694095 0.21743011 -0.011103861 -0.15470067 -0.07791795 -0.14075744
-0.1520964 -0.1476649 0.035338897 0.15442668 -0.19793947 0.2026579 -0.07587203 0.13311082
0.044494584 -0.14076504 -0.0656281 0.1604439 -0.08731441 -0.11657218 -0.022499733 0.07442619
-0.16344368 -0.18407619 -0.12074344 -0.14199962 -0.023982275 0.027739579 0.10557173 -0.11095342
0.054589614 0.21337287 0.17509384 0.11754094 0.12775083 -0.08709064 -0.020075379 0.0053021163
0.21280803 0.21375047 0.11854378 -0.11122659 0.1974331 -0.0903114 -0.11815339 -0.19802077
-0.12687111 -0.03117874 -0.07457645 0.18559568 0.18012197 0.06428552 -0.07273817 0.13214716
-0.074503265 -0.14689228 -0.20139101 -0.0044106543 -0.02410185 0.118628666 -0.18861967 0.04968428
0.19990872 -0.026832761 -0.024031922 0.20114835 0.0009710938 0.049297053 0.12371754 0.13704363
0.17391998 -0.12235267 -0.08658654 -0.1315924 -0.102539875 0.007341058 -0.2540672 0.20696266
-0.03736432 -0.094720155 -0.15602818 0.010452285 -0.15781926 0.09490932 -0.017131845 -0.21449721
0.24093013 0.15774761 0.0044513494 -0.053073697 0.15550072 0.14474423 0.11402465 -0.062074017
0.19094156 -0.022461027 0.010237932 -0.036023527 0.14645241 -0.21278258 0.037195966 0.0034154654
0.12751621 -0.037732422 -0.16595274 0.24827237 0.1708331 0.13073651 0.029359553 0.2632683
-0.026754215 -0.044993803 0.05426996 0.23273787 -0.07541926 0.1394711 0.03139226 -0.008721995
0.12611152 0.259756 0.006339356 -0.19125643 -0.14429936 -0.0076514035 0.009610691 -0.20664564
-0.043584183 -0.037602965 -0.119774565 0.05609767 -0.064418375 -0.20585082 -0.08296341 -0.114976555
-0.0140312845 0.13393144 0.18318118 0.01348928 -0.16686131 -0.08146917 -0.20194598 -0.124846615
0.20306027 -0.17252485 -0.18429102 0.19294493 -0.038977727 -0.053055048 0.008972168 0.12151454
0.0127723785 0.045151163 -0.016887221 -0.06834073 0.07171058 0.22644009 -0.2322654 0.100287154
0.019108292 0.068133704 0.010571526 0.07656546 -0.043474704 -0.1410789 -0.20118962 -0.17870796
0.15015666 0.13859083 -0.083337165 0.0492052 0.027249377 -0.16073939 0.052800506 -0.09810109
-0.14648056 0.1216801 -0.095969796 -0.08355515 0.07599234 -0.20558193 -0.052122474 0.0109678805
-0.120704375 -0.1010949 0.190648 0.15246135 0.019230962 0.16759686 -0.12092096 0.20792376
0.03758048 -0.19808264 0.16170938 0.089250244 -0.16724601 0.14497995 -0.20282397 0.1459976
-0.06748758 -0.11641716 0.20433888 -0.083094545 0.07762909 0.1349325 0.14870791 0.0742576
0.19297945 0.11894791 0.059904233 -0.08353384 0.124357745 -0.14079946 0.02042833 0.0076161325
0.18906005 -0.06871438 0.040748272 0.20014219 0.026081467 0.094738886 0.19789429 0.16653702
0.061014798 -0.02203755 -0.18898861 0.13233362 0.013989288 0.011905283 -0.10121512 -0.08074415
-0.17483841 -0.08935355 0.08159147 0.19153096 -0.1672333 -0.16775821 -0.0033744872 -0.12455376
-0.013680339 0.11071639 0.11849424 0.04058874 0.18936382 0.15463842 0.14906967 0.020845417
0.15484907 0.09517436 0.13398372 0.20464085 0.12521927 -0.022441827 0.014553452 0.19566418

target_model.0.bias f4 [64]
00000000: cf22 ef3d 64a2 303d 2f9e 96bd 87ba 163d
00000010: ccd7 fabd 4d44 0bbc 4786 69bd 8249 41bd
00000020: eae1 0f3d da4e 663d 658b 11bd c86b 18bd
00000030: 1a66 ca3c 94d3 683d dc41 393d cf6b 0fbe
00000040: cb87 dc3b a065 2cba 2232 90bb de44 15bd
00000050: 5916 ee3d ce14 12bd ab4b 6cbd 9fa0 393e
00000060: c4e9 b93e 1869 e6bd c4bb 33bd 32a7 af3b
00000070: 2411 c2bb 0265 8c3a 6f9a 813d 1ebd 3a3e
00000080: 035c c7bb 7481 10bc a92b 15be e8b8 05be
00000090: 7d10 5d3c 2191 b43d 6df3 bc3d 6c0a 673d
000000a0: 8c31 e73d 686d 7ebd be0a aebd 3a2e 9a3c
000000b0: 4a74 b83c bc63 cfbc 4fc3 e4bb e83d 02be
000000c0: 68cd dabd d4b5 13be dbff 7fbd a765 97bd
000000d0: b385 753d 6e6e c13c 9db2 7839 6314 6f3d
000000e0: 1638 b43e ba8c 03bb 4c40 c8bd 57eb a5bd
000000f0: 3d51 4a3c 6050 1bbe 1963 dc3d 604a 063e
0.11676561 0.043123618 -0.0735439 0.03679898 -0.12248191 -0.008500171 -0.057012822 -0.047189243
0.035127558 0.056227542 -0.035533328 -0.037212163 0.024706889 0.0568424 0.045228824 -0.1400597
0.006730055 -0.00065764226 -0.0044005075 -0.03644263 0.11625356 -0.035664372 -0.05768935 0.18127678
0.36311162 -0.11250514 -0.04388024 0.0053605074 -0.0059224535 0.0010711255 0.06328284 0.18236205
-0.0060839667 -0.0088199265 -0.14567436 -0.13058817 0.013492701 0.08816744 0.09226117 0.056406423
0.11288747 -0.062116057 -0.08498143 0.01882087 0.022516388 -0.025316112 -0.0069812904 -0.12718928
-0.106837094 -0.1442483 -0.062499862 -0.073924355 0.05994196 0.023612227 0.00023717662 0.05836905
0.3519904 -0.0020072893 -0.09777889 -0.08101528 0.01234847 -0.1516738 0.10761089 0.1311431

target_model.2.weight f4 [16, 64]
00000000: e611 d3bc a030 f83c ee23 2e3e c095 78bc
00000010: 3a8b 2abd 779b 613e f6d6 4c3e f8ca 0fbe
00000020: 3582 013e fa41 98bd 90ba 7cbe 8ac5 923d
00000030: cb46 0f3e 9c5a 893d 22a9 193d f718 d03c
00000040: 0efc 853e 3ecc 5abe 60d5 87be 589f 7dbe
00000050: 490c c4bc 45de edbc 1a40 3ebe 000c 09be
00000060: 2936 bf3c 37dc 193e 8f60 2ebe 32f8 273e
00000070: 3f8f 653d 7c10 72be 9320 dd3d f2ad bc3d
00000080: 00d1 67be 282f 7b3e 4431 16bd 6d9b 72be
00000090: 20ac 283e 1e56 87be 483e 8fbd 6814 6f3e
000000a0: da90 aabd fbcf bb3d 8ae8 3b3e 5d0f 573e
000000b0: e278 b6bd 5101 52bd 985d 0b3e d4a3 823b
000000c0: f47c 89be 7050 ee3c b01d 3ebe 4776 523e
000000d0: dca9 303e 42c9 14bd 7fac e3bd 6636 4dbe
000000e0: c451 1ebe 62c3 d0bd c9dd 03be c834 76be
000000f0: 7448 373e 1058 ea3d d532 59bd cd05 d5bc
00000100: 88d5 8bbe e6b0 88bd d496 e73d 57ee 35be
00000110: 3217 053d 8a89 bcbb cc5b e03d 6638 143e
00000120: b000 193e 0e2d 263e e03f 6d3e 50b3 e0bd
00000130: 1768 5ebd af23 4a3e 9a97 8b3d 2b3c 533e
00000140: 6c97 66be 9f67 e6bd 8f79 663e 8186 7dbd
00000150: f227 71bd 2df3 403e dd35 643e 22d0 00be
00000160: 6730 f53d bc28 463e 2f9f bfbd 2f0b 003e
00000170: 42b4 babd c89e 7ebe 80d3 0bbe 9b22 aebc
00000180: e01a 713a 5fb5 22be 237c 293d 73c7 0ebe
00000190: cfa8 48bd 6e5a 4d3e f7ab 30bd 652a 623d
000001a0: 7d0e 89bc ac0b 73be 4621 fdbd a996 703e
000001b0: 085c 633e d6e6 c1bd 5a39 9ebd 41c8 73bd
000001c0: fe8b 67ba 7908 003e 7ad4 273d 8430 c33d
000001d0: ee9e 3a3b f206 9cbd 7cfa 59bd fdc9 5f3e
000001e0: 3069 7c3c 3b5b 20be 974e 743d 53c8 063e
000001f0: 9185 273e c885 8cbe a313 89be 7883 9fbd
00000200: 7730 fc3d 902a 453d ec01 e6bd 0a73 7ebe
00000210: 6d34 49bc b604 023e 80a6 943d 5442 93be
00000220: 2fef 543d 9dd5 66be 8a01 56be 55de bfbd
00000230: c3e5 a43d ac46 6a3e ae92 8ebe 1052 213e
00000240: 1a21 ff3c cfb7 39be 2388 4dbe 754b 773e
00000250: 58f8 e3bd 869c d43d 2827 e13c 00d3 113c
00000260: 0469 4abe 12ec 0ebe 0b40 813e 6874 fb3d
00000270: 50a2 8abe ccd3 1e3e 2849 b93b f71e 5fbe
00000280: 71a5 72be 4027 77bd 15c8 613d dca2 763e
00000290: 40a4 67bd 5fd4 2f3e 86da 80be b159 fdbd
000002a0: d9d7 7ebe e1bd 513e 049e 20be fb97 143c
000002b0: 48a6 e03d f6d6 89be 3283 65be 5381 1fbe
000002c0: 3707 723d da05 a2bd 7808 e53d b8f3 61be
000002d0: d615 8fbe 6554 5dbd b778 41bd e2c2 0a3e
000002e0: 2c53 ea3d d35a 3e3e 3a0b 333e 4b8a 0b3e
000002f0: 0efc 0dbe a82e 03be dc44 d43d b08e 44be
00000300: 54bb e13d e326 ee3d 26a7 fdbd 2e53 b2be
00000310: 0bb9 293e 94fd 8bbe 6b27 3cbe e616 d53d
00000320: 2f87 d1bd a606 053d f072 b7bd 6c3d 38be
00000330: 52b7 163e ece9 603e 7d88 403e 3335 893c
00000340: ed60 08be 8855 3fbe d574 0ebc d2ff d5bd
00000350: 7725 a63d fe7c 373d df53 b53c ad33 07be
00000360: 9362 0fbe 1bcd 43be b981 0c3e 2266 3fbd
00000370: b26c cebd 45d8 1f3e fccc 2ebe 336b b33d
00000380: 1bf8 58bd 0a38 5cbe 38ee c53d 3fbc 223e
00000390: d49e 24be ebfd 483e 6748 263e f1a3 353e
000003a0: 6adb 1f3e 449b c9bd 1171 023d a207 593e
000003b0: 39e1 3d3c 9ad4 e03d ad13 553d 3a66 bfbd
000003c0: c145 c7bd 536d 833d 206a 4a3e 2873 a9bd
000003d0: bc3e 8dbd 2222 fc3d 499d 92be 949c 283d
000003e0: 5dd2 38bd b622 0fbe a847 bebd 7f21 0abd
000003f0: 34f9 81bd 77fd 84be cb72 83be 6568 443e
-0.02576537 0.030296624 0.17005894 -0.015172422 -0.041636683 0.22031961 0.20003876 -0.1404227
0.12647326 -0.07434459 -0.24680543 0.07166584 0.13991849 0.067067355 0.037514813 0.02540253
0.26168865 -0.21366975 -0.2652998 -0.24767816 -0.02393164 -0.02903665 -0.1857914 -0.13383484
0.023341255 0.15025412 -0.17029022 0.16403273 0.056044813 -0.23639101 0.10797229 0.09212865
-0.22638321 0.24529707 -0.036668077 -0.23692103 0.1647191 -0.2643289 -0.06994301 0.23347628
-0.083284095 0.091705285 0.18350425 0.21001954 -0.08909775 -0.051270787 0.13609922 0.003986815
-0.26853144 0.02909109 -0.18566012 0.20552932 0.17252296 -0.036324747 -0.111168854 -0.20040283
-0.15460879 -0.10193516 -0.12877573 -0.24043572 0.17898732 0.11442578 -0.053026993 -0.026003743
-0.2731135 -0.06674366 0.11308065 -0.177667 0.032492824 -0.0057537006 0.10955009 0.1447464
0.14941669 0.16228124 0.23168898 -0.10971701 -0.054298487 0.19740175 0.06816025 0.20628421
-0.225187 -0.11250233 0.22507308 -0.06189585 -0.058875985 0.18842764 0.22286172 -0.12579396
0.11972123 0.19351476 -0.09356534 0.12504266 -0.09116413 -0.24865258 -0.136549 -0.021256736
0.0009197425 -0.158895 0.04137815 -0.13943271 -0.048989113 0.20054027 -0.04313275 0.05521621
-0.016730541 -0.23734921 -0.12359862 0.23494972 0.22203076 -0.094678566 -0.07725783 -0.05951715
-0.0008832811 0.12503232 0.040974118 0.09530738 0.0028476077 -0.07618512 -0.053217396 0.21854396
0.015405938 -0.15659802 0.05964526 0.13162355 0.16359545 -0.27445817 -0.26772794 -0.077887475
0.123139314 0.048136294 -0.11230835 -0.24848571 -0.012280566 0.1269711 0.0725832 -0.28761542
0.051985916 -0.22542424 -0.20899025 -0.09368578 0.08051636 0.22878522 -0.27846283 0.1575396
0.031143714 -0.18136524 -0.20071463 0.24149878 -0.11131352 0.10381417 0.027484491 0.008900404
-0.19766623 -0.13957241 0.25244173 0.12278062 -0.2707696 0.15510482 0.005654473 -0.21789156
-0.23695923 -0.060340166 0.055122454 0.24085563 -0.056553125 0.17170857 -0.2516672 -0.12370623
-0.24887027 0.2048259 -0.15685278 0.009069438 0.10969216 -0.26921815 -0.22413328 -0.15576677
0.05908891 -0.07911272 0.11183256 -0.22065628 -0.27946347 -0.054035563 -0.047234263 0.13550904
0.11441645 0.18589334 0.17484751 0.13626973 -0.13865682 -0.12810767 0.103646964 -0.19195056
0.11022058 0.11628511 -0.12385397 -0.34829086 0.16574495 -0.27341902 -0.18374412 0.10404758
-0.10230862 0.032477044 -0.089574695 -0.1799218 0.14718369 0.21964234 0.18802066 0.016749
-0.13318224 -0.18684971 -0.008694847 -0.104491845 0.081126146 0.044796936 0.02213472 -0.13203306
-0.14002447 -0.1912121 0.1372136 -0.04672826 -0.10079326 0.15609844 -0.17070383 0.08760681
-0.052970987 -0.21505752 0.09664577 0.15892123 -0.16076213 0.19628112 0.16238557 0.1773832
0.15611044 -0.09844068 0.03184611 0.21194318 0.011589342 0.109780505 0.052020717 -0.0934567
-0.097301014 0.06417336 0.19767046 -0.082739174 -0.06896731 0.12311198 -0.28635624 0.04116495
-0.045122493 -0.13978085 -0.09291011 -0.03372335 -0.0634636 -0.25974628 -0.25673518 0.19180448

target_model.2.bias f4 [16]
00000000: 5d9c d6bd ffe9 51bd c449 b33d eb5b 4ebc
00000010: c9a6 b1bd db1f ba3d 73b3 423c 31cb e9bb
00000020: b967 0abe 34e0 bbbc 5300 513d 33b1 0ebe
00000030: dc90 30bc 4534 e5bd d9f7 d8bb 3839 963d
-0.10479043 -0.051248547 0.08754304 -0.012595157 -0.0867439 0.09088107 0.011883604 -0.007134818
-0.1351613 -0.022934057 0.0510257 -0.13934784 -0.010776725 -0.1119161 -0.0066213426 0.07335132
